ckpt/ckpt-t-cr3-deepsc-t18db-rayleigh.pth (torch, 766247 bytes, 46 tensors)

conv1.weight f4 [16, 3, 3, 3]
0.08630514 0.109578095 0.1824526 -0.11128959 0.23784481 -0.11759244 -0.06296846 -0.06488775
-0.060202807 0.0049057263 -0.10630278 0.02935317 -0.07215508 0.17921649 -0.116532 -0.016560843
-0.056670435 0.010117862 -0.022574583 -0.19550872 -0.08079263 0.053668547 0.25967252 -0.061868172
0.053906802 0.051271453 0.047610067 -0.06396938 -0.16818109 -0.1316979 -0.14426029 -0.176193
-0.1430841 -0.023573907 0.12538303 -0.03174981 -0.032469183 -0.084864944 -0.110036105 -0.14858338
-0.08069431 -0.071569346 -0.013547411 0.06935509 -0.03245797 0.086722486 0.062736645 0.048583698
0.028056037 -0.07879567 0.07387561 0.045215096 0.12996395 0.01180781 -0.013553861 -0.024551021
0.014890289 -0.05823519 0.0070625627 -0.0106179165 -0.07171604 0.074579075 -0.054236896 -0.0013911485
0.011899314 0.0028155828 -0.059801392 0.18502116 0.13352671 -0.041508302 0.10465833 0.006357312
-0.055177942 -0.011029495 0.07185239 -0.061191462 0.4406616 0.45466697 -0.12179135 0.15030152
0.07748442 0.05925235 0.14698544 0.1517381 0.21178806 0.20826915 0.20012337 -0.0016994677
-0.118537135 0.017570745 0.035028398 0.14788036 0.10831074 0.15105665 0.14692478 0.07796746
-0.00048236843 -0.06668459 0.024627477 -0.1258615 -0.050604563 -0.087339915 -0.003970667 0.04679585
-0.06014822 -0.055877324 -0.13546881 -0.041256417 0.016851015 -0.0033423593 -0.057119366 0.12282707
0.031213438 -0.028753316 -0.0330642 -0.08109809 -0.020035343 0.03156005 0.031470772 0.011673947
0.20101742 0.064385585 -0.030074399 0.0023326273 -0.042310756 -0.0733109 0.11156509 0.23691751
0.016707739 0.50015056 0.26725838 0.0501744 0.03876073 -0.032585017 0.020795602 0.033198435
-0.040863127 0.027713787 -0.035398267 -0.29926407 -0.08882907 0.09217173 0.16862027 0.16092993
0.01717758 -0.020940494 0.0928785 -0.08589325 -0.18288396 -0.09408898 0.04193737 0.14092278
0.13168624 0.0054978784 -0.03790818 -0.08176069 -0.07057796 -0.0037540202 -0.11647557 0.00058268587
0.28455314 -0.019436784 -0.108025685 0.10377786 -0.20732945 0.14007828 0.15383284 -0.094946116
0.011589414 0.036699712 0.007483114 -0.21102779 0.012066141 -0.2472371 -0.054018196 0.06648364
-0.089331165 -0.04266158 -0.027152097 -0.012435079 -0.39345032 -0.080162734 -0.20706001 -0.05821254
0.00594206 -0.044034228 0.029865295 -0.0227609 0.040607877 -0.045500796 0.004963761 0.0010535205
0.09167144 0.118699305 0.13827965 0.10899802 -0.21780834 -0.09809956 -0.04830914 0.061915737
-0.0025780038 0.080282934 0.0073202555 0.10129671 0.17345743 -0.15991102 -0.10241631 0.033599656
0.07349788 -0.05504413 -0.055792704 -0.058575567 -0.19644357 0.01766019 -0.26109815 -0.30905247
-0.023944383 0.071196094 0.021139305 -0.093257226 0.071804546 0.03072582 -0.00023269196 0.06680468
0.034285594 -0.10497649 0.03733158 -0.00036861608 -0.27172065 -0.017158495 0.0045120376 -0.1034356
-0.009711952 -0.025712937 0.049390115 -0.06303961 -0.01613656 -0.6571307 -0.1734676 -0.101875186
-0.09516317 -0.109014854 0.0022898552 -0.010152225 0.027806455 0.025301732 -0.10455343 -0.027032556
0.04025598 0.0062955827 0.05446219 0.029249376 -0.05743401 -0.060153272 0.031916834 -0.163397
00000000: c0c0 b03d 7b6a e03d dbd4 3a3e cceb e3bd
00000010: 978d 733e 4ed4 f0bd 9cf5 80bd dee3 84bd
00000020: 3897 76bd 37c0 a03b 46b5 d9bd 0f76 f03c
00000030: 0bc6 93bd 8784 373e 54a8 eebd 9baa 87bc
00000040: 421f 68bd 64c5 253c 55ee b8bc 7033 48be
00000050: 9b76 a5bd 8dd3 5b3d ccf3 843e 7b69 7dbd
00000060: 61cd 5c3d 0402 523d c602 433d 6102 83bd
00000070: aa37 2cbe d0db 06be f8b8 13be f06b 34be
00000080: a384 12be 111e c1bc 6964 003e 170c 02bd
00000090: 68fe 04bd accd adbd 9c5a e1bd 3e26 18be
000000a0: 0f43 a5bd f392 92bd f6f5 5dbc 0b0a 8e3d
000000b0: a6f2 04bd 8f9b b13d 127c 803d b3ff 463d
000000c0: c6d5 e53c a05f a1bd 194c 973d 7733 393d
000000d0: 4515 053e 8b75 413c 0311 5ebc 391f c9bc
000000e0: 66f6 733c 0688 6ebd 126d e73b c5f6 2dbc
000000f0: dcdf 92bd eabc 983d 8227 5ebd 3357 b6ba
00000100: 57f5 423c a485 383b 4ef2 74bd 3076 3d3e
00000110: 3abb 083e 9c04 2abd 1b57 d63d 0051 d03b
00000120: 4402 62bd 0eb5 34bc 5927 933d e6a3 7abd
00000130: 669e e13e 1cca e83e be6d f9bd a4e8 193e
00000140: 27b0 9e3d 98b2 723d 5a83 163e 3c61 1b3e
00000150: f8de 583e 8244 553e 24ed 4c3e acc0 deba
00000160: 99c3 f2bd 86f0 8f3c f079 0f3d f36d 173e
00000170: 05d2 dd3d 98ae 1a3e 7373 163e 67ad 9f3d
00000180: 65e6 fcb9 ee91 88bd 90bf c93c d6e1 00be
00000190: bb46 4fbd 45df b2bd 5e1c 82bb 01ad 3f3d
000001a0: fb5d 76bd 9fdf 64bd 56b8 0abe 7dfc 28bd
000001b0: 240b 8a3c 7c0b 5bbb fff5 69bd c28c fb3d
000001c0: 53b3 ff3c 138c ebbc 546e 07bd c116 a6bd
000001d0: 2921 a4bc 1c45 013d 7fe7 003d 1544 3f3c
000001e0: 83d7 4d3e 97dc 833d 965e f6bc fede 183b
000001f0: 0b4e 2dbd 0624 96bd 3d7c e43d 819a 723e
00000200: abde 883c de09 003f 17d6 883e ac83 4d3d
00000210: 92c3 1e3d de77 05bd 8a5b aa3c 15fb 073d
00000220: 1860 27bd 0608 e33c c6fd 10bd 2439 99be
00000230: 04ec b5bd 88c4 bc3d cbaa 2c3e d1ca 243e
00000240: ffb7 8c3c 668b abbc 1537 be3d cde8 afbd
00000250: ef45 3bbe b9b1 c0bd 85c6 2b3d 104e 103e
00000260: c2d8 063e 8c27 b43b 9c45 1bbd 2672 a7bd
00000270: 2d8b 90bd 0206 76bb be8a eebd 63bf 183a
00000280: f3b0 913e e439 9fbc 923c ddbd 7d89 d43d
00000290: 2c4e 54be ae70 0f3e 5b86 1d3e 1c73 c2bd
000002a0: 87e1 3d3c 7052 163d e934 f53b ab17 58be
000002b0: 10b1 453c b92b 7dbe 2f42 5dbd 9328 883d
000002c0: 42f3 b6bd e9bd 2ebd 136e debc 80bc 4bbc
000002d0: 5272 c9be 5c2c a4bd 8a07 54be 4670 6ebd
000002e0: 9db5 c23b 3c5d 34bd 10a8 f43c 1175 babc
000002f0: 7254 263d 0b5f 3abd 0ca7 a23b 4816 8a3a
00000300: 3cbe bb3d 9f18 f33d 2e99 0d3e 5b3a df3d
00000310: 2609 5fbe 6ce8 c8bd cedf 45bd 5b9b 7d3d
00000320: baf3 28bb 616b a43d c1de ef3b a674 cf3d
00000330: d39e 313e b7bf 23be a4bf d1bd cb9f 093d
00000340: 0e86 963d f475 61bd e486 64bd efec 6fbd
00000350: 8128 49be 1aac 903c a8ae 85be 203c 9ebe
00000360: 0327 c4bc 42cf 913d 562c ad3c a5fd bebd
00000370: 430e 933d b7b4 fb3c c6fe 73b9 e4d0 883d
00000380: 0d6f 0c3d eafd d6bd 00e9 183d d042 c1b9
00000390: f81e 8bbe f98f 8cbc b7d9 933b 0bd6 d3bd
000003a0: e11e 1fbc f0a3 d2bc 4a4d 4a3d e91a 81bd
000003b0: d230 84bc b839 28bf 7ea1 31be f0a3 d0bd
000003c0: e8e4 c2bd 2e43 dfbd 6511 163b 8555 26bc
000003d0: 5dca e33c 9445 cf3c 1c20 d6bd 6173 ddbc
000003e0: 74e3 243d 2d4b ce3b bf13 5f3d 639c ef3c
000003f0: ed3f 6bbd 4763 76bd 3abb 023d 8b51 27be

bn1.weight f4 [16]
0.11829719 0.20901975 0.18146506 0.22002898 0.23044126 0.13719265 0.17615385 0.15304531
0.26187614 0.2055176 0.18836084 0.18766642 0.18426017 0.21685624 0.06045802 0.24511455
00000000: cc45 f23d 4609 563e fad1 393e 474f 613e
00000010: cbf8 6b3e 3b7c 0c3e ad61 343e e9b7 1c3e
00000020: a114 863e 3573 523e aae1 403e a02b 403e
00000030: b3ae 3c3e 900f 5e3e d4a2 773d 4fff 7a3e

bn1.bias f4 [16]
0.31309634 0.059003517 0.06438394 -0.060828947 -0.18880446 0.069348335 0.34838015 -0.10526256
-0.088534325 0.16910797 0.027542446 0.098490894 0.073901966 -0.11421466 0.05012034 -0.034853935
00000000: 2a4e a03e acad 713d badb 833d c627 79bd
00000010: f555 41be 8006 8e3d e25e b23e e693 d7bd
00000020: 7c51 b5bd a42a 2d3e b2a0 e13c 98b5 c93d
00000030: ea59 973d 60e9 e9bd fc4a 4d3d 00c3 0ebd

bn1.running_mean f4 [16]
0.08017961 -0.4193073 0.51724744 0.4892515 0.59791845 -0.0068347296 -0.55581313 -0.24408714
-0.6473347 -0.51820344 0.44669035 0.22718272 -0.006399782 -0.233953 0.011252295 -0.42327818
00000000: 3535 a43d 72af d6be 546a 043f 2c7f fa3e
00000010: 2f11 193f def5 dfbb c549 0ebf fbf1 79be
00000020: bab7 25bf fba8 04bf 99b4 e43e 96a2 683e
00000030: 43b5 d1bb 6091 6fbe 8c5b 383c ebb7 d8be

bn1.running_var f4 [16]
0.003888131 0.047900576 0.0946366 0.0655797 0.122875206 0.015925413 0.10573129 0.039623074
0.14220022 0.09147844 0.07029403 0.018993953 0.013247216 0.01977543 0.0032059206 0.061409384
00000000: 03d0 7e3b 6533 443d d5d0 c13d a64e 863d
00000010: ffa5 fb3d 0376 823c a689 d83d ce4b 223d
00000020: ef9c 113e 0c59 bb3d 51f6 8f3d 3599 9b3c
00000030: da0a 593c 1500 a23c 6c1a 523b 6888 7b3d

conv2.weight f4 [64, 16, 3, 3]
-0.05667028 -0.020670421 -0.0067679263 -0.10533712 0.07318261 0.045248028 -0.06801994 0.1323837
-0.092532 -0.097260006 0.028550966 -0.07506065 -0.017879026 0.10969109 0.025990827 -0.031036668
0.044424776 -0.063366026 -0.078184485 -0.004296005 0.006022831 -0.005814759 0.21646053 0.013133107
-0.10084628 0.17496279 0.020591898 0.098765165 0.023111748 0.06863609 -0.008763231 -0.08063621
-0.014257375 -0.027600784 -0.08296537 -0.10440968 -0.0566353 -0.09452477 -0.09771588 -0.06939101
-0.057666454 0.11179858 -0.08797065 0.06948201 0.20699093 -0.09262329 -0.015946738 -0.0171935
-0.050969876 0.07169678 0.02647569 0.020622045 0.09793179 0.011036947 -0.01428262 0.1165949
0.06798589 0.014962585 0.09400402 0.0312184 0.03145972 -0.027282549 -0.07615053 0.2299702
-0.01316631 0.054456107 0.19684426 -0.28759712 0.03667423 0.027354913 -0.13593277 -0.04903726
-0.121893 -0.006369286 -0.045246914 -0.010216379 -0.11623929 -0.18649332 -0.10660132 -0.14506891
-1.0784137 0.024374401 0.044183504 0.079770796 0.032129522 -0.043553896 -0.28991282 0.12889221
-0.20793952 -0.5521927 -0.023669602 0.0035153436 -0.09773636 0.022802133 -0.029097721 -0.10914275
-0.048948627 0.00424382 -0.08633404 -0.023389352 -0.034840867 0.09697973 0.08335954 -0.0072327796
0.023287168 -0.011965744 0.07968631 0.013106204 -0.0063310075 0.009441707 -0.03958742 -0.10895533
-0.0935121 0.008385339 -0.091038086 -0.015659466 0.09339659 0.039105725 0.08181945 -0.014954321
-0.0014393228 0.048791297 0.066855066 0.116295576 0.01133349 -0.0020496915 0.09997442 -0.047423113
-0.13920154 -0.0116231935 -0.16685008 -0.12909837 -0.17128736 -0.06106378 -0.12987387 0.034885574
0.012756311 0.013651614 -0.014039383 -0.039534014 -0.08668422 -0.01102912 -0.05339411 -0.1443345
-0.0539886 0.0048281215 0.006845854 -0.041616533 -0.0005784549 0.011576497 -0.14205742 0.0826097
0.09458882 0.037572004 0.103286155 -0.041784476 0.1571189 0.02064197 -0.061333764 0.21468467
-0.0018163342 -0.28961694 -0.056126993 -0.07918129 0.07991318 -0.071831025 0.1158944 0.06278847
0.025132986 -0.009480211 0.024909848 0.00062423485 -0.0065882485 0.013257078 -0.13082334 0.039969675
0.050912756 -0.24549651 0.02864338 0.2575913 0.032924462 -0.041083153 -0.17988147 -0.0071283905
-0.12246671 -0.08179835 -0.008371151 -0.09969573 0.034711473 -0.0310332 0.024171203 -0.011608719
-0.060962792 -0.09935346 0.10693887 0.0372855 -0.09782608 -0.06981007 -0.05735369 -0.055502664
-0.032210674 0.11163461 -0.23557755 -0.059105832 -0.034374494 -0.37610275 -0.051308557 0.036561087
0.12547421 -0.107891865 -0.19908091 -0.02151641 -0.0640644 -0.15332748 0.05402526 0.030114183
-0.011494092 -0.04802936 0.02487108 -0.016030395 0.037581466 0.15199755 -0.12628107 0.01783375
0.12201115 0.030218778 0.05520084 0.06413289 0.06353457 0.049596805 0.09493088 0.06943697
0.013116659 0.048555747 0.047721975 -0.003907963 0.09740836 -0.055547055 -0.20544152 0.1817234
0.045872297 -0.11733433 0.018342111 -0.014811282 0.09483073 -0.028840268 -0.20335644 -0.024183527
0.21010132 -0.1253804 -0.090090424 0.10666865 -0.0993645 -0.13584973 -0.053432364 0.36561275
00000000: 181f 68bd 0455 a9bc 7bc5 ddbb fdba d7bd
00000010: c4e0 953d ff55 393d 0a4e 8bbd 988f 073e
00000020: 6b81 bdbd 4130 c7bd b7e3 e93c 66b9 99bd
00000030: 0977 92bc b9a5 e03d b7ea d43c 9c40 febc
00000040: c1f6 353d 0cc6 81bd 301f a0bd 80c5 8cbb
00000050: 2b5b c53b bc89 bebb d4a7 5d3e 3e2c 573c
00000060: 7f88 cebd 7229 333e 57b0 a83c 6445 ca3d
00000070: d954 bd3c 1491 8c3d a893 0fbc 9924 a5bd
00000080: c497 69bc 0a1b e2bc bfe9 a9bd bed4 d5bd
00000090: 6bfa 67bd 3496 c1bd 431f c8bd e01c 8ebd
000000a0: a933 6cbd a7f6 e43d f529 b4bd 964c 8e3d
000000b0: 6ef5 533e 48b1 bdbd bca2 82bc 62d9 8cbc
000000c0: cac5 50bd c3d5 923d 8ce3 d83c 90ef a83c
000000d0: 7690 c83d 50d4 343c a601 6abc 4fc9 ee3d
000000e0: 303c 8b3d a125 753c 2e85 c03d bbbd ff3c
000000f0: e8db 003d a77f dfbc cff4 9bbd 4f7d 6b3e
00000100: 82b7 57bc 5e0d 5f3d 8b91 493e ee3f 93be
00000110: b837 163d 6917 e03c f631 0bbe 4bdb 48bd
00000120: 0aa3 f9bd 72b5 d0bb d454 39bd 9962 27bc
00000130: dd0e eebd 1bf8 3ebe cb51 dabd f28c 14be
00000140: 7609 8abf d3ac c73c c3f9 343d df5e a33d
00000150: 3f9a 033d 9265 32bd 746f 94be 52fc 033e
00000160: 19ee 54be 805c 0dbf c1e6 c1bc ae61 663b
00000170: 002a c8bd 8acb ba3c 585e eebc 3c86 dfbd
00000180: 5b7e 48bd be0f 8b3b e7cf b0bd 079b bfbc
00000190: 4cb5 0ebd 4f9d c63d 68b8 aa3d f400 edbb
000001a0: bbc4 be3c f80b 44bc 9332 a33d 67bb 563c
000001b0: 5774 cfbb 64b1 1a3c 6b26 22bd f923 dfbd
000001c0: 4683 bfbd a962 093c 2d72 babd 4848 80bc
000001d0: b646 bf3d 532d 203d f590 a73d f802 75bc
000001e0: a9a7 bcba 62d9 473d 4feb 883d 602c ee3d
000001f0: 1ab0 393c 1e54 06bb 64bf cc3d bd3e 42bd
00000200: d98a 0ebe 356f 3ebc bfda 2abe 5d32 04be
00000210: f465 2fbe 041e 7abd a8fd 04be 2de4 0e3d
00000220: d9ff 503c 05ab 5f3c 7105 66bc 6bee 21bd
00000230: 7f87 b1bd 7bb3 34bc c8b3 5abd 6ccc 13be
00000240: 2623 5dbd 3835 9e3b 3053 e03b 1976 2abd
00000250: 74a3 17ba 59ab 3d3c 8077 11be 462f a93d
00000260: c9b7 c13d 1ae5 193d b187 d33d 3326 2bbd
00000270: c7e3 203e 5919 a93c 1d39 7bbd 4cd6 5b3e
00000280: 1012 eeba ac48 94be 6be5 65bd cd29 a2bd
00000290: 85a9 a33d 251c 93bd 0b5a ed3d 3e97 803d
000002a0: b1e3 cd3c e352 1bbc bd0f cc3c b1a3 233a
000002b0: 3ce2 d7bb 3734 593c 8ef6 05be 3eb7 233d
000002c0: e589 503d 7063 7bbe 86a5 ea3c 02e3 833e
000002d0: cddb 063d cf46 28bd d932 38be 4695 e9bb
000002e0: d4cf fabd e585 a7bd 2727 09bc 462d ccbd
000002f0: 9e2d 0e3d 5639 febc b002 c63c 7f32 3ebc
00000300: 1fb4 79bd d479 cbbd c402 db3d aeb8 183d
00000310: 0a59 c8bd 95f8 8ebd b4eb 6abd c356 63bd
00000320: 57ef 03bd b0a0 e43d 3e3b 71be f518 72bd
00000330: 45cc 0cbd 8a90 c0be ec28 52bd 14c1 153d
00000340: 507c 003e 69f6 dcbd dedb 4bbe 2f43 b0bc
00000350: 3234 83bd e101 1dbe 9749 5d3d 05b2 f63c
00000360: b751 3cbc 6fba 44bd 6fbe cb3c 2d52 83bc
00000370: 06ef 193d 3fa5 1b3e d34f 01be 1618 923c
00000380: fbe0 f93d 5f8d f73c 471a 623d 1b58 833d
00000390: 6a1e 823d 0526 4b3d 1f6b c23d f834 8e3d
000003a0: 41e7 563c 64e2 463d 1e78 433d 5f0e 80bb
000003b0: 097e c73d 4f85 63bd 435f 52be b315 3a3e
000003c0: 97e4 3b3d fb4c f0bd 3242 963c 05ab 72bc
000003d0: 9d36 c23d 6d42 ecbc ac3c 50be 881c c6bc
000003e0: cd24 573e b863 00be 5481 b8bd 1875 da3d
000003f0: 9d7f cbbd 311c 0bbe e5db 5abd 9831 bb3e

bn2.weight f4 [64]
0.12706783 0.134884 0.085347466 0.084666364 0.16199891 0.10598575 0.20092519 0.13140894
0.09312336 0.07724068 0.081292294 0.08083005 0.23908441 0.13348264 0.07033035 0.18042435
0.07185288 0.13791572 0.24574712 0.17800294 0.15059793 0.14930059 0.09199727 0.16404895
0.10368917 0.16036794 0.20215604 0.12644964 0.17126746 0.16458139 0.17853425 0.14748059
0.20275626 0.12835476 0.20116168 0.12019207 0.1760553 0.12649776 0.20930439 0.07877332
0.06440389 0.1772257 0.19213209 0.16225445 0.22959577 0.0674065 0.19126824 0.15720586
0.07461341 0.16068164 0.17509143 0.14679518 0.15903717 0.08505261 0.0784268 0.19255058
0.08231366 0.07314488 0.08650544 0.104500055 0.19939397 0.21137758 0.22477563 0.15242681
00000000: 121e 023e 081f 0a3e a7ca ae3d 8f65 ad3d
00000010: 0be3 253e 0f0f d93d 55bf 4d3e 1190 063e
00000020: 76b7 be3d 5d30 9e3d 937c a63d 3a8a a53d
00000030: 8bd2 743e acaf 083e 5c09 903d 29c1 383e
00000040: 9a27 933d c739 0d3e 22a5 7b3e 6746 363e
00000050: 5836 1a3e 41e2 183e 1169 bc3d 73fc 273e
00000060: fd5a d43d 7e37 243e fe01 4f3e 047c 013e
00000070: bd60 2f3e 0688 283e afd1 363e 2705 173e
00000080: 569f 4f3e 6e6f 033e 54fd 4d3e 4327 f63d
00000090: d747 343e a188 013e e453 563e e853 a13d
000000a0: 30e6 833d a77a 353e 46be 443e 0826 263e
000000b0: 271b 6b3e 6b0c 8a3d d2db 433e 93fa 203e
000000c0: eace 983d ba89 243e 2b4b 333e 7a51 163e
000000d0: a4da 223e 1030 ae3d 3b9e a03d fb2b 453e
000000e0: 1094 a83d fccc 953d c429 b13d 2004 d63d
000000f0: ef2d 4c3e 5d73 583e 952b 663e c615 1c3e

bn2.bias f4 [64]
0.0065366863 0.03969371 0.07840051 0.017190007 0.0016747804 0.0019363802 -0.22504537 -0.015824383
-0.04898733 0.027229747 0.053686205 0.053918455 -0.012922032 -0.059278246 0.008436255 -0.239226
0.064366765 0.06035493 -0.4009277 -0.36092588 -0.2736201 -0.016148364 -0.042631436 0.0035245982
-0.00047062128 0.015118458 -0.2644616 -0.0649059 -0.016161622 0.02736129 -0.30041832 0.04296908
-0.11067965 0.041419506 0.015249838 -0.13290341 -0.0787967 -0.0842477 -0.15470538 0.04409676
0.07851057 -0.42775437 -0.24992108 0.10744921 -0.057336412 0.094813816 0.0263032 0.35582036
0.060793452 -0.20876472 -0.20999375 0.04957608 -0.16999881 0.008792815 0.09868678 0.03288377
0.05246078 0.06697103 0.04604064 -0.028967097 -0.22537126 -0.04419147 -0.13042353 -0.022372743
00000000: b331 d63b df95 223d 7290 a03d 0fd2 8c3c
00000010: 4e84 db3a 23ce fd3a 4b72 66be 23a2 81bc
00000020: f0a6 48bd eb10 df3c 11e6 5b3d 99d9 5c3d
00000030: eeb6 53bc bfcd 72bd 3838 0a3c a9f7 74be
00000040: b9d2 833d bb36 773d 6546 cdbe 47cb b8be
00000050: ef17 8cbe 9349 84bc 4d9e 2ebd f2fc 663b
00000060: b8bd f6b9 69b3 773c 8367 87be 62ed 84bd
00000070: 6165 84bc c924 e03c 6ed0 99be 5900 303d
00000080: 03ac e2bd 80a7 293d 75da 793c d517 08be
00000090: 2a60 a1bd 0f8a acbd 166b 1ebe ce9e 343d
000000a0: 26ca a03d 9f02 dbbe 50eb 7fbe 550e dc3d
000000b0: 96d9 6abd bf2d c23d cf79 d73c 162e b63e
000000c0: 8e02 793d 6bc6 55be 9a08 57be 4a10 4b3d
000000d0: 2b14 2ebe bd0f 103c 4b1c ca3d 22b1 063d
000000e0: 1de1 563d 1b28 893d 1c95 3c3d 684c edbc
000000f0: b9c7 66be 1d02 35bd bf8d 05be 0b47 b7bc

bn2.running_mean f4 [64]
-0.18053174 -0.12371399 -0.014701246 0.5309651 0.044711288 -0.6174137 0.6267922 -0.7297287
-0.120604806 -0.03822891 0.317902 -0.40772113 -0.08620836 0.2855472 0.8155007 0.31279188
-0.03308507 0.00047048478 -0.0037750895 0.3628437 0.35603982 0.27690652 0.2263632 -0.1325957
-0.5999666 -0.4582524 -0.08581044 -0.29989284 -0.052460607 0.2482713 0.20738913 -0.20097165
-0.08377536 -0.6956697 0.27243957 0.0014462401 0.48658165 0.14210972 -0.34332857 0.039089415
-0.2388385 0.71991485 0.75834656 0.09560145 -0.28803682 0.22081219 -0.5161718 -0.67394483
0.12557064 0.0050547626 0.17057917 -0.089029886 0.090671584 0.46810752 0.11248835 0.07116016
0.2133931 0.38768873 -0.42741886 -0.1397592 0.4174601 0.43835214 0.06900437 -0.15097556
00000000: 50dd 38be c35d fdbd 7fdd 70bc 54ed 073f
00000010: 2f23 373d d30e 1ebf 7475 203f 80cf 3abf
00000020: a7ff f6bd eb95 1cbd 0dc4 a23e d3c0 d0be
00000030: 028e b0bd 3e33 923e a7c4 503f 4226 a03e
00000040: 3684 07bd 66ab f639 7e67 77bb a6c6 b93e
00000050: da4a b63e b1c6 8d3e c1cb 673e 2bc7 07be
00000060: 6997 19bf 0fa0 eabe 62bd afbd 8e8b 99be
00000070: efe0 56bd d53a 7e3e d15d 543e 83cb 4dbe
00000080: 6a92 abbd 6917 32bf 337d 8b3e c48f bd3a
00000090: 3b21 f93e 3685 113e c3c8 afbe 391c 203d
000000a0: 1492 74be 574c 383f 0023 423f b1ca c33d
000000b0: 9079 93be 971c 623e d623 04bf a687 2cbf
000000c0: 9795 003e 6ca2 a53b 4eac 2e3e 4d55 b6bd
000000d0: 06b2 b93d caab ef3e 4b60 e63d 6bbc 913d
000000e0: b983 5a3e 237f c63e a5d6 dabe 091d 0fbe
000000f0: 55bd d53e b16f e03e 2a52 8d3d 5699 1abe

bn2.running_var f4 [64]
0.11134075 0.03703402 0.0026087507 0.017777236 0.0339303 0.001747046 0.021077838 0.4636148
0.055018753 0.008784633 0.050646223 0.0037571553 0.20751114 0.07919597 0.0026347125 0.06984871
0.006095032 0.02183919 0.22096653 0.14876355 0.042066015 0.049881913 0.055435266 0.027966244
0.042213168 0.0015332078 0.29018006 0.009197711 0.047388036 0.03422592 0.23173684 0.026213627
0.2930649 0.051770706 0.15944567 0.11209723 0.024124803 0.02449597 0.40964466 0.031401288
0.0027429191 0.012427033 0.15429464 0.33774206 0.1971662 0.009018944 0.12313234 0.14405224
0.007106027 0.19171289 0.018018119 0.023417218 0.013498556 0.013506113 0.008920749 0.040553268
0.018104361 0.00970639 0.005468161 0.038262133 0.015800202 0.16357404 0.31208885 0.038291667
00000000: 9e06 e43d fcb0 173d 93f7 2a3b 91a1 913c
00000010: 80fa 0a3d 23fd e43a 6eab ac3c eb5e ed3e
00000020: 585b 613d 6ced 0f3c 6a72 4f3d 9b3a 763b
00000030: cd7d 543e 7f31 a23d 24ab 2c3b d70c 8f3d
00000040: d6b8 c73b 1ae8 b23c 0d45 623e 7955 183e
00000050: 6a4d 2c3d fa50 4c3d 1710 633d 7719 e53c
00000060: b7e7 2c3d ebf5 c83a 7b92 943e ffb1 163c
00000070: f519 423d 7a30 0c3d 6c4c 6d3e f6bd d63c
00000080: 9a0c 963e 850d 543d ba45 233e 3c93 e53d
00000090: 61a1 c53c c6ab c83c f2bc d13e a39e 003d
000000a0: 8cc2 333b c19a 4b3c 6aff 1d3e 87ec ac3e
000000b0: f0e5 493e 31c4 133c cf2c fc3d 6e82 133e
000000c0: add9 e83b 6250 443e bc9a 933c 77d5 bf3c
000000d0: 0c29 5d3c be48 5d3c 5528 123c 2f1b 263d
000000e0: 994f 943c 8d07 1f3c 422e b33b c1b8 1c3d
000000f0: 6d6f 813c f47f 273e 1cca 9f3e b9d7 1c3d

conv3.weight f4 [64, 64, 3, 3]
-0.052782703 -0.022436496 0.07477288 0.00033428264 0.0042758575 0.06645001 -0.17876676 0.0773949
0.07277722 0.021661386 -0.06921028 -0.1606156 0.052523226 0.044637486 -0.5627281 0.038969398
-0.16014604 -0.2833959 -0.0040618232 -0.021735495 -0.0102058025 -0.008691101 0.016861351 -0.09788157
0.0146889 0.07260417 0.02154299 0.071266636 -0.14877324 0.05120129 -0.007939712 0.019920941
0.050634142 0.30944934 0.18619408 0.18429363 0.026523298 -0.12723938 -0.020834882 -0.012408358
0.036008902 -0.13464849 0.04403504 -0.1774822 -0.04489545 0.069250055 0.04540235 0.026095223
-0.22355744 -0.13183343 -0.23645113 0.011841339 -0.07694426 0.1227751 0.041168194 0.11806239
0.011179701 -0.010089775 -0.124307305 -0.1555184 0.012875398 -0.15957044 0.026517935 -0.06755213
-0.09085194 0.0456656 -0.1419598 -0.14413749 0.043030187 -0.009423048 0.06578792 0.17933466
0.00669796 0.06093339 -0.23150195 -0.24978489 -0.010704301 -0.25370044 0.12270665 0.19541955
-0.17312622 -0.023733506 -0.05051934 -0.058436073 -0.036683172 0.22669588 -0.027880063 0.038375594
0.13245513 0.057077363 -0.022417564 -0.09216497 0.004590182 0.09318536 -0.20581764 -0.17543918
-0.05597297 -0.018846735 0.13897157 -0.064570464 0.115913205 -0.027161378 0.010224711 0.025686996
0.06192967 4.8477523e-06 -0.088131495 0.0369044 0.041601397 0.019718247 0.091110565 -0.12132319
-0.08970053 0.073050685 -0.03032937 -0.07084085 0.047180947 -0.031446252 -0.06683578 -0.047485556
-0.045140643 -0.2700044 0.021217762 -0.04166159 -0.17528681 0.06220816 0.020319838 -0.1304686
0.03827539 -0.09225428 0.061445776 0.0020762184 -0.06497448 -4.1638472e-05 -0.07418292 0.032228902
0.059920307 -0.010716741 0.054647595 -0.039097782 0.060996078 0.022647612 0.06340141 0.09715008
0.026090229 -0.13611329 -0.11081099 -0.21606581 0.026738465 -0.09755621 0.12059786 -0.10751999
-0.043330256 0.14525448 -0.10825909 0.05357534 -0.013798639 0.029776204 0.010509446 -0.049715497
-0.06366317 -0.0005503745 -0.04805634 -0.14912291 -0.034879196 -0.2681232 -0.014323888 -0.0026862787
-0.1534682 -0.15143812 0.024253583 -0.04221927 -0.13469943 -0.066001326 -0.088077866 0.21085998
0.4162701 -0.052476224 -0.018854463 0.18732819 0.058152534 0.029583115 0.009590917 -0.19747496
-0.32119116 -0.15820743 -0.05797953 -0.12193785 -0.006091385 -0.05952159 -0.06269703 -0.1210991
-0.16073284 -0.16361874 -0.15039314 0.043727465 -0.0001203819 -0.1200295 -0.046142135 0.03479119
-0.0576906 0.24362202 0.12815121 0.024097562 -0.06341151 0.11697756 0.0712475 -0.0077828304
0.099285215 0.06161207 0.009353563 -0.10335513 -0.052584898 -0.14491396 0.03629899 -0.20035058
-0.092057526 -0.09406648 -0.09639053 -0.017815517 0.0078086667 0.059834246 0.07554476 -0.04659688
-0.091657184 -0.037278924 0.027939826 -0.014612675 0.06234246 0.06793824 -0.15837355 -0.005319241
-0.0440805 0.024309628 0.08488004 0.0579775 0.05421049 0.073233865 0.14782618 0.054754205
0.109880835 0.2281533 0.120151766 -0.021841917 0.06412089 -0.04157606 -0.07602515 0.011627404
-0.015762102 0.07225005 -0.0567112 0.17567605 -0.05952604 -0.10245643 -0.08659394 -0.03716781
00000000: ad32 58bd becc b7bc 8622 993d a842 af39
00000010: 7e1c 8c3b f116 883d a20e 37be 3881 9e3d
00000020: 390c 953d 3873 b13c 1fbe 8dbd 6a78 24be
00000030: 9822 573d ccd5 363d f30e 10bf 609e 1f3d
00000040: 53fd 23be 4419 91be 0b19 85bb a30e b2bc
00000050: 3d36 27bc 1f65 0ebc d120 8a3c 2276 c8bd
00000060: b6a9 703c 7fb1 943d ed7a b03c 3ef4 913d
00000070: 0358 18be 72b8 513d 9115 02bc 3e31 a33c
00000080: bf65 4f3d 2570 9e3e a9a9 3e3e 78b7 3c3e
00000090: 6347 d93c 0a4b 02be eaad aabc 6d4c 4bbc
000000a0: 127e 133d 4be1 09be 165e 343d e5bd 35be
000000b0: 4be4 37bd f9d2 8d3d d1f7 393d a6c5 d53c
000000c0: 3eec 64be 58ff 06be 3f20 72be 2d02 423c
000000d0: f494 9dbd 8371 fb3d fb9f 283d b2ca f13d
000000e0: 112b 373c 954f 25bc d494 febd 3740 1fbe
000000f0: 55f3 523c 6f66 23be 243c d93c c558 8abd
00000100: 9510 babd da0b 3b3d e95d 11be c798 13be
00000110: 6c40 303d 2163 1abc d1bb 863d 81a3 373e
00000120: 907a db3b 4a95 793d d90e 6dbe 9cc7 7fbe
00000130: 1861 2fbc 06e5 81be a04d fb3d 101c 483e
00000140: 0048 31be c56c c2bc 5eed 4ebd aa5a 6fbd
00000150: 1841 16bd f722 683e bb64 e4bc ba2f 1d3d
00000160: 51a2 073e f4c9 693d 0aa5 b7bc fdc0 bcbd
00000170: 3d69 963b f7d7 be3d dcc1 52be 54a6 33be
00000180: ea43 65bd 7864 9abc 904e 0e3e 853d 84bd
00000190: e763 ed3d 8a81 debc 8c85 273c 896d d23c
000001a0: f7a9 7d3d e0a9 a236 497e b4bd 1129 173d
000001b0: 3a66 2a3d 2988 a13c 2d98 ba3d 4b78 f8bd
000001c0: e9b4 b7bd 999b 953d 4d75 f8bc 0215 91bd
000001d0: cf40 413d c9cd 00bd 33e1 88bd 3780 42bd
000001e0: 65e5 38bd 043e 8abe dfd0 ad3c 58a5 2abd
000001f0: 637e 33be fccd 7e3d ca75 a63c 9099 05be
00000200: a8c6 1c3d d0ef bcbd 91ae 7b3d 2a11 083b
00000210: 5711 85bd f8a4 2eb8 37ed 97bd 7402 043d
00000220: ff6e 753d 4595 2fbc 28d6 5f3d ff24 20bd
00000230: 06d7 793d 7c87 b93c 99d8 813d 9ff6 c63d
00000240: 2dbb d53c 4861 0bbe dff0 e2bd 5b40 5dbe
00000250: a00a db3c 8dcb c7bd 03fc f63d 7133 dcbd
00000260: 117b 31bd 97bd 143e f1b6 ddbd d171 5b3d
00000270: b013 62bc 3aed f33c d02f 2c3c 7aa2 4bbd
00000280: d661 82bd 0247 10ba bad6 44bd adb3 18be
00000290: 7ddd 0ebd 7247 89be beae 6abc 470c 30bb
000002a0: c526 1dbe 9812 1bbe 73af c63c 1dee 2cbd
000002b0: a6ee 09be b42b 87bd 2b62 b4bd aeeb 573e
000002c0: 5b21 d53e 4ff1 56bd ad74 9abc f6d2 3f3e
000002d0: 5a31 6e3d 4a58 f23c 3923 1d3c e036 4abe
000002e0: 2b73 a4be 2101 22be f27b 6dbd 8dba f9bd
000002f0: 3e9a c7bb e9cc 73bd 4d67 80bd ce02 f8bd
00000300: 2697 24be ac8b 27be a900 1abe 921b 333d
00000310: 8a75 fcb8 07d2 f5bd 89ff 3cbd 3581 0e3d
00000320: fb4c 6cbd 0d78 793e 123a 033e 4068 c53c
00000330: e5dd 81bd ee91 ef3d 36ea 913d 1d07 ffbb
00000340: 0c56 cb3d f05c 7c3d b03f 193c dbab d3bd
00000350: 4363 57bd 5364 14be 40ae 143d b428 4dbe
00000360: a888 bcbd eda5 c0bd 6668 c5bd d9f1 91bc
00000370: d8df ff3b c114 753d 36b7 9a3d 5fdc 3ebd
00000380: c3b6 bbbd c9b1 18bd 10e2 e43c 006a 6fbc
00000390: cf5a 7f3d 3423 8b3d ad2c 22be 074d aebb
000003a0: c18d 34bd fc24 c73c 96d5 ad3d d179 6d3d
000003b0: d20b 5e3d a3fb 953d bf5f 173e f245 603d
000003c0: 3409 e13d 05a1 693e 2112 f63d d2ed b2bc
000003d0: d051 833d a94b 2abd 13b3 9bbd de80 3e3c
000003e0: 861f 81bc d6f7 933d 014a 68bd 6ce4 333e
000003f0: 94d1 73bd add4 d1bd 2a58 b1bd 463d 18bd

bn3.weight f4 [64]
0.15246823 0.19740444 0.1913015 0.23613073 0.19883949 0.14370847 0.2294469 0.10686065
0.20152375 0.21799615 0.10106393 0.12057491 0.17342849 0.20983198 0.24260375 0.19535035
0.1728589 0.120617494 0.17813528 0.18521655 0.14495237 0.16481437 0.21757805 0.12906502
0.11246422 0.20085445 0.3570272 0.18462142 0.24565126 0.12156419 0.15524517 0.26153976
0.07939954 0.19970961 0.22540271 0.12546878 0.14998285 0.17858772 0.16790357 0.22623424
0.13518171 0.11469205 0.20668739 0.30089042 0.20374617 0.23289096 0.22807129 0.22139359
0.1731076 0.07757738 0.16777082 0.17370018 0.13191718 0.17474636 0.16799825 0.2019147
0.10417109 0.25519094 0.088840365 0.20453645 0.117868915 0.27337435 0.17949218 0.18491036
00000000: a220 1c3e 6424 4a3e 8ae4 433e 41cc 713e
00000010: 949c 4b3e 5028 133e 21f4 6a3e c2d9 da3d
00000020: 3e5c 4e3e 623a 5f3e 9bfa ce3d faef f63d
00000030: 3d97 313e 32de 563e 1e6d 783e ec09 483e
00000040: ec01 313e 4e06 f73d 1869 363e 68a9 3d3e
00000050: 656e 143e 19c5 283e c8cc 5e3e 9f29 043e
00000060: a453 e63d caac 4d3e 45cc b63e 660d 3d3e
00000070: 018c 7b3e a5f6 f83d 97f8 1e3e 8ae8 853e
00000080: 3a9c a23d ad80 4c3e f8cf 663e e37a 003e
00000090: 1b95 193e b3df 363e eaee 2b3e f3a9 673e
000000a0: 136d 0a3e aae3 ea3d dca5 533e 4f0e 9a3e
000000b0: d6a2 503e f87a 6e3e 858b 693e 00b5 623e
000000c0: 1e43 313e e4e0 9e3d 1dcc 2b3e 76de 313e
000000d0: 4c15 073e b6f0 323e bc07 2c3e bac2 4e3e
000000e0: a757 d53d 63a8 823e f0f1 b53d 0172 513e
000000f0: 4265 f13d b9f7 8b3e cccc 373e 2459 3d3e

bn3.bias f4 [64]
0.05282342 -0.0035954756 0.028987736 0.040073182 -0.06501586 0.12044491 -0.061493736 0.1967341
0.06580773 -0.14101045 0.26971394 0.30514014 0.060574815 0.023509247 -0.075407036 -0.18182302
-0.11284096 0.054741565 0.077325925 0.060654048 0.03854767 0.05667007 0.060265034 0.048383284
0.115199536 -0.44694486 -0.5450376 -0.1671323 -0.05816281 0.06429894 0.047807306 -0.20502529
0.089933716 0.066974215 -0.17773294 0.04566423 0.12801357 -0.020998085 0.033656377 0.11260436
0.04373134 0.13832688 0.03308951 -0.4529985 0.07933554 -0.08576429 -0.028351767 0.033058174
-0.41405302 0.11040955 -0.17828462 -0.11933612 0.016638689 0.10234923 0.06941088 -0.2735574
0.17918304 -0.034410667 0.09385069 0.14568086 0.1510329 -0.23853508 0.038941886 -0.17903872
00000000: 5f5d 583d 12a2 6bbb b077 ed3c c723 243d
00000010: 0927 85bd d2ab f63d dbe0 7bbd aa74 493e
00000020: 34c6 863d 0b65 10be f217 8a3e 543b 9c3e
00000030: 4c1d 783d 7796 c03c 016f 9abd d02f 3abe
00000040: 2919 e7bd b138 603d 0e5d 9e3d 6170 783d
00000050: 29e4 1d3d e01e 683d 78d8 763d 8d2d 463d
00000060: bced eb3d f5d5 e4be 9687 0bbf bb24 2bbe
00000070: 203c 6ebd 2aaf 833d 98d1 433d 26f2 51be
00000080: 2b2f b83d c729 893d a0ff 35be 6a0a 3b3d
00000090: fd15 033e 2d04 acbc 45db 093d 1d9d e63d
000000a0: a21f 333d 90a5 0d3e de88 073d 6bef e7be
000000b0: ac7a a23d 30a5 afbd f741 e8bc 0268 073d
000000c0: c2fe d3be 671e e23d 3e90 36be 7f66 f4bd
000000d0: dc4d 883c 799c d13d 4b27 8e3d b70f 8cbe
000000e0: c27b 373e 33f2 0cbd ca34 c03d 5d2d 153e
000000f0: 5ea8 1a3e 8a42 74be 8781 1f3d ed55 37be

bn3.running_mean f4 [64]
-0.2559295 -0.39399397 -0.21592033 -0.26046136 -0.49372944 -0.3995095 -0.034454163 -0.013385651
-0.43026838 0.0112859765 -0.15695791 -0.29184136 -0.058438357 -0.0012887629 0.22527772 -0.3823645
-0.34644678 -0.17318617 0.05272118 0.19933109 -0.09958815 -0.087253205 0.009261338 -0.08839265
0.014373091 -0.33488506 -0.11713502 -0.33597055 0.3935728 0.49078614 -0.22210965 0.24313949
-0.29634562 0.011643039 -0.34306026 -0.3924464 -0.07799088 -0.099912114 0.47983986 -0.065791816
-0.1870769 -0.17058216 -0.24189238 -0.2833516 -0.09355657 0.0005804629 -0.06365278 -0.041573502
-0.5354777 -0.39544505 -0.15078466 -0.2092558 -0.4243133 0.63667685 -0.33255023 -0.45905674
-0.41052622 0.042334307 -0.24443868 -0.25190946 -0.41364664 -0.65978134 -0.16938789 -0.42040998
00000000: 3109 83be 94b9 c9be 381a 5dbe 315b 85be
00000010: 1bca fcbe 828c ccbe cf1f 0dbd 7d4f 5bbc
00000020: 234c dcbe d1e8 383c 93b9 20be 3b6c 95be
00000030: 0f5d 6fbd b5eb a8ba 34af 663e 48c5 c3be
00000040: 7961 b1be b757 31be 2af2 573d 731d 4c3e
00000050: dff4 cbbd cfb1 b2bd debc 173c 3507 b5bd
00000060: 1d7d 6b3c 0e76 abbe 7ce4 efbd 5504 acbe
00000070: 6082 c93e 5248 fb3e b670 63be 8ff9 783e
00000080: 9dba 97be 72c2 3e3c 98a5 afbe bcee c8be
00000090: afb9 9fbd b99e ccbd 92ad f53e dcbd 86bd
000000a0: 1691 3fbe 17ad 2ebe a3b2 77be 7613 91be
000000b0: 969a bfbd 352a 183a 645c 82bd fa48 2abd
000000c0: 1115 09bf c677 cabe 4b67 1abe 2747 56be
000000d0: 983f d9be 41fd 223f 0644 aabe 7c09 ebbe
000000e0: 7e30 d2be bd66 2d3d 224e 7abe 47fa 80be
000000f0: 7ec9 d3be 6ee7 28bf 0574 2dbe fa3f d7be

bn3.running_var f4 [64]
0.056533284 0.19639145 0.10405766 0.53358215 0.17643145 0.027830755 0.40523818 0.02791283
0.09743711 0.37569866 0.026305811 0.043107852 0.10483497 0.42945012 0.7599324 0.039135877
0.1684291 0.04433947 0.08694896 0.48107332 0.05111664 0.079936266 0.11257672 0.077280596
0.03202561 0.0108853625 0.017199516 0.113459386 0.5819737 0.115587786 0.048466418 0.52921903
0.027173514 0.07941947 0.08584209 0.029110892 0.08840844 0.20224491 0.17970115 0.10085925
0.03565439 0.027812047 0.11007162 0.022992605 0.098724015 0.569074 0.18768536 0.19967052
0.38280365 0.021225857 0.07010263 0.16259359 0.062836 0.38376635 0.07293348 0.06824784
0.029006349 0.5634815 0.022107733 0.08423731 0.030410448 0.057384465 0.4629106 0.024747286
00000000: 728f 673d d71a 493e 2f1c d53d d798 083f
00000010: 72aa 343e 53fd e33c 617b cf3e 72a9 e43c
00000020: 1c8d c73d 935b c03e 497f d73c dc91 303d
00000030: b7b3 d63d e3e0 db3e ee8a 423f f14c 203d
00000040: ae78 2c3e 4e9d 353d 4c12 b23d 3e4f f63e
00000050: af5f 513d a0b5 a33d a08e e63d 4a45 9e3d
00000060: 492d 033d 8558 323c 00e6 8c3c 655d e83d
00000070: 3afc 143f 4ab9 ec3d b984 463d e67a 073f
00000080: fd9a de3c ada6 a23d facd af3d f779 ee3c
00000090: 7c0f b53d 4a19 4f3e 9403 383e 4b8f ce3d
000000a0: 560a 123d 17d6 e33c 3b6d e13d fd5a bc3c
000000b0: d12f ca3d d5ae 113f 9730 403e 6e76 4c3e
000000c0: d7fe c33e d9e1 ad3c f891 8f3d ef7e 263e
000000d0: 29b0 803d 067d c43e 265e 953d 86c5 8b3d
000000e0: b99e ed3c 5340 103f 471b b53c 9c84 ac3d
000000f0: 551f f93c f90b 6b3d 9e02 ed3e d2ba ca3c

conv4.weight f4 [64, 64, 3, 3]
0.045879807 -0.035023227 0.02485455 0.21436411 -0.15330234 0.010343521 4.4038276e-05 0.017272709
-0.010825919 0.08726909 0.02758878 -0.007660915 0.09667847 -0.05437101 -0.09183008 -0.006119623
-0.0056400564 -0.020448692 0.23883289 -0.26498595 -0.030603271 0.14620888 -0.097252496 0.01701012
0.0053777457 0.04753321 0.029189462 0.28401423 0.006933277 -0.04038469 0.09391875 -0.13209364
-0.047536828 0.064751476 -0.02702049 -0.006713567 0.27979553 -0.05164516 -0.051269013 -0.019792996
-0.118166566 0.030269893 0.027639907 -0.08338189 0.0049414085 0.0078144055 -0.16764657 -0.02819127
0.13494585 0.19789425 -0.044410635 -0.026197469 0.02978673 -0.012005803 -0.09595884 -0.071956694
-0.040784214 -0.058638506 -0.08571224 -0.05052452 -0.013702303 -0.015520554 -0.016037947 0.14199741
0.08980143 -0.011378342 -0.22135933 -0.08292257 0.102508105 -0.043376334 0.00039281131 0.00023816478
0.17880954 -0.008445548 0.0045973635 -0.26543027 -0.1824405 0.005073399 0.006218488 0.042784173
0.012098912 0.13593888 -0.023007618 -0.024568973 0.17705229 -0.13879634 -0.047392733 -0.04007735
-0.029138623 0.0024814254 0.14655344 -0.03593402 -0.027463704 0.04857913 -0.07340366 0.05977743
-0.068127826 -0.042381797 0.0075264727 0.02210534 -0.038771015 -0.007395351 -0.033644225 -0.14312632
-0.038798817 -0.003956173 -0.037904702 0.017904954 -0.16271596 0.14651826 -0.008065277 0.08168877
-0.012783958 -0.026299207 0.038223475 -0.023624236 0.018620001 -0.062025826 -0.09707712 -0.017606173
-0.015864013 0.057029795 -0.019649547 -0.002410048 -0.006962406 0.010433084 -0.29718322 -0.22213276
-0.060870845 -0.24165547 -0.086068325 -0.04191556 -0.02526505 -0.017521577 -0.041384432 0.063477084
-0.00029146546 0.036382347 -0.022526337 -0.034844205 0.033005852 0.0017240606 -0.010474723 0.0009378852
-0.047775444 -0.016360942 -0.03936243 -0.101581104 -0.22544381 -0.10535802 -0.004874836 0.025360698
0.015347195 0.11546676 0.0011462604 0.028838675 -0.029679917 -0.102446385 0.04517325 0.011464278
0.0025955227 0.03973286 0.14371999 -0.23318297 -0.012878742 -0.14153847 0.013269858 0.04560931
-0.0447038 0.028362548 -0.0092111435 -0.002643039 -0.05208879 -0.003431292 -0.049778577 -0.28484374
-0.08564613 -0.024126181 -0.09696084 -0.048668582 -0.013232628 0.050191186 -0.018086955 -0.2290451
-0.1160922 0.101597466 0.032460656 0.01922364 -0.003058862 0.08608927 -0.19288565 0.01487715
-0.14906962 0.011540782 0.014703797 0.03986049 -0.0011454106 0.030873735 0.0776933 0.18116306
0.03399579 0.21762341 -0.23287168 0.03450886 -0.05469001 0.0059663635 0.011716125 -0.3186219
0.0821133 -0.075485796 -0.054800723 -0.029852783 -0.031046458 0.05329083 0.015151415 0.01701404
-0.07814323 0.13423546 -0.03161231 -0.11478584 -0.2476368 -0.00071368605 0.05747005 0.008452143
-0.029782701 0.021713886 -0.0148947425 0.03261738 0.013373213 0.04641319 -0.017084556 -0.0650164
-0.0048110606 -0.023018232 -0.008681434 0.0012119894 0.0018340256 0.039990216 0.0011371548 -0.02006645
0.011892067 -0.006423261 0.010430605 -0.032494057 -0.117772594 -0.07258711 0.04422762 -0.042247824
-0.027739538 -0.03412687 0.0051094 -0.032962754 -0.28283367 -0.18407996 -0.016862005 -0.19775957
00000000: 77ec 3b3d 8474 0fbd c59b cb3c 4482 5b3e
00000010: 4afb 1cbe df77 293c bdb5 3838 7f7f 8d3c
00000020: 325f 31bc 23ba b23d dd01 e23c 6a08 fbbb
00000030: 5dff c53d 23b4 5ebd 6911 bcbd 1e87 c8bb
00000040: 39d0 b8bb 0484 a7bc 9c90 743e 3dac 87be
00000050: b6b3 fabc c8b7 153e 512c c7bd cf58 8b3c
00000060: cd37 b03b 2fb2 423d bd1e ef3c 506a 913e
00000070: 8b30 e33b 6b6a 25bd 7958 c03d 8e43 07be
00000080: fab5 42bd 6c9c 843d 135a ddbc 7bfd dbbb
00000090: 5c41 8f3e e089 53bd 75ff 51bd ec24 a2bc
000000a0: 5001 f2bd 91f8 f73c 166d e23c 20c4 aabd
000000b0: 8aeb a13b fe07 003c 8bab 2bbe 61f1 e6bc
000000c0: 3f2f 0a3e caa4 4a3e ede7 35bd 139c d6bc
000000d0: 4d03 f43c fdb3 44bc 1186 c4bd 085e 93bd
000000e0: 590d 27bd ee2e 70bd e689 afbd cdf2 4ebd
000000f0: a07f 60bc ec49 7ebc 0362 83bc c567 113e
00000100: d0e9 b73d 3a6c 3abc 05ac 62be 4fd3 a9bd
00000110: c5ef d13d 62ab 31bd 3ef2 cd39 dfbb 7939
00000120: d919 373e 325f 0abc 7ba5 963b 7ae6 87be
00000130: afd1 3abe c13e a63b 75c4 cb3b 753e 2f3d
00000140: 843a 463c 9033 0b3e 797a bcbc df44 c9bc
00000150: 324d 353e a120 0ebe e21e 42bd 2628 24bd
00000160: 1fb4 eebc 699f 223b 1b12 163e 8d2f 13bd
00000170: 90fb e0bc e9fa 463d a854 96bd 2ed9 743d
00000180: 9a86 8bbd 8998 2dbd a1a0 f63b 4216 b53c
00000190: 5bce 1ebd b354 f2bb 87ce 09bd b58f 12be
000001a0: 82eb 1ebd c9a2 81bb f641 1bbd 69ad 923c
000001b0: 039f 26be e208 163e 3924 04bc 714c a73d
000001c0: ce73 51bc 6f71 d7bc 3890 1c3d 9d87 c1bc
000001d0: f988 983c cb0e 7ebd 5ed0 c6bd d23a 90bc
000001e0: 3ff5 81bc 1398 693d 16f8 a0bc e5f1 1dbb
000001f0: e524 e4bb 87ef 2a3c 6628 98be c576 63be
00000200: b553 79bd 8874 77be 9744 b0bd a6af 2bbd
00000210: a6f8 cebc 6989 8fbc b982 29bd 4600 823d
00000220: d5cf 98b9 a805 153d 2789 b8bc ccb8 0ebd
00000230: 2531 073d e0f9 e13a 2c9e 2bbc 69dc 753a
00000240: 2fb0 43bd 6207 86bc 803a 21bd c109 d0bd
00000250: beda 66be f2c5 d7bd 17bd 9fbb 3dc1 cf3c
00000260: cd72 7b3c d679 ec3d 1e3e 963a 163f ec3c
00000270: 4c23 f3bc 69cf d1bd 9607 393d abd4 3b3c
00000280: a519 2a3b ecbe 223d 552b 133e 84c7 6ebe
00000290: 5c01 53bc 76ef 10be d269 593c d4d0 3a3d
000002a0: 551b 37bd 9358 e83c 56ea 16bc d636 2dbb
000002b0: 0e5b 55bd 87df 60bb 9fe4 4bbd 0ad7 91be
000002c0: 3d67 afbd 45a4 c5bc 6893 c6bd b558 47bd
000002d0: aacd 58bc 4695 4d3d 182b 94bc cc8a 6abe
000002e0: bfc1 edbd 5512 d03d 77f5 043d e57a 9d3c
000002f0: 3077 48bb 924f b03d d183 45be 4abf 733c
00000300: b5a5 18be 8c15 3d3c 32e8 703c c144 233d
00000310: 9a21 96ba eaea fc3c aa1d 9f3d cf82 393e
00000320: 2b3f 0b3d acd8 5e3e ea75 6ebe 2a59 0d3d
00000330: a202 60bd 7c81 c33b fdf4 3f3c 6922 a3be
00000340: 052b a83d 4c98 9abd b976 60bd d38d f4bc
00000350: 2455 febc 7c47 5a3d a43d 783c 0761 8b3c
00000360: 8f09 a0bd 0575 093e e97b 01bd d714 ebbd
00000370: 8094 7dbe a916 3bba b765 6b3d db7a 0a3c
00000380: dafa f3bc 52e1 b13c 1409 74bc cd99 053d
00000390: 521b 5b3c c21b 3e3d e9f4 8bbc 5127 85bd
000003a0: 1aa6 9dbb bb90 bcbc 933c 0ebc 9edb 9e3a
000003b0: b063 f03a c8cc 233d 950c 953a 6562 a4bc
000003c0: f2d6 423c 387a d2bb 21e5 2a3c 7d18 05bd
000003d0: c232 f1bd 8da8 94bd 0528 353d 0e0c 2dbd
000003e0: 073e e3bc 9ec8 0bbd c16c a73b f403 07bd
000003f0: 93cf 90be 757f 3cbe 3022 8abc 7c81 4abe

bn4.weight f4 [64]
0.5775579 0.08771451 0.37655753 0.058059417 0.1863961 0.10475859 0.3111893 0.15112384
0.38125247 0.12722741 0.9148283 0.17561089 0.29954293 0.09306274 0.07088269 0.04829428
0.060066298 0.3917524 0.12239029 0.18969558 0.41376802 0.45266363 0.05359607 0.15966907
0.15145524 0.12535629 0.21248722 0.11356635 0.17429668 0.12274957 0.059978157 0.04407796
0.08330108 0.3459427 0.24278677 0.06926052 0.1206204 0.17257652 0.082179114 0.13314377
0.33966652 0.49646938 0.07428457 0.06570745 0.10188331 0.19186959 0.04247619 0.17405051
0.5475522 0.1489317 0.07797329 0.14844485 0.42721584 0.124493435 0.09113317 0.25009957
0.11741352 0.08279345 0.062402345 0.05165709 0.3632073 0.05321405 0.050233364 0.045209885
00000000: d6da 133f aaa3 b33d 26cc c03e b6cf 6d3d
00000010: 9fde 3e3e ac8b d63d 3454 9f3e 35c0 1a3e
00000020: 8633 c33e e747 023e 3032 6a3f 57d3 333e
00000030: b15d 993e ae97 be3d f22a 913d 39d0 453d
00000040: 1408 763d c593 c83e c3a7 fa3d 8f3f 423e
00000050: 67d9 d33e 87c3 e73e 8d87 5b3d 4a80 233e
00000060: 1517 1b3e 665d 003e 4096 593e 7995 e83d
00000070: d47a 323e 2064 fb3d a8ab 753d 178b 343d
00000080: c299 aa3d 671f b13e 189d 783e 76d8 8d3d
00000090: d407 f73d e6b7 303e 864d a83d d756 083e
000000a0: c5e8 ad3e 3c31 fe3e 8222 983d a191 863d
000000b0: 32a8 d03d 7679 443e 83fb 2d3d 4c3a 323e
000000c0: 622c 0c3f 8d81 183e 76b0 9f3d ed01 183e
000000d0: 09bc da3e 6af6 fe3d 07a4 ba3d 0d0d 803e
000000e0: 8076 f03d 9d8f a93d 9a99 7f3d 6396 533d
000000f0: 4ff6 b93e faf6 593d 80c1 4d3d 002e 393d

bn4.bias f4 [64]
0.04580862 0.0008069313 -0.09815823 0.008614774 -0.07720588 0.33868116 -0.07004913 -0.09658347
-0.06385619 -0.48342606 -0.055349268 -0.17810233 -0.026739573 0.023254132 0.026754355 0.014635337
-0.018015163 -0.010566072 -0.088804506 -0.16922002 -0.006017064 -0.020300396 0.040638454 -0.123189576
-0.090200104 -0.06200789 -0.15908208 -0.025779653 -0.12229598 -0.1621883 0.031717904 0.11687085
-0.045667022 -0.0515552 -0.0226873 0.13669796 -0.09840068 -0.05057309 -0.021837397 -0.11499946
-0.01940365 -0.08019541 0.0037645053 0.028911585 -0.043306008 0.01941522 0.08554922 -0.047780246
0.05922786 -0.11406753 -0.020119868 0.10602386 0.042004168 -0.045586687 -0.0030622233 -0.025376705
-0.038697038 -0.05105777 -0.012626434 0.11977891 -0.019071467 0.051671483 0.04662373 -0.003706922
00000000: d2a1 3b3d 3e88 533a 2f07 c9bd fb24 0d3c
00000010: 1e1e 9ebd 9e67 ad3e eb75 8fbd 8ecd c5bd
00000020: 09c7 82bd 9f83 f7be eab5 62bd 7560 36be
00000030: f30c dbbc 737f be3c f32b db3c 0dc9 6f3c
00000040: 8994 93bc 511d 2dbc 23df b5bd 0348 2dbe
00000050: cb2a c5bb 044d a6bc 8274 263d d14a fcbd
00000060: d5ba b8bd fcfb 7dbd 6ae6 22be da2f d3bc
00000070: 5176 fabd b114 26be a2ea 013d fc59 ef3d
00000080: 580d 3bbd 8c2b 53bd b7da b9bc 8dfa 0b3e
00000090: 4c86 c9bd ba25 4fbd 57e4 b2bc d684 ebbd
000000a0: 67f4 9ebc 7e3d a4bd ebb5 763b fdd7 ec3c
000000b0: a461 31bd ab0c 9f3c 6e34 af3d 38b5 43bd
000000c0: ea98 723d 3d9c e9bd 6cd2 a4bc 0a23 d93d
000000d0: 900c 2c3d 1bb9 3abd 95af 48bb cfe2 cfbc
000000e0: c980 1ebd f421 51bd 1adf 4ebc a54e f53d
000000f0: c43b 9cbc 7aa5 533d 86f8 3e3d d5ef 72bb

bn4.running_mean f4 [64]
-0.3424797 -0.27666593 -0.09402095 -0.8591036 -0.31286243 -0.39060673 0.40407047 0.132581
0.48290443 -0.34208265 0.40070027 -0.84162253 0.29167306 -0.16838425 -0.19114085 -0.23284519
-0.41229126 0.07952507 0.35859215 0.57471883 0.13420416 0.106089205 0.33858854 -0.3838596
-0.10209095 0.062108316 -0.42532444 0.24416101 0.0062128035 -0.0040464555 -0.06811846 -0.13302583
-0.025525613 0.2714712 -0.25241086 0.044220172 -0.6582063 -0.34513 -0.24662215 -0.4048285
0.2604435 -0.26111197 -0.12295129 -0.5516932 -0.49620396 -0.2574221 -0.104777075 -0.984758
-0.21983348 -0.5490072 -0.042224515 0.32581875 -0.36062324 -0.38486546 -0.6287066 -0.10625435
-0.50205696 0.07367752 -0.17492656 -0.010365754 -0.20161836 -0.62794995 -0.56317496 0.102178335
00000000: 8059 afbe 28a7 8dbe 0e8e c0bd 37ee 5bbf
00000010: 812f a0be 9bfd c7be 53e2 ce3e 50c3 073e
00000020: 403f f73e 7525 afbe 9628 cd3e 9374 57bf
00000030: 2c56 953e ec6c 2cbe 6dba 43be f86e 6ebe
00000040: d717 d3be 0ade a23d 6499 b73e c620 133f
00000050: d16c 093e 4c45 d93d 7a5b ad3e 3f89 c4be
00000060: 0f15 d1bd 4a65 7e3d 20c4 d9be 5805 7a3e
00000070: c694 cb3b 2198 84bb b181 8bbd ec37 08be
00000080: 171b d1bc 46fe 8a3e ff3b 81be 3620 353d
00000090: 3580 28bf e1b4 b0be 848a 7cbe ae45 cfbe
000000a0: da58 853e 78b0 85be e3cd fbbd c43b 0dbf
000000b0: 720e febe d4cc 83be 5d95 d6bd 1a19 7cbf
000000c0: 071c 61be bc8b 0cbf 9df3 2cbd b7d1 a63e
000000d0: 9ca3 b8be 160d c5be eaf2 20bf e19b d9bd
000000e0: ce86 00bf 3de4 963d f31f 33be 20d5 29bc
000000f0: 0b75 4ebe 54c1 20bf 3c2c 10bf e042 d13d

bn4.running_var f4 [64]
0.38340193 0.29619813 0.3884974 0.090574145 0.57997435 0.108085304 0.30307445 0.20647392
0.31456274 0.35085088 1.1366062 0.09886212 0.43273884 0.19345522 0.046975832 0.08215078
0.33187085 0.69206154 0.094194554 0.3769373 0.6321153 0.7305069 0.06201657 0.35742202
0.42288157 0.09683361 0.32892188 0.21853788 0.19785923 0.07028194 0.065668344 0.038522847
0.46346235 0.2851523 0.39512584 0.056417964 0.17649437 0.7423755 0.08121907 0.2642735
0.7627805 0.45010766 0.09392767 0.061944727 0.12529032 0.26417136 0.03997028 0.52963036
0.28687006 0.056784328 0.11196067 0.23848554 0.44041902 0.23248589 0.24769011 0.4131285
0.23512436 0.06909679 0.07489447 0.041005656 0.5505005 0.06531614 0.032273464 0.054041307
00000000: 424d c43e 48a7 973e 22e9 c63e f07e b93d
00000010: 3379 143f d45b dd3d 932c 9b3e e66d 533e
00000020: 5e0e a13e baa2 b33e 507c 913f 3978 ca3d
00000030: f28f dd3e 2019 463e bb69 403d ab3e a83d
00000040: faea a93e f22a 313f 13e9 c03d edfd c03e
00000050: 4fd2 213f 8002 3b3f 1605 7e3d 0500 b73e
00000060: ef83 d83e b350 c63d 7368 a83e 65c8 5f3e
00000070: 9c9b 4a3e faef 8f3d 207d 863d 22ca 1d3d
00000080: f04a ed3e 7bff 913e ef4d ca3e 8616 673d
00000090: f1ba 343e 520c 3e3f 2f56 a63d db4e 873e
000000a0: 9545 433f 8374 e63e 265d c03d c1b9 7d3d
000000b0: 1b4c 003e 7841 873e e0b7 233d db95 073f
000000c0: a2e0 923e af96 683d a34b e53d 8e35 743e
000000d0: 9a7e e13e c810 6e3e 7aa2 7d3e 9485 d33e
000000e0: 71c4 703e 9e82 8d3d 4662 993d 8cf5 273d
000000f0: 9aed 0c3f 78c4 853d 2e31 043d 6b5a 5d3d
