ckpt/ckpt-t-cr3-deepsc-t14db-awgn.pth (torch, 766247 bytes, 46 tensors)

conv1.weight f4 [16, 3, 3, 3]
000000 4d 96 aa 3d 4d 43 da 3d 25 75 32 3e 2d a2 ec bd
       0.08329449 0.10657368 0.174275 -0.1155437
000010 89 75 5c 3e 03 32 ec bd e6 b1 4e bd f5 5d 51 bd
       0.21529211 -0.115329765 -0.050462626 -0.051114995
000020 c7 77 46 bd 35 26 bb 3b dd 1f c8 bd 0d fa f0 3c
       -0.048454072 0.0057113417 -0.097717024 0.029416109
000030 ec ab 85 bd a8 d0 2d 3e 79 96 c8 bd 9f a7 4e bc
       -0.06526932 0.16974127 -0.097943254 -0.012613206
000040 19 02 67 bd 50 8d fe 3b 25 af a4 bc 85 58 3a be
       -0.056398485 0.0077683106 -0.020103047 -0.1819783
000050 39 57 9d bd 89 ef 65 3d 35 3d 7e 3e 46 77 4b bd
       -0.07682652 0.05613664 0.24828036 -0.049674295
000060 b3 f2 2f 3d 44 f0 21 3d 97 74 1a 3d 32 a4 72 bd
       0.042956065 0.039535776 0.037708845 -0.05923862
000070 59 70 23 be b0 1a ec bd 0b 0d 0d be 95 de 32 be
       -0.15960826 -0.11528528 -0.13774507 -0.17467721
000080 49 f9 0e be e7 4d 7d bc 6e 99 ea 3d ee 9c f3 bc
       -0.13962282 -0.015460468 0.11455046 -0.029737916
000090 f6 b4 ec bc f3 09 ae bd e8 5f cd bd 3f 3d 0a be
       -0.028894883 -0.084979914 -0.10028058 -0.13499926
0000a0 e3 63 a5 bd 66 14 8c bd a3 ab 15 bc da 48 7a 3d
       -0.080756925 -0.06839828 -0.00913516 0.061104633
0000b0 83 55 f4 bc 1b 5c ad 3d cb fb 5f 3d a4 9d 61 3d
       -0.029825931 0.08464833 0.054683488 0.05508198
0000c0 0a b4 e6 3c d8 51 9e bd f7 a5 90 3d 29 d1 1d 3d
       0.028162021 -0.07730454 0.07062905 0.03852955
0000d0 ae 8b e2 3d 90 76 d2 3b 45 66 35 bc 4b 08 89 bc
       0.11061798 0.006422825 -0.011071746 -0.016727587
0000e0 1c 2a 57 3c e0 1b 60 bd 17 89 bd 3b 1f 34 45 bc
       0.013132598 -0.054714084 0.0057841646 -0.012036352
0000f0 cb af 72 bd ee ec a3 3d 3e af 54 bd 3e ee 92 bb
       -0.05924968 0.08004175 -0.051924936 -0.004483967
000100 9a 63 11 3c 5b 59 90 ba 6f 4e 6f bd 5d 9d 2b 3e
       0.0088738445 -0.0011012958 -0.05842441 0.16759248
000110 2d 43 00 3e ee 09 25 bd 22 39 cc 3d 28 dc e8 b9
       0.12525626 -0.040292673 0.09971835 -0.00044414517
000120 b5 ec 62 bd 43 38 ec bc f7 54 57 3d 48 2f 6a bd
       -0.055401523 -0.028835421 0.052571263 -0.057173997
000130 d5 ab d0 3e 22 90 df 3e f4 af f0 bd be d4 0a 3e
       0.40756097 0.43664652 -0.117523104 0.13557717
000140 db a2 69 3d ff 00 5f 3d af 26 11 3e fd e3 10 3e
       0.057040077 0.05444431 0.14174913 0.1414947
000150 8f d1 48 3e c5 e0 4a 3e fe 12 45 3e b3 79 e6 bb
       0.1961119 0.19812305 0.19245526 -0.0070335506
000160 f1 45 e6 bd f1 b5 a0 3c 99 ba 0c 3d 28 5b 14 3e
       -0.11243809 0.019618006 0.03435764 0.14487898
000170 33 26 e3 3d f5 f3 0b 3e 97 fe 0b 3e cc 97 99 3d
       0.1109127 0.13667281 0.13671337 0.07499656
000180 0d a6 10 ba 9c 85 81 bd 99 a7 f2 3c 3c 85 ec bd
       -0.00055179076 -0.06324312 0.029620932 -0.1154885
000190 13 37 30 bd 56 38 be bd 3b 20 ae bb 90 f7 35 3d
       -0.043021273 -0.09288089 -0.0053139008 0.044425547
0001a0 64 be 7d bd 85 1f 36 bd f4 64 fa bd 9f 59 0b bd
       -0.06194915 -0.044463653 -0.122262865 -0.034021016
0001b0 05 34 3c 3c bb c4 4c bb 8f 16 55 bd da b5 e7 3d
       0.011487012 -0.003124519 -0.052023467 0.11313982
0001c0 91 81 c0 3c 8c 19 00 bd 93 61 c9 bc cc bb 92 bd
       0.023499282 -0.031274363 -0.02458266 -0.07164726
0001d0 f5 c6 58 bc e7 33 fa 3c ac a0 13 3d 31 69 0c 3c
       -0.013231029 0.030542327 0.0360419 0.008570001
0001e0 38 0d 47 3e 1e 3d 81 3d b5 d3 d8 bc b5 fe 8a 3b
       0.19438636 0.06310485 -0.026468137 0.004241789
0001f0 13 1e 17 bd 43 1c 83 bd 72 ae cd 3d 65 d7 62 3e
       -0.036893915 -0.06401875 0.100430384 0.22152479
000200 b4 8b 06 3c f6 94 f2 3e 0f 5b 81 3e d9 d3 28 3d
       0.008212019 0.47379273 0.25264785 0.04121766
000210 e7 64 f8 3c fc 06 02 bd 4b ca 5b 3c 4a 0e 28 3d
       0.030321551 -0.031744942 0.01341493 0.041029252
000220 d0 55 28 bd 73 61 04 3d 2d 8f 14 bd d0 7a 8c be
       -0.041097462 0.032319497 -0.036269356 -0.27437449
000230 83 44 b6 bd a4 e0 c1 3d 84 68 22 3e f3 d8 19 3e
       -0.08899786 0.09466675 0.15860182 0.15024166
000240 a7 d1 af 3c ff 37 be bc bf 95 ba 3d 89 04 ac bd
       0.021462275 -0.02322006 0.09110593 -0.083993025
000250 03 fb 2f be 16 cd c5 bd af cf 2b 3d 7a 58 05 3e
       -0.17185597 -0.09658258 0.04194611 0.13022032
000260 d6 a9 f9 3d 01 23 01 3c 94 0c 13 bd 30 07 94 bd
       0.12190597 0.007881881 -0.035900667 -0.072279334
000270 83 47 87 bd 19 2d f7 3b f9 60 de bd 0a b5 41 bc
       -0.06605437 0.007543218 -0.1085834 -0.011822948
000280 0f 62 87 3e 82 3c 9e bc 95 ee c3 bd 19 24 cb 3d
       0.26442 -0.019315962 -0.0956699 0.099189945
000290 46 dc 48 be da 49 06 3e c2 c0 12 3e fb ae ad bd
       -0.19615278 0.1311411 0.14331344 -0.084806405
0002a0 91 82 b6 3b 7a a7 ea 3c b6 cc e5 3b d6 fc 4d be
       0.005569764 0.028644312 0.007012929 -0.2011598
0002b0 74 6b 94 3b 67 c1 7e be b8 12 6d bd 11 cd 70 3d
       0.004529411 -0.24878465 -0.05787918 0.058789317
0002c0 9f 05 ae bd ca ce 26 bd c4 c2 f7 bc 41 69 7b bc
       -0.08497166 -0.040724553 -0.030244239 -0.015344919
0002d0 71 28 b6 be 2e 38 9b bd 7e a0 48 be 8f 6d 4d bd
       -0.3557773 -0.07579075 -0.19592473 -0.05015331
0002e0 5a 23 9e 3b 09 9d 29 bd 7b 7b 11 3d 58 57 b8 bc
       0.0048259916 -0.041409526 0.03551815 -0.022502586
0002f0 54 57 1b 3d 1c 8a 6f bd ff e7 bd 3b d5 85 28 bc
       0.03792508 -0.05848132 0.0057954784 -0.010285814
000300 f2 05 ad 3d 11 31 eb 3d b3 d8 0b 3e 2b 91 e4 3d
       0.084483996 0.11483968 0.13656883 0.11160501
000310 ee b5 55 be 80 fa b5 bd f7 55 32 bd 3b 0f 76 3d
       -0.20870182 -0.0888567 -0.043539014 0.06007312
000320 9e de ae bb 3a d1 9d 3d a0 24 e1 3b b5 4c d0 3d
       -0.0053365966 0.077059224 0.006870821 0.10170881
000330 77 97 1f 3e e4 62 2e be ea b6 cf bd 88 26 ff 3c
       0.15585123 -0.17029911 -0.1014231 0.031146303
000340 9c 35 96 3d 2a 08 60 bd b4 bb 80 bd ee 24 33 bd
       0.07334444 -0.054695286 -0.062858015 -0.04373639
000350 17 c6 38 be 62 90 3c 3c fa 1c 58 be 21 89 81 be
       -0.18044315 0.011509033 -0.21104804 -0.25299934
000360 e8 e5 8d bc 46 19 81 3d e0 b0 80 3c 50 52 af bd
       -0.017321542 0.06303649 0.01570934 -0.08560622
000370 1c 1a 82 3d 61 34 b7 3c 49 81 88 3a c2 86 79 3d
       0.06352636 0.022363843 0.0010414507 0.06091953
000380 86 10 d4 3c c8 fa c3 bd f2 92 0f 3d ba 3b ca 3b
       0.025886785 -0.09569317 0.035052247 0.0061716707
000390 a0 ce 86 be 5b e7 92 bc de 5c 98 3b 69 1b c5 bd
       -0.26329517 -0.017932585 0.0046497425 -0.09624369
0003a0 72 44 a1 bb 3a 09 89 bc 71 4b 7c 3d a9 b7 78 bd
       -0.0049214894 -0.016728032 0.061595384 -0.060722027
0003b0 dc da 42 bc 66 e4 1e bf c8 9d 27 be 2d ba c2 bd
       -0.011893 -0.6206726 -0.16368783 -0.095081665
0003c0 4a b3 82 bd 4f c8 ca bd e2 68 eb 3b c7 50 9e 38
       -0.06381853 -0.09901487 0.007184134 7.549073e-05
0003d0 06 e6 d9 3c b1 72 e2 3c 6a 60 c0 bd b3 d4 c1 bc
       0.026598942 0.02764258 -0.093933895 -0.023660993
0003e0 6f 40 26 3d 61 c8 11 b8 5f 57 41 3d fa 1d 95 3c
       0.040588792 -3.475731e-05 0.047202464 0.01820277
0003f0 4a ba 40 bd 45 63 63 bd 51 c6 12 3d 12 07 25 be
       -0.04705266 -0.055514593 0.03583366 -0.16115978

bn1.weight f4 [16]
000000 a3 43 d8 3d dc 48 49 3e 79 67 25 3e d9 b2 4f 3e
       0.10559776 0.196567 0.16152753 0.20283069
000010 29 4a 55 3e 05 14 03 3e e6 1d 24 3e fd 1c 0d 3e
       0.20829071 0.12800606 0.1602703 0.1378059
000020 c3 99 70 3e 57 fc 42 3e 3c 6a 32 3e a9 8b 38 3e
       0.23496155 0.19041573 0.17423338 0.18022026
000030 b3 72 2a 3e 76 e8 4e 3e 82 f6 55 3d 73 fa 64 3e
       0.16645317 0.20205864 0.05223704 0.22361164

bn1.bias f4 [16]
000000 94 bf 95 3e 64 71 4f 3d 12 8c 6c 3d c2 62 52 bd
       0.29247725 0.050645247 0.05775077 -0.051363714
000010 04 ad 37 be 13 ff 87 3d 0d 8c a1 3e 3b 6f b5 bd
       -0.17937094 0.066404484 0.31552163 -0.08859106
000020 c0 c0 a0 bd 2d 81 26 3e 51 5a ff 3c 07 67 b9 3d
       -0.07849264 0.16260214 0.031170996 0.09052854
000030 fd 1a 84 3d 98 91 d0 bd e4 5d 4e 3d 1e 94 1e bd
       0.0645046 -0.1018402 0.05038251 -0.038715474

bn1.running_mean f4 [16]
000000 4c 3d b2 3d 6b f0 cd be 3f de e8 3e 0e ef f0 3e
       0.08703098 -0.40222487 0.4548206 0.47057384
000010 b4 23 0e 3f 9a 75 ab 3a 17 e6 07 bf 12 49 57 be
       0.5552323 0.0013081313 -0.53085464 -0.21023968
000020 19 bf 15 bf 7f 19 f2 be 2d 01 dd 3e 4b 42 64 3e
       -0.58494717 -0.47285077 0.4316496 0.22290914
000030 fa 56 4b bb b8 04 69 be 3a 72 80 3b 66 9e c8 be
       -0.0031027184 -0.22755706 0.003919867 -0.39183348

bn1.running_var f4 [16]
000000 ce 76 76 3b 93 1c 31 3d 2a c1 99 3d 88 0a 75 3d
       0.0037607434 0.04324014 0.07507546 0.059824497
000010 18 79 db 3d 4c 75 60 3c 5b b9 c3 3d 9d eb f3 3c
       0.10716456 0.013699841 0.09556838 0.029775435
000020 ba 0d f0 3d 1c d7 9d 3d cb 01 82 3d 68 6a 90 3c
       0.11721368 0.077070445 0.06347998 0.017628863
000030 6f 7c 3a 3c 41 39 95 3c b4 8a 1b 3b 79 35 54 3d
       0.011382206 0.018215777 0.0023733797 0.051808808

conv2.weight f4 [64, 16, 3, 3]
000000 dc 7f 82 bd 9b dc 63 bc ef 22 1e bc 5e 00 cd bd
       -0.063720435 -0.013907577 -0.0096518835 -0.10009836
000010 84 50 93 3d 77 ad 1b 3d 94 15 3f bd 89 11 01 3e
       0.071930915 0.038007226 -0.046651438 0.12604345
000020 96 5c a3 bd 7f 6f b3 bd 98 6a f2 3c ee 0f 93 bd
       -0.07976644 -0.087615006 0.029591843 -0.07180773
000030 1b dc 1b bd b0 42 b3 3d b8 d9 70 3c 2e 29 16 bd
       -0.038051706 0.08752954 0.014700346 -0.036660366
000040 81 1d 04 3d 20 01 6b bd 72 9b 9a bd 57 f6 65 bc
       0.0322547 -0.05737412 -0.0754918 -0.014035783
000050 f4 8d e2 bb 12 78 9d bb 9a 43 4b 3e 5d 77 f9 bb
       -0.006913895 -0.0048055733 0.19850007 -0.007613106
000060 70 4b bd bd 35 47 2e 3e 08 a6 dd 3b cb 8a cd 3d
       -0.09242904 0.17019351 0.0067641772 0.10036238
000070 e0 39 d0 3c ed 6e a6 3d 00 bb 47 bb c5 f6 91 bd
       0.025418222 0.08126626 -0.003047645 -0.07127146
000080 9f c4 cd 3b d6 81 e2 bc bf b2 b1 bd 8f 5a c1 bd
       0.0062795426 -0.027649801 -0.08676671 -0.09441101
000090 2d e6 49 bd f8 00 bd bd 48 36 c9 bd 91 b3 97 bd
       -0.04929178 -0.092287004 -0.098248065 -0.074072964
0000a0 39 da 95 bd 51 8d cd 3d f1 35 bf bd b2 ce 67 3d
       -0.07317013 0.100367196 -0.093364604 0.056593604
0000b0 ba 47 4a 3e 2e 9a 8e bd ec 33 72 bb e7 ad 34 bb
       0.19753924 -0.06963001 -0.0036957217 -0.0027569474
0000c0 78 e0 33 bd 4e d6 9f 3d 70 ec 93 3c bc 49 09 3d
       -0.043915242 0.07804547 0.018057078 0.033517584
0000d0 2d 36 bf 3d f8 77 01 3c 9b c4 87 bc 81 28 c9 3d
       0.09336505 0.007902138 -0.016573241 0.09822179
0000e0 03 3f 85 3d 2e 86 ff 3b 25 40 b4 3d 49 32 13 3d
       0.06506159 0.007797978 0.08801297 0.035936628
0000f0 6c b6 9b 3c 9f f2 2b bd d6 70 9d bd bd bb 3f 3e
       0.019007884 -0.04197943 -0.07687537 0.1872396
000100 ce e5 46 bc e3 8d 9d 3d c7 66 37 3e cf 00 80 be
       -0.012139751 0.07693078 0.179103 -0.25000617
000110 f5 3a 4a 3d e4 d5 52 3b 7f 0e 02 be e4 ca 5c bd
       0.049372632 0.0032170946 -0.12700842 -0.05390443
000120 7a 74 e4 bd e5 ab 82 3b 29 26 87 bd 99 a5 ac 3a
       -0.11155029 0.0039877766 -0.06599075 0.001317191
000130 94 f5 be bd 60 14 1e be f9 ca e9 bd 0b 2c 07 be
       -0.09324184 -0.1543746 -0.11415667 -0.13200395
000140 7e 73 81 bf 6d 0d d9 3c 64 f7 28 3d 4e 15 ac 3d
       -1.011337 0.02649566 0.041251555 0.08402501
000150 93 df ad 3c bf 4a 38 bd 9b 4e 83 be fd 8d 0c 3e
       0.021224773 -0.04499316 -0.2564591 0.13726039
000160 43 cf 51 be d4 f6 01 bf ef f5 ee bc 12 30 ca 3b
       -0.2048922 -0.50767255 -0.029170005 0.006170281
000170 a6 14 b9 bd 5e 5b c1 3c 7b 04 b3 bc fa 8c da bd
       -0.090371415 0.023603138 -0.021852722 -0.106714204
000180 c8 77 43 bd 1a 99 aa 3c 7b 93 98 bd 18 3b d7 bc
       -0.047721654 0.020824958 -0.07450005 -0.026273295
000190 7b a7 01 bd ac ea dc 3d 49 e2 af 3d ff 10 e0 bb
       -0.031653862 0.107869476 0.08588082 -0.0068379636
0001a0 51 b8 d8 3c 8f bc 15 bc 13 eb af 3d a0 e9 3d 3c
       0.026455076 -0.009139194 0.08589759 0.011591345
0001b0 3d 37 8f bc d2 6e d7 3b cc 64 05 bd 22 4c eb bd
       -0.017482394 0.00657449 -0.03256683 -0.114891306
0001c0 94 df bc bd 23 38 49 3b e5 31 87 bd 65 d8 03 3c
       -0.09222332 0.0030703626 -0.066013135 0.008047198
0001d0 52 bf d7 3d d2 de 2e 3d 07 e6 9f 3d ee f6 dd 3b
       0.10534538 0.042692967 0.07807546 0.006773821
0001e0 4e ee 99 bc a1 fa 80 3d ae eb 75 3d 3d 96 cc 3d
       -0.01879039 0.06297804 0.060039215 0.09989593
0001f0 83 09 0f 3d 35 f5 57 bb 71 4b d4 3d 5e ef 24 bd
       0.03492118 -0.0032952551 0.10365952 -0.04026734
000200 df 13 f2 bd 5d 97 dc 3c 77 5a 1e be df 6b c8 bd
       -0.11820196 0.026927644 -0.15464197 -0.097862
000210 6b 55 15 be a8 aa 27 bd fe 56 95 bd 5f 8c 34 3d
       -0.14583366 -0.040934235 -0.07291983 0.04407918
000220 9e 4c 01 3c 89 69 25 3c 16 d4 d0 bb 78 8e 0c bd
       0.007891802 0.010095962 -0.006372939 -0.034315556
000230 96 ec a1 bd 86 d7 6b bb 01 cd 64 bd 8a 4f f6 bd
       -0.07906453 -0.0035986616 -0.05585957 -0.120268896
000240 82 58 78 bd d9 e7 7b 3c 66 38 68 3b 2a 65 b8 bc
       -0.060631283 0.015375101 0.0035434007 -0.022509176
000250 e8 e0 3c bc 16 e4 20 bd 25 44 eb bd af f0 a5 3d
       -0.011528231 -0.03928002 -0.11487607 0.081025474
000260 55 c6 9a 3d c7 08 ba 3c a5 8f c5 3d f6 3f 06 bd
       0.0755736 0.022709263 0.09646539 -0.03277584
000270 9a 7d 12 3e 53 6b 51 3b e6 d3 54 bd 1b 76 46 3e
       0.14305726 0.003195484 -0.051959895 0.19380991
000280 a5 62 95 3c 58 b7 89 be 9d 97 91 bd 17 d8 94 bd
       0.018235514 -0.26897693 -0.07108996 -0.07267778
000290 33 8a a5 3d 0d 0d c7 bd 33 9d db 3d d2 d2 2d 3d
       0.08083 -0.09719286 0.10723343 0.042437382
0002a0 ca e9 08 3c b6 0d 75 bc 90 e5 ac 3c 95 2c 3e 3c
       0.008356521 -0.014956882 0.021105558 0.011607309
0002b0 a0 c8 c1 bc 32 8c 3c 3b cd 84 cd bd 53 e0 2d 3d
       -0.023655236 0.0028770086 -0.10035095 0.04245026
0002c0 9b 50 14 3d a2 7d 55 be 4d 8a f6 3c 65 ee 6b 3e
       0.036209684 -0.20848706 0.030095244 0.23040159
0002d0 bf d9 25 3d cf 21 f6 bc 5c 6d 25 be 00 fe 3c bc
       0.040490862 -0.030045418 -0.16154999 -0.011535168
0002e0 7d eb f5 bd 90 f3 ab bd e0 af 2b bc 44 f3 c7 bd
       -0.120078065 -0.08396065 -0.010478944 -0.09763196
0002f0 ca b3 ba 3c 15 0d db bb 5f 7a 0f 3d 29 25 0e bb
       0.022790808 -0.006684909 0.03502881 -0.002168963
000300 de 0c d5 bc 4a e2 14 be 44 79 09 3e b4 cc 9b 3c
       -0.026007112 -0.14539447 0.13425165 0.019018508
000310 18 b9 88 bd 8a 9b 8b bc ac ba 9d bd 1e a5 45 bd
       -0.06675929 -0.01704194 -0.077016205 -0.04825317
000320 98 d4 26 bd 82 ab e1 3d 65 9d 58 be 70 de 8e bd
       -0.04073009 0.11019041 -0.21153791 -0.0697602
000330 48 38 d5 bc 99 d3 ae be 42 cb 57 bd 71 01 58 3c
       -0.026027814 -0.3414581 -0.052684076 0.013183937
000340 1a 81 0c 3e e3 08 df bd 36 ad 34 be 1a 71 8d bb
       0.13721123 -0.10890367 -0.176442 -0.0043164613
000350 3e 85 98 bd ee c7 ee bd e4 11 f5 3c 4d 75 02 3d
       -0.07447289 -0.11659227 0.029915757 0.031850148
000360 27 c6 3d bc 6c 1f 1e bd 17 05 d6 3c 20 03 b4 bc
       -0.011582888 -0.038604185 0.026125474 -0.021974146
000370 a2 c1 13 3d f6 15 16 3e ce 29 21 be 89 7a c2 3c
       0.036073335 0.14656815 -0.15738603 0.02374007
000380 72 e5 e7 3d c2 92 9c 3c 28 b4 49 3d e9 be 90 3d
       0.1132306 0.019112948 0.049244076 0.07067663
000390 fe f2 84 3d 7c 17 2d 3d 41 ea b8 3d 8a f1 62 3d
       0.064916596 0.042258725 0.090290554 0.05540613
0003a0 d4 8b 1e 3c 5b c3 3c 3d 89 f5 30 3d 94 e1 5c bb
       0.009676892 0.046084743 0.04320291 -0.003370379
0003b0 1e 07 c2 3d 44 f5 68 bd d4 ee 50 be 25 5d 2d 3e
       0.09474014 -0.05687453 -0.20403606 0.16930063
0003c0 23 3c 38 3d 85 e7 e1 bd 36 f7 be 3c f5 8f 82 bc
       0.044979226 -0.11030487 0.023311239 -0.015937785
0003d0 dd d7 d1 3d 1f 79 0e bd ba 93 48 be 0b d7 ad bc
       0.10246251 -0.03478348 -0.19587603 -0.021220705
0003e0 51 1c 35 3e 0c 34 e5 bd 6d b5 92 bd bf 61 ad 3d
       0.17686583 -0.11191568 -0.071635105 0.08465909
0003f0 10 f8 c9 bd 4f 09 eb bd 1e 1a 36 bd d8 7f c2 3e
       -0.09861767 -0.11476385 -0.0444585 0.37988162

bn2.weight f4 [64]
000000 bf 5f de 3d c9 e5 e9 3d 01 ff 9a 3d e0 a3 a1 3d
       0.10858106 0.11420781 0.075681694 0.07892585
000010 83 5a 15 3e d1 02 c2 3d 5b 69 3a 3e f8 f6 f4 3d
       0.14585309 0.094731934 0.18204252 0.11961168
000020 e5 44 b0 3d 03 4c 94 3d 24 fd a2 3d cd 95 96 3d
       0.086068906 0.072410606 0.07958439 0.07352791
000030 3b 2e 54 3e cc 38 fd 3d f6 8a 7c 3d 33 70 25 3e
       0.2072076 0.12364349 0.06165596 0.16156082
000040 78 84 8a 3d f3 b4 fe 3d 24 f5 63 3e b6 75 23 3e
       0.06763548 0.12436857 0.22261482 0.15962872
000050 b2 61 0e 3e 78 6f 0b 3e 43 5d ad 3d 5c 1e 15 3e
       0.13904455 0.1361674 0.08465054 0.14562362
000060 40 80 c9 3d a9 ee 1a 3e fc 7b 3a 3e 79 70 ec 3d
       0.09838915 0.15130104 0.18211359 0.1154489
000070 f7 e4 1c 3e 21 d8 13 3e 2a e5 20 3e 0a 78 ff 3d
       0.15321718 0.14437915 0.15712419 0.124740675
000080 68 78 31 3e d3 d4 e7 3d 66 b5 49 3e 7c 6d e2 3d
       0.17331088 0.1131989 0.19698104 0.11056039
000090 d5 b3 1c 3e 1c ab f4 3d 8c a8 43 3e bb a5 a6 3d
       0.15302975 0.11946699 0.19107264 0.08137079
0000a0 86 86 6b 3d 59 64 23 3e d8 0b 31 3e aa 71 19 3e
       0.05750134 0.15956248 0.17289674 0.14984766
0000b0 04 de 55 3e 6a 67 89 3d 96 18 37 3e 3b c3 16 3e
       0.20885473 0.06709178 0.17880473 0.14722912
0000c0 a8 37 91 3d d4 4c 19 3e 7c d3 20 3e a2 31 02 3e
       0.07090694 0.14970714 0.15705675 0.12714246
0000d0 6a d7 11 3e c5 a6 9c 3d 5f db 99 3d f7 94 2c 3e
       0.1424233 0.07648996 0.07512545 0.168537
0000e0 b4 11 aa 3d bb d6 8a 3d 83 6a a3 3d 8f c9 c8 3d
       0.08304158 0.06779238 0.079793 0.09804069
0000f0 d8 47 38 3e 60 81 48 3e 31 73 4c 3e fa b6 0b 3e
       0.17996156 0.19580603 0.19965817 0.13644019

bn2.bias f4 [64]
000000 e7 73 f8 3b 47 4a 1e 3d 40 47 93 3d d8 20 66 3c
       0.007582176 0.038645055 0.07191324 0.0140459165
000010 9d 24 91 3b 02 ee 49 3c 7b 77 50 be d5 4d 70 bc
       0.0044294135 0.012324812 -0.20358078 -0.014666994
000020 7c dd 20 bd 61 3f ea 3c 2b d0 4f 3d 56 41 4d 3d
       -0.039273724 0.028594675 0.050735634 0.050111137
000030 8f 51 5d bb 26 32 3a bd 82 0a 9f 3c a5 16 63 be
       -0.0033770537 -0.04545798 0.01941419 -0.22176607
000040 15 2c 9e 3d f4 08 76 3d e6 67 bd be 9c 73 ad be
       0.07723252 0.060067132 -0.3699333 -0.33877265
000050 8e 60 83 be e4 88 45 bb f8 a0 0c bd 2b 35 20 ba
       -0.25659603 -0.0030141408 -0.0343332 -0.0006111438
000060 94 be 92 3c 3c d4 b8 3c e0 a0 7f be 41 2d 3f bd
       0.01791314 0.022562139 -0.24963713 -0.046674017
000070 1c eb 7a bc ae c4 e1 3c 7e a2 8f be d9 6e 19 3d
       -0.0153148435 0.027559604 -0.2805366 0.03745923
000080 7f 5a bb bd f4 19 03 3d 2c 23 39 3b da fc 02 be
       -0.0914812 0.032007173 0.0028249724 -0.12791768
000090 13 6d 83 bd 7f 42 a0 bd d9 79 0b be 2c dd 4d 3d
       -0.06417289 -0.07825183 -0.136207 0.050259754
0000a0 26 fb ad 3d 24 b0 ca be d8 db 68 be fa 67 c0 3d
       0.084951684 -0.3958751 -0.22740114 0.09394832
0000b0 af e7 00 bd d5 6a cf 3d 11 a3 a6 3c 60 92 b1 3e
       -0.03147095 0.101277985 0.020341428 0.34681988
0000c0 cc f1 83 3d 9a f5 40 be 4b 06 44 be 4b 18 2f 3d
       0.064426035 -0.1884369 -0.19143026 0.042747777
0000d0 53 5e 21 be 21 6f 9f 3c 7e da cf 3d ed d2 05 3d
       -0.15758638 0.01946217 0.10149096 0.032671858
0000e0 53 f9 26 3d e7 0e 86 3d 9e 3f 53 3d b0 f0 e7 bc
       0.040765118 0.06545811 0.051574342 -0.02831301
0000f0 54 12 57 be 90 5e 17 bd 3c f3 f4 bd af da ba bc
       -0.21003085 -0.036955416 -0.11960456 -0.022809355

bn2.running_mean f4 [64]
000000 24 b5 19 be ff 17 f8 bd 4d f8 63 3c 67 87 ee 3e
       -0.15010506 -0.12113952 0.01391418 0.4658768
000010 e3 97 db 3b e9 f0 07 bf c4 f7 04 3f 95 b7 2a bf
       0.006701456 -0.53101975 0.5194056 -0.66686374
000020 cd 16 0a be 79 5c 60 3c 72 48 83 3e 01 bb ae be
       -0.1348526 0.013693922 0.2564121 -0.34127048
000030 9e dc cd bd 8f a3 5d 3e 18 84 3c 3f 6f 2e 85 3e
       -0.10051845 0.21644424 0.7363906 0.2601199
000040 10 2b e8 3c 63 a0 35 3c 7b 65 bc 3b 49 a5 8c 3e
       0.028340846 0.011085602 0.005749402 0.27469853
000050 dd 54 9b 3e 21 8d 8d 3e a7 76 19 3e 1b 06 b3 bd
       0.30338183 0.27646735 0.14986669 -0.08741399
000060 52 3a 01 bf 25 0b e1 be d1 ea b0 bd df 32 9e be
       -0.50479615 -0.43953815 -0.08638538 -0.30898187
000070 0c a4 a3 bd dd 34 39 3e 8c 66 11 3e ae 7b 2e be
       -0.07990274 0.18086572 0.14199275 -0.17039368
000080 c2 b8 4c bd 58 9b 0c bf e7 c5 87 3e da 1f ca bc
       -0.049980886 -0.54924536 0.26518175 -0.024673391
000090 e6 b5 d0 3e e9 60 d1 3d ff aa a2 be 8d b8 06 3d
       0.40763777 0.10223562 -0.31771085 0.032890845
0000a0 24 71 82 be 87 55 17 3f c2 3d 2a 3f 75 23 e4 3d
       -0.25476944 0.5911488 0.66500485 0.111395754
0000b0 7d 57 92 be 9d 9a 29 3e 41 91 f0 be a7 bb 0f bf
       -0.28582373 0.16562887 -0.4698582 -0.5614571
0000c0 72 32 f8 3d eb 63 81 bb 49 91 1f 3e 6c 64 39 bd
       0.12118997 -0.0039486787 0.15582766 -0.045261785
0000d0 dc 3f c3 3d 39 9b cb 3e e4 c7 d9 3d 53 61 a7 3d
       0.095336646 0.39766863 0.10633829 0.0817286
0000e0 83 9d 5c 3e 09 e1 a5 3e 22 84 c1 be cc 1f cf bd
       0.21544461 0.3239825 -0.37796122 -0.10113487
0000f0 28 ba be 3e e4 4c d5 3e bc 63 3c 3d 87 5f c5 bd
       0.372514 0.41660225 0.04599355 -0.09637361

bn2.running_var f4 [64]
000000 0a 58 a7 3d 08 d7 cb 3c 1d 08 e8 3a 78 8e 3f 3c
       0.08171089 0.024882808 0.0017702613 0.011691682
000010 d4 c3 da 3c 17 6b 81 3a 07 a7 7b 3c f4 0a b1 3e
       0.026704706 0.0009873834 0.015359647 0.3457867
000020 d6 87 fa 3c 36 36 be 3b f0 3c 17 3d 21 ff 18 3b
       0.03058235 0.0058048023 0.03692335 0.0023345428
000030 ad 8c 03 3e 1e ce 5d 3d 75 57 b5 3a 1b 8a 43 3d
       0.12846632 0.054151647 0.0013835268 0.04773913
000040 3c cd 82 3b da 94 72 3c 76 0c 21 3e 30 2a cb 3d
       0.003991751 0.014805997 0.1572741 0.09920156
000050 4d 95 f7 3c a1 f1 04 3d 9d 8e d1 3c 62 14 a6 3c
       0.03022256 0.032456998 0.025580699 0.020273391
000060 29 a9 0b 3d c0 e2 6c 3a 97 6b 5b 3e 8f 65 c0 3b
       0.03409687 0.0009036474 0.21427761 0.0058714817
000070 fb 2d 12 3d 16 f6 cb 3c 9e f1 20 3e 43 b5 7b 3c
       0.03568838 0.024897616 0.1571717 0.01536304
000080 01 4e 3b 3e 93 00 f6 3c d9 4d ff 3d 40 89 aa 3d
       0.18291475 0.03002957 0.1246602 0.083269596
000090 95 c9 9c 3c 93 12 80 3c 42 fd 8d 3e 0e 76 f3 3c
       0.01913909 0.015633857 0.27732283 0.029719379
0000a0 9c 2d fa 3a fa 6e 18 3c 81 07 b7 3d ca 43 63 3e
       0.0019087079 0.009303803 0.08936978 0.22193828
0000b0 1e d8 09 3e 01 1a e0 3b 48 11 b4 3d 34 9d e1 3d
       0.13461348 0.0068390374 0.08792359 0.11016312
0000c0 8b 59 af 3b 79 db 04 3e 86 86 64 3c 19 a7 81 3c
       0.0053512505 0.12974347 0.0139480885 0.015826749
0000d0 d0 b0 19 3c 40 94 11 3c cf ff cf 3b 06 b1 e7 3c
       0.009380534 0.008885443 0.0063476334 0.028282654
0000e0 6d 88 67 3c 1c 7d d1 3b bb cb 64 3b 61 e9 af 3c
       0.014131648 0.006393088 0.0034911472 0.021473588
0000f0 03 b8 46 3c e2 d5 f2 3d 82 57 45 3e 5b e2 de 3c
       0.012128833 0.11857201 0.19271663 0.027207544

conv3.weight f4 [64, 64, 3, 3]
000000 59 4a 39 bd 5e a2 fc bc 51 e0 52 3d 8b 87 5e 3c
       -0.04523692 -0.030839141 0.051483456 0.013582121
000010 bd d0 66 3b 2b 77 af 3d 23 95 3a be 86 6c b6 3d
       0.0035219633 0.08567651 -0.18220954 0.08907418
000020 3e 7f 5d 3d 53 7e d1 3c 92 5e 78 bd 05 ab 1e be
       0.054076426 0.025572931 -0.060637064 -0.15494926
000030 91 18 86 3d db 53 bf 3c 5a f8 03 bf 9b 1e 01 3d
       0.065476544 0.023355415 -0.5155083 0.03152333
000040 b6 eb 0a be 16 5c 85 be 16 a3 80 bc 46 8d d1 bc
       -0.13566479 -0.26046818 -0.015702765 -0.02558006
000050 c5 c9 ac bc 68 66 bd bb e6 ae ba bb a0 60 e0 bd
       -0.021092305 -0.00578003 -0.005697119 -0.1095593
000060 2f 74 12 3d 6a fe 2a 3d 49 9a 64 bc cd 89 ba 3d
       0.035755333 0.041746534 -0.0139528 0.09108315
000070 e3 59 f3 bd e6 27 9b 3d c0 ea 0d bc 03 51 56 3c
       -0.11882379 0.075759694 -0.008661926 0.013080838
000080 05 40 45 3d c3 cc 90 3e ce 76 38 3e 68 02 1a 3e
       0.048156757 0.2828122 0.1801407 0.1503998
000090 cc 78 29 3c f3 8e f0 bd b7 51 28 bc 2c 76 e1 bc
       0.010343742 -0.117460154 -0.010273389 -0.027522169
0000a0 0d c5 85 3c 45 92 07 be 12 04 be 3c 71 64 11 be
       0.016329313 -0.13239391 0.0231953 -0.14198472
0000b0 95 51 ed bc 0d 39 7a 3d 67 c8 65 3d 70 71 47 3c
       -0.028969565 0.061089564 0.05609932 0.012173042
0000c0 0f e3 31 be eb e0 1f be 75 76 7d be fa f5 38 bc
       -0.17371772 -0.15613143 -0.24752219 -0.011289114
0000d0 b8 5a 5a bd 92 dd 98 3d ef 5b 85 3b 73 c7 c2 3d
       -0.053309172 0.07464136 0.004069797 0.09510698
0000e0 75 d3 b3 bb e0 66 03 3c 9e 9e c9 bd de 4d 13 be
       -0.005487854 0.008020133 -0.09844707 -0.14385173
0000f0 0b 52 4f 3c 47 ba 35 be dc 3a cd bc 40 4f 95 bd
       0.012653838 -0.1774684 -0.02505248 -0.07290506
000100 ec b4 b4 bd 5b 32 3f 3d d8 07 de bd 44 12 ed bd
       -0.088235706 0.046678882 -0.1084134 -0.115757495
000110 26 d1 a5 3d e9 94 6d bc 2d 0f 13 3d ff aa 56 3e
       0.080965325 -0.014500835 0.035903145 0.20963667
000120 23 13 1a 3d 94 81 91 3d 13 b4 4c be bf a8 83 be
       0.037615906 0.07104793 -0.19990568 -0.2571468
000130 fc c7 05 bd 6a f0 8a be ce c5 d9 3d 47 e9 6a 3e
       -0.032661423 -0.27136546 0.106334314 0.2294055
000140 6b bf 1c be 11 38 f6 bc 74 b5 ab bc 25 4a 80 bd
       -0.15307395 -0.030056031 -0.020960547 -0.06264142
000150 00 43 bf bc a2 fd 79 3e 73 d2 e6 bc e6 5a 7a 3c
       -0.023347378 0.2441316 -0.028176522 0.015280461
000160 5c 68 08 3e f4 c4 7b 3d b6 67 c3 bc 05 81 cf bd
       0.1332106 0.061467126 -0.023853164 -0.101320304
000170 b2 ea 92 3c 6e c9 c1 3d ad 77 5d be 83 2e cc bd
       0.017934177 0.09462248 -0.21627684 -0.09969809
000180 a6 c4 05 bd 67 64 53 3c 3f 5e 0d 3e 4a 53 a2 bd
       -0.03265824 0.012902356 0.13805483 -0.079260424
000190 b2 ac d3 3d 2b 21 1e bc 80 5d cf 3c 0c dc d5 3c
       0.103356734 -0.009651463 0.025313139 0.026105903
0001a0 1d 4e 70 3d f7 5a 55 bc f4 3b b2 bd ce 48 fc 3c
       0.058668245 -0.013022176 -0.087028414 0.030796435
0001b0 12 63 33 3d 33 5e 04 3d 32 ec 9b 3d d5 64 aa bd
       0.043795653 0.032316398 0.0761341 -0.083200134
0001c0 e1 64 67 bd 10 f7 96 3d ad ad 8b bc c4 46 1b bd
       -0.05649269 0.07371342 -0.017050589 -0.037909284
0001d0 f3 9b 4a 3d 30 c1 d4 bc e8 37 31 bd 6c 59 92 bd
       0.04946513 -0.025971025 -0.043266207 -0.07145962
0001e0 d4 18 70 bd 16 73 77 be 29 ca 4a 3d 73 fc 32 bd
       -0.058617428 -0.24164996 0.0495092 -0.043697786
0001f0 6e d2 f9 bd 76 06 af 3d 41 12 e0 3b 61 92 f0 bd
       -0.121983394 0.08546154 0.0068381135 -0.117466696
000200 5b 17 29 3d 59 6c b1 bd 0f ab 8f 3d f2 94 61 3b
       0.04128204 -0.08663244 0.07015049 0.0034421054
000210 b1 5b 67 bd 96 09 9a 3b a5 62 b1 bd 17 21 05 3d
       -0.056483928 0.0047008498 -0.08661393 0.03250226
000220 34 4b b8 3d 17 44 c7 bb ac 34 4d 3d 81 3a 9e 3d
       0.08998719 -0.006081115 0.05009906 0.077260025
000230 5b e8 c3 3c d6 ab 3d 3c 97 ce a4 3d d7 08 c8 3d
       0.023914507 0.011576613 0.080472164 0.09767311
000240 8e f2 60 3c da 75 12 be 6a f8 cf bd 44 87 73 be
       0.013729705 -0.1430277 -0.10154803 -0.23782068
000250 6b da a5 b9 c7 cd ea bd c9 e0 c7 3d 48 a3 e1 bd
       -0.00031633987 -0.1146503 0.09759671 -0.110174716
000260 ef 1c b4 bc 77 c0 22 3e 08 dd 9e bd 90 7a 74 3d
       -0.021986453 0.15893732 -0.07757002 0.059687197
000270 ec 01 2e bd 38 5d 8a 3c f3 80 f8 b9 65 76 67 bd
       -0.0424823 0.016890153 -0.0004739832 -0.056509394
000280 9b da 8a bd 3c 3e b7 3c 05 75 ad bc ba 63 f7 bd
       -0.06779977 0.022368543 -0.021173963 -0.12079568
000290 9f 54 8f bc 91 52 7d be 15 dc 83 bd 67 0a 26 bb
       -0.017496405 -0.24738528 -0.06438462 -0.002533579
0002a0 a2 93 2b be b6 38 22 be fb 90 0b 3c 8a b3 21 bd
       -0.16755536 -0.15841946 0.008518453 -0.039477862
0002b0 84 c8 d8 bd 59 c4 8c bd dc 45 9c bd c4 c8 50 3e
       -0.1058512 -0.06873388 -0.07630512 0.20389086
0002c0 a0 c6 d1 3e 45 bd 7b bd e8 47 d3 bc 04 86 32 3e
       0.4097185 -0.0614598 -0.025791124 0.17433935
0002d0 fd d6 ed 3c e5 05 02 3c 7e 72 3b 3c e4 42 30 be
       0.029033178 0.007935976 0.011440871 -0.17213017
0002e0 5d a9 a3 be 4b 62 24 be 70 49 8f bd d3 30 07 be
       -0.3196515 -0.16053121 -0.06996429 -0.13202219
0002f0 2c f8 38 bd 55 52 89 bd ed 6c 67 bd 2b 6e f7 bd
       -0.04515855 -0.06705157 -0.056500364 -0.1208156
000300 a7 03 24 be 4b 71 02 be 5e f6 19 be 0d 7a 82 3d
       -0.16017018 -0.1273853 -0.15035388 0.063709356
000310 1f ef f0 3a 0a 2d e8 bd 15 de 8e bd 86 96 15 3d
       0.001838181 -0.113367155 -0.069759525 0.036520503
000320 d7 1d 49 bd 53 65 5e 3e f2 f9 ed 3d aa 7d da 3c
       -0.049100723 0.2171834 0.11619939 0.02667125
000330 ff de e6 bd a6 97 ea 3d eb d3 90 3d 69 80 c4 3a
       -0.11273002 0.11454706 0.0707167 0.0014991882
000340 08 86 c7 3d ca 48 79 3d de 4f 93 3c b6 0d bb bd
       0.09742361 0.060860433 0.01798242 -0.091334745
000350 b4 17 dc bc 10 90 0a be 9e 54 38 3b cf 26 52 be
       -0.026866771 -0.13531518 0.0028126608 -0.20522617
000360 1a aa 93 bd ac 6d 6c bd b0 9e 8a bd 6b 7f d2 bc
       -0.07210179 -0.05772178 -0.067685485 -0.025695523
000370 25 d5 b6 ba 08 97 97 3d 27 60 09 3d fb 7f 33 bd
       -0.001394902 0.07401854 0.033538964 -0.043823224
000380 3c 8a b7 bd ed af 56 bd 54 51 bb 3c dc 43 cd bc
       -0.08961913 -0.05241387 0.022865929 -0.025056772
000390 a2 dc 6c 3d 43 35 9b 3d 34 c3 04 be 64 63 52 3c
       0.0578276 0.07578518 -0.12965089 0.012841079
0003a0 ce a3 2c bd 7b bd 50 bc e7 cf 8e 3d ff fc 0e 3d
       -0.042148404 -0.012740488 0.06973248 0.034909245
0003b0 bc bf 40 3d 1b 5b bc 3d 52 4d 26 3e 5f 66 a3 3d
       0.047057852 0.091970645 0.16240433 0.0797851
0003c0 62 fd a8 3d 5a 66 48 3e 58 66 d8 3d a1 e7 92 3a
       0.08251454 0.19570294 0.105663955 0.0011207947
0003d0 c6 ab 68 3d aa 77 a5 bb 21 8b 60 bd 3c 4b 62 bc
       0.05680444 -0.0050496655 -0.054820184 -0.013811883
0003e0 0c c6 65 bd 84 21 b8 3c 32 c9 9e bd c8 c2 e5 3d
       -0.056097075 0.022476919 -0.07753219 0.11218792
0003f0 ac 7c 90 bd a7 2b be bd 95 69 77 bd 57 5f 34 bd
       -0.07055029 -0.0928567 -0.060403425 -0.044036236

bn3.weight f4 [64]
000000 d5 cf 02 3e ec e2 36 3e f3 3c 27 3e dc cc 55 3e
       0.12774594 0.17860001 0.16331844 0.20878929
000010 c1 dd 3a 3e 1a fd 04 3e 26 a9 63 3e d6 27 c4 3d
       0.18248655 0.12987176 0.22232494 0.095779106
000020 ff ef 29 3e ac 23 49 3e 03 d2 a7 3d 1a 92 d9 3d
       0.16595457 0.19642514 0.081943534 0.1062357
000030 c2 42 14 3e b7 8d 36 3e 18 c1 61 3e 7d 83 3d 3e
       0.14478591 0.17827497 0.22046316 0.1850719
000040 47 61 1c 3e 16 f2 ce 3d 34 77 1a 3e ec b5 28 3e
       0.15271483 0.10104768 0.15084535 0.16475648
000050 bf a8 06 3e 42 80 0e 3e c0 39 38 3e a5 78 fd 3d
       0.13150309 0.13916114 0.1799078 0.12376527
000060 2b 3e d0 3d b2 5c 37 3e ba fc a2 3e 02 a6 2e 3e
       0.101681076 0.17906454 0.3183344 0.17055514
000070 8b c0 67 3e dc 4e dd 3d 5b 40 06 3e a6 26 70 3e
       0.22632043 0.10806057 0.13110487 0.23452243
000080 56 64 8f 3d f1 46 27 3e d7 af 5c 3e ff e4 d7 3d
       0.070015594 0.16335656 0.21551453 0.105417244
000090 c6 6b ff 3d 04 09 31 3e b4 40 24 3e a9 51 4b 3e
       0.12471728 0.17288595 0.16040307 0.1985537
0000a0 5e d2 ea 3d f9 26 cd 3d 8a f5 2f 3e 25 ea 89 3e
       0.114659056 0.10017199 0.1718351 0.2693645
0000b0 20 3d 35 3e f9 d7 5b 3e 4b 85 55 3e 97 ad 4b 3e
       0.17699099 0.21469106 0.20851628 0.19890438
0000c0 07 c3 1d 3e 89 12 88 3d 50 fe 12 3e 31 93 2b 3e
       0.15406428 0.0664416 0.14354825 0.16755368
0000d0 36 bc ec 3d 5f d1 1d 3e fc 22 15 3e 86 6a 40 3e
       0.11559336 0.154119 0.14564127 0.18790635
0000e0 c0 04 b8 3d cc af 73 3e a4 90 a0 3d 43 fe 3f 3e
       0.08985281 0.2379753 0.07840088 0.18749337
0000f0 b6 90 d8 3d b1 60 73 3e f2 3c 32 3e e9 37 2e 3e
       0.105744764 0.23767354 0.17406061 0.17013516

bn3.bias f4 [64]
000000 3d dd 3b 3d 92 70 46 bc 63 46 b9 3c af 67 10 3d
       0.045865286 -0.0121118 0.02261657 0.03525513
000010 14 45 83 bd b2 39 e3 3d 58 f7 55 bd e5 1f 50 3e
       -0.0640966 0.11094989 -0.05223784 0.20324667
000020 f8 02 64 3d 26 8f ff bd c4 78 82 3e 9f 0f 9a 3e
       0.055666894 -0.12478475 0.25482762 0.30090043
000030 9d 50 52 3d 7c a2 aa 3c 5d 33 9e bd 27 86 28 be
       0.05134641 0.020829432 -0.077246405 -0.16457425
000040 f6 36 e3 bd c1 02 47 3d c6 70 94 3d 7c c3 4b 3d
       -0.11094467 0.04858661 0.07248072 0.049746975
000050 67 f6 42 3d af cd 34 3d 2e 9a 44 3d b7 c5 24 3d
       0.04759827 0.044141468 0.0479986 0.040227618
000060 1e a7 d4 3d a6 9c db be b8 16 05 bf 33 5a 0d be
       0.103834376 -0.4289295 -0.5198779 -0.1380394
000070 52 8f 6f bd ba ea 8e 3d 2e f3 2f 3d 93 41 33 be
       -0.05848629 0.06978364 0.042956524 -0.17505483
000080 41 8c ba 3d 7f 75 63 3d 52 db 32 be 11 06 3b 3d
       0.091087826 0.055531975 -0.17466477 0.045660082
000090 75 22 ca 3d 42 60 8c bc 28 27 0b 3d 5a 07 c0 3d
       0.098698534 -0.017135743 0.03397289 0.09376402
0000a0 01 3a 2a 3d 4f e8 05 3e 71 a1 e7 3c ce 61 e1 be
       0.041559223 0.130769 0.028275223 -0.44019932
0000b0 da 2d 32 3d 07 91 a8 bd 72 3e af bc 2e 14 e8 3c
       0.04350076 -0.08230787 -0.021392081 0.028329935
0000c0 a3 48 c3 be 92 6e db 3d e5 a2 22 be 95 34 e8 bd
       -0.38141355 0.10714449 -0.15882452 -0.11338154
0000d0 94 fe 82 3c 0e 5f b1 3d fb 0c 44 3d 4a 3e 82 be
       0.015990533 0.08660708 0.04786394 -0.25438148
0000e0 d3 84 49 3e ec fc b8 bc 7f 32 b0 3d 81 20 07 3e
       0.19679575 -0.02258154 0.08603381 0.13195993
0000f0 25 77 10 3e fe 12 5d be 18 34 14 3d 83 ce 2b be
       0.1410795 -0.21589276 0.036182493 -0.16777997

bn3.running_mean f4 [64]
000000 b6 19 40 be 0a 86 8e be 77 a4 02 be 6e d6 27 be
       -0.18759808 -0.2783664 -0.12758051 -0.16390392
000010 cd 2d c4 be d2 8d d3 be f7 76 89 3c 53 cf f0 3c
       -0.38316193 -0.41319138 0.01678036 0.029395735
000020 03 e8 a4 be af fb a0 3d 67 f8 bd bd 4a c3 66 be
       -0.3220826 0.07860505 -0.092758946 -0.22535434
000030 c2 46 33 bc f5 92 cd 3d 8e 31 0a 3e c4 b2 ac be
       -0.010942163 0.100377955 0.13495466 -0.33730137
000040 13 e3 5a be fd 18 2e be 91 5b 69 3d d7 87 95 3e
       -0.21375684 -0.1700172 0.05697209 0.292052
000050 aa fc ad bd 7f 8b 86 bd 6d bf 91 3d e6 e6 e9 bc
       -0.084954575 -0.065695755 0.0711659 -0.028552484
000060 b4 7e b5 bc 54 0f 71 be 93 e7 40 be d7 a8 80 be
       -0.022155143 -0.23541003 -0.18838339 -0.25128815
000070 f1 bd 9f 3e 7e 32 ed 3e 69 1e 19 be 9a 23 88 3e
       0.311996 0.46327585 -0.14953007 0.26589662
000080 b2 ae 97 be ee 7c 85 3d b4 23 b4 be ed 31 a9 be
       -0.2962547 0.06517969 -0.3518349 -0.33045903
000090 03 82 a8 bd 42 27 a3 bd c4 f1 f9 3e 87 a0 25 ba
       -0.08227923 -0.07966472 0.48817265 -0.0006318171
0000a0 6f 2b 05 be 02 89 42 be dd 39 33 be f2 ce 63 be
       -0.1300485 -0.18997577 -0.17502542 -0.22246912
0000b0 2e f1 ac bd b0 c8 cf 3d d7 a6 ef bd 83 8f 8b 3d
       -0.08444439 0.101457 -0.11701744 0.06814482
0000c0 fb 3f e3 be ec 35 8d be 6d 43 77 bd 3a 59 49 be
       -0.4438475 -0.27580202 -0.060367037 -0.19662943
0000d0 c7 5a 9c be ee f6 1d 3f c3 e3 a0 be 19 a2 c8 be
       -0.30538008 0.6170491 -0.31423768 -0.3918617
0000e0 5e 6a b0 be 90 8e cc 3c ef 82 85 be fb 1a 83 be
       -0.34456152 0.024970323 -0.26076457 -0.25606522
0000f0 26 84 d1 be 97 31 14 bf dd 27 99 bd fb 50 b1 be
       -0.40921134 -0.5788817 -0.074783064 -0.34632096

bn3.running_var f4 [64]
000000 66 cc 04 3d 26 14 03 3e c4 ff 98 3d 2d 9f a2 3e
       0.032421492 0.12800655 0.074706584 0.31762066
000010 de ee e8 3d 10 b3 ac 3c 18 be 9c 3e f2 52 97 3c
       0.11373685 0.021081477 0.3061378 0.018472169
000020 0e 50 78 3d cc a6 67 3e 63 f9 8a 3c d0 59 ee 3c
       0.06062322 0.22622222 0.01696462 0.02909556
000030 67 73 8a 3d 22 21 80 3e 50 8a e9 3e a5 71 01 3d
       0.067602925 0.25025278 0.45613337 0.03160252
000040 a1 c0 c2 3d 73 32 dd 3c 58 80 65 3d 77 02 93 3e
       0.09509397 0.027001595 0.0560306 0.28712818
000050 c2 e4 1b 3d dd 61 59 3d 4b f4 9a 3d 41 1c 81 3d
       0.038059957 0.053071845 0.075661264 0.06304217
000060 bb 6e ac 3c 47 d5 a7 3b 5a 90 98 3c 59 f5 95 3d
       0.021048894 0.00512186 0.01862352 0.07322187
000070 22 7d bc 3e 4d 29 a1 3d 22 b0 fb 3c 55 7f 91 3e
       0.3681422 0.078692056 0.030723635 0.2841746
000080 41 01 93 3c 60 bc 56 3d 18 5c 44 3d 78 1f 9a 3c
       0.017944934 0.052425742 0.04793939 0.018813834
000090 69 80 81 3d de 60 01 3e 01 eb fc 3d 42 4e 93 3d
       0.063233204 0.12634608 0.12349511 0.07192661
0000a0 21 b8 bf 3c 0e 7b 96 3c a3 dd 99 3d 98 76 69 3c
       0.02340323 0.018369224 0.07512977 0.014249466
0000b0 3d 67 8e 3d a8 a1 a2 3e f1 41 10 3e c5 28 15 3e
       0.06953285 0.3176396 0.14087655 0.14566334
0000c0 86 95 71 3e 1c 50 61 3c 3f 8c 21 3d 8f 84 f4 3d
       0.23592195 0.01375201 0.03944039 0.11939346
0000d0 57 4e 17 3d e1 91 70 3e 89 ee 44 3d a4 2b 47 3d
       0.036939945 0.23493148 0.048079047 0.048625603
0000e0 7a 88 9e 3c 31 81 b0 3e 8f af 4d 3c 50 33 68 3d
       0.019352186 0.34473565 0.012554063 0.05668956
0000f0 0f 09 af 3c d7 dd 41 3d 2b 4a 98 3e 11 7b a4 3c
       0.021366624 0.047330704 0.29744086 0.020078214

conv4.weight f4 [64, 64, 3, 3]
000000 b2 11 34 3d 44 1d 75 bd fe 6d 19 3d 75 f9 47 3e
       0.043962188 -0.059842363 0.037458412 0.19528754
000010 81 3a f2 bd a7 56 c4 3b 92 25 64 bc bc bb 3c 3c
       -0.11827565 0.005991775 -0.013924973 0.011519369
000020 1e 9a 5d bc 4b 29 59 3d 89 73 df ba 69 99 b8 bc
       -0.013525514 0.053017896 -0.0017047982 -0.02253409
000030 bb 1d a4 3d 3c 81 81 bd b6 9a b8 bd f6 92 c8 ba
       0.08013483 -0.063234776 -0.09013884 -0.0015302587
000040 30 c0 88 3a 3a 52 65 bc 08 f2 61 3e ee cc 86 be
       0.0010433253 -0.013996655 0.22064984 -0.26328224
000050 c9 d0 16 bd c5 25 08 3e 73 53 8e bd 7a 24 69 3b
       -0.036820207 0.13295658 -0.069495104 0.003557472
000060 a9 e9 b1 3b b2 34 38 3d 94 f8 bd 3c 7a 5d 8a 3e
       0.005429466 0.04497213 0.02318982 0.27024442
000070 6e 5c ca 3b 2e 4f da bc 1d 3e ac 3d a8 a7 f1 bd
       0.0061755693 -0.026649084 0.08410285 -0.11799556
000080 07 27 ff bc af 2b 65 3d 7e 3e 88 bc 94 0c 79 3b
       -0.03114654 0.055949863 -0.016631361 0.0038001882
000090 e5 8d 78 3e 90 c2 84 bd 04 6b 19 bd d3 67 2e bd
       0.24272878 -0.06482422 -0.037455574 -0.042579483
0000a0 aa f7 f3 bd c4 3d af 3c c5 92 7a 3c 4c 9d a7 bd
       -0.119124725 0.021391757 0.015293782 -0.08184299
0000b0 06 a3 a0 3b 5d 4c db 3b 58 ab 33 be 84 0a 7d bc
       0.0049022464 0.006692453 -0.17545831 -0.015444402
0000c0 6b 35 05 3e b9 1f 57 3e 66 74 46 bd ab 7f d1 bc
       0.13008659 0.21008195 -0.04845085 -0.025573572
0000d0 5c 45 6d 3c ce 08 99 bc d8 31 a2 bd 5f f6 93 bd
       0.014481869 -0.018680956 -0.07919663 -0.07224726
0000e0 e9 30 06 bd 19 62 83 bd 38 70 02 be 7a 38 97 bd
       -0.032761488 -0.06415195 -0.1273812 -0.07383819
0000f0 7b 52 c3 bc 9f 5a 1f bd ef e7 da bc df e1 d0 3d
       -0.02384304 -0.038904782 -0.026721923 0.101993315
000100 ab 5f a2 3d d4 f8 cc bb ea e4 3d be 07 c9 89 bd
       0.079284035 -0.0062552486 -0.18544355 -0.06727796
000110 0d 7d c0 3d cc af f0 bc af dd b0 3a 59 3d 8b 3b
       0.093988515 -0.029380701 0.0013493801 0.0042492566
000120 53 15 1a 3e f2 2a 24 bc bc 08 71 3b 7c 33 79 be
       0.15047197 -0.010020005 0.0036778888 -0.24336046
000130 0f 69 2f be 0f e0 23 3c d3 a8 4b 3b f0 68 2d 3d
       -0.1712992 0.01000215 0.003107597 0.042336404
000140 9d d1 12 3c 2d 5f df 3d 23 9b 09 bd 7a 51 21 bc
       0.0089611085 0.10906825 -0.033595216 -0.009846086
000150 3e 37 1f 3e 78 e4 08 be 3e 94 04 bd e6 75 00 bd
       0.15548417 -0.13368404 -0.032367937 -0.031362437
000160 1a c5 dd bc 23 b6 8b 3c 7a 3e 1c 3e 3e 89 ff bc
       -0.027071524 0.017054623 0.15258208 -0.031193372
000170 19 3f 7f bc 0d 53 80 3d 77 da 5d bd 90 f1 17 3d
       -0.0155790085 0.06265841 -0.054163422 0.037095606
000180 c9 0b 92 bd 16 ec 09 bd e1 bf b8 3b 5b 1c 20 3d
       -0.07131154 -0.033672415 0.005638108 0.039089542
000190 af 44 f3 bc 10 35 08 bc 8a 6f 81 bd cb 08 f1 bd
       -0.029695837 -0.008313432 -0.063201025 -0.11769255
0001a0 96 da 5f bc c0 20 83 bc 94 f6 c6 bc 31 ce 61 3c
       -0.013662955 -0.016006827 -0.0242875 0.01378207
0001b0 5b 1b 17 be 0b 3f 1e 3e c0 8d 60 3c cd 2e 3f 3d
       -0.14756529 0.15453736 0.013705671 0.046675492
0001c0 d5 f7 29 bd fa 4c f0 bc e7 0d 40 3d 95 89 bd bc
       -0.041496117 -0.02933358 0.04688826 -0.023136893
0001d0 43 19 df 3c 1c ad 2f bd 79 b9 b3 bd a8 16 94 3a
       0.027233725 -0.0428897 -0.087756105 0.0011298256
0001e0 bf 15 57 3a 81 82 0e 3d 1c 46 02 bc 6c d9 45 bb
       0.00082048395 0.034792427 -0.007951286 -0.0030189408
0001f0 a3 54 35 bc 47 0d 39 3c de 6f 85 be 8d cc 57 be
       -0.011067542 0.0112946695 -0.2606191 -0.21074124
000200 9d 92 4e bd 0e 5a 6d be 01 d5 be bd 87 2e 42 bd
       -0.05043279 -0.23178884 -0.09317971 -0.047407653
000210 5d b8 82 bc f5 98 68 bc be d2 12 bd 24 de 30 3d
       -0.015957052 -0.014196624 -0.03584551 0.0431806
000220 0b 71 90 bc c6 ca 1b 3d 3c 66 ff bc 3f 36 1b bd
       -0.017632028 0.038035177 -0.031176679 -0.03789353
000230 bf a3 e4 3c 34 9c de 3b 7b c8 da bc 49 e5 37 bc
       0.027910111 0.006793523 -0.026706925 -0.011224099
000240 a2 24 68 bd 01 89 15 bd 91 7a 1d bd 7d 30 d2 bd
       -0.05667556 -0.03650761 -0.038446967 -0.10263155
000250 dd 47 7c be 47 a9 e7 bd 0c 3a e1 bb 5c 2a 85 3c
       -0.24636789 -0.11311584 -0.006873375 0.01625555
000260 39 31 85 3c 75 fc c9 3d 76 08 0b 3d 3d 60 93 3c
       0.016258823 0.098626055 0.033943616 0.017990226
000270 bf 86 23 bd bf a3 d5 bd e1 1d 27 3d ae 20 4b 3c
       -0.039923426 -0.10431623 0.04079998 0.012397928
000280 ca 74 91 3c 0b 34 26 3d 72 b6 e8 3d 2d 48 75 be
       0.017755885 0.040576976 0.11362924 -0.23953314
000290 c0 aa 88 bc e5 47 05 be cb ca 13 3d 14 e8 29 3d
       -0.016682982 -0.13015707 0.03608207 0.041481093
0002a0 cf 60 22 bd 36 a4 dd 3c f9 bb 93 bc 5c 01 91 bc
       -0.039643105 0.027055841 -0.018033968 -0.017700844
0002b0 59 cd 5d bd 19 b6 44 bb 44 a9 5d bd b7 02 90 be
       -0.054150913 -0.0030015765 -0.054116502 -0.2812707
0002c0 97 5f a3 bd b3 a5 ad bc 8e a2 b4 bd 8a 6b 18 bd
       -0.07977217 -0.021197176 -0.08820067 -0.037211932
0002d0 25 37 93 bc 3a fe 77 3d 8e cc 6a bc c7 36 59 be
       -0.01797063 0.060545184 -0.014330996 -0.21212302
0002e0 03 04 e0 bd 5c a1 c1 3d 87 23 01 3d c3 cb 49 3c
       -0.10938265 0.09454605 0.031528022 0.012316647
0002f0 6f 98 d7 3b ce 8f 93 3d 77 a5 31 be 07 9a b0 3c
       0.006579451 0.07205163 -0.17348276 0.021557821
000300 93 ef 15 be 3a ec fb 3c b6 4b 15 3c 8c 2d e0 3c
       -0.14642172 0.03075229 0.009112289 0.027365468
000310 25 64 e0 3b da 98 d0 3c 65 59 9d 3d 3d 76 33 3e
       0.0068478757 0.02546351 0.07683066 0.17525573
000320 62 fc 95 3c 46 96 4b 3e a7 36 54 be 22 37 03 3d
       0.018308822 0.19881544 -0.20723973 0.032035
000330 a6 b3 52 bd 02 3c ae bb bf cb 6b 3c e7 78 9c be
       -0.051440857 -0.005317212 0.014391839 -0.3056099
000340 30 a8 6d 3d 40 ed 80 bd fc 58 99 bd aa da 51 bd
       0.058021724 -0.06295252 -0.074876755 -0.051233925
000350 97 9e c3 bc 24 b3 66 3d 83 c4 0b 3c ad 93 d7 3c
       -0.023879332 0.056323186 0.008530739 0.026315534
000360 d8 be 85 bd 8b 71 fe 3d 17 9a f6 bc bd c6 e2 bd
       -0.06530541 0.12424 -0.030102773 -0.110730626
000370 4f c3 89 be 79 f6 22 bc be bc 65 3d aa 7a 4f 3c
       -0.2690682 -0.009946459 0.0560882 0.012663523
000380 4c d9 ad bc 05 51 13 3c 28 5e 42 bc d4 2f 89 3c
       -0.02122178 0.0089914845 -0.011863269 0.016746439
000390 2c 95 68 3c e6 08 0d 3d a1 d2 a4 bc 94 59 87 bd
       0.014195722 0.034432314 -0.020119967 -0.066088825
0003a0 2b 6d 84 bc e1 84 c1 bc 86 49 71 bc 40 72 61 3b
       -0.016165337 -0.023622932 -0.014727002 0.0034400374
0003b0 a6 e0 48 3b 3f 60 07 3d ca 11 5a bb f1 3f 8f bc
       0.003065148 0.03305077 -0.0033274763 -0.017486544
0003c0 d3 d6 88 3b e0 ee b9 bb f3 52 33 3c 82 fd 0e bd
       0.0041759997 -0.005674228 0.01094507 -0.034909733
0003d0 a1 c2 d3 bd 69 5f 52 bd 34 2d b9 3c 3f bd 4e bd
       -0.10339857 -0.05136052 0.022604562 -0.050473448
0003e0 78 92 f4 bc c9 e6 01 bd 85 69 46 3b ed ad e0 bc
       -0.029854998 -0.031714235 0.0030275297 -0.027426684
0003f0 bc 0f 86 be fb 02 4b be c7 16 b6 bc 0a d2 4e be
       -0.2618388 -0.19825356 -0.022227658 -0.20197311

bn4.weight f4 [64]
000000 ce 96 08 3f 81 77 bb 3d 18 44 a2 3e 0b 68 55 3d
       0.5335511 0.09153653 0.31692576 0.052101176
000010 b3 50 51 3e 55 79 c7 3d 9a 01 8f 3e 3a 4e 1f 3e
       0.2044094 0.09739939 0.2793091 0.15557185
000020 b8 d6 ac 3e 12 43 e6 3d 2b c9 4c 3f 44 71 1f 3e
       0.33757567 0.112432614 0.7999446 0.15570551
000030 16 e4 8c 3e 5c f0 df 3d 71 87 89 3d a4 f8 47 3d
       0.27517766 0.10934517 0.067152865 0.048821107
000040 33 e4 7c 3d 48 0c a8 3e ec cc ec 3d 1e d0 2c 3e
       0.061741065 0.3282187 0.11562523 0.16876265
000050 2c 24 b3 3e df 8e c1 3e 7e d3 46 3d 44 88 2a 3e
       0.34988534 0.37804314 0.04854154 0.16653544
000060 8f 2f 10 3e 3b 91 ed 3d 15 7d 48 3e 66 ec 08 3e
       0.14080642 0.11599966 0.19578965 0.13371429
000070 43 6a 24 3e 63 c7 ed 3d 92 c8 5a 3d 44 07 36 3d
       0.1605616 0.116102956 0.053413935 0.044440523
000080 86 1d ad 3d 89 e9 a0 3e 90 f1 5b 3e 2b e9 80 3d
       0.08452897 0.31428173 0.21478868 0.06294473
000090 3b ef ef 3d 8a da 27 3e 8e e5 a7 3d ba c6 05 3e
       0.117155515 0.1639196 0.08198081 0.1306409
0000a0 85 de 8f 3e ec 6d d7 3e 86 d1 9f 3d 4f 88 81 3d
       0.28099456 0.4207605 0.07803635 0.06324827
0000b0 2e c3 c5 3d 74 35 39 3e cf c4 35 3d 2c 3c 47 3e
       0.09656368 0.18086797 0.044377144 0.19456547
0000c0 75 8e 05 3f 3e 94 0c 3e dc 9f bc 3d fb d9 0c 3e
       0.521705 0.13728425 0.09210178 0.13755028
0000d0 79 5c c9 3e cb 9e e9 3d 07 ba c5 3d a6 36 61 3e
       0.39328364 0.114072405 0.096546225 0.21993503
0000e0 7c 97 0a 3e 46 a9 af 3d a0 aa 83 3d e1 35 7b 3d
       0.13534349 0.08577208 0.064290285 0.06133068
0000f0 f8 4c 9e 3e 1b 93 41 3d db e8 48 3d e9 4b 3f 3d
       0.30918097 0.04725943 0.049050193 0.046703253

bn4.bias f4 [64]
000000 c4 71 b6 3c c8 91 05 3c 47 1f 9d bd 67 33 49 3c
       0.022271045 0.008152433 -0.07671981 0.012280322
000010 58 a3 5c bd 74 96 a3 3e e3 0d 84 bd 62 dc b6 bd
       -0.053866714 0.31950724 -0.06447961 -0.089287534
000020 5d bb 3e bd e8 31 ea be 48 f9 82 bd e5 44 2a be
       -0.046565402 -0.457412 -0.06395203 -0.16627844
000030 bf 22 f3 bc 9c 02 f9 3c bb 2e f9 3c 13 0e 8a 3c
       -0.029679654 0.030396752 0.03041779 0.016852414
000040 f6 87 93 bc a2 17 df bb f9 4a 91 bd e6 4e 20 be
       -0.018009167 -0.006808237 -0.07094378 -0.15655097
000050 23 d4 e5 bb 63 32 a3 bc 9e 45 23 3d 21 08 0b be
       -0.007013814 -0.019921487 0.039861314 -0.1357732
000060 aa f2 88 bd 2d 73 28 bd d1 66 18 be 51 93 10 bd
       -0.066869095 -0.041125465 -0.14882971 -0.035296742
000070 03 94 ef bd 94 df 15 be 0d 00 08 3d fa f5 fc 3d
       -0.11698153 -0.1463607 0.033203173 0.12351604
000080 99 2d 1b bd 0b b8 37 bd 5a 98 9f bc f8 80 04 3e
       -0.037885282 -0.04485325 -0.019481827 0.12939823
000090 5e 94 cd bd 7a 71 82 bd c4 26 75 bc f2 36 dd bd
       -0.100380644 -0.063693 -0.014962856 -0.108014956
0000a0 a8 f7 87 bc 41 70 44 bd 80 85 91 3b ce 5a c3 3c
       -0.016597584 -0.047958616 0.0044409633 0.02384701
0000b0 5b 9b 2b bd 1f a6 a5 3c ec 2e b8 3d 34 1d 8d bd
       -0.041896205 0.020220814 0.08993325 -0.06890336
0000c0 a2 12 36 3d d4 4e ba bd 8b cf ab bc 9b 8a d6 3d
       0.044451363 -0.090970665 -0.020972988 0.10475656
0000d0 13 e3 f8 3c 4a 03 45 bd 6b 72 e0 ba 47 a4 a3 bc
       0.030381715 -0.04809884 -0.0017123943 -0.019975794
0000e0 b6 40 81 bd a2 ed 75 bd b3 e5 2e bc cc 35 ee 3d
       -0.06311171 -0.060041077 -0.010674882 0.11631355
0000f0 84 a4 79 bc 60 9b 43 3d 3f d9 47 3d 4d b9 89 bb
       -0.0152369775 0.0477556 0.048791166 -0.004202998

bn4.running_mean f4 [64]
000000 95 a2 64 be de cb 66 be 61 ea fc bb 36 85 2b bf
       -0.22327645 -0.22538707 -0.00771837 -0.6700014
000010 2a 79 90 bd 3c 29 86 be e5 13 a1 3e c4 39 23 3e
       -0.0705436 -0.26203334 0.3146049 0.15940005
000020 0b 6e cc 3e 21 ed 46 be c1 66 d2 3e 36 7f 3d bf
       0.39927706 -0.19426395 0.4109402 -0.74022233
000030 8c 55 93 3e a9 60 90 bc dd 08 d0 bd 09 da 18 be
       0.28776205 -0.017624216 -0.101579405 -0.14926924
000040 e5 d9 9d be 76 c0 ba 3c 76 fc c9 3e 2f 7c 01 3f
       -0.30830303 0.02279685 0.39450425 0.50580114
000050 04 3a 60 3e 3a 95 18 3e ac cd 93 3e 8e 4b 4a be
       0.21897131 0.14900675 0.28867853 -0.19755384
000060 46 7c 9f bb 37 17 15 3e 46 59 98 be 97 2e 84 3e
       -0.0048671095 0.14559637 -0.2975561 0.25816795
000070 a6 d6 76 3c 3d 9f 8a bd 9d 30 ec bc 09 ed 1f be
       0.015065825 -0.067686535 -0.028831774 -0.15617765
000080 c1 dc 8c bd c2 2c 71 3e f8 f0 8a be 03 25 31 3d
       -0.06878043 0.2355223 -0.2713697 0.043248188
000090 e3 68 0a bf 82 46 3c be ef f5 a8 bd 17 27 18 be
       -0.54066294 -0.18386272 -0.08250033 -0.14858662
0000a0 87 5f 29 3e 53 c6 45 be 9a 0c d7 bd e2 f0 97 be
       0.16540347 -0.19313936 -0.105004504 -0.29675967
0000b0 31 8f df be 8c f4 2c be 43 1a d3 bd 8f 7a 3e bf
       -0.43663934 -0.16890162 -0.103077434 -0.7440576
0000c0 df 11 49 be 7c c0 d9 be 9b 8a c9 bc 5f 79 b5 3e
       -0.19635724 -0.42529666 -0.024602225 0.3544416
0000d0 65 1d ab be ae b3 14 be c1 87 eb be 8f 38 a8 bd
       -0.33420864 -0.14521667 -0.4600201 -0.08213913
0000e0 84 4d b8 be 54 20 be 3d 19 92 0f be 25 f1 58 bc
       -0.3599664 0.0928351 -0.14020576 -0.013241087
0000f0 98 54 05 be b2 98 09 bf 24 7f af be a9 69 21 3d
       -0.13020551 -0.5374862 -0.34276688 0.039407406
