ckpt/ckpt-t-cr6-deepsc-t18db-rt-awgn.pth (torch, 729127 bytes, 46 tensors)

conv1.weight f4 [16, 3, 3, 3]
0.12135477 -0.056548987 0.13649239 0.015349494 -0.08567709 -0.13515523 -0.024795515 0.10027229
-0.059907578 -0.012428933 -0.066696644 0.087765746 -0.06997865 0.03222898 -0.08385627 -0.050106954
0.15587592 0.01081498 -0.017580617 -0.092276014 -0.09834978 -0.025420863 0.07277725 -0.20362537
0.013128803 0.3286531 0.019978749 -0.1531199 -0.2080468 -0.0737302 -0.019602245 0.03523559
0.04710651 0.015211216 0.092954874 0.046826392 -0.1662666 -0.2373935 -0.24876747 -0.12033257
0.0025137968 -0.04369612 -0.085829005 0.03276805 -0.03642156 -0.04022322 -0.10663431 -0.08088857
0.056971774 0.024638832 0.055948477 -0.01922091 0.08139246 -0.008845349 0.014832376 0.068319105
0.082716845 -0.09145668 0.011487153 0.07515576 -0.10342248 0.05486411 -0.06291416 0.024323782
0.09645822 0.039814655 -0.08094174 0.102997996 0.11332201 -0.059832934 0.030197974 -0.1282779
-0.050910227 0.119111724 0.084818535 -0.048753154 0.22434495 0.24903485 -0.07727808 0.13519956
-0.030629894 0.013103878 0.08478192 -0.04236696 0.11114982 0.07705572 -0.06544517 -0.018620541
-0.005794408 0.0069863847 0.20919572 0.31353512 0.11501761 0.25767368 0.21955709 -0.0018244361
-0.025620922 0.021843383 0.0018192139 -0.049991198 0.011363176 -0.013598584 -0.03297357 -0.020179626
-0.12959881 -0.052076876 -0.078787595 -0.043594163 0.087923765 0.17667103 -0.038032424 0.0889794
0.074831925 -0.08445809 -0.08958082 -0.09500527 0.06080455 -0.084103204 0.024729872 -0.013368309
-0.026680747 -0.053581897 -0.10480613 -0.10203072 -0.15232646 0.07376659 0.1342384 0.19265357
-0.0712327 0.17066538 0.08711875 -0.050264478 -0.001352279 -0.18381768 -0.0073778285 -0.006479586
0.02263453 -0.041505326 0.08100783 0.22158125 -0.012069127 0.2957384 0.58808357 0.07193959
-0.026575865 -0.009975225 0.0014124347 -0.08190003 0.06730864 -0.052466508 -0.056269713 0.089308225
-0.005580038 -0.015689842 -0.036329176 -0.0136990305 -0.057906356 -0.0069884458 -0.08842036 -0.009939472
0.039997447 -0.0128022935 -0.04714002 -0.05633717 -0.08811109 0.16838357 -0.03989189 -0.1199994
0.09597082 -0.039237622 0.09408452 -0.013363158 -0.07942581 -0.04615781 0.09494736 -0.11926718
-0.15573782 0.09648864 -0.033960238 0.12278693 0.037214343 -0.14304358 -0.109918006 0.024706198
-0.22054525 -0.13738976 0.021688718 -0.12519285 0.00046654273 -0.03265716 0.044516284 0.0065380386
0.1534526 0.16862312 -0.03378262 -0.07059881 -0.15286607 -0.06712498 -0.06525145 0.13236348
-0.0668328 0.1375769 0.1423387 -0.11352931 -0.015713299 -0.010669861 -0.21040283 -0.051668998
0.04266417 -0.061155166 -0.05922815 0.007103038 -0.2142725 -0.1297822 -0.1337928 -0.11869431
0.03203809 0.078229904 0.04618023 -0.1537877 -0.010077248 0.058180884 0.036741525 0.041199148
0.047348365 0.0002525231 0.023194527 0.040752895 -0.31815037 -0.099295065 0.037849613 -0.046320222
-0.0731522 -0.023764238 0.061821226 -0.024816977 0.0667664 -0.52416945 -0.16393368 -0.009727862
-0.00043261368 -0.101537324 0.026585825 -0.061970286 -0.13346615 0.07566827 -0.15140703 -0.13149382
0.093891844 0.00084856723 -0.031384673 0.008339594 -0.025262084 -0.112788044 0.04768954 -0.00204382
00000000: da88 f83d e99f 67bd a9c4 0b3e 727c 7b3c
00000010: 7877 afbd 2266 0abe f71f cbbc 8f5b cd3d
00000020: a661 75bd b9a2 4bbc 4098 88bd 87be b33d
00000030: f750 8fbd 8902 043d d6bc abbd f33c 4dbd
00000040: f09d 1f3e 5031 313c 3a05 90bc 35fb bcbd
00000050: 9c6b c9bd 6a3f d0bc 3d0c 953d 2b83 50be
00000060: 311a 573c 3845 a83e 79aa a33c 77cb 1cbe
00000070: 380a 55be dcff 96bd e394 a0bc 3253 103d
00000080: c1f2 403d 7738 793c 205f be3d 08cd 3f3d
00000090: cb41 2abe 4817 73be e6bc 7ebe ec70 f6bd
000000a0: 83be 243b b4fa 32bd 1ec7 afbd ca37 063d
000000b0: c62e 15bd 1ac1 24bd 1763 dabd e8a8 a5bd
000000c0: 3c5b 693d 60d7 c93c 3b2a 653d 2b75 9dbc
000000d0: 17b1 a63d 15ec 10bc 7e03 733c e3ea 8b3d
000000e0: 7367 a93d a44d bbbd 9d34 3c3c 43eb 993d
000000f0: 2acf d3bd 30b9 603d 24d9 80bd ab42 c73c
00000100: e38b c53d b114 233d c8c4 a5bd 9df0 d23d
00000110: 5f15 e83d 6113 75bd be61 f73c 485b 03be
00000120: 3e87 50bd d9f0 f33d 57b5 ad3d 63b1 47bd
00000130: afba 653e fe02 7f3e f843 9ebd c171 0a3e
00000140: 8beb fabc a6b1 563c 25a2 ad3d fa88 2dbd
00000150: 84a2 e33d 64cf 9d3d 1e08 86bd 1b8a 98bc
00000160: 04df bdbb 0bee e43b 6737 563e ad87 a03e
00000170: 5a8e eb3d ceed 833e 93d3 603e eb21 efba
00000180: f8e2 d1bc e5f0 b23c b072 ee3a 92c3 4cbd
00000190: 9d2c 3a3c 98cc 5ebc 4b0f 07bd be4f a5bc
000001a0: 8db5 04be 904e 55bd 645b a1bd cb8f 32bd
000001b0: 6011 b43d 40e9 343e e3c7 1bbd d53a b63d
000001c0: 7b41 993d 5df8 acbd 2676 b7bd 1f92 c2bd
000001d0: 310e 793d 4d3e acbd 4d96 ca3c c006 5bbc
000001e0: 9591 dabc b178 5bbd 99a4 d6bd 7bf5 d0bd
000001f0: 78fb 1bbe f012 973d cb75 093e fa46 453e
00000200: 73e2 91bd e8c2 2e3e 516b b23d 20e2 4dbd
00000210: f43e b1ba b43a 3cbe b6c1 f1bb b552 d4bb
00000220: 0d6c b93c 7d01 2abd 6fe7 a53d 32e6 623e
00000230: 96bd 45bc 066b 973e a58c 163f 1055 933d
00000240: a1b5 d9bc 206f 23bc 7221 b93a 34bb a7bd
00000250: 1dd9 893d 1fe7 56bd 127b 66bd 3be7 b63d
00000260: c0d8 b6bb fc87 80bc e7cd 14bd e671 60bc
00000270: 372f 6dbd 55ff e4bb bc15 b5bd 2bd9 22bc
00000280: 5dd4 233d b6c0 51bc e515 41bd cec1 66bd
00000290: 9673 b4bd be6c 2c3e ae65 23bd 3fc2 f5bd
000002a0: 598c c43d a1b7 20bd 63af c03d 26f1 5abc
000002b0: 00aa a2bd f90f 3dbd c373 c23d 5a42 f4bd
000002c0: bc79 1fbe d69b c53d e419 0bbd b777 fb3d
000002d0: 116e 183d 047a 12be b11c e1bd a764 ca3c
000002e0: 9dd6 61be e7af 0cbe 8aac b13c 8e32 00be
000002f0: 4e9a f439 84c3 05bd b556 363d 0b3d d63b
00000300: ae22 1d3e 8aab 2c3e a55f 0abd 1c96 90bd
00000310: ec88 1cbe d278 89bd 8da2 85bd 4b8a 073e
00000320: a3df 88bd f5e0 0c3e 3cc1 113e 0e82 e8bd
00000330: 2db9 80bc a4d0 2ebc d773 57be dfa2 53bd
00000340: a0c0 2e3d d77d 7abd 3799 72bd 9ac0 e83b
00000350: 406a 5bbe a0e5 04be fb00 09be 0116 f3bd
00000360: 5f3a 033d 0037 a03d 7b27 3d3d 867a 1dbe
00000370: 0b1b 25bc 144f 6e3d 487e 163d 70c0 283d
00000380: 5cf0 413d 1465 8439 7302 be3c 82ec 263d
00000390: 9be4 a2be 365b cbbd 3208 1b3d 46ba 3dbd
000003a0: d2d0 95bd 38ad c2bc 4138 7d3d f94c cbbc
000003b0: d3bc 883d f82f 06bf 3bde 27be 9c61 1fbc
000003c0: 6dd0 e2b9 cdf2 cfbd 84ca d93c 8ed4 7dbd
000003d0: 5aab 08be f7f7 9a3d 720a 1bbe 51a6 06be
000003e0: 5e4a c03d 6272 5e3a 378d 00bd cba2 083c
000003f0: 6ef2 cebc 6bfd e6bd 1b56 433d 9cf1 05bb

bn1.weight f4 [16]
0.101047166 0.18688709 0.20878047 0.18349004 0.090737745 0.17850555 0.22551918 0.1882273
0.24612458 0.1610093 0.09361833 0.23176707 0.16952454 0.21535766 0.1345739 0.21794632
00000000: d1f1 ce3d 545f 3f3e 8cca 553e d0e4 3b3e
00000010: b6d4 b93d 29ca 363e 80ee 663e a8be 403e
00000020: 1508 7c3e 9fdf 243e f8ba bf3d 5954 6d3e
00000030: d797 2d3e b886 5c3e becd 093e 522d 5f3e

bn1.bias f4 [16]
0.022896495 0.3726403 0.08561958 0.04281622 0.054305587 -0.1578055 -0.09112909 -0.20154545
0.098287396 0.0053852885 -0.023244368 -0.092258506 0.08050119 -0.061885286 0.17782788 -0.10301376
00000000: 6e91 bb3c b6ca be3e 5159 af3d 1060 2f3d
00000010: 896f 5e3d c497 21be e3a1 babd ee61 4ebe
00000020: e74a c93d 1377 b03b f96a bebc 07f2 bcbd
00000030: cfdd a43d 6d7b 7dbd 8318 363e e1f8 d2bd

bn1.running_mean f4 [16]
0.0022505096 -0.5297446 0.36507404 0.41997334 0.0057644416 0.45956486 -0.37466115 -0.3206424
-0.43290484 -0.28385743 0.03790697 0.45635277 0.48587474 -0.34484488 0.17624584 -0.46476448
00000000: 497d 133b 589d 07bf fcea ba3e bf06 d73e
00000010: a4e3 bc3b 164c eb3e 96d3 bfbe 3e2b a4be
00000020: b4a5 ddbe c355 91be 5744 1b3d 12a7 e93e
00000030: 93c4 f83e 828f b0be ca79 343e 9cf5 edbe

bn1.running_var f4 [16]
0.0052202563 0.08006385 0.04473806 0.044744227 0.010701914 0.06082205 0.04819201 0.043852415
0.06869117 0.025626061 0.025316834 0.07576659 0.060558982 0.027581533 0.017526116 0.055267416
00000000: af0e ab3b 84f8 a33d 423f 373d b945 373d
00000010: 1557 2f3c 8b20 793d fc64 453d 979e 333d
00000020: f5ad 8c3d bfed d13c 4065 cf3c 842b 9b3d
00000030: b20c 783d abf2 e13c ee92 8f3c 1660 623d

conv2.weight f4 [64, 16, 3, 3]
-0.0072528785 -0.09190596 -0.028195752 -0.037498564 -0.1586611 -0.044185527 -0.077297136 -0.06921781
-0.22396864 0.05915319 0.02245734 -0.0014252429 0.07686108 -0.009232326 -0.04269208 0.037600316
0.077504046 -0.10589815 0.09874286 -0.08814343 -0.0016606498 0.08231774 -0.12471894 -0.1605222
0.034361683 0.12096182 -0.1649195 0.0026859029 -0.027569123 0.07479016 0.017262066 -0.0044004386
0.026969526 -0.0643098 0.036462475 -0.048474316 0.058054253 -0.042221945 -0.31642047 -0.21393195
-0.18420511 -0.30291015 -0.025860732 -0.017554825 -0.037178885 0.010018867 0.04634845 0.08176095
0.09097121 0.009746569 -0.104037106 -0.017452177 -0.032458078 -0.12969433 -0.12041013 0.016417552
-0.07438065 0.042896822 0.05145097 0.06504892 0.04913336 0.0042984285 0.13872714 -0.07819331
-0.0048206653 -0.18671894 0.018750526 0.08021586 -0.036292747 -0.066897616 0.022372462 -0.21133329
0.020745674 0.018267937 -0.0009843813 -0.02224234 -0.11435508 -0.15449323 0.15348876 0.020682124
0.07106648 -0.10894515 -0.016825354 -0.06958862 0.14117813 0.053719558 -0.06076467 -0.13732064
-0.10101503 -0.12269831 0.07815904 -0.17951247 -0.07368686 -0.012665043 -0.2073822 -0.06750682
-0.00041942726 -0.043362338 -0.17782938 0.012001773 0.038134437 0.03635478 -0.008889744 0.1632135
0.036711767 -0.13172424 0.054603204 -0.018391104 0.040505227 -0.08726386 -0.038001433 0.072557665
-0.017844463 0.048829775 0.12970881 0.15530348 -0.05870921 -0.063296854 -0.03526446 -0.07607705
-0.07001987 0.003239838 0.067066185 0.09228485 0.09837728 0.048471402 0.05179126 0.17933868
-0.24392152 -0.0024063417 -0.054619677 -0.34248218 0.2426759 0.015490158 -0.41019028 -0.060993686
0.040911097 0.031329356 0.017529478 0.11220483 0.03250155 -0.17494395 -0.12080369 0.009100596
-0.15592082 -0.31087178 -0.041310873 -0.077687256 -0.1313121 -0.14843324 -0.124178365 -0.18033543
-0.16183035 -0.08946689 -0.0053459764 0.030903427 -0.08216426 -0.056054514 0.045852095 -0.0656006
-0.14009649 -0.04213252 -0.057587683 -0.024049966 -0.03224195 -0.025798704 0.006336239 -0.014928313
-0.05983762 -0.0012523363 -0.066040955 -0.016582228 -0.03702252 -0.042693615 -0.0046247127 0.0899039
0.09198393 -0.008845407 0.12902807 0.14852682 0.010797838 -0.039781064 -0.08781147 -0.21445616
-0.05930954 -0.10660424 -0.3201941 -0.26707906 -0.13440548 -0.10830863 -0.1031308 -0.066871844
-0.13804209 -0.15392445 -0.09158177 -0.07106667 -0.13872716 -0.217684 0.10491878 0.068789355
0.076207705 0.07683005 -0.15096301 -0.112427205 0.051853377 -0.12542893 -0.09533934 0.12452115
-0.06313216 0.017511196 0.014013632 -0.107022725 0.063073255 0.10994337 -0.02349655 0.09907927
0.008886039 -0.08774871 -0.061241515 0.038118478 -0.12650049 -0.16854036 -0.029527746 -0.111182846
-0.18232651 0.034698006 0.05507203 -0.022631647 0.13941753 0.015293265 -0.056539964 0.114809476
0.009550287 -0.11968006 -0.107404605 -0.092713386 -0.099339575 -0.15373099 -0.099501036 -0.0446432
-0.29278067 -0.14344496 -0.10522345 -0.016635427 0.014704712 -0.0039248304 -0.09275496 0.03286622
0.103818245 -0.057242732 -0.031040719 -0.0090520745 -0.04246786 -0.021939924 -0.1391361 -0.06577227
00000000: 8ea9 edbb 3139 bcbd c7fa e6bc 1898 19bd
00000010: 0e78 22be e2fb 34bd f64d 9ebd 11c2 8dbd
00000020: 0958 65be 9e4a 723d 75f8 b73c 37cf baba
00000030: 5869 9d3d 2f43 17bc e4dd 2ebd ca02 1a3d
00000040: 71ba 9e3d 21e1 d8bd b239 ca3d 8b84 b4bd
00000050: 29aa d9ba 3496 a83d a56c ffbd ee5f 24be
00000060: d6be 0c3d d5ba f73d a8e0 28be f905 303b
00000070: a4d8 e1bc 952b 993d 2d69 8d3c 8e31 90bb
00000080: 32ef dc3c dbb4 83bd ad59 153d 018d 46bd
00000090: 4cca 6d3d ebf0 2cbd dd01 a2be fa10 5bbe
000000a0: 44a0 3cbe 0a17 9bbe e3d9 d3bc 23cf 8fbc
000000b0: e348 18bd 2d26 243c dfd7 3d3d 4972 a73d
000000c0: 1d4f ba3d 13b0 1f3c 6811 d5bd def7 8ebc
000000d0: c3f2 04bd 97ce 04be 9699 f6bd 1a7e 863c
000000e0: e254 98bd 94b4 2f3d 41be 523d 5e38 853d
000000f0: 1040 493d d5d9 8c3b 7d0e 0e3e d023 a0bd
00000100: acf6 9dbb 4033 3fbe b49a 993c 3648 a43d
00000110: b4a7 14bd 9e01 89bd 7446 b73c c167 58be
00000120: d5f2 a93c a4a6 953c 5b06 81ba 9135 b6bc
00000130: ff32 eabd 7933 1ebe 282c 1d3e 8f6d a93c
00000140: 4d8b 913d a31e dfbd 53d5 89bc 7a84 8ebd
00000150: 0091 103e 0a09 5c3d 60e4 78bd c89d 0cbe
00000160: f8e0 cebd 4049 fbbd d911 a03d 1ed2 37be
00000170: 23e9 96bd 0a81 4fbc 005c 54be 0441 8abd
00000180: 93e6 dbb9 b59c 31bd e818 36be 16a3 443c
00000190: db32 1c3d c0e8 143d 4aa6 11bc 7121 273e
000001a0: 145f 163d b8e2 06be 9ca7 5f3d f1a8 96bc
000001b0: cfe8 253d 65b7 b2bd 64a7 1bbd 1d99 943d
000001c0: 8d2e 92bc bb01 483d 63d2 043e e007 1f3e
000001d0: 1279 70bd c8a1 81bd 7771 10bd 49ce 9bbd
000001e0: 9466 8fbd 7653 543b ff59 893d d7ff bc3d
000001f0: 077a c93d f389 463d 1223 543d 8fa4 373e
00000200: 90c6 79be b7b3 1dbb e2b8 5fbd d359 afbe
00000210: 0880 783e 6fca 7d3c 7604 d2be 84d4 79bd
00000220: 6592 273d 3653 003d fb99 8f3c a5cb e53d
00000230: 5820 053d 8224 33be ed67 f7bd ab1a 153c
00000240: b5a9 1fbe 962a 9fbe 9735 29bd 7f1a 9fbd
00000250: ae76 06be e2fe 17be 3a51 febd daa9 38be
00000260: dbb6 25be 6b3a b7bd 4d2d afbb 2f29 fd3c
00000270: bc45 a8bd 6b99 65bd 68cf 3b3d 9b59 86bd
00000280: 7475 0fbe 2693 2cbd 10e1 6bbd 6f04 c5bc
00000290: 2310 04bd ce57 d3bc 3aa0 cf3b e295 74bc
000002a0: 4b18 75bd 6f25 a4ba 7b40 87bd 74d7 87bc
000002b0: eda4 17bd 80df 2ebd e78a 97bb 891f b83d
000002c0: 1262 bc3d 53ec 10bc ef1f 043e 6a17 183e
000002d0: 6ae9 303c 78f1 22bd 80d6 b3bd 659a 5bbe
000002e0: 8fee 72bd 5353 dabd 7bf0 a3be 96be 88be
000002f0: 97a1 09be ead0 ddbd 3e36 d3bd 1bf4 88bd
00000300: e85a 0dbe 5f9e 1dbe 398f bbbd 678b 91bd
00000310: 7e0e 0ebe 8ee8 5ebe a8df d63d 6fe1 8c3d
00000320: c912 9c3d 1359 9d3d 0c96 1abe 3c40 e6bd
00000330: 3564 543d 7170 00be 4641 c3bd f204 ff3d
00000340: 6f4b 81bd a473 8f3c 6f99 653c bb2e dbbd
00000350: 8d2c 813d fd29 e13d d67b c0bc 13ea ca3d
00000360: c096 113c 98b5 b3bd 62d8 7abd 1f22 1c3d
00000370: 5889 01be d895 2cbe 2ce4 f1bc d5b3 e3bd
00000380: cdb3 3abe 7f1f 0e3d 3593 613d 0166 b9bc
00000390: 78c3 0e3e 9a90 7a3c 7396 67bd 3b21 eb3d
000003a0: cf78 1c3c d21a f5bd f2f6 dbbd 84e0 bdbd
000003b0: 8c72 cbbd a86b 1dbe 33c7 cbbd cadb 36bd
000003c0: 59e7 95be 3ce3 12be 647f d7bd 0547 88bc
000003d0: 08ec 703c dd9b 80bb 50f6 bdbd bb9e 063d
000003e0: a99e d43d 5b77 6abd 1b49 febc 274f 14bc
000003f0: c7f2 2dbd 5bbb b3bc b279 0ebe 9db3 86bd

bn2.weight f4 [64]
0.08425783 0.12582332 0.05516531 0.13004726 0.12028159 0.1898342 0.12129325 0.09990752
0.08861928 0.1317051 0.14007105 0.20677345 0.17228743 0.17259778 0.057132628 0.079075195
0.11279312 0.13663462 0.091632254 0.08475893 0.22505558 0.07137366 0.20226482 0.251925
0.089775465 0.07402276 0.098134115 0.20354593 0.08871697 0.07759174 0.18981421 0.15741971
0.09908577 0.10019903 0.24262513 0.10272875 0.171632 0.069215685 0.12367887 0.21060543
0.08518186 0.14400497 0.12862124 0.08798534 0.26127625 0.09647799 0.09057672 0.085068434
0.19043866 0.08311267 0.07077777 0.08642004 0.10845303 0.13290201 0.10934382 0.14711928
0.06647153 0.07386349 0.18582538 0.08862252 0.095597774 0.15675892 0.11198238 0.20070983
00000000: 5f8f ac3d d4d7 003e 05f5 613d 1c2b 053e
00000010: 3256 f63d e663 423e 9868 f83d 509c cc3d
00000020: 067e b53d b4dd 063e c96e 0f3e 6bbc 533e
00000030: 1e6c 303e 79bd 303e e703 6a3d 2df2 a13d
00000040: 1400 e73d f2e9 0b3e b1a9 bb3d 1796 ad3d
00000050: f874 663e 5a2c 923d 821e 4f3e 50fc 803e
00000060: 33dc b73d 3f99 973d 8afa c83d 586e 503e
00000070: 3eb1 b53d 6be8 9e3d a85e 423e a232 213e
00000080: 7bed ca3d 2635 cd3d b972 783e 7363 d23d
00000090: 4dc0 2f3e f4c0 8d3d 594b fd3d f3a8 573e
000000a0: d473 ae3d 0a76 133e 49b5 033e a831 b43d
000000b0: 00c6 853e 4196 c53d 4a80 b93d 5c38 ae3d
000000c0: 5a02 433e fa36 aa3d eff3 903d fdfc b03d
000000d0: 9f1c de3d 7717 083e a7ef df3d 70a6 163e
000000e0: 3a22 883d be45 973d 0249 3e3e b97f b53d
000000f0: c4c8 c33d 6985 203e 0557 e53d e186 4d3e

bn2.bias f4 [64]
0.03580861 -0.044875003 0.03407292 -0.039988466 -0.05143313 -0.3748823 -0.045144115 -0.055818096
0.050796237 -0.013745198 0.102905646 -0.2698374 -0.34050074 -0.2011331 0.022021728 0.03131881
-0.041959487 -0.031616814 0.029858964 -0.021736616 -0.34511086 0.066634245 0.037579115 0.14422312
-0.027910322 0.023985857 0.0043225717 -0.2946293 0.061169326 -0.0029708864 -0.1076068 -0.022202563
0.10706106 0.041001946 0.07543154 0.08780417 -0.17594531 0.0646816 0.042910177 -0.051958
0.093584284 -0.3736166 -0.069960974 0.034624178 -0.079542264 0.016187223 -0.010151432 0.07004704
0.0042951666 0.19111897 0.00058186776 -0.006379313 -0.0476091 -0.076435015 0.014651165 0.057392683
0.123057835 0.058096968 -0.15332425 -0.00033567584 -0.03766015 -0.3708136 0.21889198 -0.3279214
00000000: 0dac 123d dace 37bd 0c90 0b3d f2ca 23bd
00000010: 8cab 52bd 93f0 bfbe 09e9 38bd 84a1 64bd
00000020: b70f 503d 8a33 61bc 32c0 d23d 2128 8abe
00000030: 1d56 aebe d6f5 4dbe e966 b43c 2748 003d
00000040: b6dd 2bbd a280 01bd c99a f43c fd10 b2bc
00000050: 5fb2 b0be 8977 883d 8fec 193d 3aaf 133e
00000060: 30a4 e4bc fd7d c43c 5ca4 8d3b a7d9 96be
00000070: b08c 7a3d 34b3 42bb f460 dcbd 26e2 b5bc
00000080: d442 db3d a8f1 273d da7b 9a3d acd2 b33d
00000090: 022b 34be c977 843d 95c2 2f3d e9d1 54bd
000000a0: 1ea9 bf3d ad4a bfbe b347 8fbd 15d2 0d3d
000000b0: 0ee7 a2bd 119b 843c 3152 26bc d374 8f3d
000000c0: 78be 8c3b b1b4 433e 7c88 183a 8e09 d1bb
000000d0: c201 43bd f689 9cbd 710b 703c 9714 6b3d
000000e0: bf05 fc3d 16f7 6d3d 0801 1dbe a6fd afb9
000000f0: 8841 1abd 48db bdbe 3825 603e 50e5 a7be

bn2.running_mean f4 [64]
-0.12871791 -0.45975095 0.13841353 0.021325517 -0.23606715 0.41420656 -0.07407556 0.2696683
-0.3829535 -0.32573658 0.087617375 0.31506127 0.2752405 0.23623912 0.29396957 0.57961327
-0.12179578 0.09630213 0.061661437 -0.27689606 0.042966276 -0.3184584 -0.19147174 -0.16103323
-0.6477815 -0.13329726 0.33358982 -0.29117915 -0.2996045 0.13132562 -0.09603641 0.10189083
-0.36960486 0.04114028 -0.03396671 -0.23143518 0.43516597 -0.25464424 -0.5082372 0.41813126
-0.010965253 0.78392786 0.57057613 0.084047705 0.016377361 0.38591936 -0.34375462 -0.2644627
0.005292097 -0.07732269 0.06614621 0.381398 0.09222012 0.3711383 0.036731362 0.009596662
0.037155993 -0.034073606 -0.21249229 0.34294385 0.29512686 0.8285224 -0.24520521 0.019448347
00000000: a1ce 03be 7a64 ebbe 47bc 0d3e dab2 ae3c
00000010: 96bb 71be e212 d43e edb4 97bd f711 8a3e
00000020: 7b12 c4be f2c6 a6be bd70 b33d b64f a13e
00000030: 53ec 8c3e abe8 713e 2e83 963e 8961 143f
00000040: 1170 f9bd 0d3a c53d b490 7c3d 52c5 8dbe
00000050: 68fd 2f3d fb0c a3be 2b11 44be e5e5 24be
00000060: 02d5 25bf 147f 08be 49cc aa3e 6f15 95be
00000070: c365 99be 397a 063e bdae c4bd 24ac d03d
00000080: d93c bdbe b682 283d ad20 0bbd 58fd 6cbe
00000090: 13ce de3e bb60 82be d51b 02bf 4d15 d63e
000000a0: 9ba7 33bc 7faf 483f 4711 123f 3421 ac3d
000000b0: d129 863c 3997 c53e 9b00 b0be a867 87be
000000c0: 5469 ad3b 5c5b 9ebd aa77 873d 9946 c33e
000000d0: e7dd bc3d d705 be3e a073 163d 513b 1d3c
000000e0: e230 183d c490 0bbd 9497 59be 5696 af3e
000000f0: de1a 973e 0b1a 543f 1317 7bbe 2452 9f3c

bn2.running_var f4 [64]
0.008772929 0.08938437 0.0013621673 0.07022506 0.027967798 0.024627905 0.09304889 0.008793937
0.00967198 0.015838254 0.028982347 0.008028625 0.13911398 0.05764477 0.0047530336 0.019615129
0.01589733 0.10796295 0.0071830256 0.0144989835 0.19734907 0.0074613523 0.17596851 0.12274903
0.014488298 0.008494091 0.00729723 0.07067185 0.032210946 0.0047033955 0.3602609 0.090120085
0.06693018 0.026238313 0.14291672 0.005861383 0.009340889 0.0044262614 0.024981374 0.10133586
0.021452146 0.086204186 0.012174191 0.01353421 0.13809498 0.008481656 0.007704749 0.017612886
0.066990286 0.0358105 0.0030532493 0.012263914 0.00923166 0.005498434 0.015989022 0.02707245
0.0025169104 0.0015377322 0.13162196 0.0097341295 0.027773466 0.011166733 0.017418412 0.16556874
00000000: 55bc 0f3c 270f b73d c08a b23a 28d2 8f3d
00000010: b91c e53c 76c0 c93c 6b90 be3d 7214 103c
00000020: 3977 1e3c 3abf 813c 636c ed3c 7e8a 033c
00000030: e573 0e3e ec1c 6c3d 56bf 9b3b e8af a03c
00000040: 1e3b 823c ae1b dd3d 965f eb3b 258d 6d3c
00000050: e015 4a3e 5c7e f43b 1731 343e d863 fb3d
00000060: 5460 6d3c cd2a 0b3c 9a1d ef3b 67bc 903d
00000070: a0ef 033d f11e 9a3b 1e74 b83e e190 b83d
00000080: b112 893d bbf1 d63c c358 123e d810 c03b
00000090: 870a 193c 2c0a 913b bda5 cc3c 2d89 cf3d
000000a0: 69bc af3c d28b b03d 4276 473c 97be 5d3c
000000b0: c568 0d3e a5f6 0a3c 1e78 fc3b e648 903c
000000c0: 3432 893d 08ae 123d 0619 483b 95ee 483c
000000d0: 6340 173c 352c b43b 69fb 823c 0bc7 dd3c
000000e0: c0f2 243b bb8d c93a e8c7 063e e67b 1f3c
000000f0: 2e85 e33c acf4 363c 0fb1 8e3c da8a 293e

conv3.weight f4 [64, 64, 3, 3]
-0.089552134 0.020850752 -0.01931144 0.010313528 0.06686103 -0.1827845 0.11840098 0.091395624
-0.0046971585 -0.06921252 -0.014016444 -0.15226594 0.05836893 0.16791138 0.09076368 -0.18318614
-0.06054442 0.0127960825 0.021774108 -0.013384447 -0.05062889 -0.062675856 -0.10737881 -0.0658409
0.12864193 0.15552618 -0.13399337 0.026574796 -0.011245963 -0.027567433 -0.10575564 -0.10293524
0.031106468 -0.124939986 -0.18098673 -0.04090621 0.010332814 0.018170096 0.1726892 -0.0013478477
0.28519642 -0.060842197 0.011817436 0.0023926555 -0.046899132 -0.050363228 0.12966272 0.20370124
0.08285617 0.16543768 0.16683325 0.006832219 0.082102664 0.11440409 -0.007335578 -0.016078724
-0.07541567 0.04301566 -0.22404921 0.116707645 -0.08878839 -0.09645042 -0.02605662 0.10816568
0.05739437 -0.09226796 0.05050946 0.13700843 -0.08751292 -0.03414483 0.1792015 -0.10919414
-0.02033833 0.03993044 -0.12731941 -0.0856234 -0.051161483 -0.0017905728 -0.026186364 0.09829755
-0.09086354 0.030710308 0.07053962 -0.101800695 0.101822 0.043545425 0.010020907 0.16881113
0.03568867 0.12185134 -0.080934994 -0.006168037 0.021682348 0.11383401 -0.10656519 0.051107857
-0.10488702 -0.15022475 -0.039194874 0.039151236 -0.10737885 0.045390304 0.08954092 -0.13557737
-0.05597957 0.050664566 -0.02342645 0.04214425 -0.055231307 -0.12760101 -0.24923839 0.047290485
0.116449565 0.01344472 0.119703256 0.02086252 0.15748213 0.0012343137 -0.01638236 0.065476604
0.058803577 -0.1150338 0.120777056 -0.16378717 -0.19856544 -0.052542746 0.04524396 0.22203583
0.16943642 0.0640878 0.08272784 -0.0093938485 0.10029809 0.20910437 0.22011863 0.00474505
-0.04413307 -0.07468607 -0.062199946 -0.10739847 -0.08232718 0.025788566 -0.15672861 0.014963093
-0.08592938 -0.17368913 0.073633574 0.18284452 -0.024077464 0.009281183 -0.06340015 -0.013903295
-0.21998133 0.07814567 0.100433365 0.09625509 -0.11521132 -0.16995311 0.050332423 -0.18645915
-0.14603399 0.043087807 -0.13506801 -0.14198446 -0.13055448 0.08760955 -0.22716312 -0.027373012
-0.084510215 -0.01641432 -0.04288675 0.19744863 0.13544819 -0.00830033 -0.077005185 0.09660233
0.017362403 -0.017338522 0.07254653 0.094475225 0.015535552 0.19896704 0.036803853 0.031118086
-0.08553415 0.06798623 -0.081255995 -0.072990686 -0.10089756 -0.10451399 -0.22609381 0.23692903
0.03124183 0.041620135 0.037269555 -0.026319234 0.0042153704 -0.114079945 -0.06169073 -0.07252835
-0.024799952 0.020763926 -0.09638348 -0.013069112 -0.038310897 0.07659944 0.08701254 0.053151447
0.04039315 0.12560257 -0.020152325 0.037424743 0.08869772 -0.04032264 0.053886205 -0.042918168
-0.060595453 0.0029223869 0.0475236 -0.03733178 -0.04156531 0.09800204 -0.19888732 -0.1421536
-0.09837022 -0.13646036 -0.2934174 -0.0051183067 0.022950308 -0.09035271 -0.1061973 -0.079496466
0.06636947 -0.12893979 -0.054537144 -0.045961376 0.047675874 0.06680621 0.10048905 0.08504735
-0.09617273 -0.065257706 -0.07939597 -0.16737176 -0.5085668 0.051090863 -0.25703493 -0.19050182
-0.024202377 -0.112889364 0.08073678 -0.14426015 0.007427091 -0.06864841 0.07505715 0.09296184
00000000: 1c67 b7bd 32cf aa3c 0633 9ebc 12fa 283c
00000010: 70ee 883d dc2b 3bbe 377c f23d a12d bb3d
00000020: 9fea 99bb 4bbf 8dbd 3aa5 65bc 9aeb 1bbe
00000030: 4214 6f3d f6f0 2b3e 4fe2 b93d 2695 3bbe
00000040: 6dfd 77bd a9a6 513c 9d5f b23c 714a 5bbc
00000050: 3d60 4fbd 335c 80bd 6ce9 dbbd 98d7 86bd
00000060: b6ba 033e 4142 1f3e 8f35 09be 63b3 d93c
00000070: fd40 38bc 19d5 e1bc 6a96 d8bd b6cf d2bd
00000080: fed2 fe3c 89e0 ffbd 9654 39be 458d 27bd
00000090: f74a 293c 74d9 943c 70d5 303e 44aa b0ba
000000a0: 4405 923e ab35 79bd eb9d 413c 19ce 1c3b
000000b0: 4e19 40bd ac49 4ebd 4ec6 043e 0f97 503e
000000c0: 7fb0 a93d 7f68 293e 56d6 2a3e cfe0 df3b
000000d0: 7125 a83d b14c ea3d 4a5f f0bb 87b7 83bc
000000e0: 8873 9abd 3031 303d 286d 65be 6b04 ef3d
000000f0: b0d6 b5bd cc87 c5bd b174 d5bc f885 dd3d
00000100: 5c16 6b3d fcf6 bcbd 02e3 4e3d f04b 0c3e
00000110: f939 b3bd 73db 0bbd 9980 373e 2da1 dfbd
00000120: 929c a6bc 1a8e 233d 0560 02be 525b afbd
00000130: b48e 51bd a7b1 eaba c984 d6bc 3a50 c93d
00000140: aa16 babd 2f94 fb3c 1477 903d e27c d0bd
00000150: 0e88 d03d b05c 323d bb2e 243c d3dc 2c3e
00000160: 482e 123d 328d f93d 3fc1 a5bd 3f1d cabb
00000170: 2e9f b13c ce21 e93d da3e dabd 7956 513d
00000180: 02cf d6bd 84d4 19be ce8a 20bd 0c5d 203d
00000190: 71e9 dbbd 2feb 393d 3b61 b73d cbd4 0abe
000001a0: d54a 65bd a685 4f3d d4e8 bfbc 739f 2c3d
000001b0: 393a 62bd d7a9 02be 5938 7fbe abb3 413d
000001c0: 1c7d ee3d 3e47 5c3c fb26 f53d e0e7 aa3c
000001d0: ff42 213e b2c8 a13a 4d34 86bc 9918 863d
000001e0: 05dc 703d d796 ebbd f659 f73d d3b7 27be
000001f0: bd54 4bbe 1037 57bd bb51 393d 5c5d 633e
00000200: be80 2d3e 7740 833d 376d a93d a8e8 19bc
00000210: 1669 cd3d 751f 563e c766 613e 5d7c 9b3b
00000220: e1c4 34bd 03f5 98bd 5fc5 7ebd bbf3 dbbd
00000230: 279b a8bd 8b42 d33c 777d 20be c327 753c
00000240: befb afbd 90db 31be 33cd 963d 983b 3b3e
00000250: 1a3e c5bc 1a10 183c f0d7 81bd a5ca 63bc
00000260: c942 61be d60a a03d 02b0 cd3d 6321 c53d
00000270: eaf3 ebbd 3008 2ebe 5f29 4e3d 26ef 3ebe
00000280: ef89 15be d77c 303d 454f 0abe 6064 11be
00000290: 13b0 05be a36c b33d 739d 68be 5e3d e0bc
000002a0: b113 adbd 5377 86bc 04aa 2fbd f92f 4a3e
000002b0: eeb2 0a3e 1bfe 07bc e5b4 9dbd 71d7 c53d
000002c0: 993b 8e3c 8409 8ebc 4693 943d 3a7c c13d
000002d0: d488 7e3c 04be 4b3e a3bf 163d 5beb fe3c
000002e0: 872c afbd 5d3c 8b3d 8b69 a6bd 247c 95bd
000002f0: 61a3 cebd 6e0b d6bd 2385 67be 869d 723e
00000300: deee ff3c e079 2a3d f6a7 183d 6f9b d7bc
00000310: 1721 8a3b bfa2 e9bd 6baf 7cbd be89 94bd
00000320: 4529 cbbc 1c19 aa3c b464 c5bd d41f 56bc
00000330: e3eb 1cbd 2be0 9c3d a133 b23d 55b5 593d
00000340: 4a73 253d f69d 003e 7d16 a5bc b04a 193d
00000350: 26a7 b53d 5a29 25bd c8b7 5c3d f6ca 2fbd
00000360: f032 78bd 8485 3f3b 1ba8 423d 35e9 18bd
00000370: 6340 2abd 4bb5 c83d 1ea9 4bbe b790 11be
00000380: 5376 c9bd 44bc 0bbe ce3a 96be 78b7 a7bb
00000390: 4902 bc3c d70a b9bd f87d d9bd 0bcf a2bd
000003a0: b7ec 873d cb08 04be 5762 5fbd ff41 3cbd
000003b0: c747 433d b2d1 883d 34cd cd3d 4e2d ae3d
000003c0: 35f6 c4bd d5a5 85bd 5b9a a2bd 8163 2bbe
000003d0: 6f31 02bf a744 513d 159a 83be e912 43be
000003e0: 1044 c6bc 8a32 e7bd 5359 a53d efb8 13be
000003f0: f45e f33b 8a97 8cbd 90b7 993d c762 be3d

bn3.weight f4 [64]
0.050510447 0.12274426 0.13768573 0.14207196 0.091588855 0.07296947 0.102891885 0.1601384
0.09565807 0.09680404 0.07863482 0.20368864 0.2076792 0.09352002 0.22851753 0.14078082
0.2387294 0.2159686 0.14522445 0.066026464 0.14664315 0.14015058 0.120433114 0.09785233
0.09050302 0.2201504 0.09894663 0.11204665 0.29838544 0.30508852 0.13021278 0.08298366
0.0670784 0.12751386 0.070242465 0.18909316 0.09079605 0.102732845 0.15868641 0.1073706
0.05869693 0.19396849 0.12295146 0.11537213 0.12696008 0.10150399 0.2497551 0.08527658
0.14117803 0.26136342 0.14696957 0.13615097 0.07017328 0.26817268 0.11811492 0.1849827
0.1924493 0.20287593 0.11813956 0.1017334 0.26831156 0.06878954 0.2101865 0.15503588
00000000: 0be4 4e3d 5861 fb3d 7dfd 0c3e 507b 113e
00000010: f092 bb3d 0471 953d fbb8 d23d 52fb 233e
00000020: 61e8 c33d 3241 c63d 4b0b a13d c193 503e
00000030: dba9 543e 6d87 bf3d 8000 6a3e d928 103e
00000040: 7b75 743e df26 5d3e b8b5 143e e238 873d
00000050: 9f29 163e a283 0f3e a3a5 f63d cd66 c83d
00000060: a659 b93d 1b6f 613e 88a4 ca3d b778 e53d
00000070: fac5 983e 9034 9c3e 8056 053e 56f3 a93d
00000080: 6660 893d fe92 023e 48db 8f3d a3a1 413e
00000090: 48f3 b93d 9965 d23d b17e 223e 1ee5 db3d
000000a0: 316c 703d ad9f 463e facd fb3d 3948 ec3d
000000b0: d301 023e 53e1 cf3d cdbf 7f3e 7da5 ae3d
000000c0: f990 103e 6dd1 853e 317f 163e 296b 0b3e
000000d0: 02b7 8f3d ee4d 893e 3ce6 f13d 1b6c 3d3e
000000e0: 6e11 453e b5be 4f3e 27f3 f13d 9a59 d03d
000000f0: 2260 893e 88e1 8c3d 213b 573e bac1 1e3e

bn3.bias f4 [64]
0.12120337 0.07952128 0.09085586 -0.0152398115 0.017201362 0.059432317 0.08549712 -0.04848841
0.0052918335 0.03728049 -0.005462263 -0.03843458 -0.09261614 0.07671806 -0.011986679 -0.093936935
-0.14010268 -0.5684867 -0.0043357364 0.10443249 -0.18497917 0.09683908 -0.048708435 0.032154825
0.044349544 -0.5439146 0.08315208 0.01651526 0.10101234 0.03822289 0.09981578 0.20644626
0.04395692 0.08258437 0.03095628 0.0027685426 -0.021949396 0.035788663 -0.09616061 -0.005141713
0.17917447 -0.14037983 0.07076822 0.08328927 0.035511304 0.051971603 -0.2993168 0.09898983
0.07448713 -0.06907378 0.009221187 -0.0844109 0.04576672 0.0702267 0.06345797 -0.055367693
-0.121963955 -0.25939998 0.04275731 0.10613183 -0.06990478 0.096984945 -0.17695837 -0.030221682
00000000: 7939 f83d 0edc a23d a312 ba3d 67b0 79bc
00000010: dfe9 8c3c 4d6f 733d 1d19 af3d c89b 46bd
00000020: 1e67 ad3b 6db3 183d c8fc b2bb 946d 1dbd
00000030: 88ad bdbd 5c1e 9d3d c763 44bc 0262 c0bd
00000040: 1477 0fbe 5888 11bf cb12 8ebb b4e0 d53d
00000050: 2e6b 3dbe 9153 c63d 7f82 47bd c7b4 033d
00000060: dea7 353d fd3d 0bbf a34b aa3d 034b 873c
00000070: 8fdf ce3d 9b8f 1c3d 376c cc3d a666 533e
00000080: 2c0c 343d ff21 a93d 0698 fd3c 7070 353b
00000090: 38cf b3bc 2297 123d dbef c4bd d17b a8bb
000000a0: 8379 373e bbbf 0fbe eeee 903d 9193 aa3d
000000b0: 4d74 113d 2de0 543d 0d40 99be 2ebb ca3d
000000c0: b58c 983d 8e76 8dbd 7614 173c 9fdf acbd
000000d0: e275 3b3d 04d3 8f3d 41f6 813d 3cc9 62bd
000000e0: 3dc8 f9bd 13d0 84be 4a22 2f3d a55b d93d
000000f0: 3d2a 8fbd 0ba0 c63d 9334 35be 7693 f7bc

bn3.running_mean f4 [64]
0.18068652 -0.19127055 -0.25047627 0.37534076 0.020063182 -0.6479491 -0.18544823 -0.30440974
-0.25990668 -0.5021028 0.0725017 0.18019256 -0.063075535 0.2776609 -0.26374894 -0.39441967
-0.2163502 -0.30936256 -0.26230252 -0.16092542 -0.40036002 -0.20624211 -0.07954162 -0.43287876
-0.20908913 -0.5740656 -0.38557747 -0.2178561 0.19714864 0.3338216 -0.4170841 0.12909225
-0.2655948 0.07045418 -0.3653125 0.17771257 -0.48705527 -0.41039038 -0.32148734 -0.11228711
-0.12310899 -0.40686 0.05041546 -0.14338042 -0.15783098 0.32695007 0.28783855 -0.039749995
0.25794283 -0.41980267 -0.08118085 -0.4277854 -0.13489954 0.5266534 0.14257976 -0.12925214
-0.036758892 -0.0069934838 -0.21771017 -0.14672361 0.018725337 -0.45346496 -0.0047935033 0.042435158
00000000: e305 393e 6ddc 43be 6d3e 80be aa2c c03e
00000010: 8b5b a43c fedf 25bf 24e6 3dbe 98db 9bbe
00000020: 7d12 85be cf89 00bf c57b 943d 6684 383e
00000030: bf2d 81bd 9229 8e3e 1a0a 87be 60f1 c9be
00000040: e88a 5dbe c564 9ebe 844c 86be a2c9 24be
00000050: fdfb ccbe 2231 53be b8e6 a2bd 49a2 ddbe
00000060: 761b 56be f7f5 12bf 696a c5be ab15 5fbe
00000070: 55e1 493e aaea aa3e 0c8c d5be c230 043e
00000080: 0bfc 87be 484a 903d 3d0a bbbe 49fa 353e
00000090: 4f5f f9be b01e d2be fd99 a4be c9f6 e5bd
000000a0: 9120 fcbd f44f d0be 7180 4e3d 51d2 12be
000000b0: 729e 21be 0066 a73e 935f 933e e4d0 22bd
000000c0: 1511 843e 60f0 d6be 2542 a6bd b006 dbbe
000000d0: 1b23 0abe c2d2 063f 6e00 123e ac5a 04be
000000e0: 7e90 16bd 9829 e5bb 6aef 5ebe b73e 16be
000000f0: e165 993c 8f2c e8be d212 9dbb 7dd0 2d3d

bn3.running_var f4 [64]
0.007208692 0.075251825 0.06360739 0.14977373 0.03508429 0.03397238 0.03681566 0.031764366
0.035682414 0.031123592 0.021421976 0.4482435 0.15915765 0.10192023 0.36946917 0.05020647
0.14377847 0.039418597 0.10606964 0.017307721 0.05963516 0.09259171 0.039643306 0.030207057
0.032311317 0.007928361 0.039631464 0.031293247 0.76238394 0.71988195 0.08845837 0.025925467
0.021050582 0.06718888 0.012165876 0.18840434 0.020196103 0.059383888 0.14170316 0.07752029
0.012517243 0.083911754 0.04497731 0.06511409 0.17641294 0.036757823 0.036352757 0.01917041
0.15643728 0.56001914 0.15782876 0.100172676 0.016019039 0.5123362 0.15851045 0.092717975
0.31698093 0.15769012 0.091698326 0.045252286 0.5114042 0.022516128 0.081516765 0.1179761
00000000: e436 ec3b a11d 9a3d 9744 823d 495e 193e
00000010: 8bb4 0f3d 9f26 0b3d 04cc 163d 5a1b 023d
00000020: b927 123d e7f6 fe3c 247d af3c 2c80 e53e
00000030: 39fa 223e 8ebb d03d 102b bd3e 4da5 4d3d
00000040: aa3a 133e 6575 213d 0a3b d93d ecc8 8d3c
00000050: ff43 743d b9a0 bd3d 0561 223d ca74 f73c
00000060: df58 043d f5e5 013c 9a54 223d 592d 003d
00000070: 982b 433f 2f4a 383f a929 b53d a561 d43c
00000080: 4572 ac3c 539a 893d 6253 473c 11ed 403e
00000090: 4c72 a53c 853c 733d a21a 113e f5c2 9e3d
000000a0: 1f15 4d3c edd9 ab3d 213a 383d 895a 853d
000000b0: 98a5 343e 5f8f 163d a1e6 143d 440b 9d3c
000000c0: 1831 203e 6a5d 0f3f dd9d 213e 5527 cd3d
000000d0: 5c3a 833c 7728 033f 9050 223e ece2 bd3d
000000e0: 534b a23e 8579 213e 55cc bb3d 765a 393d
000000f0: 63eb 023f be73 b83c 43f2 a63d 749d f13d

conv4.weight f4 [64, 64, 3, 3]
0.07816767 0.009310129 0.014483198 0.04453547 -0.019583778 0.06623337 0.06126496 -0.19891319
-0.07660277 0.10052823 0.11934969 0.03161836 0.0018682112 -0.1354962 -0.05684577 0.099312514
-0.24668351 -0.099159755 0.034422997 0.061173916 0.0046291584 -0.03282917 0.03610912 -0.091588445
0.0349412 0.08449277 0.030119503 0.028154828 0.01260327 0.018274978 0.13310294 0.28112033
-0.011613419 -0.011674902 0.025829129 -0.10964501 -0.02219709 0.020679174 -0.029279364 0.00030280408
0.08256857 -0.33721548 0.008284846 -0.096595794 -0.1611647 0.0005526833 -0.053259093 -0.14536019
-0.12355098 0.08328052 -0.079738796 -0.12050501 0.047943164 -0.009193855 -0.050630167 -0.018876093
-0.028544134 0.0031980185 -0.059037138 -0.14819169 -0.07262132 0.026966581 0.06303904 -0.028125267
-0.06020382 -0.09506045 -0.03348726 0.030176962 -0.084817074 0.0013677818 -0.124871306 0.022742372
0.0614555 -0.024723686 -0.06083193 0.18230008 0.0923284 -0.007165389 0.047100656 -0.073921874
-0.047558874 -0.020900793 0.080288894 0.08221489 -0.017858034 -0.110643625 0.093313746 0.04367608
-0.061150614 0.15640195 0.09653241 0.19259395 -0.01096514 -0.03850805 0.036775637 -0.02246139
0.013012294 -0.21154565 0.025017079 0.07648605 0.06864421 -0.060398933 0.107451744 0.010637905
0.24354362 -0.04028961 0.033359896 0.0854168 -0.008949025 -0.06528359 -0.056932345 0.03850508
-0.1997516 -0.009389553 -0.09946639 -0.111938365 -0.18930064 -0.043064177 0.016507886 -0.022290938
-0.07082235 -0.14470483 -0.087625 -0.12375767 0.07180631 0.029982267 -0.00436959 0.12474945
0.08270477 0.07023793 0.24756765 0.06151038 0.014890147 -0.1483153 0.09437824 -0.14091074
-0.004241128 -0.038619157 -0.15458666 0.021701429 -0.018318688 -0.034359377 0.037974957 0.16903645
0.025334647 0.0014756239 -0.0071097245 0.0118115535 0.05019229 0.23766598 -0.033391535 0.12399889
0.023741767 -0.006920399 0.052662097 0.048976026 -0.034227673 0.019812118 0.052322872 0.07585006
0.015313533 0.10064737 -0.007479267 -0.018164225 -0.049648542 -0.008139946 0.170027 0.03579795
0.11235331 -0.0019670532 -0.000979107 0.04756656 -0.001992487 0.20891856 0.13061981 -0.13365719
0.047639772 -0.042152002 0.010659601 0.095549785 -0.055518236 -0.0688116 -0.051815137 -0.01168544
-0.1909223 -0.14453597 0.00751838 -0.1663439 -0.082796216 -0.036634985 -0.0026336827 -0.009222188
-0.045158915 -0.056064542 0.022129051 -0.04387937 -0.0080667455 -0.111078225 -0.056162287 -0.15906473
-0.049234528 0.030029055 -0.021318365 0.07025854 0.10704433 -0.002423034 0.093080185 -0.08340048
-0.12553331 -0.05498766 -0.08288163 -0.03947629 0.0753356 -0.030685829 -0.21848525 0.002694096
0.02369103 0.0025751197 0.033527173 -0.04319278 -0.1440539 -0.101191364 0.015884912 -0.060663253
0.10226423 -0.016724687 0.008911815 -0.017708773 0.04612012 -0.040778924 0.04309994 0.0096593425
0.012610692 -0.025442312 -0.012131436 -0.08962731 -0.07082431 0.010036293 -0.13340883 -0.023407955
0.1756967 -0.043983556 0.07264341 0.0031452824 0.0016950484 -0.09046994 0.030507736 -0.09479503
-0.028409487 0.027733695 0.184431 -0.06827725 0.014518248 -0.02662503 -0.03538823 -0.015252475
00000000: 5f16 a03d 8389 183c ef4a 6d3c d36a 363d
00000010: 296e a0bc 5ca5 873d f7f0 7a3d e6af 4bbe
00000020: eae1 9cbd bfe1 cd3d 9c6d f43d 4182 013d
00000030: c4de f43a 84bf 0abe 1cd7 68bd 5c64 cb3d
00000040: 9a9a 7cbe 4514 cbbd 21ff 0c3d 8091 7a3d
00000050: 32b0 973b e177 06bd 28e7 133d b992 bbbd
00000060: 811e 0f3d 8c0a ad3d 2dbd f63c f4a4 e63c
00000070: f27d 4e3c 68b5 953c 234c 083e 01ef 8f3e
00000080: 3646 3ebc 1748 3fbc 9c97 d33c 908d e0bd
00000090: acd6 b5bc 5f67 a93c 47db efbc adc1 9e39
000000a0: b619 a93d 82a7 acbe 2abd 073c 04d4 c5bd
000000b0: 5c08 25be f3e1 103a 3526 5abd 4dd9 14be
000000c0: 4c08 fdbd fa8e aa3d 184e a3bd 55cb f6bd
000000d0: 0d60 443d d3a1 16bc 9461 4fbd 09a2 9abc
000000e0: 63d5 e9bc d995 513b edd0 71bd 90bf 17be
000000f0: 7dba 94bd 05e9 dc3c 9d1a 813d f666 e6bc
00000100: 4898 76bd 0eaf c2bd f029 09bd ad35 f73c
00000110: 93b4 adbd 2447 b33a 87bc ffbd 364e ba3c
00000120: c3b8 7b3d 5489 cabc e72a 79bd dfac 3a3e
00000130: ac16 bd3d a4cb eabb 9eec 403d 5a64 97bd
00000140: 18cd 42bd 2438 abbc 816e a43d 4860 a83d
00000150: 034b 92bc 2099 e2bd 471b bf3d b0e5 323d
00000160: 1179 7abd d527 203e c9b2 c53d 5937 453e
00000170: 21a7 33bc 9eba 1dbd 0da2 163d f300 b8bc
00000180: 8431 553c 6c9f 58be 9ef0 cc3c b8a4 9c3d
00000190: 5695 8c3d df64 77bd a90f dc3d 9c4a 2e3c
000001a0: 8063 793e b806 25bd 63a4 083d 01ef ae3d
000001b0: ee9e 12bc 67b3 85bd e431 69bd 81b7 1d3d
000001c0: af8b 4cbe a4d6 19bc 09b5 cbbd f13f e5bd
000001d0: 07d8 41be 1064 30bd 8c3b 873c 7c9b b6bc
000001e0: 4f0b 91bd 812d 14be bc74 b3bd a974 fdbd
000001f0: 300f 933d 5f9d f53c c72e 8fbb a47c ff3d
00000200: 1e61 a93d e7d8 8f3d 6082 7d3e 4ff2 7b3d
00000210: cef5 733c f7df 17be 6149 c13d e84a 10be
00000220: 29f9 8abb 1f2f 1ebd f74b 1ebe 32c7 b13c
00000230: 1311 96bc 6bbc 0cbd a18b 1b3d e417 2d3e
00000240: 9b8a cf3c b969 c13a b1f8 e8bb 3f85 413c
00000250: 6e96 4d3d b65e 733e 90c5 08bd 21f3 fd3d
00000260: 187e c23c 84c4 e2bb 36b4 573d 169b 483d
00000270: 5132 0cbd 064d a23c 8250 563d 4757 9b3d
00000280: 9de5 7a3c 3520 ce3d a414 f5bb 24cd 94bc
00000290: 455c 4bbd 685d 05bc 8f1b 2e3e dfa0 123d
000002a0: 7e19 e63d ade9 00bb 6155 80ba 27d5 423d
000002b0: 6394 02bb bfee 553e 33c1 053e 6edd 08be
000002c0: ec21 433d 94a7 2cbd 9ba5 2e3c 9baf c33d
000002d0: 1767 63bd 19ed 8cbd 1c3c 54bd 4a74 3fbc
000002e0: 2381 43be 3d01 14be be5c f63b 0e56 2abe
000002f0: 1091 a9bd 910e 16bd dd99 2cbb a918 17bc
00000300: 8ef8 38bd efa3 65bd fc47 b53c dbba 33bd
00000310: 622a 04bc fb7c e3bd 6d0a 66bd dde1 22be
00000320: 25aa 49bd 7eff f53c daa3 aebc b6e3 8f3d
00000330: 0f3a db3d c4cb 1ebb d3a0 be3d dfcd aabd
00000340: ce8b 00be be3a 61bd d8bd a9bd e4b1 21bd
00000350: 8d49 9a3d d960 fbbc 99ba 5fbe 6e8f 303b
00000360: b113 c23c 57c3 283b ca53 093d eaea 30bd
00000370: de82 13be 6b3d cfbd 1321 823c 087a 78bd
00000380: e96f d13d 3602 89bc dc02 123c fd11 91bc
00000390: 73e8 3c3d cd07 27bd 9089 303d 3842 1e3c
000003a0: 139d 4e3c 656c d0bc eec2 46bc 868e b7bd
000003b0: 560c 91bd 446f 243c 539c 08be 0ac2 bfbc
000003c0: d6e9 333e 1a28 34bd 11c6 943d 1521 4e3b
000003d0: 632c de3a 4e48 b9bd 5ceb f93c e623 c2bd
000003e0: 03bb e8bc c631 e33c 7bdb 3c3e f1d4 8bbd
000003f0: f2dd 6d3c bc1c dabc 40f3 10bd 84e5 79bc

bn4.weight f4 [64]
0.2235504 0.21495856 0.1705918 0.25927436 0.13713343 0.06544535 0.06151983 0.2835095
0.20463721 0.1171847 0.14046128 0.17151673 0.06434577 0.076147206 0.40550733 0.17815977
0.09788721 0.23440216 0.13215546 0.13842279 0.1101207 0.21648993 0.1592647 0.20076306
0.050276496 0.09941318 0.33792013 0.39517742 0.05346983 0.07268711 0.15945241 0.5537624
0.03841798 0.04662191 0.11562614 0.17984588 0.3602496 0.114083976 0.12751414 0.31244296
0.48628357 0.11703511 0.29911694 0.10928845 0.26488858 0.040161446 0.16383685 0.14401005
0.17613514 0.2061716 0.1174835 0.5329862 0.09086271 0.10543816 0.07438406 0.44734585
0.10740149 0.06396315 0.0521952 0.117717505 0.06924713 0.31533942 0.45110485 0.1917807
00000000: 65ea 643e 191e 5c3e 9eaf 2e3e 9cbf 843e
00000010: b56c 0c3e 3608 863d 38fc 7b3d 2828 913e
00000020: 6b8c 513e 88fe ef3d 15d5 0f3e 15a2 2f3e
00000030: b7c7 833d 11f3 9b3d a89e cf3e 846f 363e
00000040: 1779 c83d 1f07 703e c353 073e b4be 0d3e
00000050: f686 e13d 89af 5d3e 4916 233e d594 4d3e
00000060: baee 4d3d 2399 cb3d de03 ad3e b254 ca3e
00000070: 2e03 5b3d fbdc 943d 7e47 233e 5fc3 0d3f
00000080: 2c5c 1d3d 9ef6 3e3d 66cd ec3d 8529 383e
00000090: a372 b83e dca4 e93d 1193 023e 86f8 9f3e
000000a0: 29fa f83e 1bb0 ef3d db25 993e 9fd2 df3d
000000b0: 7a9f 873e 5480 243d d9c4 273e 5f77 133e
000000c0: c55c 343e a61e 533e 309b f03d c971 083f
000000d0: 3a16 ba3d f6ef d73d ac56 983d 840a e53e
000000e0: 50f5 db3d 1dff 823d a2ca 553d e015 f13d
000000f0: 70d1 8d3d 2b74 a13e 37f7 e63e 2962 443e

bn4.bias f4 [64]
-0.056431536 -0.044098426 -0.002430516 -0.13911168 -0.046372302 -0.06583989 0.011977649 -0.103238046
-0.18835156 0.019603144 -0.22030658 -0.0660504 -0.0031517646 0.039496753 -0.081173025 -0.010695971
-0.061884563 -0.005788189 -0.11453604 -0.016599355 -0.08558426 -0.13438426 -0.24712774 -0.19474994
0.029188186 -0.15398459 -0.015990095 -0.029404104 0.05207009 0.023877341 -0.080520555 -0.06411067
0.020706806 0.0019088247 -0.04850037 -0.029496778 -0.063597016 0.0064803353 -0.009022955 0.068907686
-0.09808891 0.10015717 -0.11864638 -0.0836992 -0.18668966 0.05133549 -0.02865285 -0.18528555
-0.23363829 -0.14192829 -0.17437789 0.008812557 0.04992269 -0.11679246 0.022536429 -0.1411159
-0.1165928 0.0076620197 0.0430558 -0.02881652 -0.015500999 0.0060881386 -0.048952505 -0.060789272
00000000: c124 67bd 8da0 34bd 4b49 1fbb 4b73 0ebe
00000010: e2f0 3dbd 10d7 86bd e73d 443c 786e d3bd
00000020: 3bdf 40be c696 a03c 0c98 61be 6f45 87bd
00000030: d68d 4ebb 59c7 213d 0b3e a6bd 273e 2fbc
00000040: ab7a 7dbd d9aa bdbb df91 eabd 5ffb 87bc
00000050: cd46 afbd 079c 09be 0e0f 7dbe 876c 47be
00000060: 101c ef3c 23ae 1dbe a9fd 82bc e0e0 f0bc
00000070: 7247 553d 6a9a c33c f6e7 a4bd 744c 83bd
00000080: 52a1 a93c 8731 fa3a 53a8 46bd 3aa3 f1bc
00000090: 273f 82bd fe58 d43b 04d5 13bc 791f 8d3d
000000a0: d7e2 c8bd 341f cd3d e0fc f2bd 7c6a abbd
000000b0: 932b 3fbe 2a45 523d 62b9 eabc 7fbb 3dbe
000000c0: e03e 6fbe a655 11be 1e90 32be 8b62 103c
000000d0: bc7b 4c3d e330 efbd 519e b83c b080 10be
000000e0: 35c8 eebd ae11 fb3b 475b 303d 9f10 ecbc
000000f0: e7f7 7dbc 027f c73b 6c82 48bd 2cfe 78bd

bn4.running_mean f4 [64]
-0.4949743 0.016415896 0.022136003 -0.027337553 -0.15807544 -0.18517973 -0.18245667 0.3705126
-0.65893316 -0.1286841 -0.5822679 -0.18734665 -0.23052737 -0.04729748 0.117918625 0.19864981
0.09233309 0.29539338 -0.01450842 -0.20073579 0.1867515 -0.13503382 -0.1090667 -0.36793306
-0.14107741 -0.8155756 0.10079705 -0.057626974 0.30323312 -0.16078795 -0.11877266 -0.19736122
0.013496932 -0.033305373 -0.3890276 -0.22829254 -0.13269036 -0.14137991 0.1414793 0.06689614
0.17155923 0.03414587 -0.579657 -0.49747327 0.12819943 -0.17055355 -0.14782053 0.51299053
0.010347034 -0.3706667 -0.25070074 0.2216339 0.11947329 0.7512214 -0.40306407 -0.044833586
-0.53636736 -0.08471225 -0.24515423 -0.26961458 -0.26535684 0.27015054 -0.19203131 0.16336964
00000000: 456d fdbe a17a 863c 9056 b53c 01f3 dfbc
00000010: 87de 21be c19f 3dbe ecd5 3abe d4b3 bd3e
00000020: d8af 28bf c4c5 03be 820f 15bf cdd7 3fbe
00000030: 5e0f 6cbe 01bb 41bd 527f f13d db6a 4b3e
00000040: 2219 bd3d cd3d 973e b9b4 6dbc af8d 4dbe
00000050: c93b 3f3e 4e46 0abe 5d5e dfbd b961 bcbe
00000060: 9976 10be 90c9 50bf af6e ce3d 430a 6cbd
00000070: 5f41 9b3e 99a5 24be 153f f3bd 0f19 4abe
00000080: 3c22 5d3c 376b 08bd a02e c7be 85c5 69be
00000090: fbdf 07be e5c5 10be f3df 103e d800 893d
000000a0: 39ad 2f3e 8adc 0b3d 6764 14bf d1b4 febe
000000b0: b646 033e 97a5 2ebe 445e 17be 5953 033f
000000c0: 9b86 293c 07c8 bdbe d95b 80be fff3 623e
000000d0: 6aae f43d 0c50 403f 6a5e cebe 6ca3 37bd
000000e0: 5f4f 09bf 9e7d adbd b609 7bbe ec0a 8abe
000000f0: dadc 87be 2c51 8a3e dba3 44be 5f4a 273e

bn4.running_var f4 [64]
0.6155672 0.2054546 0.33296525 0.2172004 0.29780716 0.02283308 0.047941007 0.19766144
0.24201265 0.2896965 0.019445024 0.37596375 0.038409382 0.06506031 0.2578845 0.6857362
0.066795826 0.24455789 0.05660483 0.18456903 0.085265554 0.4668713 0.04523319 0.48221102
0.028813528 0.025790043 0.2464853 0.7890654 0.027116332 0.058558177 0.32238442 1.0199678
0.014337827 0.025454918 0.15772645 0.2638562 0.69521207 0.10945341 0.16451713 0.34393296
0.51038104 0.1482675 0.2994333 0.048597556 0.34225464 0.01916087 0.21261209 0.07947094
0.059079167 0.23788588 0.06566436 0.46229458 0.07189789 0.052713733 0.06566131 0.28325206
0.14665382 0.050078236 0.049662463 0.14257285 0.04476991 0.42419696 0.3054563 0.20247991
00000000: d095 1d3f b162 523e 6c7a aa3e c869 5e3e
00000010: 2e7a 983e 700c bb3c ca5d 443d c367 4a3e
00000020: 2ad2 773e 1a53 943e 2c4b 9f3c 527e c03e
00000030: 2853 1d3d 573e 853d 7009 843e 688c 2f3f
00000040: 40cc 883d 626d 7a3e 77da 673d aaff 3c3e
00000050: b59f ae3d c109 ef3e 7046 393d 5de4 f63e
00000060: 590a ec3c a445 d33c a466 7c3e 3100 4a3f
00000070: 1223 de3c b3da 6f3d 920f a53e 4e8e 823f
00000080: 35e9 6a3c d586 d03c 0b83 213e 2918 873e
00000090: 6bf9 313f 1c29 e03d 2e77 283e fb17 b03e
000000a0: 55a8 023f 6fd3 173e 524f 993e 3b0e 473d
000000b0: 003c af3e 42f7 9c3c fcb6 593e a9c1 a23d
000000c0: fffc 713d 5b98 733e 097b 863d e0b1 ec3e
000000d0: 333f 933d 5bea 573d 7079 863d 6a06 913e
000000e0: 6b2c 163e d61e 4d3d de6a 4b3d 9efe 113e
000000f0: a760 373d 5830 d93e c564 9c3e e556 4f3e
