ckpt/ckpt-t-cr3-deepsc-t18db-awgn.pth (torch, 766247 bytes, 46 tensors)

conv1.weight f4 [16, 3, 3, 3]
0.08761767 0.11112331 0.18712795 -0.10698686 0.25346798 -0.116796695 -0.06381511 -0.07034823
-0.06460835 0.004906955 -0.111157045 0.02994508 -0.07088377 0.19104744 -0.12147459 -0.01678636
-0.059735738 0.010921467 -0.021375481 -0.20088813 -0.0787112 0.05293104 0.26704094 -0.06473487
0.05773129 0.050892364 0.050290555 -0.061444625 -0.1733943 -0.13035679 -0.14496605 -0.18275651
-0.14587808 -0.025813198 0.12552842 -0.029206483 -0.02858044 -0.08479631 -0.10817123 -0.15180582
-0.085115984 -0.07517287 -0.012420023 0.06930748 -0.03291402 0.08797243 0.06298132 0.046368834
0.030197375 -0.083013006 0.076638184 0.047682464 0.136223 0.013990315 -0.013314899 -0.030808995
0.011797853 -0.0586853 0.0058786226 -0.014584604 -0.075432286 0.07401889 -0.059528917 -0.0005820823
0.0078038913 -0.0030323782 -0.060549393 0.19307016 0.13434984 -0.040004086 0.10853259 0.0052087344
-0.055116784 -0.0072135297 0.074376106 -0.062045492 0.45674512 0.46181652 -0.122928195 0.15782928
0.08094945 0.059911523 0.1499073 0.15846218 0.21633571 0.216524 0.20342566 0.00018678034
-0.12263587 0.014775341 0.03460932 0.14836568 0.10661556 0.15764672 0.15455467 0.07849372
0.00094374584 -0.067525014 0.024131563 -0.13036479 -0.052433196 -0.08362255 -0.0050872443 0.049132
-0.061545774 -0.058522943 -0.1407617 -0.041526403 0.018305767 -0.0029746185 -0.056341182 0.12405822
0.032273658 -0.026496148 -0.038653586 -0.08766378 -0.021294182 0.028152665 0.02968719 0.014606625
0.19967973 0.06367901 -0.0316576 0.0008762492 -0.045063447 -0.07854609 0.112458244 0.24367478
0.014367504 0.5105093 0.27792534 0.051920734 0.041367207 -0.035675757 0.017715191 0.03909568
-0.039808698 0.036141112 -0.026484279 -0.31259108 -0.08626437 0.08345114 0.17039053 0.15955639
0.024169017 -0.016753847 0.10379771 -0.08214529 -0.1902725 -0.095855825 0.03609864 0.14433567
0.12897544 0.015346221 -0.035212837 -0.07983082 -0.063383736 -0.007691419 -0.12471051 0.0013240612
0.29332513 -0.031884927 -0.12264675 0.10187536 -0.21772689 0.13840783 0.16007331 -0.100569375
0.009315099 0.03863388 0.007949844 -0.22016884 0.010864445 -0.24964242 -0.053852323 0.069582224
-0.0925432 -0.045298036 -0.029701471 -0.01264198 -0.40127555 -0.08223447 -0.20679806 -0.060975917
0.006431792 -0.04313827 0.0329407 -0.023899268 0.045065157 -0.057656728 0.0016341686 0.0027102178
0.090073496 0.129107 0.144683 0.10425505 -0.21474423 -0.08630413 -0.06254965 0.06286409
-0.007072002 0.08145109 0.0133704785 0.10054181 0.17785424 -0.15364572 -0.10056841 0.026319053
0.0741205 -0.05936457 -0.04898438 -0.055190414 -0.20218554 0.024257308 -0.27473986 -0.3167736
-0.026911706 0.074684225 0.021727892 -0.09763948 0.0769558 0.033757724 0.00067553995 0.07101453
0.036641877 -0.1034041 0.041218754 0.00022494695 -0.27459398 -0.016434468 0.0061995354 -0.10151029
-0.011065061 -0.02938294 0.06427932 -0.062413912 -0.012867019 -0.6659299 -0.18076947 -0.10374014
-0.07391606 -0.113083676 0.004803123 -0.012907387 0.0305746 0.028322836 -0.10779174 -0.029212797
0.04097433 0.010909882 0.0578636 0.032208763 -0.057344764 -0.05996748 0.036369942 -0.15928608
00000000: e570 b33d 9e94 e33d 789e 3f3e ed1b dbbd
00000010: 8ec6 813e 1b33 efbd 7fb1 82bd bc12 90bd
00000020: 6251 84bd 86ca a03b 4ea6 e3bd 624f f53c
00000030: 832b 91bd f1a1 433e abc7 f8bd 8c83 89bc
00000040: 76ad 74bd f4ef 323c a21b afbc 9eb5 4dbe
00000050: 5633 a1bd 38ce 583d 97b9 883e b793 84bd
00000060: a577 6c3d 8374 503d 78fd 4d3d 5cad 7bbd
00000070: 468e 31be 407c 05be fb71 14be 8624 3bbe
00000080: 1061 15be 3376 d3bc 868a 003e 6f42 efbc
00000090: 8721 eabc b0a9 adbd e188 ddbd fc72 1bbe
000000a0: 4a51 aebd 3cf4 99bd 5a7d 4bbc 14f1 8d3d
000000b0: dad0 06bd e42a b43d 5afc 803d 3fed 3d3d
000000c0: 7c60 f73c b902 aabd 7bf4 9c3d b04e 433d
000000d0: 0b7e 0b3e a237 653c bc26 5abc 2563 fcbc
000000e0: c84b 413c ff5f 70bd 76a1 c03b 43f4 6ebc
000000f0: 3e7c 9abd 3797 973d 98d4 73bd e296 18ba
00000100: c9b7 ff3b ddba 46bb a402 78bd 2fb4 453e
00000110: 0193 093e 53db 23bd 5646 de3d 08ae aa3b
00000120: 23c2 61bd 795f ecbb 8052 983d 6a23 7ebd
00000130: 7fda e93e 3773 ec3e c7c1 fbbd 009e 213e
00000140: d3c8 a53d c965 753d 4d81 193e e943 223e
00000150: 1c87 5d3e 78b8 5d3e d14e 503e 77da 4339
00000160: 8428 fbbd 4614 723c 81c2 0d3d 2ced 173e
00000170: 4259 da3d 246e 213e 9443 1e3e 51c1 a03d
00000180: b665 773a 8e4a 8abd 8eaf c53c 597e 05be
00000190: 31c4 56bd 4d42 abbd e6b2 a6bb a33e 493d
000001a0: 6c17 7cbd c1b5 6fbd d623 10be 9717 2abd
000001b0: faf5 953c d1f1 42bb 03c6 66bd 3c12 fe3d
000001c0: 6231 043d 730e d9bc 3953 1ebd 1189 b3bd
000001d0: 2371 aebc 6ba0 e63c 8d32 f33c a050 6f3c
000001e0: d878 4c3e 246a 823d 66ab 01bd 17b4 653a
000001f0: 7394 38bd c6dc a0bd 8250 e63d e285 793e
00000200: ae65 6b3c bdb0 023f 3b4c 8e3e d6aa 543d
00000210: a970 293d be20 12bd 731f 913c cb22 203d
00000220: 720e 23bd b408 143d 8ff5 d8bc f00b a0be
00000230: 60ab b0bd 6ee8 aa3d db7a 2e3e c062 233e
00000240: 1afe c53c 5d3f 89bc e593 d43d ca3b a8bd
00000250: cbd6 42be 0f50 c4bd 2bdc 133d bbcc 133e
00000260: 2312 043e b76e 7b3c 563b 10bd 577e a3bd
00000270: 55cf 81bd 4d08 fcbb 3968 ffbd 1f8c ad3a
00000280: b62e 963e c599 02bd 382e fbbd 07a4 d03d
00000290: ccf3 5ebe c8ba 0d3e 42ea 233e 51f7 cdbd
000002a0: 5b9e 183c 8f3e 1e3d 1040 023c f173 61be
000002b0: c900 323c 43a2 7fbe 4194 5cbd 2081 8e3d
000002c0: 4a87 bdbd 6f8a 39bd 8050 f3bc 4f20 4fbc
000002d0: fd73 cdbe 8c6a a8bd dfc2 53be e2c1 79bd
000002e0: c8c1 d23b c1b1 30bd d4ec 063d 66c8 c3bc
000002f0: 3e96 383d 7629 6cbd 9931 d63a e99d 313b
00000300: 7478 b83d a034 043e c827 143e ac83 d53d
00000310: e9e5 5bbe 38c0 b0bd 081a 80bd e3be 803d
00000320: 41bc e7bb d4cf a63d da0f 5b3c dde8 cd3d
00000330: 6c1f 363e 4e55 1dbe cff6 cdbd 0e9b d73c
00000340: 7dcc 973d 4328 73bd d8a3 48bd 580f 62bd
00000350: ba09 4fbe 43b7 c63c b4aa 8cbe 2630 a2be
00000360: f075 dcbc 0bf4 983d b1fe b13c 35f7 c7bd
00000370: 019b 9d3d 8a45 0a3d b816 313a 1170 913d
00000380: cb15 163d 87c5 d3bd ffd4 283d bddf 6b39
00000390: 9597 8cbe 94a1 86bc 7925 cb3b a0e4 cfbd
000003a0: 3b4a 35bc 7eb4 f0bc e0a4 833d bba5 7fbd
000003b0: 30d0 52bc 627a 2abf a21b 39be b675 d4bd
000003c0: 4e61 97bd 6a98 e7bd 8463 9d3b 8179 53bc
000003d0: 9577 fa3c 4b05 e83c eac1 dcbd ad4f efbc
000003e0: b3d4 273d 5dbf 323c 6202 6d3d 56ed 033d
000003f0: 58e2 6abd 76a0 75bd a6f8 143d e41b 23be

bn1.weight f4 [16]
0.1248431 0.21841916 0.19491577 0.23288342 0.23992482 0.13604638 0.18646921 0.16392875
0.27973545 0.21730895 0.198967 0.20046923 0.18839325 0.23044156 0.06586668 0.26100412
00000000: bdad ff3d 46a9 5f3e 0098 473e fe78 6e3e
00000010: daae 753e be4f 0b3e c9f1 3e3e f0dc 273e
00000020: 7c39 8f3e 3d86 5e3e 01be 4b3e ce47 4d3e
00000030: 29ea 403e dff8 6b3e 1ce5 863d 55a2 853e

bn1.bias f4 [16]
0.32670617 0.06270902 0.06419105 -0.0657977 -0.1961226 0.07299473 0.36956424 -0.109739415
-0.08716056 0.17717691 0.021465756 0.09616054 0.077123 -0.11167029 0.05169424 -0.027796607
00000000: 0846 a73e 966d 803d 9976 833d f2c0 86bd
00000010: 5dd4 48be 437e 953d 8637 bd3e 0fbf e0bd
00000020: 3c81 b2bd dd6d 353e f4d8 af3c d1ef c43d
00000030: aaf2 9d3d 65b3 e4bd 57bd 533d b6b5 e3bc

bn1.running_mean f4 [16]
0.09372221 -0.42702484 0.52528274 0.50610024 0.599267 0.0048571504 -0.58104056 -0.24686714
-0.6336044 -0.51169705 0.4663326 0.23979473 -0.0064552203 -0.24365768 0.01049753 -0.4327066
00000000: 6ef1 bf3d 00a3 dabe ee78 063f c98f 013f
00000010: 9069 193f bb28 9f3b 13bf 14bf bdca 7cbe
00000020: e633 22bf 94fe 02bf 26c3 ee3e c08c 753e
00000030: 5086 d3bb 6681 79be d5fd 2b3c b88b ddbe

bn1.running_var f4 [16]
0.0045506153 0.04911598 0.09854588 0.06913646 0.12507789 0.015374579 0.112793505 0.04035932
0.13694392 0.0910455 0.07384 0.019830996 0.012605994 0.02016986 0.0034553455 0.0623803
00000000: 541d 953b d62d 493d 6cd2 c93d 6b97 8d3d
00000010: 6b14 003e a8e5 7b3c 4800 e73d d04f 253d
00000020: 073b 0c3e 1076 ba3d 6d39 973d 9d74 a23c
00000030: 5f89 4e3c 433b a53c 1473 623b 7c82 7f3d

conv2.weight f4 [64, 16, 3, 3]
-0.05689062 -0.010742512 -0.00064169604 -0.10412468 0.08042587 0.051196124 -0.0658222 0.14359719
-0.074703224 -0.106350616 0.027113939 -0.08519102 -0.007032386 0.12188593 0.03029171 -0.017434247
0.059261005 -0.057806015 -0.07102543 -0.0023322443 0.009160623 0.00527491 0.21815808 0.019996317
-0.08512514 0.17564984 0.02749093 0.1075325 0.03160869 0.0781441 -0.010984389 -0.08395589
-0.01826972 -0.023455856 -0.07874535 -0.10101798 -0.05371552 -0.09004967 -0.08938646 -0.065367624
-0.04514253 0.12462878 -0.09038623 0.07849312 0.2131269 -0.08862833 -0.015522265 -0.014050728
-0.03414667 0.074383095 0.054831717 0.014645632 0.08837532 0.009802215 -0.023226688 0.11831994
0.06405935 0.015140853 0.10135214 0.03348441 0.037597653 -0.02205791 -0.07400283 0.23674592
0.013685209 0.07329325 0.17607866 -0.28067225 0.03565265 0.0053057717 -0.141428 -0.038227644
-0.12401848 -0.0025354938 -0.03353559 -0.012521484 -0.12060274 -0.19470175 -0.11279438 -0.14953282
-1.0935774 0.021462858 0.046146475 0.08892561 0.042745963 -0.035598736 -0.2822782 0.13747087
-0.21089375 -0.5616471 -0.015987445 0.018334791 -0.089147575 0.023915663 -0.02361327 -0.11153243
-0.0501222 0.011388034 -0.0856691 -0.029471103 -0.03152105 0.102410436 0.07971978 -0.008390009
0.024210187 -0.011843742 0.08831293 0.02743803 -0.012612208 0.0025931 -0.031350516 -0.11018451
-0.09381751 0.014734001 -0.093882166 -0.017535381 0.10180961 0.042044383 0.08425217 -0.005097989
0.0043041506 0.05127857 0.07013515 0.123338185 0.008483983 -0.01873614 0.10749646 -0.03199444
-0.13635254 0.0014632024 -0.17446329 -0.12559298 -0.17363445 -0.066329055 -0.13753486 0.030303283
0.011580897 0.0036396552 -0.0067891567 -0.033389557 -0.08990898 -0.008688288 -0.051458623 -0.15315957
-0.054562725 0.021264523 -0.0069381907 -0.046523176 0.0034169673 0.005113546 -0.14734676 0.08199149
0.08956208 0.043820016 0.10505818 -0.052045066 0.16225825 0.01938648 -0.07626025 0.2283612
0.0024413536 -0.29467544 -0.05564271 -0.07500252 0.073958784 -0.077643394 0.10871154 0.044221662
0.016663035 -0.015442519 0.004686714 -0.017929275 -0.015624192 0.0057505583 -0.12935668 0.036959477
0.042850573 -0.24557991 0.028551709 0.2589832 0.028160224 -0.054455645 -0.18943788 0.0010731154
-0.12451345 -0.08894181 -0.015559127 -0.11129907 0.021879544 -0.02919207 0.052256335 0.009030265
-0.058122844 -0.08478792 0.099260055 0.04789288 -0.112154946 -0.09836586 -0.04690722 -0.058976736
-0.02655266 0.10581123 -0.25283787 -0.07022655 -0.042319704 -0.3865398 -0.043430362 0.025880493
0.14111732 -0.11004061 -0.18014579 0.014754828 -0.0536338 -0.16752729 0.051690932 0.011963289
-0.030467229 -0.055619884 0.020547966 -0.043776695 0.03497742 0.16103055 -0.14879023 0.015064339
0.12699191 0.025295079 0.053212285 0.06483921 0.048679586 0.043557882 0.097311035 0.055235106
0.008158129 0.05075758 0.053292464 -0.011820649 0.09850063 -0.0413858 -0.20337817 0.18213236
0.053672325 -0.13129719 0.006664693 -0.017106423 0.10171905 -0.032986164 -0.20408937 -0.030872066
0.20140506 -0.13536139 -0.09953724 0.10169454 -0.08899567 -0.1414117 -0.04652387 0.37528548
00000000: 2406 69bd 5c01 30bc 7e37 28ba 523f d5bd
00000010: 52b6 a43d 07b3 513d cacd 86bd 240b 133e
00000020: 01fe 98bd 5ace d9bd 0d1e de3c a178 aebd
00000030: ee6f e6bb 559f f93d 5226 f83c 44d2 8ebc
00000040: abbb 723d 00c6 6cbd c875 91bd 91d8 18bb
00000050: 7016 163c 27d9 ac3b d564 5f3e 51cf a33c
00000060: 1756 aebd 8ddd 333e a934 e13c 003a dc3d
00000070: 1d78 013d 040a a03d def7 33bc 11f1 abbd
00000080: 61aa 95bc 7f26 c0bc 3e45 a1bd 84e2 cebd
00000090: ce04 5cbd f66b b8bd 4010 b7bd 76df 85bd
000000a0: 60e7 38bd 603d ff3d 6a1c b9bd 00c1 a03d
000000b0: f03d 5a3e c582 b5bd 1951 7ebc 0635 66bc
000000c0: 61dd 0bbd 2a56 983d 3997 603d 3cf4 6f3c
000000d0: 1ffe b43d 7899 203c e545 bebc ba51 f23d
000000e0: 8c31 833d 5711 783c b691 cf3d f326 093d
000000f0: ffff 193d cab2 b4bc cc8e 97bd 866d 723e
00000100: ed37 603c c51a 963d f74d 343e 46b4 8fbe
00000110: 8308 123d 0adc ad3b 80d2 10be 9794 1cbd
00000120: 67fd fdbd 872a 26bb 9d5c 09bd e926 4dbc
00000130: 92fe f6bd e55f 47be bd00 e7bd 221f 19be
00000140: 58fa 8bbf e0d2 af3c 1604 3d3d a11e b63d
00000150: 6416 2f3d fbcf 11bd c586 90be 2ac5 0c3e
00000160: 88f4 57be 1bc8 0fbf 1af8 82bc d832 963c
00000170: 0193 b6bd c8ea c33c 9e70 c1bc 1d6b e4bd
00000180: f04c 4dbd e094 3a3c 4873 afbd 626d f1bc
00000190: 371c 01bd 90bc d13d 2044 a33d 4076 09bc
000001a0: 7154 c63c 410c 42bc 69dd b43d b8c5 e03c
000001b0: 6fa3 4ebc 00f1 293b 6669 00bd 6ba8 e1bd
000001c0: 6523 c0bd e166 713c 4b45 c0bd 5ca6 8fbc
000001d0: 8f81 d03d bb36 2c3d 678c ac3d 080d a7bb
000001e0: d509 8d3b 7a09 523d 04a3 8f3d bb98 fc3d
000001f0: 6700 0b3c 897c 99bc 1b27 dc3d 9a0c 03bd
00000200: 00a0 0bbe edc8 bf3a 81a6 32be 729b 00be
00000210: 3bcd 31be 87d7 87bd f0d5 0cbe 973e f83c
00000220: cdbd 3d3c 4887 6e3b 9377 debb 7dc3 08bd
00000230: 3322 b8bd 5259 0ebc 47c6 52bd ddd5 1cbe
00000240: 2a7d 5fbd f032 ae3c c359 e3bb 168f 3ebd
00000250: 33ef 5f3b 888f a73b 12e2 16be 28eb a73d
00000260: 536c b73d 9e7c 333d be28 d73d 352d 55bd
00000270: 0727 263e 65d0 9e3c 552e 9cbd 85d7 693e
00000280: 1eff 1f3b b3df 96be 9ce9 63bd ec9a 99bd
00000290: b477 973d 8003 9fbd 28a4 de3d c621 353d
000002a0: eb80 883c 9f02 7dbc 0293 993b 6ae0 92bc
000002b0: 9cfc 7fbc 2e6f bc3b 1476 04be d262 173d
000002c0: 1584 2f3d 4d79 7bbe 46e5 e93c 7299 843e
000002d0: 45b0 e63c e20c 5fbd 01fc 41be c7a7 8c3a
000002e0: e800 ffbd 2027 b6bd b5eb 7ebc c4f0 e3bd
000002f0: bb3c b33c 3524 efbc bd0a 563d adf3 133c
00000300: 3812 6ebd 4aa5 adbd db48 cb3d 532b 443d
00000310: 7eb1 e5bd 0a74 c9bd c921 40bd 9791 71bd
00000320: f784 d9bc 8fb3 d83d f773 81be f0d2 8fbd
00000330: 6d57 2dbd 8be8 c5be 09e4 31bd 5403 d43c
00000340: 0f81 103e f95c e1bd 2378 38be 3cbe 713c
00000350: 1eaf 5bbd 468c 2bbe dfb9 533d ac01 443c
00000360: 6996 f9bc add1 63bd 3554 a83c 314f 33bd
00000370: 7c44 0f3d 31e5 243e 775c 18be 6bd0 763c
00000380: 2b0a 023e a037 cf3c 20f5 593d 6bca 843d
00000390: 3f64 473d c069 323d 024b c73d 353e 623d
000003a0: aca9 053c 2ee7 4f3d 3349 5a3d 65ab 41bc
000003b0: b3ba c93d 2884 29bd 5e42 50be e880 3a3e
000003c0: 83d7 5b3d c572 06be 7f63 da3b c522 8cbc
000003d0: 1452 d03d 801c 07bd cefc 50be 6ae7 fcbc
000003e0: 213d 4e3e 2d9c 0abe 2eda cbbd 3a45 d03d
000003f0: 5d43 b6bd 3bce 10be d08f 3ebd 6b25 c03e

bn2.weight f4 [64]
0.14158762 0.12702452 0.08903579 0.089884594 0.16260667 0.11264096 0.21067259 0.12879223
0.101752385 0.08688375 0.08586738 0.08527506 0.25552475 0.12778595 0.07689192 0.18959093
0.08000617 0.1363735 0.25912133 0.18175966 0.15726706 0.16857615 0.10004058 0.16245659
0.114571 0.16397072 0.20613292 0.1338681 0.17666748 0.16471823 0.1859799 0.14344102
0.21642773 0.12483303 0.20478924 0.12557246 0.17583933 0.13621588 0.21875757 0.0841415
0.06801979 0.18845703 0.20624918 0.1693776 0.24717888 0.072684176 0.20094274 0.16240263
0.0813536 0.1702103 0.1826507 0.14866854 0.17293899 0.08694015 0.08158881 0.20373443
0.08432328 0.07178931 0.09244905 0.11517727 0.209037 0.22235343 0.2391445 0.15127693
00000000: 58fc 103e b712 023e 6558 b63d 6a15 b83d
00000010: 5d82 263e 4eb0 e63d 8eba 573e 1ce2 033e
00000020: 8e63 d03d 1cf0 b13d 3ddb af3d b1a4 ae3d
00000030: 24d4 823e 52da 023e 8379 9d3d 2024 423e
00000040: 46da a33d 7fa5 0b3e 8dab 843e 341f 3a3e
00000050: 9e0a 213e 3a9f 2c3e 13e2 cc3d 055b 263e
00000060: 33a4 ea3d f1e7 273e 8214 533e b814 093e
00000070: 52e8 343e e5ab 283e 8471 3e3e 34e2 123e
00000080: 3b9f 5d3e 76a8 ff3d 45b4 513e 1196 003e
00000090: 3a0f 343e 2d7c 0b3e fc01 603e 6152 ac3d
000000a0: f64d 8b3d e1fa 403e fc32 533e 5271 2d3e
000000b0: 761c 7d3e 71db 943d efc3 4d3e e04c 263e
000000c0: b79c a63d 9c4b 2e3e c908 3b3e 913c 183e
000000d0: eb16 313e ad0d b23d 0918 a73d c29f 503e
000000e0: afb1 ac3d 4606 933d ed55 bd3d 0fe2 eb3d
000000f0: cc0d 563e 9eb0 633e 4ce2 743e 57e8 1a3e

bn2.bias f4 [64]
0.007510096 0.03793852 0.08668133 0.024246074 0.008390938 0.009979747 -0.23809922 -0.017390732
-0.049620226 0.035144262 0.05201828 0.052934036 -0.01987487 -0.04935196 0.013003275 -0.2585702
0.070071846 0.06766976 -0.42503795 -0.38668373 -0.2887275 -0.0065603675 -0.04235073 -0.0003917622
0.008347896 0.032673504 -0.28561783 -0.07230421 -0.020634599 0.041750666 -0.32348126 0.046358872
-0.1203614 0.03698606 0.019948622 -0.14479516 -0.085731 -0.09062911 -0.16272296 0.04851825
0.08585015 -0.44841105 -0.26641643 0.11298254 -0.06688272 0.10477002 0.03204083 0.38218337
0.068939365 -0.21867743 -0.22317964 0.050924066 -0.17988454 -0.003988657 0.1045253 0.05266191
0.059476033 0.0748196 0.053864952 -0.028782912 -0.2379497 -0.051697023 -0.13385978 -0.03401456
00000000: 4017 f63b 6c65 1b3d fb85 b13d b49f c63c
00000010: 257a 093c 1882 233c 48d0 73be 0277 8ebc
00000020: 943e 4bbd 6ef3 0f3d 1f11 553d 5cd1 583d
00000030: a0d0 a2bc 4825 4abd b00b 553c 5063 84be
00000040: d481 8f3d 7196 8a3d 939e d9be 69fb c5be
00000050: 17d4 93be 5af8 d6bb f677 2dbd 6f65 cdb9
00000060: 9dc5 083c a7d4 053d 803c 92be 3b14 94bd
00000070: e409 a9bc bf02 2b3d 569f a5be cde2 3d3d
00000080: 0a80 f6bd b27e 173d 4b6b a33c 2f45 14be
00000090: bc93 afbd c19b b9bd d9a0 26be 13bb 463d
000000a0: 34d2 af3d 2296 e5be bc67 88be 6463 e73d
000000b0: cff9 88bd aa91 d63d 3f3d 033d 8aad c33e
000000c0: 1530 8d3d faec 5fbe 3489 64be c195 503d
000000d0: a733 38be 48b3 82bb 5c11 d63d 04b4 573d
000000e0: 249d 733d 053b 993d 7fa1 5c3d 24ca ebbc
000000f0: 16a9 73be 42c0 53bd 8a12 09be da52 0bbd

bn2.running_mean f4 [64]
-0.1446313 -0.18705587 -0.029920103 0.5734014 0.04513775 -0.6818843 0.6544858 -0.7228111
-0.10772881 -0.08021595 0.3216579 -0.4277338 -0.10950527 0.3233958 0.84659964 0.30514768
-0.062346082 -0.013051647 -0.047774978 0.3665646 0.3846386 0.29215723 0.31104368 -0.1453821
-0.6371383 -0.47923246 0.018707285 -0.33839288 -0.07878461 0.2575291 0.28965092 -0.18756023
-0.124205135 -0.69152355 0.25711074 0.0035411746 0.5086852 0.15066245 -0.34469151 0.088714585
-0.23257716 0.8139303 0.8229143 0.05860228 -0.26880258 0.19760303 -0.5326579 -0.70009226
0.15115842 0.022099739 0.21084327 -0.08686495 0.08977419 0.49761894 0.12065283 0.08967088
0.22179201 0.4113282 -0.45083395 -0.138364 0.42430106 0.45222452 0.09468501 -0.16749342
00000000: 3a1a 14be 938b 3fbe 011b f5bc 6fca 123f
00000010: 5de2 383d f88f 2ebf 628c 273f 260a 39bf
00000020: eca0 dcbd 4348 a4bd 58b0 a43e edff dabe
00000030: 4d44 e0bd 2294 a53e c1ba 583f 513c 9c3e
00000040: 9b5e 7fbd 93d6 55bc b2af 43bd 5bae bb3e
00000050: 5aef c43e a295 953e 1e41 9f3e 0cdf 14be
00000060: 7f1b 23bf f55d f5be 0540 993c d541 adbe
00000070: d359 a1bd dbda 833e 204d 943e ca0f 40be
00000080: 435f febd b007 31bf 05a4 833e 0d13 683b
00000090: 3139 023f 4247 1a3e 687b b0be feaf b53d
000000a0: b528 6ebe bc5d 503f 83aa 523f f208 703d
000000b0: 7ea0 89be 7358 4a3e 455c 08bf 3f39 33bf
000000c0: 46c9 1a3e 830a b53c 4ce7 573e 40e6 b1bd
000000d0: 88db b73d e9c7 fe3e d518 f73d 5ea5 b73d
000000e0: 721d 633e 9c99 d23e b5d3 e6be 4baf 0dbe
000000f0: fd3d d93e f989 e73e 37ea c13d 6583 2bbe

bn2.running_var f4 [64]
0.14184056 0.03674587 0.0032719015 0.018617727 0.038986016 0.0022818153 0.02455466 0.5839218
0.063620076 0.008610969 0.06426187 0.003928763 0.2590724 0.093629025 0.0027329132 0.09453532
0.0073317694 0.024799118 0.25396454 0.1726764 0.05166885 0.057732306 0.061125353 0.032012787
0.06077624 0.0019783839 0.33041227 0.0106423525 0.05435519 0.039279338 0.24080296 0.026693957
0.3738325 0.05877347 0.18774448 0.12837417 0.0246174 0.032120466 0.48419502 0.037652362
0.0034108893 0.014997355 0.17638004 0.4102187 0.21591344 0.012593678 0.14931588 0.16562589
0.009243534 0.22636217 0.019753292 0.027509911 0.016829003 0.01559618 0.010819322 0.04922259
0.022587618 0.00999955 0.006780028 0.047105927 0.021515606 0.20538022 0.35660225 0.044458933
00000000: a73e 113e d682 163d 666d 563b 3484 983c
00000010: cdaf 1f3d 828a 153b db26 c93c e67b 153f
00000020: 3e4b 823d 0615 0d3c ba9b 833d dabc 803b
00000030: 23a5 843e 93c0 bf3d ad1a 333b bc9b c13d
00000040: 573f f03b 8527 cb3c a407 823e 15d2 303e
00000050: b7a2 533d b678 6c3d 945e 7a3d d71f 033d
00000060: 82f0 783d c6a7 013b cc2b a93e 435d 2e3c
00000070: 8ca3 5e3d 5fe3 203d 0d95 763e 49ad da3c
00000080: f966 bf3e 73bc 703d 1740 403e 8574 033e
00000090: 6eaa c93c c090 033d 69e8 f73e 5d39 1a3d
000000a0: 3a89 5f3b 77b7 753c f89c 343e 2f08 d23e
000000b0: 6a18 5d3e b755 4e3c 43e6 183e d599 293e
000000c0: 3172 173c 7ccb 673e a8d1 a13c 775c e13c
000000d0: fadc 893c 1f87 7f3c 8743 313c a09d 493d
000000e0: ab09 b93c 27d5 233c ff2a de3b 25f2 403d
000000f0: 7f41 b03c 314f 523e 9294 b63e 921a 363d

conv3.weight f4 [64, 64, 3, 3]
-0.048370555 -0.012643064 0.09100776 0.009265448 0.01539904 0.068893366 -0.16464789 0.099096835
0.0804711 0.006862577 -0.066480726 -0.15231743 0.03484447 0.027605899 -0.6032813 0.025165172
-0.15029538 -0.26595598 0.0056288326 -0.033239257 -0.001680157 0.00341651 -0.013723663 -0.14218728
0.026127473 0.10152476 0.018792057 0.07588331 -0.17426054 0.0222599 0.0062076487 0.012345837
0.056404382 0.29956588 0.1806532 0.19092324 0.0027959908 -0.1329646 -0.027645636 -0.029379293
-0.027133375 -0.12641454 0.033190187 -0.14479984 -0.021961825 0.07697571 0.032096595 0.027668048
-0.20272629 -0.113239355 -0.2752593 -0.007529961 -0.0935993 0.08537368 0.020558134 0.11639661
0.020617964 -0.04209354 -0.14820515 -0.14368339 0.014335371 -0.15453415 0.02437262 -0.045117807
-0.08703956 0.0448218 -0.1219924 -0.14533415 0.035746127 -0.011323813 0.06903871 0.17472275
0.016483238 0.06969228 -0.28470472 -0.2671128 -0.0071821613 -0.28278401 0.15626632 0.21945181
-0.18840295 -0.020178592 -0.03463492 -0.06517907 -0.049049556 0.21223533 -0.048312366 0.043023914
0.14798342 0.049546912 -0.03703543 -0.108119145 0.00059586763 0.10059449 -0.21267338 -0.13093747
-0.0599988 -0.04583939 0.15605539 -0.06466136 0.12139036 -0.010396266 0.026241316 0.039963093
0.116523415 -0.0075658276 -0.09789502 0.0798282 0.04668006 0.02052977 0.09529764 -0.11670088
-0.08400216 0.07713927 -0.01924394 -0.07023005 0.05068743 -0.044362757 -0.032498907 -0.048592143
-0.029479051 -0.2789215 0.042854507 -0.020817395 -0.14173841 0.08482288 -0.002784708 -0.1530026
0.028352244 -0.10188898 0.021602113 -0.002190533 -0.08677108 -0.010372238 -0.08507711 0.0011624407
0.038031116 -0.050372534 0.028307354 -0.026672196 0.02956292 -0.0034093119 0.053514853 0.06836991
0.0075507364 -0.12982386 -0.10812476 -0.19101189 -0.015860068 -0.067060806 0.12850215 -0.07137093
-0.045748793 0.1263526 -0.10503061 0.059325688 -0.013712506 0.020398403 0.014128379 -0.05760859
-0.06912947 0.02019662 -0.04395708 -0.16312696 -0.050304186 -0.26016462 -0.008550704 -0.0062898616
-0.1622787 -0.16843064 0.011644962 -0.045607302 -0.15448257 -0.069002435 -0.093986794 0.22704664
0.42948902 -0.07221721 -0.041344523 0.17123052 0.052530333 -0.00440638 -0.00893443 -0.2074779
-0.3109409 -0.15638685 -0.088062935 -0.13585983 -0.012309883 -0.065623306 -0.06536851 -0.103661746
-0.15472993 -0.17732857 -0.16315736 0.04751361 0.006075628 -0.12638572 -0.044104837 0.038490407
-0.09164198 0.2398123 0.12876566 -0.0065161595 -0.0699866 0.118865065 0.048160825 0.008695955
0.10420879 0.06633788 0.012650697 -0.10648558 -0.02323668 -0.13532273 0.02903508 -0.19307443
-0.08282806 -0.0829824 -0.09476929 -0.016677307 0.003245071 0.032896653 0.057008494 -0.06292269
-0.116138525 -0.07508459 0.030788762 -0.055200156 0.051409494 0.05946468 -0.18601815 -0.013634741
-0.045678347 0.021091646 0.107923634 0.072965086 0.06920009 0.0955393 0.1478037 0.05421691
0.12993543 0.23450223 0.11151002 -0.043118984 0.032952648 -0.06848244 -0.09622031 -0.027547128
-0.053206567 0.10266403 -0.03913277 0.17847916 -0.057463437 -0.09487606 -0.07526402 -0.04453166
00000000: 3420 46bd db24 4fbc 4762 ba3d 1bce 173c
00000010: 414c 7c3c f717 8d3d 7599 28be 48f3 ca3d
00000020: 08ce a43d 78df e03b 0c27 88bd 1af9 1bbe
00000030: 13b9 0e3d c425 e23c a570 1abf 3127 ce3c
00000040: 08e7 19be 622b 88be 1272 b83b e325 08bd
00000050: b738 dcba 87e7 5f3b 37d9 60bc 8b99 11be
00000060: 4809 d63c 37ec cf3d cdf1 993c b568 9b3d
00000070: 5b71 32be 655a b63c 8869 cb3b 3246 4a3c
00000080: 4808 673d b360 993e 27fd 383e 6281 433e
00000090: f13c 373b df27 08be 1a79 e2bc d8ac f0bc
000000a0: d046 debc d072 01be 6ff2 073d 6946 14be
000000b0: 49e9 b3bc 71a5 9d3d b877 033d 1aa8 e23c
000000c0: 7b97 4fbe 09ea e7bd c9ee 8cbe e4bd f6bb
000000d0: fdb0 bfbd 65d8 ae3d 8869 a83c 5961 ee3d
000000e0: 01e7 a83c 476a 2cbd 17c3 17be bd21 13be
000000f0: e7de 6a3c 333e 1ebe 17a9 c73c 73cd 38bd
00000100: cc41 b2bd 1097 373d 27d7 f9bd 7ad2 14be
00000110: 886a 123d 8487 39bc 2b64 8d3d 85ea 323e
00000120: db07 873c d3ba 8e3d d1c4 91be 02c3 88be
00000130: 5658 ebbb 11c9 90be 4704 203e fab7 603e
00000140: b4ec 40be 934d a5bc 59dd 0dbd 9b7c 85bd
00000150: 30e8 48bd 3854 593e 30e3 45bd d839 303d
00000160: f788 173e b4f1 4a3d 77b2 17bd 926d ddbd
00000170: 0034 1c3a 7c04 ce3d 0dc7 59be 7914 06be
00000180: 4dc1 75bd 16c2 3bbd fccc 1f3e 2d6d 84bd
00000190: 829b f83d 1a55 2abc 07f8 d63c 57b0 233d
000001a0: d4a3 ee3d c3ea f7bb 2f7d c8bd f87c a33d
000001b0: 9733 3f3d 0c2e a83c 692b c33d df00 efbd
000001c0: 5309 acbd 32fb 9d3d 78a5 9dbc c6d4 8fbd
000001d0: 9f9d 4f3d b9b5 35bd 931d 05bd 8e08 47bd
000001e0: 0d7e f1bc cdce 8ebe 3588 2f3d 3e89 aabc
000001f0: e023 11be 9eb7 ad3d a67f 36bb b7ac 1cbe
00000200: f742 e83c 2bab d0bd eaf6 b03c 0c8f 0fbb
00000210: 09b5 b1bd 52f0 29bc e83c aebd 0a5d 983a
00000220: 84c6 1b3d 6e53 4ebd d3e4 e73c a67f dabc
00000230: f02d f23c c36e 5fbb 6432 5b3d 8605 8c3d
00000240: 2b6c f73b 8cf0 04be 8470 ddbd 9f98 43be
00000250: f9ec 81bc 2d57 89bd 1196 033e ec2a 92bd
00000260: 1663 3bbd 9362 013e 4a1a d7bd 7eff 723d
00000270: 6baa 60bc 8d1a a73c b77a 673c fcf6 6bbd
00000280: c093 8dbd 6273 a53c 570c 34bd c10a 27be
00000290: c30b 4ebd 4c34 85be 4118 0cbc 2f1b cebb
000002a0: 632c 26be 1579 2cbe 83ca 3e3c b9ce 3abd
000002b0: ae30 1ebe 2651 8dbd 267c c0bd ea7e 683e
000002c0: fce5 db3e 9ee6 93bd e058 29bd 0e57 2f3e
000002d0: 0c2a 573d 6563 90bb b761 12bc 1675 54be
000002e0: a533 9fbe e023 20be 575a b4bd d71e 0bbe
000002f0: 64af 49bc 8365 86bd eddf 85bd 9c4c d4bd
00000300: 8671 1ebe 9f95 35be b912 27be a29d 423d
00000310: 1016 c73b 426b 01be 46a7 34bd 1ea8 1d3d
00000320: caae bbbd 5b91 753e 25db 033e 8285 d5bb
00000330: 2255 8fbd 876f f33d 4944 453d 7b79 0e3c
00000340: 6b6b d53d 28dc 873d de44 4f3c 1d15 dabd
00000350: da5a bebc 0b92 0abe fada ed3c 4eb5 45be
00000360: c2a1 a9bd adf2 a9bd 6716 c2bd d99e 88bc
00000370: 42ab 543b a4be 063d bd81 693d 9cdd 80bd
00000380: 09da edbd f3c5 99bd b738 fc3c 8f19 62bd
00000390: c392 523d 3c91 733d 8b7b 3ebe 4064 5fbc
000003a0: 3819 3bbd 63c8 ac3c 1107 dd3d b86e 953d
000003b0: c7b8 8d3d 1caa c33d da59 173e 8d12 5e3d
000003c0: cb0d 053e 5a21 703e 5e5f e43d 889d 30bd
000003d0: 5bf9 063d 8640 8cbd 270f c5bd 84aa e1bc
000003e0: 21ef 59bd 8541 d23d af49 20bd 3ec3 363e
000003f0: c85e 6bbd 614e c2bd 0624 9abd d466 36bd

bn3.weight f4 [64]
0.14801909 0.22869587 0.21055436 0.25339857 0.20451142 0.15338056 0.23276868 0.114114314
0.21704029 0.23951097 0.096795894 0.12279759 0.19229671 0.2179362 0.26002675 0.20783308
0.18073365 0.1262842 0.19455217 0.18962277 0.15671486 0.15637867 0.227342 0.12588201
0.12347854 0.2162125 0.37575096 0.18943098 0.25645304 0.13285205 0.16711009 0.27685308
0.08355596 0.21253115 0.23646124 0.13472524 0.1535916 0.18169932 0.18985826 0.24835269
0.14238304 0.12103351 0.22277169 0.3192726 0.20213413 0.24919868 0.23853722 0.24261966
0.17888078 0.080347985 0.16732138 0.17910878 0.1340438 0.18298133 0.16065195 0.2121275
0.11011515 0.2676695 0.097865984 0.23355517 0.12356371 0.2895448 0.18309648 0.1892669
00000000: 5192 173e 402f 6a3e 909b 573e 75bd 813e
00000010: 716b 513e cb0f 1d3e ea5a 6e3e c4b4 e93d
00000020: cf3f 5e3e 5d42 753e ed3c c63d 4e7d fb3d
00000030: 6ee9 443e ab2a 5f3e 3a22 853e 32d2 543e
00000040: 3e12 393e a550 013e af38 473e 792c 423e
00000050: dc79 203e bb21 203e 57cc 683e 37e7 003e
00000060: 51e2 fc3d cf66 5d3e 6e62 c03e 32fa 413e
00000070: d04d 833e 5e0a 083e e81e 2b3e b0bf 8d3e
00000080: 631f ab3d c4a1 593e e522 723e 6af5 093e
00000090: 1e47 1d3e 630f 3a3e 346a 423e 2b50 7e3e
000000a0: dccc 113e 6be0 f73d 431e 643e b377 a33e
000000b0: 40fc 4e3e f02d 7f3e 1a43 743e 4a71 783e
000000c0: 862c 373e 7c8d a43d 4c56 2b3e 4b68 373e
000000d0: c742 093e 755f 3b3e f281 243e f437 593e
000000e0: 0d84 e13d fa0b 893e f66d c83d 1629 6f3e
000000f0: f80e fd3d 373f 943e a57d 3b3e 2fcf 413e

bn3.bias f4 [64]
0.063705355 -0.014839116 0.035536684 0.033507165 -0.072003074 0.12751795 -0.06836802 0.21535303
0.06966073 -0.15604095 0.29738793 0.3279311 0.05800278 0.023420902 -0.06818723 -0.18762584
-0.12223765 0.05074043 0.07612042 0.05055822 0.045976695 0.05516791 0.059508447 0.057114873
0.12737855 -0.45143062 -0.56919277 -0.18525666 -0.047647472 0.06833294 0.052781835 -0.22786705
0.086900935 0.06775601 -0.16697325 0.05296195 0.13684708 -0.029969363 0.026838494 0.10786831
0.04848029 0.14967042 0.029748669 -0.47799122 0.07750585 -0.08628082 -0.03142919 0.041700702
-0.43757272 0.11578502 -0.19877715 -0.12180691 0.029998682 0.10569175 0.06729076 -0.29421058
0.18107091 -0.03885027 0.10193932 0.16473164 0.17117849 -0.24913412 0.032467112 -0.1858854
00000000: f477 823d c31f 73bc ea8e 113d cf3e 093d
00000010: 5976 93bd 1194 023e 8804 8cbd 8185 5c3e
00000020: 49aa 8e3d 33c9 1fbe 3b43 983e 96e6 a73e
00000030: 5394 6d3d 31dd bf3c bfa5 8bbd fd20 40be
00000040: bc57 fabd 32d5 4f3d 06e5 9b3d 2316 4f3d
00000050: 0f52 3c3d bff7 613d 21bf 733d 49f1 693d
00000060: 866f 023e ea21 e7be 9eb6 11bf ecb3 3dbe
00000070: ff29 43bd 24f2 8b3d c431 583d fb55 69be
00000080: 1ef9 b13d aac3 8a3d 09fb 2abe a1ee 583d
00000090: a421 0c3e 4f82 f5bc 67dc db3c 0fea dc3d
000000a0: 4593 463d 3443 193e 7bb3 f33c 44bb f4be
000000b0: 63bb 9e3d 00b4 b0bd e5bb 00bd 5bce 2a3d
000000c0: 8809 e0be b220 ed3d 3d8c 4bbe e775 f9bd
000000d0: ccbf f53c eb74 d83d bdcf 893d c5a2 96be
000000e0: a76a 393e 7621 1fbd 90c5 d03d 69af 283e
000000f0: 6a49 2f3e 041d 7fbe 3cfc 043d be58 3ebe

bn3.running_mean f4 [64]
-0.21909682 -0.36834997 -0.16319197 -0.29654327 -0.43307313 -0.52064764 0.06765758 -0.091130525
-0.42744732 0.082745366 -0.13663566 -0.30644464 0.008646413 0.023864675 0.2586754 -0.37663433
-0.27591875 -0.12490509 0.036198094 0.27820757 -0.054688714 -0.021682112 0.08704791 -0.083999895
0.029091842 -0.3666956 -0.18765451 -0.34322032 0.4309718 0.54514027 -0.17475913 0.30815718
-0.38054287 0.065314725 -0.46680754 -0.39800483 -0.023413789 -0.0968201 0.57594174 -0.0020377063
-0.18664676 -0.18419282 -0.29005286 -0.36338198 -0.09787663 0.016893445 -0.11564313 0.021042142
-0.6495545 -0.3917421 -0.1276824 -0.23028767 -0.41569006 0.7333099 -0.31300673 -0.53201896
-0.49247015 0.06552566 -0.22711122 -0.29801482 -0.42645594 -0.76368797 -0.16981581 -0.42861345
00000000: eb5a 60be 5e98 bcbe cc1b 27be 85d4 97be
00000010: c3bb ddbe 2a49 05bf 0f90 8a3d a4a2 babd
00000020: 60da dabe 6776 a93d 38ea 0bbe 50e6 9cbe
00000030: afa9 0d3c da7f c33c 1a71 843e 37d6 c0be
00000040: 3945 8dbe 3dce ffbd 7444 143d 3971 8e3e
00000050: 4601 60bd af9e b1bc 2d46 b23d 2308 acbd
00000060: 0452 ee3c 87bf bbbe 8128 40be 93ba afbe
00000070: 56a8 dc3e 508e 0b3f 0ff4 32be c7c6 9d3e
00000080: 84d6 c2be bac3 853d 6601 efbe 4ac7 cbbe
00000090: 46ce bfbc 9e49 c6bd eb70 133f 0a8b 05bb
000000a0: 5420 3fbe 0b9d 3cbe cf81 94be 340d babe
000000b0: 8b73 c8bd 1f64 8a3c 4ed6 ecbd 9260 ac3c
000000c0: 3449 26bf 6c92 c8be 2dbf 02be 88d0 6bbe
000000d0: 54d5 d4be 33ba 3b3f 6b42 a0be 6532 08bf
000000e0: 0c25 fcbe 5132 863d d88f 68be 6695 98be
000000f0: 6f58 dabe 0e81 43bf 32e4 2dbe 3973 dbbe

bn3.running_var f4 [64]
0.049089186 0.242184 0.12212289 0.6164573 0.19393976 0.03239534 0.5559907 0.02915509
0.10581966 0.43879083 0.027657423 0.047173187 0.122114286 0.51575935 0.92592186 0.03611013
0.19191274 0.04644575 0.096604615 0.56627613 0.053057823 0.08382822 0.1264331 0.0929314
0.036635265 0.009164527 0.024626017 0.13797987 0.66771495 0.13675976 0.051880527 0.57273936
0.032270186 0.086403765 0.11201269 0.03183125 0.09550021 0.20846473 0.22788607 0.111782596
0.03873956 0.033276703 0.13347428 0.02513061 0.10862728 0.6762469 0.22584423 0.23783216
0.45425647 0.023404581 0.08639029 0.19093934 0.05991348 0.43876705 0.07784774 0.08526897
0.034035724 0.65642357 0.023543837 0.09004139 0.034817427 0.06955291 0.51247364 0.026037496
00000000: be11 493d 15ff 773e 911b fa3d 25d0 1d3f
00000010: 2598 463e fab0 043d 6855 0e3f a8d6 ee3c
00000020: fab7 d83d 31a9 e03e d291 e23c ac38 413d
00000030: 0e17 fa3d ce08 043f 3709 6d3f 37e8 133d
00000040: c684 443e e63d 3e3d a4d8 c53d 79f7 103f
00000050: 2953 593d 21ae ab3d ae77 013e d152 be3d
00000060: dc0e 163d d026 163c 80bc c93c 984a 0d3e
00000070: 5eef 2a3f c00a 0c3e ad80 543d 0c9f 123f
00000080: be2d 043d 75f4 b03d e966 e53d 7c61 023d
00000090: 9d95 c33d c777 553e f75a 693e 46ee e43d
000000a0: 5fad 1e3d 274d 083d 7bad 083e b6de cd3c
000000b0: fb77 de3d 841e 2d3f b643 673e 468a 733e
000000c0: 4e94 e83e f7ba bf3c 64ed b03d 9a85 433e
000000d0: d667 753d 13a6 e03e a36e 9f3d 7fa1 ae3d
000000e0: 0b69 0b3d 600b 283f 01df c03c 9f67 b83d
000000f0: b89c 0e3d c271 8e3d 7931 033f 964c d53c

conv4.weight f4 [64, 64, 3, 3]
0.037455983 -0.032464214 0.03761378 0.2383429 -0.12917489 0.011362248 -0.01513482 0.0030517601
-0.0110231675 0.08052341 0.010794726 -0.007742231 0.08797448 -0.080875136 -0.08400376 -0.01337936
-0.012165232 -0.025954394 0.2327581 -0.28227818 -0.030677935 0.14741623 -0.097141676 0.0032438736
-0.0015053472 0.048870746 0.024118224 0.2957145 -0.00027085253 -0.033034306 0.096307516 -0.13551576
-0.048156284 0.05672347 -0.030343754 -0.012397633 0.29218185 -0.049996965 -0.048644673 -0.01644689
-0.110904224 0.02333347 0.04315111 -0.075387985 -0.009319468 -0.004236355 -0.21255527 -0.016613932
0.13247457 0.17927864 -0.04535502 -0.024887819 0.021374023 -0.019299237 -0.09288903 -0.056118935
-0.04425391 -0.037124388 -0.055737667 -0.040407315 -0.009795934 -0.013224029 -0.015890524 0.16427581
0.09420371 -0.015740938 -0.22115032 -0.08894515 0.107540354 -0.039998576 -0.004356482 -0.0017098192
0.17891629 -0.018047284 -0.0024275968 -0.3134279 -0.19258001 0.013673766 -0.008010557 0.030100381
0.0069634705 0.15434447 -0.031588275 -0.02402383 0.21010508 -0.16261874 -0.048320845 -0.04427649
-0.027110068 0.0052542216 0.1403589 -0.014682136 -0.007547674 0.06594635 -0.057560913 0.04662541
-0.07068355 -0.05427046 0.015656967 0.008837706 -0.03286014 -0.027852423 -0.034040336 -0.14113055
-0.038288444 0.0148949465 -0.036848314 0.020046944 -0.16645712 0.18309824 0.0034941304 0.10200085
-0.0419429 -0.033854827 0.04884537 -0.0386148 0.023620129 -0.0626642 -0.09842547 -0.022204954
-0.011817657 0.0848279 -0.021267377 0.001125731 -0.011481907 0.008978793 -0.28504995 -0.20931034
-0.050648175 -0.23632926 -0.062230323 -0.020441229 -0.026564078 -0.00535398 -0.031864744 0.084913954
0.0017803569 0.025318105 -0.031183273 -0.047324236 0.009272653 -0.0027223385 -0.0069656107 -0.012298845
-0.04311254 -0.0101658255 -0.036206685 -0.10244025 -0.2349876 -0.10717949 -0.013041609 0.023757491
0.019992359 0.114706114 0.022510836 0.0168934 -0.030149585 -0.07973 0.021626813 0.025699863
0.017737612 0.042766545 0.1575965 -0.26551318 -0.011203276 -0.16632667 0.020509606 0.04334797
-0.057816487 0.03405387 -0.014066781 0.007184075 -0.044125836 -0.003184944 -0.050466508 -0.29128158
-0.089959085 -0.018050147 -0.09319376 -0.04943524 0.0067599867 0.06706362 -0.023949973 -0.22851309
-0.12353582 0.07973159 0.031335685 0.03127431 -0.0051675686 0.13525453 -0.17462708 0.012027753
-0.15192944 0.043126784 -0.017036594 0.050154816 0.010032386 0.033737946 0.05771814 0.18827663
0.024297845 0.2694884 -0.24857625 0.04238276 -0.058952525 -0.017306527 0.016752273 -0.317148
0.101682626 -0.064916596 -0.050295852 -0.04647024 -0.025839496 0.038711917 -0.0022282382 0.0066601946
-0.08668662 0.15920794 -0.034802455 -0.12580964 -0.23801066 0.003925488 0.06438744 0.02327807
-0.03651559 0.018927846 -0.017830113 0.012454465 0.0074559776 0.04656383 -0.024773536 -0.07077003
-0.00022007187 -0.029584488 -0.019998593 -0.006137295 -0.004467464 0.038298193 -0.008005798 -0.032294724
0.01053977 -0.019801881 -0.0019704439 -0.013717761 -0.11231122 -0.06508283 0.060377557 -0.04619569
-0.031441417 -0.04421669 0.009794492 -0.025616357 -0.2713764 -0.17548904 -0.018365208 -0.19023645
00000000: 726b 193d 32f9 04bd e810 1a3d 2910 743e
00000010: 6c46 04be b928 3a3c 09f8 77bc 0a00 483b
00000020: 849a 34bc 75e9 a43d 5ddc 303c 8ab2 fdbb
00000030: f72b b43d dda1 a5bd 2a0a acbd 1a35 5bbc
00000040: ae50 47bc 4f9e d4bc 2458 6e3e c486 90be
00000050: 4b50 fbbc 48f4 163e 37f2 c6bd 2b97 543b
00000060: 124f c5ba b12c 483d 9593 c53c e467 973e
00000070: 3601 8eb9 fb4e 07bd e03c c53d a5c4 0abe
00000080: 863f 45bd df56 683d 7793 f8bc 711f 4bbc
00000090: dc98 953e 9ec9 4cbd a33f 47bd a1bb 86bc
000000a0: c121 e3bd d525 bf3c 38bf 303d 0465 9abd
000000b0: afb0 18bc 1fd1 8abb 17a8 59be f119 88bc
000000c0: 6aa7 073e d294 373e 2fc6 39bd 8ae1 cbbc
000000d0: 9318 af3c 6f19 9ebc 9b3c bebd f8dc 65bd
000000e0: 9743 35bd be0f 18bd 2e4d 64bd 2482 25bd
000000f0: 207f 20bc 99a9 58bc d82c 82bc eb37 283e
00000100: e0ed c03d 24f3 80bc 3b75 62be e028 b6bd
00000110: 1e3e dc3d 8cd5 23bd d2c0 8ebb 031c e0ba
00000120: d535 373e e6d7 93bc 5118 1fbb 9f79 a0be
00000130: b233 45be ee07 603c b63e 03bc 1395 f63c
00000140: d32d e43b 7a0c 1e3e b562 01bd a0cd c4bc
00000150: c925 573e 8785 26be 14ec 45bd 445b 35bd
00000160: ef15 debc 9b2b ac3b 3eba 0f3e 578d 70bc
00000170: 7a52 f7bb e10e 873d fec4 6bbd 49fa 3e3d
00000180: 89c2 90bd b44a 5ebd 0a43 803c 07cc 103c
00000190: 5b98 06bd c42a e4bc e16d 0bbd 8784 10be
000001a0: 58d4 1cbd ef09 743c 42ee 16bd 7d39 a43c
000001b0: bc73 2abe 1b7e 3b3e c8fd 643b d2e5 d03d
000001c0: 51cc 2bbd 5cab 0abd 1512 483d 8d2a 1ebd
000001d0: 007f c13c 1756 80bd 4b93 c9bd 2ae7 b5bc
000001e0: d99e 41bc 40ba ad3d ec38 aebc 448d 933a
000001f0: 9c1e 3cbc ca1b 133c 11f2 91be 7355 56be
00000200: 7674 4fbd 4c00 72be 39e5 7ebd 5d74 a7bc
00000210: e99c d9bc 7170 afbb 9b84 02bd 5ee7 ad3d
00000220: dd5a e93a ea67 cf3c 1074 ffbc 0fd7 41bd
00000230: 53ec 173c 4369 32bb c73f e4bb 1881 49bc
00000240: c696 30bd 908e 26bc 764d 14bd 32cc d1bd
00000250: 97a0 70be ec80 dbbd 79ac 55bc 129f c23c
00000260: 04c7 a33c 0aeb ea3d a568 b83c 0764 8a3c
00000270: 43fc f6bc 7b49 a3bd b72a b13c 8588 d23c
00000280: 784e 913c f92b 2f3d fa60 213e 58f1 87be
00000290: f28d 37bc 8a51 2abe c303 a83c a48d 313d
000002a0: fbd0 6cbd 127c 0b3d 5b78 66bc 6468 eb3b
000002b0: 4bbd 34bd 7eba 50bb f8b5 4ebd dc22 95be
000002c0: 783c b8bd e7dd 93bc 5fdc bebd 9b7c 4abd
000002d0: e182 dd3b a758 893d bc32 c4bc 56ff 69be
000002e0: 5900 fdbd 514a a33d d959 003d 7e19 003d
000002f0: b554 a9bb 2a80 0a3e 71d1 32be 0d10 453c
00000300: 6493 1bbe b6a5 303d 5490 8bbc 236f 4d3d
00000310: e05e 243c cd30 0a3d db69 6c3d 97cb 403e
00000320: 460c c73c 62fa 893e c68a 7ebe 8c99 2d3d
00000330: 3478 71bd 6bc6 8dbc 103c 893c 3961 a2be
00000340: fb3e d03d fef2 84bd 0603 4ebd 9457 3ebd
00000350: 5aad d3bc 6390 1e3d a207 12bb c33d da3b
00000360: c188 b1bd 6807 233e 058d 0ebd 3ed4 00be
00000370: 11b9 73be 61a1 803b 90dd 833d a7b1 be3c
00000380: 5f91 15bd 920e 9b3c 7510 92bc d00d 4c3c
00000390: 4651 f43b b7b9 3e3d dff1 cabc e1ef 90bd
000003a0: 18c3 66b9 2b5b f2bc 17d4 a3bc 5d1b c9bb
000003b0: ce63 92bb 91de 1c3d c02a 03bc 7947 04bd
000003c0: 00af 2c3c 8e37 a2bc 9022 01bb 76c0 60bc
000003d0: 6d03 e6bd 264a 85bd 754e 773d b137 3dbd
000003e0: b7c8 00bd 8f1c 35bd 1479 203c 65d9 d1bc
000003f0: d9f1 8abe 66b3 33be a272 96bc 58cd 42be

bn4.weight f4 [64]
0.59528846 0.1102811 0.379253 0.055996686 0.19458298 0.112155564 0.31895158 0.16805235
0.40647206 0.13406181 0.9169178 0.18544854 0.31030267 0.11345246 0.08239064 0.05934131
0.065888494 0.4101677 0.13844937 0.19948271 0.4266916 0.45059872 0.053670634 0.16405715
0.16701232 0.13867724 0.22393984 0.11584764 0.18715411 0.13842924 0.06860577 0.04628348
0.08002087 0.3805871 0.24569534 0.0698932 0.12635708 0.17842549 0.09648212 0.13454895
0.34347817 0.50936323 0.08496865 0.05785352 0.10067185 0.19568911 0.046946608 0.1720901
0.5744177 0.1614948 0.10055758 0.16619986 0.44105417 0.13280495 0.10146551 0.2548229
0.11158184 0.083132796 0.077566124 0.057263646 0.36722356 0.054096274 0.05532362 0.04920172
00000000: d364 183f 0fdb e13d 732d c23e c85c 653d
00000010: c340 473e d1b1 e53d 9f4d a33e ea15 2c3e
00000020: 1b1d d03e 8047 093e 20bb 6a3f 39e6 3d3e
00000030: fedf 9e3e c359 e83d 6dbc a83d e00f 733d
00000040: 8cf0 863d 8001 d23e acc5 0d3e 3245 4c3e
00000050: 5277 da3e e0b4 e63e bdd5 5b3d 99fe 273e
00000060: 4705 2b3e 6801 0e3e 7c50 653e 8741 ed3d
00000070: 54a5 3f3e 65c0 0d3e 2f81 8c3d bf93 3d3d
00000080: fbe1 a33d 50dc c23e 8f97 7b3e 2b24 8f3d
00000090: c063 013e 2cb5 363e 6b98 c53d 33c7 093e
000000a0: 5fdc af3e a165 023f 0b04 ae3d d0f7 6c3d
000000b0: 0b2d ce3d ba62 483e 164b 403d 6338 303e
000000c0: 0a0d 133f e55e 253e 22f1 cd3d 4c30 2a3e
000000d0: dad1 e13e 05fe 073e 26cd cf3d 2678 823e
000000e0: 0585 e43d 8741 aa3d fdda 9e3d 498d 6a3d
000000f0: ba04 bc3e 0e94 5d3d 059b 623d be87 493d

bn4.bias f4 [64]
0.04695225 -0.006960988 -0.120940566 0.015236361 -0.058296498 0.358211 -0.114595965 -0.11138804
-0.11427873 -0.50835586 -0.080083124 -0.19422284 -0.049986895 0.026726361 0.03403374 0.0155027155
-0.010080252 -0.01192421 -0.090600714 -0.18807422 -0.01365629 -0.037421286 0.048300233 -0.13172607
-0.1074718 -0.058433365 -0.17293888 0.0003863651 -0.11561671 -0.16446087 0.038433407 0.121910594
-0.035352085 -0.11265737 -0.02978424 0.14088112 -0.09793633 -0.051664002 -0.01338248 -0.11705799
-0.023503255 -0.107043594 0.008380492 0.02584746 -0.042158972 0.018928701 0.096977286 -0.05631816
0.048671406 -0.12675108 -0.029006459 0.10476781 0.0462662 -0.04391695 -0.006491545 -0.043205354
-0.034304738 -0.05339521 -0.022737136 0.13081777 -0.038168292 0.054686442 0.057115186 -0.007246279
00000000: 0151 403d 0019 e4bb b0af f7bd eea1 793c
00000010: 4fc8 6ebd 6f67 b73e 4ab1 eabd 6a1f e4bd
00000020: f70a eabd 9c23 02bf 9f02 a4bd 5ae2 46be
00000030: 0fbf 4cbd 3ef1 da3c f766 0b3d 1aff 7d3c
00000040: a427 25bc c35d 43bc de8c b9bd 8796 40be
00000050: a2be 5fbc 1047 19bd 77d6 453d 33e3 06be
00000060: 2d1a dcbd d357 6fbd e416 31be 0c91 ca39
00000070: 74c8 ecbd 6e68 28be 596c 1d3d 43ac f93d
00000080: 59cd 10bd e8b8 e6bd 14fe f3bc 2443 103e
00000090: d892 c8bd a29d 53bd 3042 5bbc 19bc efbd
000000a0: e689 c0bc ac39 dbbd 554e 093c 0dbe d33c
000000b0: e3ae 2cbd 5d10 9b3c 079c c63d dfad 66bd
000000c0: ab5b 473d 09cb 01be f49e edbc 8190 d63d
000000d0: a081 3d3d 42e2 33bd 07b7 d4bb 19f8 30bd
000000e0: 2083 0cbd f0b4 5abd 3b43 babc 18f5 053e
000000f0: 5b56 1cbd e4fe 5f3d 9df1 693d 3272 edbb

bn4.running_mean f4 [64]
-0.33135766 -0.22261842 -0.12273898 -0.9367412 -0.25371557 -0.30620953 0.34379494 0.1255061
0.51436496 -0.33227324 0.4194802 -0.9627567 0.27364555 -0.09963899 -0.16106392 -0.28405336
-0.45244437 0.06715547 0.44996 0.66598845 0.19381799 0.13242581 0.41058117 -0.37744
-0.011409548 0.0886725 -0.3728886 0.24696925 0.056504395 0.0690842 -0.050795253 -0.23550974
-0.03074344 0.28845644 -0.2965081 0.015930653 -0.71750224 -0.29855722 -0.24084996 -0.32506502
0.26334065 -0.3362537 -0.038530663 -0.5706128 -0.5122517 -0.223622 -0.077264175 -0.9347385
-0.24572043 -0.5930663 -0.0719454 0.3976107 -0.37479815 -0.33332258 -0.71900755 -0.12667829
-0.4279733 -0.052133307 -0.16187087 -0.12124391 -0.22089775 -0.6624164 -0.53193265 0.24603297
00000000: b6a7 a9be 15f6 63be 935e fbbd 45ce 6fbf
00000010: 02e7 81be 7fc7 9cbe e405 b03e ac84 003e
00000020: 6cad 033f b81f aabe 1cc6 d63e 3977 76bf
00000030: 451b 8c3e 870f ccbd f1ed 24be 716f 91be
00000040: caa6 e7be cf88 893d 2861 e63e 387e 2a3f
00000050: 3978 463e a29a 073e b237 d23e d13f c1be
00000060: 1def 3abc ed99 b53d 41eb bebe 82e5 7c3e
00000070: 2771 673d 047c 8d3d af0e 50bd 7729 71be
00000080: abd9 fbbc 90b0 933e e9cf 97be 0081 823c
00000090: 3aae 37bf 7edc 98be 5fa1 76be ec6e a6be
000000a0: 96d4 863e 7229 acbe 54d2 1dbd ae13 12bf
000000b0: ed22 03bf 2afd 64be ae3c 9ebd 064b 6fbf
000000c0: 239e 7bbe 31d3 17bf 1c58 93bd a193 cb3e
000000d0: 8be5 bfbe 42a9 aabe e110 38bf f4b7 01be
000000e0: 511f dbbe bc89 55bd 7ac1 25be ba4e f8bd
000000f0: 0533 62be 1f94 29bf bd2c 08bf 11f0 7b3e

bn4.running_var f4 [64]
0.460548 0.4029024 0.49655816 0.08903838 0.63103706 0.10074385 0.3396193 0.26507097
0.37842843 0.36272207 1.2341105 0.09412462 0.51847225 0.2507405 0.049834862 0.10690621
0.38892964 0.8390244 0.11475154 0.30485588 0.7814977 0.90532464 0.060958743 0.33188903
0.44613087 0.1588588 0.3385462 0.2855676 0.2456529 0.0785803 0.07746901 0.042940512
0.50050604 0.34356147 0.46737236 0.060641497 0.21969602 0.7663202 0.09924582 0.3212691
0.893079 0.5508882 0.1059142 0.06079948 0.14490773 0.31295404 0.041849673 0.57805574
0.34568456 0.05027501 0.14147544 0.26466987 0.5135178 0.27513683 0.2696687 0.49918064
0.2698996 0.08092494 0.104361884 0.048342187 0.6421692 0.06856444 0.036264278 0.06329918
00000000: f3cc eb3e 3949 ce3e df3c fe3e c159 b63d
00000010: a58b 213f cb52 ce3d 95e2 ad3e 62b7 873e
00000020: 5fc1 c13e b5b6 b93e 55f7 9d3f 69c4 c03d
00000030: 99ba 043f 0f61 803e a41f 4c3d a5f1 da3d
00000040: c921 c73e 4eca 563f db02 eb3d 1216 9c3e
00000050: 3c10 483f 5bc3 673f e0af 793d 5ced a93e
00000060: 446b e43e e2ab 223e ed55 ad3e eb35 923e
00000070: 6f8c 7b3e b5ee a03d 13a8 9e3d 64e2 2f3d
00000080: 2a21 003f 4ae7 af3e 6e4b ef3e 3863 783d
00000090: fef7 603e 902d 443f 6441 cb3d 627d a43e
000000a0: d3a0 643f 0207 0d3f 8be9 d83d e008 793d
000000b0: b162 143e 833b a03e 906a 2b3d 76fb 133f
000000c0: 91fd b03e 2bed 4d3d f0de 103e cf82 873e
000000d0: e775 033f bcde 8c3e 0412 8a3e 9b94 ff3e
000000e0: 4830 8a3e fabb a53d afbb d53d 7502 463d
000000f0: 3365 243f 836b 8c3d da89 143d 00a3 813d
