ckpt/ckpt-t-cr3-deepsc-trandom-rt-awgn.pth (torch, 766247 bytes, 46 tensors)

conv1.weight f4 [16, 3, 3, 3]
00000000: c760 443d 28c0 02bd 45a8 f33d 608f f1bd
00000010: be33 5e3e 8505 11be 64c8 8a3c 3e9f b9bd
00000020: d95a 6c3c 98ea 3b3d 2420 efbd 2f02 8f3d
00000030: f989 b3bd 45b9 2f3e dd30 e5bd aa67 f43c
00000040: afb0 b9bd 9ec1 793d 4d78 c43c 741d 19be
00000050: 2d87 38bb 8fe2 4ebc 9d6a 4e3e 1c99 86bd
00000060: d443 de3c 2c21 26bd e9e2 693d e4b7 65bd
00000070: 75a1 41be 82a2 07be 75ce bcbd c59d 3abe
00000080: 8b4a 0cbe 16e5 eb3c 4ddc ab3d 30e3 77bc
00000090: a489 1bbd de82 d7bd 9a47 d8bd 4a46 02be
000000a0: f1ff e5bd 5fb6 bfbd bb68 1a3b 3743 ec3c
000000b0: b96f cabc 06ad 233d 0b8a 9c3c b4ee 503c
000000c0: 47dd 5dbc 8590 bcbd 11aa b53c 6371 eb3c
000000d0: 751b bb3d 27c8 bf3c 77ee de3b a80b 703a
000000e0: c78a e43c c586 05bd 09d9 383d c6ac 193d
000000f0: 476b 7bbd d2c0 863d d28d e8bc 8b15 2eb9
00000100: 571b 963c 0a3d 9b3b 85be 47bd e2fc 3f3e
00000110: 4d34 143e 853d 21bd 165e cf3d 8b19 763c
00000120: b5c8 72bd 9425 8cbb 9cba 323d 5b0b 83bd
00000130: a4a1 bb3e 2c9b b63e 1a7f dbbd e3e9 0a3e
00000140: 845e 6b3d cc6b 833d 930e 1a3e f298 2e3e
00000150: 1978 253e e51f 303e 4020 263e 650a 16bd
00000160: 45bc c2bd 300e 7dbb e1cb 383d ab59 183e
00000170: 4f31 e33d 29bf 0b3e 9d93 103e fa9d 993d
00000180: 9667 1ebc 7bb1 ffbc 33f9 8a3c 7d50 84bd
00000190: d93d 6ebb 819b 26bd c1e0 e33c a56f 823d
000001a0: 61b6 dbbc 77e0 26bd b26a afbd a1f2 e0bc
000001b0: 8dea 4e3d 8622 0b3d 334b eabc d6f9 f13d
000001c0: df16 6e3d 8584 a5bc 6882 dbbc 108b 27bd
000001d0: 1108 a5bc 3dec 603d ec6b 533d 0d62 513c
000001e0: 9b2c 3c3e bc32 b23d 7d47 eabc 583b 703c
000001f0: 08dd 7cbb 1144 7dbd 6cff e63d a7b5 433e
00000200: ae2f 06bc 11ad c63e 09b1 533e 08ea 0cba
00000210: ba8f f13c 3ff1 a1bc c885 bdbc d2cb 153c
00000220: 2677 3bbd a480 9e3c ebfe b3bc 7894 8abe
00000230: e3d0 2cbd f879 753d 4f7e 283e 982e d03d
00000240: 4eec e33b ec6a 9ebc f524 7f3d f27c 8bbd
00000250: 49e2 2dbe 0b2f 4bbd dbfa 5a3c a367 0b3e
00000260: c2f6 783d beb7 443b 26a4 86bc 897a 80bd
00000270: aba1 81bd 7d38 91bc dfcf 9ebd 8704 903a
00000280: 800e 853e 8ec3 07bd 9061 08be 6778 5b3d
00000290: de66 55be e12e d13d f233 c93d 146f c2bd
000002a0: 97ee 28bb 7abc 0c3c b8bb 44bc 0fab 25be
000002b0: 654e 15b9 5976 5ebe 2811 d9ba 6e97 3a3d
000002c0: 25bb a6bd 363b a2bc 9aa1 e0bc 4a33 9fbc
000002d0: 2466 b1be 9be5 9abd 0730 4abe b797 1dbd
000002e0: e4bc 8f3b 4fe3 28bd 1209 f13c d38d 3ebc
000002f0: 3a05 063d ae0e 40bc aedf 4c3b 4185 853c
00000300: 4c51 483d 85dc 8e3c b601 4f3d fae2 9b3d
00000310: 61e7 76be 4da4 c7bd 867c ebbc fd8f 363d
00000320: cecf c73c 8d15 563d f508 23bd 0a34 733d
00000330: eac3 073e 2292 4abe 7870 fbbd 941b 3b3d
00000340: 5940 3c3d 0897 87bb c1ea 803c eaf1 64bd
00000350: 650c e2bd 6940 a53d b61c 80be 707a 72be
00000360: 17f3 f1bc 3ad7 203c 3522 173c 13b5 d8bd
00000370: 8ebe aa3b 9911 353c 59a3 59bc 4bff 853b
00000380: 4dff cf3c c890 93bd 14c1 cdbb 56f7 d43c
00000390: 4565 6ebe 9743 63bd a347 613c 3b2b 85bd
000003a0: ef60 2dbd 2718 b63b 08c2 813d 9c6c 83bd
000003b0: 97c3 183d a7cd 12bf e7bb 27be 5177 64bd
000003c0: f25e 93bd 81bd dbbd 51ae 153d 9efb 23bd
000003d0: 619a 8ebc e101 24bc 5ec9 dfbd e8fb 28bd
000003e0: 9ee3 923c 5b2d 383c 401a 013d ae6c a33c
000003f0: a66b 88bd 2e9c a0bd 4da9 fe3b d934 25be
0.047943857 -0.031921536 0.11897329 -0.11794925 0.21699426 -0.14162262 0.016941257 -0.09063576
0.014425957 0.045878023 -0.11676052 0.06982838 -0.087665506 0.17160518 -0.111909606 0.029834587
-0.09066903 0.060975663 0.023983145 -0.14952642 -0.0028156743 -0.012627258 0.20157857 -0.06572172
0.027131952 -0.04055898 0.057101164 -0.056083575 -0.18909247 -0.13245586 -0.09219066 -0.18224247
-0.13700311 0.02879576 0.083916284 -0.015129849 -0.03797306 -0.10523008 -0.10560532 -0.12722126
-0.112304576 -0.093609564 0.002356096 0.028840644 -0.024711477 0.03995993 0.019108793 0.012752224
-0.013541526 -0.092072524 0.02217582 0.02874059 0.091360964 0.02341087 0.0068033296 0.00091570104
0.027898205 -0.03259923 0.045128856 0.037518285 -0.061381605 0.06579746 -0.028387938 -0.00016601958
0.018323584 0.004737501 -0.048765678 0.18748811 0.14473076 -0.03936531 0.10125367 0.015020738
-0.05927344 -0.0042769406 0.043634996 -0.0639865 0.3664676 0.35665262 -0.10717602 0.13565783
0.057463184 0.06417045 0.15044622 0.17050532 0.16159095 0.17199667 0.1622324 -0.036631007
-0.09508566 -0.0038613193 0.04511631 0.14877956 0.11093389 0.1364714 0.1411881 0.07500835
-0.0096682515 -0.031212559 0.01696453 -0.064606644 -0.0036352782 -0.040675644 0.027817132 0.06368951
-0.026820363 -0.04074141 -0.085652724 -0.027459444 0.050516654 0.03396847 -0.02860031 0.118152305
0.05812728 -0.020204792 -0.026795581 -0.040904105 -0.020145448 0.054912794 0.051616594 0.012779725
0.1837639 0.08701083 -0.028598541 0.014662586 -0.0038583893 -0.06183249 0.112791866 0.19112264
-0.008190079 0.38803914 0.20673002 -0.00053754495 0.02948748 -0.019768355 -0.023135081 0.009142833
-0.045767926 0.01934845 -0.02197214 -0.27066398 -0.042191397 0.05993077 0.16454433 0.10165137
0.00695566 -0.019338094 0.062291104 -0.06810941 -0.16980852 -0.04960541 0.013365473 0.13613753
0.0607822 0.0030016745 -0.016435694 -0.06273372 -0.06329664 -0.017727131 -0.07754492 0.0010987677
0.25987625 -0.03314548 -0.13318467 0.05358162 -0.20840022 0.102140196 0.09824361 -0.09493843
-0.0025776976 0.008589858 -0.012007646 -0.16178535 -0.00014238952 -0.21724834 -0.0016560899 0.04555457
-0.08141164 -0.019803625 -0.027420808 -0.019433636 -0.3464824 -0.07563325 -0.19744883 -0.038474765
0.004386531 -0.041232403 0.02942327 -0.011630493 0.03271983 -0.01172225 0.0031261253 0.016298892
0.048905656 0.017439136 0.05053874 0.07611652 -0.24111702 -0.09748135 -0.0287459 0.04457091
0.024391081 0.052266646 -0.039803464 0.0593758 0.13258329 -0.19782308 -0.12277311 0.045680597
0.045959804 -0.0041378774 0.01573694 -0.05589477 -0.1103752 0.08068926 -0.25021905 -0.23679519
-0.02953486 0.009816939 0.009224464 -0.10581412 0.005210704 0.011051559 -0.013283574 0.004089271
0.025390292 -0.07205349 -0.00627912 0.025996845 -0.23280819 -0.05548438 0.01374999 -0.06502386
-0.04232877 0.0055570784 0.06335837 -0.064172 0.037295904 -0.5734505 -0.16380273 -0.05577785
-0.07195844 -0.107295044 0.036543194 -0.040034883 -0.017407598 -0.010010214 -0.109270796 -0.04125586
0.017930802 0.011241282 0.031519175 0.019949283 -0.06661157 -0.07842289 0.007771647 -0.16133441

bn1.weight f4 [16]
00000000: 3f1e c43d 8cc7 133e 3484 133e 0af3 0c3e
00000010: e3fb 4b3e 3334 b63d 34d0 063e 0fa5 f93d
00000020: 3409 4a3e 4998 303e c353 013e de8a 103e
00000030: 47e1 f73d 4b8b 2f3e e8f5 273d 6e4b 3e3e
0.095760815 0.1443159 0.144059 0.13764587 0.19920306 0.08896675 0.1316536 0.121896856
0.19730073 0.17245592 0.12629609 0.14115474 0.12103515 0.1714298 0.041006 0.18583462

bn1.bias f4 [16]
00000000: 150e 733e 85e8 043c c799 213c 5fe0 1ebc
00000010: 6476 1fbe 8c6f 863d e6f0 873e e3bc 61bd
00000020: e9a9 88bd 3333 133e 6b6d 213d faf8 963d
00000030: 0e8d a73d 0994 b4bd 1ced 8c3d db50 74bd
0.2373584 0.008112078 0.0098633235 -0.009697049 -0.15572506 0.06564245 0.26550978 -0.055111777
-0.06673033 0.14375 0.03941099 0.07371707 0.08181201 -0.08817298 0.068811625 -0.059647422

bn1.running_mean f4 [16]
00000000: 66b4 a63c 8470 0dbf a40a 0c3f 1fbc 133f
00000010: 1e88 1a3f 4f8e 26bd 7186 16bf 8001 9fbe
00000020: 66fc 25bf 2701 0cbf 7783 0e3f b7a9 813e
00000030: adcd 7bbb 4e7b 67be b2d6 433d 8967 04bf
0.020349693 -0.5524981 0.54703736 0.57708925 0.6036395 -0.04066306 -0.5879889 -0.31055832
-0.64838254 -0.5468926 0.5566935 0.25324795 -0.0038422153 -0.22605631 0.04781217 -0.5172048

bn1.running_var f4 [16]
00000000: 8d8d a139 af02 8c3d a242 ad3d 11a0 9a3d
00000010: cb79 d23d 4dfd 1c3c 6276 cc3d b52f 203d
00000020: 2ec1 f13d 92ea a83d 073c a63d bf3b 923c
00000030: 4864 ac3b 428f 683c c8d5 b53a b80f 8c3d
0.00030813777 0.06836449 0.08459975 0.075500615 0.102771364 0.009581876 0.09983517 0.039107997
0.11804424 0.08247866 0.08116918 0.017850755 0.005260978 0.014194312 0.0013872916 0.068389356

conv2.weight f4 [64, 16, 3, 3]
00000000: 46d1 8cbd d7f6 06bc 44aa 41bc 05a2 4ebd
00000010: 27cb 8e3d 16d1 8b3b 1ab3 37bd 56ed 1f3c
00000020: 0b87 c93b 732a 00bd 66ed 373d fc4b e7bc
00000030: 2980 6d3c 5d8e a33d daa1 ae3c fd82 cfbc
00000040: 4cb0 97bc 896b 96bd 9979 73bd 5d3b e2bc
00000050: d1e4 6bbc 900e 59bc cdd2 3c3e 02c9 e5bc
00000060: 5128 77bd 23e4 3c3e e97c 383b 2e70 e73d
00000070: 3ede 063d eab6 8a3d 3c1a 9abb ca3f b7bd
00000080: 1154 46bd 434c 6abd ff4c e6bd fc9d fbbd
00000090: ad25 54bd 9aeb fabc 9065 7bbd 5d90 44bd
000000a0: 84e5 c5bc 1534 553d 850c 7abd 428f 373d
000000b0: 4de2 d13d 8527 dbbd ff9b 95bd 6b26 95bd
000000c0: bb05 82bd 2dd2 893d 6ca6 d13b 0872 723d
000000d0: b7c8 133e 8af7 143d 10f0 993b 6e7a d93d
000000e0: f23f 813d 735c 4f3c 72fe b33d f409 cf3c
000000f0: 53de 2e3d 4e32 8dbd dea7 f9bd 8452 a13d
00000100: d94a ef3c 2853 7ebc dfc4 393d 4600 03be
00000110: 6584 543d 9637 ef39 409e 90bd 9bb2 babc
00000120: ac2e 68bd c034 053c 379b 3bbd f171 28bd
00000130: 2ece e5bd 10e7 15be 3913 5fbd 2132 a6bd
00000140: 0c54 49bf 8ea6 6f3d aaa2 153d d2af 2f3d
00000150: 8997 a53d 3861 dabc 9d74 8fbe a5fc 103e
00000160: e019 5abe 35e1 1abf c4c3 fa3b 14b5 183d
00000170: 3f08 99bd 8687 2cbc 1251 3ebc c493 a9bd
00000180: d580 0abd c613 aa3c 6313 8abd 3b72 00bc
00000190: adc3 2cbc 1156 353d 9a21 fc3c 22da a43b
000001a0: 141b f73a 6ecb debc 2973 513d 4b88 e7bb
000001b0: 3b39 403d bc02 a9bc 3b97 0fbd 34b4 eabd
000001c0: 6d28 04bd 65b3 213d 3cbb 2abe 2fad f53c
000001d0: 3362 623d a59e 3d3d a1cd c43c 3073 ccbc
000001e0: 1cd7 d5bc 32a9 a7bc 8844 67bb 623b d93d
000001f0: a381 abbc 42c2 33bc 7e7e 353c 6ec5 64bc
00000200: 23d0 0cbe efc0 0ebc c85a a9bb 463d a2bd
00000210: ba19 07be 748a 373d 3eed f8bd c65d 073d
00000220: c6da acbb 7ba4 cfbb 3140 8b3c 07d1 babc
00000230: 043f b5bd 7620 2e3d 3fac d3bc 8238 06be
00000240: be46 973d 0988 b43c 0633 f83c 5927 d9bd
00000250: b7b8 933d c5c1 35bd 167e 84bb fd94 933d
00000260: 5bc8 a03d 9cc7 9f3d de4b fc3d 9fe6 6bbd
00000270: 3e88 0a3e a964 b03c 5a27 d7bd 4f34 433e
00000280: c5e3 62bd 76d8 8ebe d559 ffbc 8219 a0bd
00000290: 001e 9abc 83af 99bd 02e5 3b3d 6ca1 ef3c
000002a0: c327 713c 71ce a5bb fc2a 113d 4d9e 93bd
000002b0: 403e ffbc 8b8c ea3c 6405 68bd 1685 503d
000002c0: 9a10 b33d 8c39 6fbe f562 9fb9 3b8b 923e
000002d0: 2da1 08bd e2d3 0abd a1f9 b1bd 3d82 e63d
000002e0: 3e73 f1bd 6697 8fbd 779d a83d cac9 f3bd
000002f0: a8b1 b6bc ead8 93bd c7ae 17be 580f 2dbe
00000300: 9c37 c5bc 3d24 99bd 5c45 bc3d 6e77 f23c
00000310: beb0 8abd 4251 efba b3cd 49bd adce 80bb
00000320: 8a28 fa3a 7628 373d f52c 2dbe 728c 92bc
00000330: 8cb4 53bd dcb6 99be a58c 81bd a2dd 2bbe
00000340: c133 be3d 3021 e7bc a37d 37be e680 513c
00000350: 22a4 09bd 7ea3 60be 63b9 de3c 2e17 b53c
00000360: e955 36bd 51a1 51bd 4173 a93d f7a3 5cbd
00000370: 4190 82ba 7550 b13d 6f3b 6dbd 53e6 ad3c
00000380: f4fd f93d a338 6ebc c941 763d 47c5 db3d
00000390: de88 dd3c 6478 893d c580 c93d dabe b73d
000003a0: 206c 163d 67c0 0a3d 7231 023d 8554 78bd
000003b0: c43e 003d 240b b7bd 5a47 75be f381 c63d
000003c0: 3b5f 293d a3ba d3bd 44f7 8e3d 2376 013c
000003d0: 6e58 493d 0513 02bd 4cf0 2bbe e465 5bbd
000003e0: a6f3 373e 4c74 adbd ce51 88bd 7d56 ff3d
000003f0: 1bd3 d1bd d6a4 1cbe 2254 29bd 4948 5a3e
-0.06875853 -0.008237562 -0.01182038 -0.050447483 0.06972342 0.0042668683 -0.04484854 0.009761175
0.0061501316 -0.031290483 0.044904135 -0.028234474 0.014495888 0.07986138 0.021317411 -0.025331015
-0.018516682 -0.073447295 -0.059442136 -0.027616197 -0.014397816 -0.013248101 0.18439789 -0.02804995
-0.060341183 0.18446402 0.0028150624 0.113006935 0.03292679 0.06773169 -0.0047028344 -0.08947714
-0.048420016 -0.057201635 -0.112451546 -0.122859925 -0.051793743 -0.030629922 -0.061376154 -0.047989238
-0.024157293 0.052051622 -0.061047096 0.044814356 0.102482416 -0.10700897 -0.073051445 -0.07282718
-0.06348749 0.06729541 0.006398013 0.05919078 0.14432035 0.036368884 0.004697807 0.10619055
0.06311025 0.012656319 0.08788766 0.0252733 0.042692494 -0.068943605 -0.12190221 0.07877067
0.029210495 -0.015522756 0.045353767 -0.12793073 0.051884074 0.00045627047 -0.07061434 -0.022790244
-0.056685135 0.008130252 -0.04580232 -0.041124288 -0.11220966 -0.14638925 -0.05446169 -0.0811503
-0.7864387 0.05850845 0.03653208 0.042892285 0.08085544 -0.026657686 -0.28018656 0.14158876
-0.21298933 -0.6049989 0.0076527316 0.037282065 -0.07472276 -0.010530358 -0.011616008 -0.08280137
-0.03381427 0.020761382 -0.06741979 -0.007839735 -0.0105447 0.044271532 0.030777741 0.0050308863
0.0018852674 -0.027196612 0.051135216 -0.007065808 0.04692958 -0.020631187 -0.035056334 -0.11460152
-0.032265116 0.039477725 -0.16672987 0.029989807 0.05526943 0.046293873 0.024023833 -0.02495727
-0.026103549 -0.02046642 -0.003528865 0.106070295 -0.020935839 -0.010971608 0.011077521 -0.0139630865
-0.13751273 -0.008712991 -0.0051682927 -0.07921843 -0.13193408 0.044809774 -0.12154625 0.033048414
-0.0052751033 -0.0063367463 0.016998382 -0.02280475 -0.0884991 0.042511426 -0.02583897 -0.13107494
0.0738654 0.022037523 0.030297767 -0.10603208 0.07212966 -0.044374246 -0.004043351 0.07206152
0.07850715 0.07801744 0.12319158 -0.057592984 0.13528535 0.021532374 -0.105055526 0.19062923
-0.055393 -0.27899522 -0.031170765 -0.07817365 -0.018813133 -0.07504179 0.045872696 0.029251777
0.014718953 -0.00506001 0.035441384 -0.07207928 -0.031157613 0.02863147 -0.056645766 0.05090817
0.08743401 -0.23361796 -0.00030400572 0.2862185 -0.033356834 -0.033893473 -0.08690191 0.1125531
-0.11789559 -0.07011299 0.08233159 -0.119037226 -0.02230151 -0.072191074 -0.14812766 -0.16900384
-0.024074368 -0.07477615 0.09192917 0.029597964 -0.06771992 -0.001825847 -0.049268436 -0.0039308877
0.0019085568 0.04471632 -0.16911681 -0.017889235 -0.051685855 -0.30022323 -0.06325654 -0.16783765
0.09287215 -0.028214067 -0.1791902 0.012787079 -0.033603795 -0.21937367 0.027188009 0.02210578
-0.044515524 -0.051179234 0.08273936 -0.053867307 -0.0009961204 0.08657924 -0.05791801 0.021227991
0.12206641 -0.01453987 0.06012133 0.10730987 0.027042802 0.06712416 0.09839014 0.08971949
0.03672421 0.033874895 0.031785436 -0.06062748 0.031309858 -0.08937672 -0.23953 0.096927546
0.041350584 -0.103383325 0.06980756 0.007901701 0.0491566 -0.03175642 -0.16790885 -0.053563967
0.17964038 -0.084694475 -0.06656228 0.12467668 -0.10245343 -0.15297255 -0.04134 0.21316637

bn2.weight f4 [64]
00000000: fd77 f03d 4f43 b73d e4f9 613d bee8 303d
00000010: e7e1 d13d 1afd d73d 7499 0f3e 726b fe3d
00000020: 9f31 273d 3000 1b3d f6df b53d 9e4f 333d
00000030: d501 3b3e 1655 b03d 6263 113d 2268 563e
00000040: f321 3e3d 3dc8 dc3d ef33 0b3e eea5 0b3e
00000050: 88e2 e43d 8ed6 ac3d 6768 263d 60ea e93d
00000060: 80be e83d d9ab c13d ab31 1d3e 3c58 ec3d
00000070: e940 ce3d 4111 e83d 5cb1 123e d33a d83d
00000080: 29a4 2f3e 1a13 a83d 43fe 713e 3cd8 ec3d
00000090: ffe5 fb3d c0ba 993d 315f 2c3e ab8f 893d
000000a0: daed 383d a7d3 103e 1fef 113e dc88 643e
000000b0: c417 583e 3e52 5d3d fd6c 233e 3a6a 043e
000000c0: d2c7 7a3d d261 af3d 7db8 113e 9939 963d
000000d0: f259 143e 2f9e 5d3d fff3 533d 4bcf f33d
000000e0: ecb6 1e3d 9799 253d fd60 7f3d 033a 823d
000000f0: 96e4 fc3d da81 353e f651 523e 6a04 c63d
0.11741636 0.08948385 0.055169955 0.04319071 0.102481656 0.10546322 0.14023381 0.12422837
0.040818807 0.037841976 0.08880608 0.0437771 0.18262418 0.08609979 0.03549517 0.20938161
0.046419095 0.1078038 0.1359403 0.13637516 0.1117602 0.084393606 0.04062691 0.114216566
0.1136446 0.094566055 0.15350978 0.11540267 0.100709744 0.11331416 0.1432547 0.10558095
0.17152466 0.08206768 0.2363215 0.11564681 0.12299728 0.07506323 0.16833188 0.067168556
0.045148708 0.14143239 0.14251374 0.22317833 0.21102816 0.05403351 0.15959544 0.12931147
0.06122572 0.085635796 0.14230533 0.07335205 0.14487436 0.054105934 0.051746365 0.11904772
0.038748667 0.040429678 0.062348355 0.06358721 0.12348287 0.17725316 0.20539078 0.09668811

bn2.bias f4 [64]
00000000: 239e 7d3c 6a75 c6bc a3e2 d53d f284 d33c
00000010: 0ffb 003d 7ad7 f73b b96c 45be 965a 9d3c
00000020: cf56 b2bc 3c1d a53c 4b79 423d 1c4b fd3c
00000030: a84c 073c 5aa6 2cbd fa5e 183d 7571 c0bd
00000040: a2a1 953d 9f07 743d 98b6 99be d120 96be
00000050: 1920 6dbe c135 ff3c 4bde ccbc 6f8a 82bd
00000060: 1e13 8e3d 744b 673c 76ee 55be 7a43 72bd
00000070: 7fdf 073c 4836 fd3c 17f2 6dbe 6aed fd3c
00000080: 7cf4 abbd a675 da3c 1212 0e3c 61c5 debd
00000090: 4875 63bd f902 93bd 09df 92bd 169d 5b3d
000000a0: 1847 a63d cf92 b2be 61b8 53be e675 9f3d
000000b0: e4c3 d7bc cdea 8a3d fb8e c93c 2a17 8a3e
000000c0: 0b6e e63c c4c3 1dbe 54b1 0cbe 61ad 593d
000000d0: 8e1c 23be 4437 543c b4be b73d 4b1e 123c
000000e0: 7ad3 5c3d 020f 773d 703d 953d ad45 01bc
000000f0: d612 cfbd df49 35bd 2de4 cfbd b970 9abc
0.015479597 -0.02422591 0.10443618 0.02582023 0.031489428 0.0075635286 -0.19279756 0.019208234
-0.02176991 0.020155542 0.047478955 0.030919604 0.008258022 -0.042150833 0.03719995 -0.0939664
0.0730622 0.05957758 -0.3002212 -0.29321912 -0.23156776 0.031153562 -0.025008341 -0.0637406
0.0693724 0.0141171105 -0.20891747 -0.059146382 0.008293032 0.030909672 -0.23236881 0.030996997
-0.08396241 0.026667427 0.0086713005 -0.10877491 -0.05553177 -0.07178301 -0.07171447 0.053616606
0.08119029 -0.3487763 -0.20675804 0.07786159 -0.026338525 0.06783066 0.024604311 0.26970798
0.028128644 -0.1540671 -0.1373952 0.053143863 -0.15928861 0.0129526295 0.089719206 0.008918355
0.053912617 0.060317047 0.07287109 -0.007890147 -0.101110145 -0.044259902 -0.10150943 -0.018852578

bn2.running_mean f4 [64]
00000000: a690 48be 93b2 7bbd 78eb bfbd bc2e 853e
00000010: f3bd e63d 57da 92be 62a7 9b3e 9cff 05bf
00000020: ddf0 01be 6307 223d 64e1 153d 3e2c 3ebe
00000030: 6056 98bc 7197 d63e 6a90 0d3f 5d30 8f3d
00000040: 76b1 de3d b922 fabd 2d34 d93d 6b21 773e
00000050: fa75 7c3e 5d61 da3d abdf 503e 3de2 5dbe
00000060: a1fc d2be 8201 cfbe 3539 82be c398 00be
00000070: 8895 85bb 448c 433d 0069 cb3c 8e10 0fbe
00000080: ae16 62bc 5ff8 04bf d25b a13d a76b 9a3d
00000090: 9085 823e 0d84 a13d f93d 13be 999a 423c
000000a0: 2b62 cfbd 297f 073f 8374 023f 7a96 d9bc
000000b0: 822b 92bd 9991 073e 7c37 34be 927a dabe
000000c0: 4b4d 5a3e 24fc d53c 38f0 113e e4c7 aabd
000000d0: 577d b1bd 4e9b 8f3e 4b40 063e 1ccb c33c
000000e0: 2375 0d3e d908 533e cb4f dabe fc45 703c
000000f0: c90a 693e 6182 6e3e c3f2 c83d 05c3 adbd
-0.19586429 -0.0614496 -0.09371084 0.26012218 0.11266699 -0.28682205 0.3040114 -0.52343154
-0.12689538 0.039557826 0.036591902 -0.18571565 -0.018595874 0.41912416 0.55298483 0.069916464
0.10873692 -0.12213654 0.10605655 0.24133842 0.2465438 0.10663102 0.20397823 -0.21668334
-0.41208366 -0.40430838 -0.2543427 -0.12558274 -0.0040766634 0.04774119 0.024830341 -0.13971159
-0.013799353 -0.51941484 0.078788415 0.07540064 0.25492525 0.07886515 -0.1437911 0.011877679
-0.10126146 0.52928406 0.5095903 -0.02656101 -0.07137205 0.13239135 -0.1759929 -0.4267164
0.21318547 0.026121207 0.14251792 -0.08338907 -0.08666485 0.28048176 0.13110463 0.023900561
0.13814215 0.20608844 -0.42639002 0.014665123 0.2275802 0.23291923 0.09811928 -0.08484463

bn2.running_var f4 [64]
00000000: 39c0 283d 33df 153c 9c24 013b bfef c83b
00000010: c2fb 193c 42f8 cb3b b560 213c 9fd0 143e
00000020: 439d 133c 80e7 1e3b 29db 553c 6935 523b
00000030: b203 6d3d 8176 be3c 5ff6 f03a 7372 4f3d
00000040: baa7 223b 5039 3b3c 706a a43d d2f3 873d
00000050: 75dc 1a3d 824e 833c a7fc 3d3c 410a 103c
00000060: 977b 1c3d 9ae8 003b 2fdb 2e3e 2ef2 cf3b
00000070: 9d3d 303c fa9a 393c 650c ec3d 1cc6 893c
00000080: 8cb1 d13d 373a b53c afef f33d 7978 833d
00000090: f438 593c adc1 403c c3de eb3d 3d1d ba3c
000000a0: aa77 103b c90e 093c a6f5 5e3d 2992 f73d
000000b0: 4928 e23d 51d2 8e3b 35cf 603d 9544 583d
000000c0: 84ad 393b 506a 5c3c 84e8 183c 33b5 de3b
000000d0: 6f8b 753b 9b14 2a3c 76ef 313b d949 3d3c
000000e0: 5dde d43b 6046 3d3b 93da bc3b 0e3f 7e3c
000000f0: f1bd 453c 8394 a33d 84bf d63d 179a 503c
0.041198943 0.009147453 0.0019705659 0.0061320956 0.009398403 0.006224663 0.009849717 0.14532708
0.009009662 0.0024246871 0.01305274 0.0032075292 0.057864852 0.023249866 0.0018383971 0.050646257
0.002481921 0.011427239 0.08028114 0.06638302 0.0378079 0.016028646 0.011595882 0.008791507
0.038203802 0.0019669891 0.170758 0.0063460087 0.010756877 0.011328453 0.115258016 0.016818099
0.102389425 0.022122486 0.119109504 0.06419463 0.013258208 0.011764926 0.11517098 0.02271902
0.0022043982 0.008365341 0.054433487 0.12088425 0.1104284 0.0043585678 0.054885108 0.05279978
0.0028332183 0.013453081 0.00933278 0.006796503 0.0037467142 0.010380889 0.0027150786 0.011553251
0.0064962343 0.0028881058 0.0057633608 0.015517963 0.012069211 0.07987311 0.104857475 0.01273205

conv3.weight f4 [64, 64, 3, 3]
00000000: 01b9 dc3c e25f d1ba b73b d13c 293e 073d
00000010: 922e 4f3d 9361 5c3d e9f8 d4bd a21f 003d
00000020: 0a87 4e3c c6c9 42ba 9009 9ebd e6ce d7bd
00000030: c616 c43c 1cb6 863d ec45 c1be 644a 083d
00000040: 1a0a a8bd 1800 f7bd e42a f43c 51bf 3bbb
00000050: 0f7a cbbc 09e6 bdbd e4ed 26be 0391 cabd
00000060: 2206 19bd 0e96 d0bd 7bd4 7ebe 8d82 2f3d
00000070: f37b c8bd 66cb f3bd 098e 33bd 9e02 8c3d
00000080: 66e1 fcbd 6757 ad3d 4e36 ca3d 203e 4bbd
00000090: ef91 83bd d827 6cbd 2a7b a6bd 0bf6 1c3e
000000a0: 8fd9 3b3e 34ae fc3d 792a 8c3d 3e9c 48be
000000b0: b008 6e3d ab66 7a3d d0f1 a03d 4bbb 903c
000000c0: 1669 c33c c58c c0be 712a 11be 96ac 84bd
000000d0: 49bf 84bd 2d7b d73c 9b9f 4c3c 76a5 693d
000000e0: 6d12 553d 093e c93d 0168 06be 9807 99bd
000000f0: 94b1 7f3d 20e9 0cbe 11f7 b93c 2470 a13c
00000100: f527 7a3c c113 a03c 2be5 0ebd 04cc c7bd
00000110: 8877 0b3d 0a57 b4bc 8551 7f3d 2d77 2d3e
00000120: 89f0 1c3e a456 2c3e 6d66 2a3d cbc6 0cbd
00000130: b988 b0bc 7eae c0bd 85b8 263e 46b5 303e
00000140: b336 173d 3343 fc3d d6ad 1abb 98ed 1e3c
00000150: 27fc 1abd 56d7 503e 54d0 7e3d ecda e23b
00000160: c3c1 083d e621 89bd 2897 7839 6287 05bd
00000170: 621d 4cbc 6710 7e3b 28b0 8e3d be4f 283c
00000180: 0a54 a3bd 4720 8f3d bd98 c33c c562 58be
00000190: 771c f4bc dd88 d0bd f4dd d2bd 593f 4a3d
000001a0: bddc 063d 703b 8ebd 790f c5bc 637e 8fbd
000001b0: 99c5 863d 076f 443d 9e83 b33d d567 3ebd
000001c0: 52dd e4bd c8ac 813d e830 4bbd 348b 9abd
000001d0: 356f b93c e6ca 6bbd 5d5a 7bbd 9fd1 6fbb
000001e0: 280d 1bbd 7cd1 8bbe 1595 003d 826d 5fbd
000001f0: bc1d 28be 553e 173d 2aac 18bd 9722 04be
00000200: ff91 4ebc a6d9 12be 5246 f3bd d0aa bfbd
00000210: 4608 69bd 6e7e 02be bb2c 043d c52e 663d
00000220: 32fc a23c 2b1c 3abd ec57 923c 9ae0 7e3d
00000230: 3638 7dbd a02f 933d 6d32 303d 0c58 063d
00000240: 49f4 93bc 38f5 953d 78dc 27bc 6e16 21be
00000250: eff1 093e 6b6b 65bd 55fa d5bc 9d9f 373d
00000260: 9cc6 983c 7ff3 563e a988 98bd ce95 0f3d
00000270: 89aa b23d 477a d23d 27a5 bc3d e9f1 713c
00000280: c5cc 45bd f96a 633d 341f 18bc 972b a5bc
00000290: 121d 083d 5318 2dbe 701e afbd d78a 4a3d
000002a0: c6c5 efbd dcb4 c0bd 65f1 473d b56d 55bd
000002b0: 4f3d b1bd 8766 22bd b4d1 a93c 3586 7f3d
000002c0: 19b2 bb3e 8797 95bd fdf6 3bbd 81ba ec3d
000002d0: fc4e 823d 3e9b b03d f1ad 0a3d e036 b3bd
000002e0: 4dd7 8abe ed4d 0fbe 6fa6 4f3c 392f 2dbd
000002f0: cea6 0cbc b3df dbbc d70f 76bd 9fb9 37bd
00000300: ef6f 01be 3b1f 3bbe f747 543e 8bc6 253d
00000310: 9746 bdbd 4cc7 32bd 8bcf c7bc 5712 5ebd
00000320: e751 eabd ceb9 893e 2140 803d b581 203d
00000330: 0303 aebc c489 863d 0692 c13c 0cae d5bc
00000340: ac93 81bd adec d53b 3228 c1bd 4303 cd3d
00000350: 6ee3 c9bd 378b 72bc 4bab a03d 747e 0ebe
00000360: 99af 40bd 89f6 46bd d0cc e1bd 7a7c 24bc
00000370: 29a3 303e d1d0 1f3b e783 8bbc fd0b 073e
00000380: 01de 3bbc 2596 f7bd 4fc9 0c3e 3929 e3bc
00000390: 07e9 cebb 9816 d03d c690 0abe 24c6 5ebc
000003a0: 957e 2f3e 8d0d 203d d577 e23b af8e 923b
000003b0: e2d0 3fbd 2909 f23d 49a8 633e 8958 023e
000003c0: 03ed 243e fc27 763e 8aee 523e 0ead af3d
000003d0: 071b 103e b848 863c bd5a 033e aff1 29be
000003e0: 825b cb3d 6a7f a43d 9709 2d3d 412d b53d
000003f0: 47bc d6bd ccb2 fd3a ba4b afbc bcfc c4bd
0.026943685 -0.001597401 0.02554117 0.033018265 0.050581522 0.05380399 -0.10399038 0.031280167
0.012605438 -0.0007430579 -0.07716668 -0.105375096 0.02393664 0.06577703 -0.3774866 0.03327407
-0.08205052 -0.12060565 0.029805608 -0.002864797 -0.024838476 -0.09272391 -0.16301686 -0.0989094
-0.037359364 -0.10184871 -0.24885742 0.042849112 -0.097892664 -0.119040295 -0.043836627 0.06836437
-0.12347679 0.08463936 0.09873639 -0.049619794 -0.06424319 -0.057655185 -0.081289604 0.15328233
0.18344711 0.12337914 0.068440385 -0.19590852 0.058113754 0.061133068 0.07858622 0.017667433
0.02385382 -0.376074 -0.14176346 -0.06478231 -0.06481797 0.026303852 0.012489225 0.05704256
0.052019525 0.098262854 -0.13125612 -0.074721515 0.06242521 -0.13760805 0.022700818 0.019706793
0.015268316 0.01954067 -0.03488652 -0.0975571 0.03404954 -0.02201416 0.062333602 0.16939993
0.15326132 0.16829926 0.041601587 -0.03436927 -0.02154957 -0.09408282 0.16281326 0.1725665
0.0369174 0.12317505 -0.002360215 0.009700201 -0.037838127 0.20394644 0.062210396 0.00692307
0.03338791 -0.06695919 0.00023707433 -0.032599814 -0.012458177 0.00387671 0.06967193 0.010272918
-0.079750136 0.06988578 0.023876542 -0.21131428 -0.02979873 -0.101823546 -0.102962404 0.04937682
0.032925356 -0.069449306 -0.02405523 -0.07006528 0.065806575 0.047957446 0.08765338 -0.04648574
-0.11175026 0.063317835 -0.049607188 -0.07546082 0.022636035 -0.057566546 -0.061365474 -0.003659345
-0.037854344 -0.2730826 0.031392176 -0.054547794 -0.16417593 0.03692468 -0.037273563 -0.1290382
-0.01260805 -0.14340839 -0.11878647 -0.09358752 -0.056892656 -0.12743542 0.03226922 0.056196947
0.019895647 -0.04543702 0.01786419 0.062225915 -0.061821185 0.07186818 0.04301684 0.03279881
-0.01806082 0.073221624 -0.010245435 -0.15731212 0.13471197 -0.056010645 -0.026120344 0.044829953
0.018649392 0.20991324 -0.07447941 0.035054974 0.08723933 0.10277229 0.09211188 0.0147671485
-0.048290987 0.05552194 -0.009284783 -0.020162387 0.03323085 -0.1690381 -0.08550727 0.049448814
-0.11707644 -0.09409496 0.048814196 -0.052106578 -0.08654272 -0.03964856 0.020729877 0.06238385
0.36659315 -0.07304292 -0.045889843 0.1155901 0.06362721 0.0862336 0.03385729 -0.08750701
-0.27117386 -0.1399457 0.012673958 -0.042281363 -0.008584691 -0.026840067 -0.0600737 -0.044854756
-0.12640356 -0.18273632 0.20730577 0.04047255 -0.092419796 -0.043647096 -0.024390956 -0.05421671
-0.11441403 0.2689957 0.062622316 0.0391862 -0.02124167 0.065692455 0.0236292 -0.026083969
-0.06326994 0.006528458 -0.09431495 0.10010388 -0.09857832 -0.014803699 0.078451715 -0.13915426
-0.047042463 -0.048574958 -0.11025393 -0.010039443 0.1724974 0.002438594 -0.01703067 0.13188167
-0.011466504 -0.12089185 0.13748668 -0.027729617 -0.0063144 0.101605594 -0.13531789 -0.013597045
0.17138131 0.039075423 0.0069112577 0.0044725756 -0.046830066 0.118181534 0.22232164 0.12729086
0.16106038 0.2403869 0.20598808 0.085779294 0.1407281 0.016392097 0.12827583 -0.16596101
0.09929563 0.08032115 0.042245474 0.08846522 -0.1048513 0.0019355654 -0.021398414 -0.09618518

bn3.weight f4 [64]
00000000: 5936 af3d 54d8 3c3e c072 193e e0ac 5f3e
00000010: fd98 1c3e 5aec 923d f789 253e 0241 5d3d
00000020: 0566 e63d 631d 1d3e 7eb4 7b3d d36a 773d
00000030: 592f d83d 2880 163e 05a7 2b3e 0e1c 033e
00000040: 94ac 073e c6c9 203d a31c c33d 8794 273e
00000050: 2936 2c3e c2c4 793d 1197 0a3e 5403 293e
00000060: 0ac1 4e3d df63 103e 14cf 793e 5285 e63d
00000070: a3a5 823e 5590 1f3e eae6 773d 2791 3c3e
00000080: 8e24 613d 5737 d93d c3a3 113e 3e1e 883d
00000090: 9553 983d b4a4 183e e35a 263e 02f1 1d3e
000000a0: 864e 993d 0795 503d da0d fc3d 44f9 713e
000000b0: f110 ca3d 0f1a 823e 298b 593e 79d4 383e
000000c0: b57b c63d a69b 623d 7021 fe3d 152c 193e
000000d0: dec2 963d cd67 143e bf19 9b3d 7646 233e
000000e0: f732 883d 5d22 763e a4a8 7c3d f89b 993d
000000f0: 6994 8d3d c2ad 3f3e 61e0 233e a60c 1d3e
0.08555288 0.18441898 0.1498518 0.2184329 0.15292735 0.07173987 0.1616591 0.054017074
0.112499274 0.15343241 0.061451428 0.06040461 0.10555906 0.14697325 0.16762932 0.12803671
0.13249427 0.039254926 0.095269464 0.16365252 0.16817535 0.06097866 0.1353419 0.16505176
0.050477065 0.14100598 0.243954 0.112558976 0.25516996 0.15582402 0.06052295 0.18414746
0.054966502 0.10606258 0.14222626 0.06646393 0.07437817 0.1490658 0.16245608 0.15423968
0.0748568 0.050923374 0.123073295 0.23630244 0.098665126 0.25410506 0.21244492 0.18049802
0.09691564 0.05532422 0.124087214 0.14958222 0.07361387 0.14492722 0.0757327 0.15944847
0.06650346 0.24036546 0.061684266 0.07500452 0.069130726 0.18718627 0.16003563 0.15336856

bn3.bias f4 [64]
00000000: f18d 913d 8aab b83d 90b3 6dbd a109 6f3c
00000010: c783 dfbc c265 be3d 708e 6ebc 1252 fe3d
00000020: 6f5d a23c 9c62 97bd d5f1 183e c8f8 153e
00000030: 66eb 1dbc 11ff 7a3d 002f 6ebd 2413 66be
00000040: 39c3 b4bd 1b07 e53d 9c90 5b3d e909 583d
00000050: 84b1 4ebc ec43 573c dd01 5cbc 1e2c 303d
00000060: 8132 e73d ed6d cfbe b293 e9be 2d37 eabd
00000070: 5016 09bd 1af8 d9bc 88e7 c13b b0e3 02be
00000080: 2cb2 af3d 03a8 b93c d50c 07be 4242 0e3d
00000090: b89a 783d f151 983d 20b4 c33d c026 a53d
000000a0: f96e d33d f77d f23d 2737 fc3c daa4 e5be
000000b0: 6730 3a3d 489d 9cbd 3e02 81bd fe60 093d
000000c0: d9d6 cbbe b2a2 f43d 8561 07be ad26 17be
000000d0: 0d98 a23c c187 f63d 15e9 603d f259 7dbe
000000e0: 2186 283e 3347 07bd 9316 133e 25de 8c3d
000000f0: 56ce 333e 2e64 5abe 011b 933c fd42 88be
0.07107151 0.090170935 -0.058032572 0.014589698 -0.027284516 0.092967525 -0.014560327 0.124179974
0.019819943 -0.07391855 0.14936002 0.14645684 -0.009638643 0.061278407 -0.05815029 -0.22468239
-0.08826298 0.11182996 0.053604707 0.052743826 -0.012615565 0.013138752 -0.013428179 0.043010823
0.1128893 -0.40513554 -0.45620495 -0.11436305 -0.033468544 -0.026607562 0.0059174933 -0.12782168
0.085789055 0.022663122 -0.13188489 0.034731157 0.060694426 0.07437504 0.095558405 0.080640316
0.10323901 0.11840432 0.030788017 -0.44852334 0.045456316 -0.076471865 -0.06299256 0.033539765
-0.39812353 0.11945094 -0.13220794 -0.14760847 0.019847894 0.12037612 0.054909784 -0.24741343
0.16457416 -0.033026885 0.1436408 0.06878308 0.1755918 -0.21327278 0.017957212 -0.26613608

bn3.running_mean f4 [64]
00000000: fa73 0cbe 57e5 febd aeef e13d 71ed 32be
00000010: 0d51 5bbe 2e91 a1be 9832 9abc 2864 2f3d
00000020: 3322 97be 550e 92bc 15d8 3fbe ddfd 86bd
00000030: 0509 013d 8872 80bd bce7 783d 62f3 83be
00000040: 4d0f bcbd 986f dcbb 4007 08bd 1874 1d3e
00000050: f793 263d 1833 a83d 31f7 863d 1362 9dbc
00000060: 9e27 063e a529 e8bd a091 71bd 25f0 efbd
00000070: 5281 6a3e a4de 2e3d af15 31bd 5f5f ca3d
00000080: 797b 4abe e03f 6d3e 675a a9be 3687 3dbe
00000090: 5821 a7bc 3e5a e8bd 1c38 693e e095 27be
000000a0: 22fd 64be ab92 a83b 4e8a 32be 4773 b3bd
000000b0: ffb1 893d e6a0 75bc f33e 81bd 3555 9d3d
000000c0: 207c 3dbd db32 89be 625c 99bc 4cd2 c7bd
000000d0: d192 a5be 82c9 cb3e 267b 59be 7d83 12be
000000e0: 3917 6cbe 822b 96bc ee28 a3bd b52b 78be
000000f0: 3999 a1be b764 9bbe 5966 74bc b4d9 87be
-0.13716117 -0.12446087 0.110320434 -0.17473389 -0.21417637 -0.31556076 -0.018822953 0.042820126
-0.2951828 -0.0178291 -0.18734773 -0.06591389 0.031502742 -0.06271845 0.060767874 -0.25771624
-0.09182606 -0.00672717 -0.03321004 0.15376318 0.040668454 0.0821287 0.06590117 -0.019211804
0.1310105 -0.11336068 -0.05897677 -0.11715726 0.22900894 0.042692795 -0.04323357 0.09881472
-0.19773664 0.23168898 -0.33076784 -0.1850861 -0.020401642 -0.11345337 0.2277531 -0.16365767
-0.22362188 0.0051444373 -0.17435572 -0.08762222 0.06723403 -0.014991974 -0.06310835 0.076822676
-0.046260953 -0.26796612 -0.01872081 -0.09756908 -0.32338575 0.39802176 -0.21238384 -0.14307971
-0.23055734 -0.018331293 -0.07966791 -0.24235423 -0.31562212 -0.30350277 -0.01491698 -0.26533282

bn3.running_var f4 [64]
00000000: 913a e83c 0a5b 1f3e ca2c 143d a0a1 b53e
00000010: 9ac0 c23d ed7d 4c3c 9989 a53e f842 743c
00000020: f572 263d 4293 413e 930b 8c3c da37 c73c
00000030: 56e0 3a3d 6424 2e3e ffec a93e 8d18 343d
00000040: 5b0c dd3d 2f51 513c 0e92 2d3d a67b bf3e
00000050: 1977 be3d 0222 ca3c 6895 b13c 08c7 853d
00000060: 7fd8 3e3c f523 853c 1c11 743d 963b 393d
00000070: 72ec a63e cef4 0b3e 36e0 923c 10a7 243e
00000080: a007 0d3d 0ff3 db3c 2405 963d f2fa c13c
00000090: 4946 f43c 66df 143e a5d0 ef3d 1421 1e3d
000000a0: 2091 583c 2ce3 653c a056 ba3c 7717 593d
000000b0: ffe2 c43c dcd3 743e f04f 4a3e 1705 c43d
000000c0: d406 0b3e f97d 573c aa03 263e 66e7 1b3e
000000d0: 3ce9 a73c 3da1 833e 2ca6 f13c b097 093d
000000e0: 0b99 7f3c 7686 cb3e b198 5c3c 368f 343d
000000f0: a6cb 803c c281 ba3c 5a5c 8d3e e89e 113d
0.02834824 0.15562072 0.036175527 0.35474873 0.09509392 0.012481195 0.3233154 0.014908545
0.040636975 0.1890383 0.017095363 0.024318624 0.0456241 0.1700607 0.33188626 0.043968726
0.10793372 0.012775703 0.042375617 0.37399024 0.0930006 0.02467442 0.021677688 0.06532103
0.011648296 0.016252497 0.05958663 0.04522284 0.32602268 0.13667604 0.017929178 0.16079354
0.0344311 0.026849298 0.07325199 0.02367923 0.02981867 0.14538345 0.11709718 0.038605765
0.013218194 0.014031213 0.022746384 0.053000893 0.024034021 0.23908943 0.19757056 0.09571283
0.13576823 0.013152593 0.16212335 0.1522499 0.020496957 0.25708953 0.029498182 0.033591926
0.015600453 0.39751023 0.013464139 0.04408189 0.015722107 0.022766951 0.2760952 0.035551935

conv4.weight f4 [64, 64, 3, 3]
00000000: a21d bd3d a6c7 36be 27db 30bc 87d7 533e
00000010: 324d 4fbe b8d5 633c 12eb 49bc 1cce 89bb
00000020: 3a0e eb3b 7bd5 0a3e 7490 01bd 7f9a 3ebc
00000030: 7ed1 0d3e 90e1 84bd 4d2c 28bd ee35 2ebb
00000040: 44a6 dc3c 3191 e0bb 7f39 db3d 1f63 c5bd
00000050: 137e bcbd 7c70 693e 4d20 7abe 73ac 5e3c
00000060: c610 fabc 19bd a43b 9d5d 22bc e191 933e
00000070: c9c8 183d 5fd2 113d bf16 0bbc 700b 83be
00000080: 11c8 483c dbd1 ef3c d95f 84bc 31fe 6b3c
00000090: fbdb 2c3e 06a5 053d 9c97 c3ba c6c2 d6bd
000000a0: 21a3 eebd 2000 dd3c e41c 67bc f558 2cbd
000000b0: eb67 d83c 37be f43c 120a 39bd 2984 e53c
000000c0: f05b 0e3e 0fed 403e f7ae 953a e957 4c3d
000000d0: 978f e0bc 3190 263a fbb8 483c 56a6 5c3d
000000e0: 1e3b bfb8 93c7 a2bd 3ffd 62be 24c6 d83a
000000f0: 6618 153b bf3a c9bc b06e bdbc c1d2 d33d
00000100: d308 af3c 54f2 48bc d809 4cbe 1414 fcbd
00000110: 1130 6e3d cc18 9cbc af51 a2bd 1b56 223d
00000120: f0c4 053e b60c 543d ae40 d4bb e85e 8bbe
00000130: dcac 61be 99a3 893c 2ac5 b73c 4b79 1dbc
00000140: 12b2 a23c 24d4 b03d 2fdf b43d 4659 df3c
00000150: c430 5b3d 0403 77be 1c39 85bd e456 ac3c
00000160: a349 92bc a77e 68bc fffc d6bc 428f 8dbd
00000170: c5c3 0b3c 12b2 6b3c 9a65 abbc 8a1b dcbc
00000180: 9425 6abd 6ab0 f2bb 9cd5 99bc 4b45 db3d
00000190: 6f5d 073e 7a6e 03bc 81f6 2b3d 8e51 ddbc
000001a0: 1dea ed3c 2d3d 24bd 7667 a3bb d073 5dbc
000001b0: 2657 093d 34f6 f63d d658 b63c 8d9c 923d
000001c0: 8102 1cbd bf66 eebc 251b f8bb 6737 b63c
000001d0: 2cdc fb3b d3fc f4bc 261b 2d3d cc3e 033d
000001e0: 6318 0d3c 0db5 8a3d b478 2c3d acff a0bc
000001f0: a3db e6bb c07f ebbb 4082 44be 7e4a 2fbe
00000200: 8bab 01bd 79ee 65be 6bec 82be 62a6 4fbd
00000210: e6e5 80bc ca92 20bc d946 273d a402 52bc
00000220: e061 d6bb 5469 dbbc f5ce ef3d c668 d73b
00000230: 831a 28bc 2ab4 a43c 5633 5d3d 091f 40bb
00000240: 0061 78bd 1eae 4e3d 4096 493d 8479 f1bc
00000250: 293e 26be b413 40ba 38da 3f3a fdac ab3d
00000260: 2ea9 3c3d f04c 073e 703f 29be 8668 a83c
00000270: 03eb b5bc b3c1 bcbd 1acc be3c 43ce 44bd
00000280: 6968 19bd a65d 7b3c 8b5c e03a fb78 1bbe
00000290: e909 33bd 9d91 26be 96e6 b93b b870 6e3d
000002a0: caac a7bc 0f54 6e3c b50f a3bc bb53 373c
000002b0: 3ac8 ccbb b8b0 fa3c 2936 42bd 4094 a4be
000002c0: 016b d6bc d244 a2bb 39be 85bc 244f 233c
000002d0: 9a2f 1d39 448b a93d f0da 603c 409a 8dbe
000002e0: dd4f 8ebe 30b4 a83d b97f 173c 698d 8bbc
000002f0: b3b2 943c 0798 59bc 53c8 d6bd 870e 9b3c
00000300: 0658 8bbd 5be8 adbd 66a1 ea3d 5c2d ef3c
00000310: 0ae8 9ab9 35dd 443d 6e18 f33d 4a9d fa3d
00000320: 6c42 e43c 9791 133e 95bd 25be e12d 1e3d
00000330: 73bd 94bd 3fda a43c 9b73 fb3b 5a99 80be
00000340: e425 153e 1a01 453d ef86 cabc f5e3 d23b
00000350: e3ea 4a3c 064a 653d dfc3 a139 d658 033c
00000360: 82a0 8ebd 6228 ee3d a6ba ea3c 2a65 37bd
00000370: aca3 3ebe 2031 39bd 2db2 9e3d 1ae6 5b3c
00000380: c777 e5bc a1f6 9f3d d60b 11bc a767 7d3c
00000390: b714 313d e8ab fa3c 261c 1bbd 4cef 1abd
000003a0: fb8a 013d a53e 0a3c 3dae b3bc 14d2 fd3c
000003b0: 3a08 1c3c a227 11bd 3fee d8bc 4769 b63c
000003c0: 5df5 d13c eb51 c13c 703e 2f3d afa3 02bd
000003d0: ce82 103b fdeb e13c 7a4f e03c 6b8f 16be
000003e0: ae9e 9f3c d14e 41bc 2a96 12bc f1ad 8f3c
000003f0: 15c2 14be bfa1 adbd 4425 1b3d 583c acbe
0.09234168 -0.17849597 -0.0107944375 0.20687686 -0.20244291 0.013905935 -0.012324112 -0.0042054784
0.007173327 0.13557999 -0.0316319 -0.011633514 0.13849446 -0.06488335 -0.041057874 -0.0026582438
0.02693475 -0.0068532457 0.10704326 -0.096380465 -0.09203734 0.22796816 -0.24426384 0.01359092
-0.030525576 0.005027425 -0.009910014 0.28822234 0.03730086 0.035601016 -0.00848931 -0.25594664
0.012254731 0.029274872 -0.016158985 0.014403866 0.16880791 0.03262808 -0.0014922502 -0.10486369
-0.11652208 0.026977599 -0.014106009 -0.042077024 0.02641674 0.029875858 -0.04517562 0.02801712
0.13902259 0.1884043 0.0011419941 0.049888525 -0.027412219 0.00063538837 0.012251134 0.053869568
-9.118601e-05 -0.07948222 -0.22166918 0.0016538543 0.0022750138 -0.024564145 -0.023124069 0.103429325
0.021366512 -0.012264807 -0.1992563 -0.12308517 0.05815131 -0.019054793 -0.07925736 0.039632898
0.13063407 0.051769935 -0.006477437 -0.27220845 -0.22038597 0.016801642 0.022432882 -0.009611438
0.019860301 0.086342126 0.088316314 0.027264249 0.053513303 -0.24122244 -0.065050334 0.021037526
-0.017857378 -0.0141903525 -0.026243685 -0.0691209 0.008530562 0.014385717 -0.02092247 -0.0268686
-0.057164744 -0.007406284 -0.018778615 0.10706576 0.13219236 -0.008021945 0.04198313 -0.027016427
0.029042298 -0.040097404 -0.0049866987 -0.013516381 0.033530377 0.12058678 0.022259157 0.07158766
-0.038088325 -0.029101728 -0.0075715953 0.022243215 0.0076861586 -0.029905712 0.04226222 0.03204231
0.008611771 0.06772814 0.0421073 -0.019653164 -0.0070452257 -0.00718686 -0.19190311 -0.1711826
-0.031657737 -0.22454251 -0.25570998 -0.050695784 -0.015734624 -0.009800622 0.04083905 -0.012818012
-0.0065424293 -0.026783623 0.11709396 0.0065737693 -0.010260227 0.02010544 0.054004036 -0.0029315373
-0.06063938 0.05045902 0.049215555 -0.029476888 -0.1623465 -0.0007327155 0.0007318589 0.08382604
0.04605978 0.13212943 -0.16528106 0.020557653 -0.022206789 -0.09216633 0.023290683 -0.04804827
-0.03745309 0.015342152 0.0017117424 -0.15182869 -0.043710623 -0.16266485 0.00567324 0.058212966
-0.020468134 0.014546408 -0.01990495 0.0111893965 -0.006249455 0.030601844 -0.047414932 -0.32144356
-0.02617407 -0.0049520517 -0.016326057 0.009967599 0.0001499042 0.08278516 0.013724074 -0.27656746
-0.27795306 0.08237493 0.00924676 -0.017035203 0.018151617 -0.013280875 -0.104874276 0.018927826
-0.068038985 -0.08491584 0.114565656 0.029196434 -0.00029546052 0.048062522 0.11869894 0.12237032
0.027863704 0.14411007 -0.16185601 0.038617972 -0.07262697 0.0201236 0.0076736934 -0.25116998
0.14565235 0.048096754 -0.024722544 0.006435866 0.012385103 0.055978797 0.00030854248 0.008016786
-0.06964208 0.11628796 0.028653454 -0.044774212 -0.18617123 -0.045212865 0.07748828 0.01342156
-0.028011216 0.078107126 -0.00885292 0.015466607 0.043232646 0.03059955 -0.03786864 -0.037825868
0.031626683 0.008437787 -0.02193367 0.030983962 0.009523446 -0.035438187 -0.026480792 0.022266997
0.025629694 0.023598632 0.042784154 -0.031894382 0.0022050622 0.027578348 0.027381647 -0.14703147
0.019484844 -0.011798576 -0.008946935 0.017538996 -0.14527161 -0.08478116 0.037877336 -0.3363979

bn4.weight f4 [64]
00000000: 8545 fd3e 5114 f53d ca9f 9b3e 1edd 1e3d
00000010: 59fd 223e cd25 0f3d d652 b33e 6d31 b13d
00000020: fb38 aa3e e3ac 5d3d 0759 343f d058 e43d
00000030: fd25 893e 64d3 883d 386c eb3c 7302 3e3d
00000040: a0bb 343d f525 a43e 45f3 753d 1ff0 c43d
00000050: c65d 963e 739b b43e ae6a 293d 9882 033e
00000060: 215d b33d 97d7 c83d a07a 153e 8ffc db3d
00000070: 4012 eb3d 66a6 bf3d 0524 0e3d 2b5c 0c3d
00000080: c071 ce3d 9f3a a63e 965b 813e 0873 0d3d
00000090: 0090 c53d f621 0e3e 94b4 6d3d 47ee eb3d
000000a0: ef1e a73e 4e39 d13e 772b 2d3d 1253 373d
000000b0: ecda 7f3d b162 653e 61b7 113d df33 2c3e
000000c0: d4fe e73e b75b 933d 364c 8b3d 0d8c db3d
000000d0: 3873 bd3e fee1 9d3d e7bd 913d f495 8c3e
000000e0: b854 b13d e9ca eb3d 07a9 533d b160 ea3c
000000f0: 5afc a53e 6786 603d 0772 123d c32b 0c3d
0.49467102 0.11966766 0.30395347 0.038785093 0.15916957 0.03494816 0.35024136 0.08652005
0.33246598 0.054119956 0.70448345 0.11149752 0.26786795 0.066809446 0.028738126 0.046389055
0.044124246 0.3206021 0.060046453 0.09616112 0.29368418 0.35274848 0.041361503 0.12842786
0.08757997 0.098067455 0.14597559 0.10741531 0.1147809 0.0935791 0.03470232 0.034267586
0.1008029 0.324666 0.25265187 0.03453353 0.096466064 0.13880143 0.05803354 0.11520057
0.32640788 0.40864033 0.04227778 0.044756956 0.06246464 0.22400929 0.035575274 0.16816662
0.45311606 0.071952276 0.068016455 0.10720072 0.37001967 0.0770912 0.07116299 0.27458155
0.08658737 0.115133114 0.05167487 0.02861056 0.3241909 0.054815676 0.035753276 0.034221422

bn4.bias f4 [64]
00000000: bc5b a83c bb5d 273c 9058 39be adab 2fbc
00000010: b0ab f6bd fb59 443e 5996 6dbd 4492 99bd
00000020: cffc a4bc 05ff bfbe f2ad a5bc c4ec 42be
00000030: 5410 81bc e86d 403d be5e c73c c445 96ba
00000040: f0d6 3dbc c88d cabc 6c34 70bd a86b 11be
00000050: deb9 53bb 312f b1bc fc77 323d 8cb2 17be
00000060: 1e90 80bd d608 9ebd 88cf 64be 7082 1ebd
00000070: df47 eabd cce5 15be 4a44 f93c b35f a13d
00000080: 6fc2 16bd b3c9 5abc 5cc2 2a3c 3027 883d
00000090: d40f 7abd c0b8 26bd c4ac 36bd 3118 30be
000000a0: b908 5cbc ddaa 24be 99c0 a73c 4e3a f63c
000000b0: fb4f 87bc 5b81 3b3c 6043 b73d ca87 0dbc
000000c0: 5f53 793d d557 14be 7527 703c 1bbb 623d
000000d0: eafe 6b3c dd1f a4bc 2d40 caba 538c 97bc
000000e0: f6d9 02bd 7918 c2bd 5b9e 06bd 873c 4f3d
000000f0: 419c bebc ee43 1c3d 92de 1b3d b9a3 843d
0.020551555 0.010215218 -0.1810019 -0.010722083 -0.120444655 0.1917495 -0.05800471 -0.07498601
-0.02014008 -0.37499252 -0.020224545 -0.19035631 -0.015754856 0.046979815 0.024337169 -0.0011464884
-0.01158689 -0.02472581 -0.058643743 -0.14201224 -0.003230683 -0.021628948 0.043571457 -0.14814204
-0.06277488 -0.07716529 -0.22344792 -0.038698614 -0.114394896 -0.14638442 0.03042807 0.07879581
-0.03680652 -0.013353753 0.010422315 0.066480994 -0.06105025 -0.040703535 -0.044598356 -0.17196728
-0.013429814 -0.16080804 0.02047758 0.030057099 -0.01651763 0.011444415 0.08948398 -0.008638332
0.060870524 -0.1448663 0.014657845 0.05535422 0.014404038 -0.020034725 -0.0015430503 -0.018499529
-0.031946145 -0.09477324 -0.032865863 0.050594833 -0.023267867 0.03815072 0.038054056 0.0647654

bn4.running_mean f4 [64]
00000000: 6f25 28be 93ab 0cbf 451a ac3b 4c9c 28bd
00000010: c043 773e 38cc 01be e836 af3e 16f0 823d
00000020: 185b 873e d655 33bd affa 033d 3eae a0be
00000030: f59d 7b3e 5044 7fbe 2cd4 39bd c330 e93d
00000040: 6435 a5bc 10b3 223d 0266 4b3e c7a9 1b3e
00000050: 94b9 253e a31d 76bd f304 80bc 1bc1 abbd
00000060: fc5f 1fbd 0d23 3b3e b73b e43d 9854 9c3e
00000070: 1598 0ebd a31f bf3c 5d17 ad3e a422 0abe
00000080: 543a 7d3e 586e 123e 3564 adbd 088e 87be
00000090: 41f4 bcbe f49a f9be 3c38 483e 544e a93d
000000a0: 53b4 3a3e ed3b 8fbe 5856 50bc 67ed cfbd
000000b0: e2ad a8be efb1 c7bd b160 dfbe cdfa ffbe
000000c0: 6750 f7bd e2b4 e7bb 6b80 3ebd 514c ea3d
000000d0: 21d4 08be f962 5ebe 92df d8be 5a26 26be
000000e0: 4dd4 b2bd 015d a0bb 1c96 41be 5685 dfbd
000000f0: e442 c8bd a894 c0be 91c9 d43d 47ee 7d3d
-0.1642053 -0.549493 0.005252155 -0.04116468 0.24146938 -0.1267556 0.34221578 0.06393449
0.26436687 -0.04378303 0.032221492 -0.31382936 0.24571975 -0.24928403 -0.04536836 0.11386254
-0.02016706 0.03972155 0.19863132 0.15201484 0.16184074 -0.060086858 -0.01562736 -0.08386441
-0.038909897 0.1827509 0.11144202 0.3053329 -0.034813005 0.023330515 0.33806887 -0.13489777
0.24729282 0.14299905 -0.084663786 -0.2647555 -0.369051 -0.48751032 0.19552702 0.08266893
0.1823285 -0.27975407 -0.012715898 -0.10152703 -0.32945162 -0.09750735 -0.43628457 -0.49996033
-0.120758824 -0.0070711235 -0.046509188 0.114403374 -0.13362171 -0.21717443 -0.4235807 -0.16225567
-0.087318994 -0.0048938994 -0.18904918 -0.10914104 -0.097783834 -0.37613416 0.10390008 0.061994817

bn4.running_var f4 [64]
00000000: 4f80 d43d 68fd a03e c404 cb3d 07d5 1e3d
00000010: 02e1 513e 7040 e33c fdb1 b93d 9bb6 4e3d
00000020: 37d2 b23d aafa 863e 968b 423e bf20 503d
00000030: b14e ab3d 5ce3 4f3e 3b9f 763c 1128 4f3d
00000040: 40ad 2f3d 2dfa db3d c6c5 dc3c 12c4 db3d
00000050: 935d cc3d 2b94 323e f6f7 fe3c 5f8d 8c3d
00000060: e2dc 8b3d 9b09 843d 3fc0 073d 4457 ea3d
00000070: 6b04 963d d484 7a3c 546f f63c c327 d83c
00000080: 3c68 193e fe27 b03d 3197 ba3d 4b41 b33c
00000090: 383c 693d ff33 693e f487 693c 2fa6 6a3d
000000a0: d386 283e 8de3 823e 7dc1 f13c 074c e43c
000000b0: e23d aa3c f8ea 8a3d 6494 df3c 3492 423e
000000c0: 380f a73d fc5b 0d3d 8106 b83d 99e2 cb3d
000000d0: 3e18 e43d 49a8 9e3d 028d 0f3e a301 f03d
000000e0: c5cb 0b3e 435f b43d cd7e 5e3d 1eb2 603c
000000f0: 7812 013e 95ef 003d 4fd5 2f3d 935e 613d
0.103760354 0.31443334 0.09913018 0.038777377 0.2049599 0.027740687 0.09067152 0.050467115
0.087315015 0.26363117 0.1899856 0.05081248 0.083646186 0.20301574 0.015052612 0.05057532
0.042889833 0.107410766 0.026949774 0.10730757 0.09978785 0.17439334 0.031124096 0.06862902
0.068292394 0.064471446 0.033142325 0.11442426 0.073250614 0.015290458 0.030082382 0.026386147
0.14981169 0.08601378 0.09110869 0.02188172 0.056942195 0.22773741 0.014253605 0.05728739
0.16457681 0.25564232 0.029511208 0.027868284 0.020781461 0.06783098 0.027292438 0.19001085
0.081571996 0.03451155 0.089856155 0.099553294 0.11137436 0.077469416 0.14018634 0.11719062
0.1365195 0.08807232 0.054320145 0.013714341 0.12604702 0.031478483 0.042928036 0.055021834
