ckpt/ckpt-t-cr3-deepsc-t10db-awgn.pth (torch, 766247 bytes, 46 tensors)

conv1.weight f4 [16, 3, 3, 3]
0.08055598 0.1102763 0.17394312 -0.112619534 0.2180559 -0.11601485 -0.055841606 -0.046964914
-0.050983112 0.004610849 -0.0926243 0.02901675 -0.06080714 0.174317 -0.097674176 -0.012458373
-0.051813614 0.002507689 -0.0226359 -0.18050475 -0.08275201 0.05760172 0.24800795 -0.054565046
0.045542907 0.048255764 0.036300283 -0.06074474 -0.16175868 -0.12079016 -0.13827464 -0.17179155
-0.14536303 -0.01077872 0.11162339 -0.028573751 -0.028381119 -0.08961648 -0.10627911 -0.13506551
-0.08047402 -0.07219725 -0.006417028 0.056973044 -0.028869586 0.08165699 0.04657873 0.04835806
0.023505153 -0.07548733 0.06840206 0.03938451 0.11347503 0.010925775 -0.014900771 -0.00897836
0.024642373 -0.0515404 0.023979621 0.007884204 -0.059634343 0.08864772 -0.03727623 -0.004622486
0.017353164 0.009845573 -0.055796426 0.17937362 0.13952032 -0.039720815 0.10547009 0.009082493
-0.060317952 -0.031263914 0.051663946 -0.05589394 0.39963272 0.42993316 -0.11428772 0.1353653
0.054848216 0.054963116 0.14496297 0.1452859 0.20214936 0.19211623 0.19808559 -0.010636017
-0.10985318 0.020456556 0.03280586 0.15317601 0.119006395 0.14001887 0.13378474 0.07816213
-0.0037893031 -0.061818715 0.0256172 -0.11782256 -0.041142814 -0.09006608 -0.0023190193 0.040915586
-0.060936876 -0.043396395 -0.12107869 -0.036706977 0.030790173 0.0066615166 -0.052315082 0.12408678
0.027756177 -0.03238327 -0.011586261 -0.062264636 -0.0152094485 0.046928726 0.048258934 0.009115577
0.20617798 0.06861221 -0.025598558 0.01810173 -0.024164299 -0.06022806 0.103486635 0.22156647
-0.00017825814 0.46913144 0.24320295 0.03233172 0.029627604 -0.029889267 0.010037069 0.032376785
-0.041874167 0.022672776 -0.05010351 -0.26385826 -0.08940677 0.09732724 0.17809767 0.15089251
0.014377457 -0.027846817 0.0808669 -0.092842676 -0.168793 -0.103688866 0.049257524 0.13916434
0.118416294 0.0011892206 -0.039388705 -0.06626377 -0.07707549 0.0031418058 -0.09760124 -0.0055949893
0.26357546 -0.0030622256 -0.09082492 0.09601806 -0.1972686 0.1401911 0.14369385 -0.08173057
0.0075494233 0.029371556 0.004914772 -0.19855036 -0.001378167 -0.2515363 -0.056272388 0.05685305
-0.08326802 -0.039633915 -0.029985417 -0.01598133 -0.3626847 -0.08088951 -0.19593279 -0.050452467
0.0045750984 -0.03658235 0.034238372 -0.021176307 0.04103582 -0.05671376 0.0051989015 -0.015518562
0.087643154 0.1051742 0.13152663 0.11627167 -0.20680588 -0.08140565 -0.041340295 0.07118224
-0.0076210513 0.07563747 0.0046911626 0.09317274 0.16211386 -0.16392364 -0.10463384 0.033714186
0.08173127 -0.054173805 -0.058292326 -0.04945224 -0.17631796 0.014910256 -0.22761796 -0.26020706
-0.029037869 0.050212394 0.013083661 -0.10135895 0.053117424 0.017130325 -0.014294588 0.05476604
0.026741143 -0.105828464 0.026511835 0.005483958 -0.27481815 -0.023406943 0.003774189 -0.11201058
-0.009383169 -0.01559097 0.049489733 -0.062578686 -0.009917795 -0.6125938 -0.16095081 -0.09049253
-0.08033832 -0.09549327 0.013296026 -0.0110730175 0.014667463 0.024862887 -0.10990483 -0.032460306
0.038217653 -0.008463964 0.042647734 0.014754099 -0.058179244 -0.06305824 0.03248892 -0.17572339
00000000: 89fa a43d 8ad8 e13d 251e 323e 12a5 e6bd
00000010: 0c4a 5f3e 3299 edbd 2bba 64bd 485e 40bd
00000020: abd3 50bd 9b16 973b cfb1 bdbd 89b4 ed3c
00000030: e810 79bd 2880 323e 6609 c8bd 341e 4cbc
00000040: 833a 54bd 0a58 243b ec6e b9bc 3dd6 38be
00000050: e379 a9bd c8ef 6b3d ccf5 7d3e 997f 5fbd
00000060: 338b 3a3d d6a7 453d 9baf 143d 7acf 78bd
00000070: 11a4 25be d560 f7bd de97 0dbe 20ea 2fbe
00000080: 0cda 14be 3a99 30bc ce9a e43d 8013 eabc
00000090: 857f e8bc d888 b7bd dda8 d9bd 9d4e 0abe
000000a0: 90cf a4bd 27dc 93bd ef45 d2bb 915c 693d
000000b0: e97f ecbc c83b a73d 57c9 3e3d 1a13 463d
000000c0: e18d c03c 1a99 9abd 6116 8c3d a751 213d
000000d0: 9965 e83d 0602 333c 5d22 74bc f919 13bc
000000e0: cdde c93c 071c 53bd e970 c43c c02c 013c
000000f0: 2443 74bd f08c b53d f6ae 18bd 3978 97bb
00000100: 3928 8e3c 544f 213c cb8a 64bd b8ad 373e
00000110: 6ade 0e3e 4bb2 22bd b400 d83d bdce 143c
00000120: f50f 77bd 970e 00bd 939d 533d 0bf1 64bd
00000130: a99c cc3e 3320 dc3e ae0f eabd 349d 0a3e
00000140: 86a8 603d 0121 613d 2c71 143e d4c5 143e
00000150: 3e00 4f3e 1eba 443e f3d6 4a3e b042 2ebc
00000160: b4fa e0bd 8294 a73c 705f 063d 2cda 1c3e
00000170: a0b9 f33d 1b61 0f3e defe 083e 7813 a03d
00000180: f555 78bb 9f35 7dbd 2adb d13c f44c f1bd
00000190: 5e85 28bd 9174 b8bd b0fa 17bb 1a97 273d
000001a0: f298 79bd 6bc0 31bd 1bf8 f7bd 0e5a 16bd
000001b0: ac3b fc3c da48 da3b 5748 56bd 3621 fe3d
000001c0: ec60 e33c 52a4 04bd 4dd4 3dbc 3409 7fbd
000001d0: 0d31 79bc 5638 403d 29ab 453d 8059 153c
000001e0: 5220 533e 8f84 8c3d 11b4 d1bc 144a 943c
000001f0: 35f4 c5bc b3b1 76bd cdf0 d33d 52e2 623e
00000200: ceea 3ab9 ff31 f03e 320a 793e 446e 043d
00000210: 97b5 f23c 56da f4bc 8572 243c 859d 043d
00000220: 3f84 2bbd 42bc b93c 5739 4dbd 6e18 87be
00000230: e61a b7bd 8153 c73d 3c5f 363e 9183 1a3e
00000240: 6d8f 6b3c 021f e4bc 8c9d a53d 4d24 bebd
00000250: 12d8 2cbe d45a d4bd 42c2 493d 1981 0e3e
00000260: 3e84 f23d 9fdf 9b3a 0d56 21bd 4db5 87bd
00000270: c1d9 9dbd c1e6 4d3b 29e3 c7bd 2c56 b7bb
00000280: 5df3 863e 9faf 48bb 6a02 babd 1ea5 c43d
00000290: c800 4abe 418e 0f3e 7b24 133e 5b62 a7bd
000002a0: 2761 f73b 9e9c f03c 190c a13b c950 4bbe
000002b0: 9ca3 b4ba 5ec9 80be e07d 66bd bede 683d
000002c0: 6c88 aabd 2c57 22bd faa3 f5bc 47eb 82bc
000002d0: cfb1 b9be 66a9 a5bd 9ba2 48be 3fa7 4ebd
000002e0: b5ea 953b 60d7 15bd 893d 0c3d ef79 adbc
000002f0: 2d15 283d b04c 68bd 8c5b aa3b 9141 7ebc
00000300: 417e b33d 9265 d73d ebae 063e d71f ee3d
00000310: ecc4 53be 01b8 a6bd 7154 29bd ffc7 913d
00000320: 03ba f9bb d1e7 9a3d 53b8 993b 59d1 be3d
00000330: 2d01 263e 99db 27be 444a d6bd e317 0a3d
00000340: b962 a73d 5ae5 5dbd efc3 6ebd 6f8e 4abd
00000350: b28c 34be 254a 743c af14 69be dc39 85be
00000360: d3e0 edbc 83ab 4d3d da5c 563c 4895 cfbd
00000370: a891 593d e554 8c3c d933 6abc 5b52 603d
00000380: 3e10 db3c 98bc d8bd 592f d93c c6b2 b33b
00000390: f7b4 8cbe ebbf bfbc 6258 773b ce65 e5bd
000003a0: ddbb 19bc 4571 7fbc bfb5 4a3d 4129 80bd
000003b0: 3f7e 22bc f3d2 1cbf 4ad0 24be 2654 b9bd
000003c0: 6b88 a4bd fa91 c3bd 93d7 593c 9a6b 35bc
000003d0: cc4f 703c 41ad cb3c c915 e1bd 19f5 04bd
000003e0: 1d8a 1c3d 70ac 0abc 64af 2e3d 2dbb 713c
000003f0: 5c4d 6ebd ae24 81bd 1a13 053d d5f0 33be

bn1.weight f4 [16]
0.10572664 0.19818752 0.16714895 0.19893138 0.21130952 0.13397792 0.16065949 0.13892183
0.2367854 0.19823748 0.17186041 0.18243828 0.16248786 0.20099103 0.052344304 0.22415271
00000000: 3587 d83d abf1 4a3e 1829 2b3e abb4 4b3e
00000010: 8661 583e 8231 093e ec83 243e 8641 0e3e
00000020: df77 723e c4fe 4a3e 2dfc 2f3e 1ad1 3a3e
00000030: 3863 263e 98d0 4d3e fb66 563d 4a88 653e

bn1.bias f4 [16]
0.29087523 0.045337833 0.053190388 -0.04451331 -0.16700742 0.06963552 0.31151128 -0.08836421
-0.07338098 0.15581638 0.03480086 0.09185251 0.07374587 -0.1015999 0.060028356 -0.042983674
00000000: 99ed 943e 2ab4 393d 2ade 593d 9753 36bd
00000010: fe03 2bbe 119d 8e3d 687e 9f3e 4cf8 b4bd
00000020: c448 96bd 548e 1f3e 598b 0e3d 2b1d bc3d
00000030: 1308 973d 9c13 d0bd 4be0 753d a60f 30bd

bn1.running_mean f4 [16]
0.09516919 -0.42262214 0.52060956 0.48682332 0.61720586 -0.0034515965 -0.53589934 -0.21438198
-0.65917027 -0.5310592 0.456516 0.23045471 -0.0012953602 -0.23293136 0.013086206 -0.41579756
00000000: 10e8 c23d ee61 d8be ab46 053f e840 f93e
00000010: 3401 1e3f 2e34 62bb b330 09bf f386 5bbe
00000020: 62bf 28bf 7ff3 07bf 77bc e93e 52fc 6b3e
00000030: 13c9 a9ba 8f85 6ebe 8767 563c 6be3 d4be

bn1.running_var f4 [16]
0.0041580256 0.045974333 0.088521644 0.06174269 0.12138329 0.015616939 0.09616205 0.030571818
0.13731197 0.088937305 0.06857634 0.018677937 0.011980856 0.019104017 0.0026952818 0.056413338
00000000: 0c40 883b 954f 3c3d d64a b53d e7e5 7c3d
00000010: cd97 f83d 31de 7f3c 9cf0 c43d c071 fa3c
00000020: 829b 0c3e c324 b63d c171 8c3d 7902 993c
00000030: 5a4b 443c 0780 9c3c 53a3 303b ac11 673d

conv2.weight f4 [64, 16, 3, 3]
-0.06766527 -0.018711084 -0.010591904 -0.11670592 0.054119274 0.033183027 -0.06350144 0.11785145
-0.083879165 -0.06280423 0.0144223645 -0.056463044 -0.05058257 0.06255546 0.0062607285 -0.04394029
0.020119917 -0.06398428 -0.073653184 -0.009690279 -0.014453134 -0.0136479605 0.20195284 -0.0123079615
-0.09645124 0.16728944 -0.00066915626 0.10973877 0.016977524 0.09199068 -0.024751825 -0.09742338
-0.014135119 -0.03784967 -0.09903472 -0.10295364 -0.03472979 -0.07830173 -0.08608181 -0.081012994
-0.08213296 0.075413585 -0.08272778 0.053274415 0.18701386 -0.0631359 -0.019238096 -0.0051779775
-0.05865121 0.07471332 0.018390736 0.025041569 0.09097866 -0.008884145 -0.003981404 0.08090232
0.06817766 0.0035469076 0.08835413 0.03943275 0.02232126 -0.03252291 -0.07772282 0.1647311
0.03601508 0.054497954 0.17024511 -0.2219779 0.010872257 -0.0062100207 -0.13204779 -0.03685184
-0.10884846 0.008557336 -0.07546137 -0.0010892496 -0.08783738 -0.15372439 -0.10299372 -0.10792505
-0.9775418 0.036017522 0.038662378 0.06929253 0.0043537295 -0.05282595 -0.30285862 0.14040942
-0.19850032 -0.52663416 -0.030305713 -0.014837495 -0.1041573 0.022707283 -0.036004838 -0.103595905
-0.05193331 0.0088010365 -0.07827419 -0.025025636 -0.03958904 0.086053975 0.093722135 -0.00036407623
0.028069843 0.0019970543 0.08088083 0.008908386 -0.015600968 -0.0004968755 -0.011172944 -0.1287694
-0.12673962 0.023121728 -0.06527879 0.012659415 0.11402956 0.037982523 0.1031305 -0.024378808
0.00061466155 0.077790394 0.021620957 0.09474248 0.029265456 -0.010829088 0.11399067 -0.0424245
-0.09741181 0.036719866 -0.13896927 -0.05896549 -0.16838963 -0.07604537 -0.06649446 0.05672632
0.0023666825 0.009762443 0.0085968645 -0.038935542 -0.07403673 -0.008434354 -0.0642519 -0.13017555
-0.060308922 0.017426392 -0.019926535 -0.031255357 -0.0067494847 -0.016803129 -0.11724943 0.06331044
0.084968664 0.03125161 0.09398583 -0.04585237 0.14766818 -0.0111145 -0.046119705 0.1906905
0.0015164473 -0.2583495 -0.091108434 -0.07131127 0.0645757 -0.10101254 0.1122887 0.044790212
-0.006404111 -0.020640839 0.0016065473 0.019607805 -0.01386026 0.0057136556 -0.10828319 0.041593798
0.07483626 -0.2011241 0.03971862 0.24736579 0.058727924 -0.05152592 -0.18396021 0.008683303
-0.13837057 -0.10587375 0.01667093 -0.09090892 0.012517911 -0.020104382 0.0140638035 -0.042104412
-0.035667025 -0.1646363 0.14228176 -0.0027792137 -0.06457081 -0.027158987 -0.078112826 -0.036240187
-0.013123475 0.09894774 -0.20003277 -0.0563207 -0.037920576 -0.3373162 -0.05398943 0.014151883
0.16492023 -0.09015898 -0.19985035 0.013571514 -0.07111527 -0.12203473 0.006640965 0.033173047
-0.018993102 -0.046821773 0.033263337 -1.2333736e-05 0.021347936 0.15930049 -0.13511442 -0.009832163
0.09669118 0.011705956 0.05073024 0.060788337 0.06677056 0.034475747 0.08450079 0.06725903
0.008701304 0.04438908 0.027387852 -0.026653033 0.10000103 -0.049139187 -0.2189359 0.15939623
0.057058565 -0.10057935 0.009016933 -0.021240678 0.091130756 -0.022217838 -0.1903586 -0.036572095
0.18448468 -0.081260584 -0.087173775 0.09692315 -0.12904385 -0.13040604 -0.081236966 0.3258747
00000000: 1794 8abd fd47 99bc aa89 2dbc 8303 efbd
00000010: 2cac 5d3d edea 073d 0b0d 82bd 1a5c f13d
00000020: d7c8 abbd 819f 80bd c84b 6c3c cb45 67bd
00000030: ab2f 4fbd 141d 803d cc26 cd3b bcfa 33bd
00000040: 86d2 a43c 310a 83bd 7bd7 96bd fac3 1ebc
00000050: d6cc 6cbc b29b 5fbc bacc 4e3e 55a7 49bc
00000060: 3a88 c5bd ec4d 2b3e 516a 2fba b8be e03d
00000070: 7314 8b3c 9c65 bc3d 57c4 cabc e985 c7bd
00000080: fc96 67bc 4108 1bbd b7d2 cabd 5cd9 d2bd
00000090: d340 0ebd a85c a0bd a94b b0bd 24ea a5bd
000000a0: 5335 a8bd 7072 9a3d 2f6d a9bd 4636 5a3d
000000b0: 9080 3f3e 654d 81bd 3699 9dbc 06ac a9bb
000000c0: 403c 70bd 4c03 993d 2ba8 963c fa23 cd3c
000000d0: 0553 ba3d ce8e 11bc 7076 82bb 1eb0 a53d
000000e0: bba0 8b3d 3c73 683b 03f3 b43d 3c84 213d
000000f0: 13db b63c be36 05bd 242d 9fbd 45af 283e
00000100: 8c84 133d 3f39 5f3d bc54 2e3e 2d4e 63be
00000110: 8d21 323c 6e7d cbbb 8937 07be f4f1 16bd
00000120: f1eb debd 1234 0c3c 7e8b 9abd 27c5 8eba
00000130: 16e4 b3bd ed69 1dbe 5fee d2bd cf07 ddbd
00000140: 2e40 7abf 1c87 133d 715c 1e3d 3ee9 8d3d
00000150: bba9 8e3b 0660 58bd 4910 9bbe 7dc7 0f3e
00000160: ab43 4bbe 7fd1 06bf b043 f8bc f718 73bc
00000170: 6c50 d5bd a004 ba3c cf79 13bd 172a d4bd
00000180: 06b8 54bd 3932 103c 384e a0bd 9002 cdbc
00000190: 1e28 22bd 113d b03d 64f1 bf3d 7ce1 beb9
000001a0: baf2 e53c 03e1 023b d9a4 a53d 7bf4 113c
000001b0: 349b 7fbc c040 02ba b90e 37bc 20dc 03be
000001c0: 08c8 01be c769 bd3c e3b0 85bd 6f69 4f3c
000001d0: 5488 e93d 9093 1b3d 1536 d33d 11b6 c7bc
000001e0: 3d21 213a 9250 9f3d 6f1e b13c 5808 c23d
000001f0: 1cbe ef3c 7d6c 31bc f173 e93d 50c5 2dbd
00000200: d87f c7bd 9267 163d f64d 0ebe cc85 71bd
00000210: 556e 2cbe adbd 9bbd 3f2e 88bd dc59 683d
00000220: 581a 1b3b a7f2 1f3c ddd9 0c3c e07a 1fbd
00000230: 92a0 97bd 3f30 0abc 8096 83bd bd4c 05be
00000240: 7d06 77bd cbc1 8e3c f93c a3bc 9e05 00bd
00000250: c82a ddbb b7a6 89bc 7820 f0bd e7a8 813d
00000260: 0d04 ae3d b001 003d a57b c03d b2cf 3bbd
00000270: 5436 173e 9819 36bc 04e8 3cbd 5f44 433e
00000280: 87c3 c63a 6346 84be 0f97 babd a50b 92bd
00000290: 4440 843d aadf cebd 9ef7 e53d f175 373d
000002a0: 94d9 d1bb fa16 a9bc c892 d23a 8ca0 a03c
000002b0: 2516 63bc 9e39 bb3b 94c3 ddbd 425e 2a3d
000002c0: c143 993d 7af3 4dbe feaf 223d 754d 7d3e
000002d0: b18c 703d d80c 53bd 1160 3cbe 6a44 0e3c
000002e0: 04b1 0dbe 56d4 d8bd 7991 883c 752e babd
000002f0: ed17 4d3c f2b1 a4bc de6b 663c ad75 2cbd
00000300: 9617 12bd 6b96 28be 4fb2 113e 7823 36bb
00000310: b33d 84bd 867c debc 9ef9 9fbd 9770 14bd
00000320: d803 57bc 1da5 ca3d 64d5 4cbe 89b0 66bd
00000330: 9b52 1bbd b5b4 acbe 0524 5dbd 4ddd 673c
00000340: d9e0 283e 45a5 b8bd 92a5 4cbe 0e5b 5e3c
00000350: e2a4 91bd 58ed f9bd 749c d93b 76e0 073d
00000360: 6c97 9bbc 30c8 3fbd 233f 083d feec 4eb7
00000370: dee1 ae3c ab1f 233e 6f5b 0abe 1517 21bc
00000380: 0606 c63d 57ca 3f3c 83ca 4f3d 31fd 783d
00000390: 01bf 883d 7136 0d3d c00e ad3d 1abf 893d
000003a0: ea8f 0e3c 53d1 353d 7d5c e03c 7657 dabc
000003b0: 57cd cc3d 2c46 49bd bc30 60be c438 233e
000003c0: 3eb6 693d 8cfc cdbd c2bb 133c ee00 aebc
000003d0: c3a2 ba3d 2f02 b6bc 5ded 42be 9fcc 15bd
000003e0: 8de9 3c3e f36b a6bd 2a88 b2bd a57f c63d
000003f0: 1224 04be 2989 05be 915f a6bd 0cd9 a63e

bn2.weight f4 [64]
0.09940675 0.11101009 0.078617536 0.07684522 0.15823565 0.09695776 0.18386678 0.13930495
0.08336647 0.070504434 0.08137139 0.077481985 0.21153605 0.13109127 0.06374455 0.1782549
0.06389158 0.14329499 0.22324117 0.15860598 0.13928981 0.13182718 0.07879329 0.1503456
0.10160652 0.15297042 0.18621711 0.11347787 0.15006031 0.15515581 0.1629805 0.12381437
0.1690931 0.11480151 0.21906304 0.112803616 0.1599547 0.11894405 0.18871821 0.09563205
0.061023567 0.15905799 0.16996731 0.15232384 0.2109729 0.06778935 0.1892073 0.14318739
0.077110656 0.14273171 0.15992947 0.12133587 0.14072806 0.080016 0.07862844 0.16177072
0.08475393 0.07008046 0.08860242 0.102317855 0.18332696 0.20346472 0.20249374 0.14235368
00000000: c495 cb3d 4259 e33d 3b02 a13d 0761 9d3d
00000010: 8708 223e ca91 c63d 9347 3c3e f5a5 0e3e
00000020: 0abc aa3d a164 903d 0ba6 a63d e0ae 9e3d
00000030: e89c 583e ca3c 063e 818c 823d 7488 363e
00000040: 97d9 823d ecbb 123e 5599 643e 9b69 223e
00000050: fda1 0e3e b4fd 063e 605e a13d 32f4 193e
00000060: 1417 d03d 47a4 1c3e b3af 3e3e 1667 e83d
00000070: 69a9 193e 2ae1 1e3e 5ce4 263e 6392 fd3d
00000080: be26 2d3e 0e1d eb3d 1052 603e 9505 e73d
00000090: 2acb 233e f098 f33d 593f 413e bcda c33d
000000a0: d9f3 793d 19e0 223e e90b 2e3e c8fa 1b3e
000000b0: 4809 583e 25d5 8a3d 8fbf 413e b79f 123e
000000c0: 31ec 9d3d 4328 123e 8dc4 233e f17e f83d
000000d0: 041b 103e 6edf a33d f307 a13d 39a7 253e
000000e0: 7893 ad3d 5886 8f3d 3075 b53d 068c d13d
000000f0: 10ba 3b3e 0e59 503e 855a 4f3e 2ac5 113e

bn2.bias f4 [64]
0.00093701755 0.035340644 0.08248218 0.0134774875 -0.016628638 0.02378549 -0.20498194 -0.010781304
-0.037044503 0.028952561 0.05442404 0.054656144 0.001070246 -0.054310225 0.021499896 -0.18186794
0.10538289 0.059948325 -0.36794582 -0.34224883 -0.25883153 -0.008402836 -0.030763602 0.011068014
0.04764757 0.036959972 -0.23887847 -0.039981816 -0.0063130395 0.009433958 -0.2704799 0.043316882
-0.083085336 0.028749622 -0.011019666 -0.11985751 -0.08285211 -0.08205612 -0.12880476 0.04737827
0.08950524 -0.39647493 -0.22031178 0.09038078 -0.014924337 0.101643555 0.017256346 0.33492407
0.07326613 -0.18922453 -0.17887525 0.0501984 -0.15989165 0.026848525 0.10962211 0.012391478
0.043189105 0.059916157 0.06266233 -0.040910635 -0.20666365 -0.034959536 -0.11943447 -0.005934311
00000000: 2fa2 753a 5ac1 103d 6bec a83d aed0 5c3c
00000010: c838 88bc cad9 c23c c9e6 51be 11a4 30bc
00000020: fabb 17bd ec2d ed3c beeb 5e3d 1fdf 5f3d
00000030: 7f47 8c3a 6674 5ebd 8d20 b03c 973b 3abe
00000040: fcd2 d73d 608c 753d 6563 bcbe 3d3b afbe
00000050: 9185 84be 0cac 09bc f303 fcbc 9e56 353c
00000060: 192a 433d 5763 173d 8f9c 74be f9c3 23bd
00000070: 9ddd cebb e390 1a3c 577c 8abe 0b6d 313d
00000080: a528 aabd 5484 eb3c d48b 34bc db77 f5bd
00000090: 5eae a9bd 0a0d a8bd 65e5 03be b80f 423d
000000a0: 864e b73d c3fe cabe 6999 61be 8f19 b93d
000000b0: 3585 74bc 7f2a d03d 2e5d 8d3c 2b7b ab3e
000000c0: 8e0c 963d 13c4 41be 132b 37be d69c 4d3d
000000d0: a3ba 23be 70f1 db3c 8f81 e03d a005 4b3c
000000e0: 0fe7 303d a56a 753d 1c55 803d e991 27bd
000000f0: a39f 53be bb31 0fbd 0f9a f4bd 9c74 c2bb

bn2.running_mean f4 [64]
-0.21752536 -0.12408273 0.0047644237 0.47440872 0.016516559 -0.5138436 0.51426417 -0.7204308
-0.193404 0.01702041 0.23075116 -0.33930153 -0.08916154 0.16189787 0.7365279 0.19126059
0.045161862 0.016904863 0.029915761 0.26909426 0.27036256 0.29294896 0.16506557 -0.06999023
-0.5510975 -0.41710925 -0.17496152 -0.32874453 -0.054391414 0.20125459 0.11425942 -0.2023579
-0.061141744 -0.5481185 0.3122749 -0.08780702 0.40954545 0.09091226 -0.27757084 -0.010724525
-0.2738259 0.5729907 0.63307923 0.13968542 -0.30987263 0.21503103 -0.4735391 -0.5670135
0.112534195 0.0009079214 0.118629605 -0.024609568 0.091380894 0.4209448 0.12417573 0.10374612
0.18802626 0.2867677 -0.38764986 -0.08394941 0.34468502 0.41433415 0.034806088 -0.11323174
00000000: f8be 5ebe 161f febd e21e 9c3b b3e5 f23e
00000010: bc4d 873c 418b 03bf d1a6 033f 276e 38bf
00000020: b30b 46be 636e 8b3c 084a 6c3e eeb8 adbe
00000030: 539a b6bd 8ec8 253e 188d 3c3f d1d9 433e
00000040: a5fb 383d 117c 8a3c e611 f53c b9c6 893e
00000050: f66c 8a3e 68fd 953e f306 293e 0a57 8fbd
00000060: ba14 0dbf 588f d5be 1d29 33be 3451 a8be
00000070: 88c9 5ebd af15 4e3e d800 ea3d e936 4fbe
00000080: c46f 7abd 7e51 0cbf 7fe2 9f3e 2bd4 b3bd
00000090: f1af d13e 3530 ba3d c41d 8ebe ebb5 2fbc
000000a0: e932 8cbe 85af 123f 7b11 223f b209 0f3e
000000b0: a0a7 9ebe 1831 5c3e b873 f2be cc27 11bf
000000c0: 5478 e63d 9301 6e3a 14f4 f23d 019a c9bc
000000d0: e825 bb3d 1486 d73e d84f fe3d d978 d43d
000000e0: f589 403e 37d3 923e 0b7a c6be abed abbd
000000f0: 8e7a b03e 9b23 d43e d490 0e3d 0be6 e7bd

bn2.running_var f4 [64]
0.078219496 0.024219481 0.0017137114 0.011572352 0.027082449 0.0010633401 0.015621453 0.29923898
0.02661648 0.0056772335 0.03455392 0.002725802 0.112863734 0.050435454 0.0016362104 0.051843625
0.0033575895 0.01752939 0.15389687 0.09730063 0.030661048 0.034434 0.02702347 0.019737283
0.036794018 0.0009016808 0.2246402 0.0057324325 0.034914345 0.025638375 0.1581363 0.015022812
0.17371866 0.02778662 0.14481904 0.07684272 0.022370538 0.016023906 0.2386366 0.040903475
0.0017654824 0.0086904 0.08862484 0.19304243 0.14501432 0.00624842 0.091995925 0.10229077
0.0056623435 0.12574652 0.015894469 0.015943108 0.009375441 0.010643635 0.006854947 0.025749272
0.0134967035 0.006479106 0.004170432 0.02051424 0.01183463 0.12440486 0.19250032 0.025520815
00000000: 8b31 a03d ef67 c63c 9d9e e03a f699 3d3c
00000010: 03dc dd3c c65f 8b3a 1ff1 7f3c da35 993e
00000020: ce0a da3c 1608 ba3b 6988 0d3d 5ea3 323b
00000030: 1a25 e73d 6895 4e3d 1c76 d63a fb59 543d
00000040: 010b 5c3b cc99 8f3c 2497 1d3e 8d45 c73d
00000050: e12c fb3c aa0a 0d3d 5360 dd3c 15b0 a13c
00000060: 53b5 163d c65e 6c3a 1508 663e 21d7 bb3b
00000070: 5802 0f3d 9207 d23c 7bee 213e 3e22 763c
00000080: 4ee3 313e c4a0 e33c 714b 143e b75f 9d3d
00000090: 6b42 b73c 9144 833c 275d 743e 678a 273d
000000a0: c267 e73a 2e62 0e3c f180 b53d eaac 453e
000000b0: a27e 143e 8cbf cc3b 5c68 bc3d d37d d13d
000000c0: 2e8b b93b b2c3 003e 1e35 823c 1f9b 823c
000000d0: 739b 193c a462 2e3c 779f e03b 23f0 d23c
000000e0: 4721 5d3c ae4e d43b 1fa8 883b 7b0d a83c
000000f0: 09e6 413c fac7 fe3d ce1e 453e 0711 d13c

conv3.weight f4 [64, 64, 3, 3]
-0.04472572 -0.03268252 0.057501625 0.006198037 -0.016901413 0.10750602 -0.21632758 0.068771735
0.052165557 0.037772562 -0.06671624 -0.193176 0.06680383 0.012213833 -0.42383692 0.057123054
-0.141821 -0.35244846 -0.026519295 -0.03733202 -0.038393635 0.025958393 0.022608204 -0.099640004
0.039997276 0.026411299 -0.038025614 0.119291 -0.11005949 0.12572974 0.054077495 0.038037933
0.109030046 0.33666936 0.19616054 0.17855349 0.012941027 -0.11660286 -0.018489562 -0.03083844
0.092272565 -0.11414905 0.052879453 -0.10750788 -0.036734704 0.08364327 0.055057112 0.0054571484
-0.118744336 -0.17466061 -0.24869137 -0.009650844 -0.01503225 0.07333318 0.0061328355 0.07440134
-0.03839387 0.034178875 -0.10422148 -0.14383218 0.005927992 -0.21003501 -0.046787083 -0.06032446
-0.07819072 0.015686186 -0.10659803 -0.10709451 0.060570598 -0.0045329123 0.01116941 0.21280567
-0.013232381 0.09502527 -0.22010069 -0.2632041 0.019815914 -0.2614988 0.021074193 0.24354172
-0.14643236 -0.038449965 -0.030160027 -0.03094845 0.011959482 0.26345935 -0.017636582 0.0024394933
0.09906278 0.051665578 0.020520903 -0.07050243 0.051482502 0.11747113 -0.13744983 -0.039857563
-0.030512672 0.08845458 0.14529778 -0.07914422 0.084809154 -0.01769478 0.014340847 0.015552425
0.052135307 -0.0032436068 -0.09312736 0.011264214 0.05032475 0.033448763 0.0775451 -0.069283
-0.06334723 0.064994924 -0.004901135 -0.041150782 0.06312989 -0.023090484 -0.0598827 -0.0902594
-0.07051747 -0.20103173 0.0016595322 -0.046579823 -0.124372326 0.038697295 0.05819658 -0.115008496
0.086598285 -0.08939456 0.07925492 0.0064158156 0.0067107524 0.004849422 -0.019725649 0.053038016
0.1044881 -0.014353398 0.08372377 0.16551203 0.008877203 0.01648067 0.12622708 0.098324984
0.022574488 -0.14192362 -0.06819977 -0.26479918 0.018963952 -0.10324813 0.0971289 -0.18292938
0.015327893 0.16120063 -0.086370215 0.041478787 -0.050083615 -0.00092945463 -0.05771855 -0.072922036
-0.06762574 -0.0077123116 -0.0050066924 -0.07802158 0.013734747 -0.22799228 -0.05671351 0.020608127
-0.13858749 -0.13540512 0.044215035 -0.03790452 -0.09960567 -0.08348366 -0.047293622 0.1615439
0.40046138 -0.051470596 -0.020485282 0.18309136 0.055894077 0.06428826 0.03753089 -0.14152454
-0.31761834 -0.14228284 -0.06280517 -0.12938167 -0.05013611 -0.02543611 -0.046170317 -0.0857362
-0.15388228 -0.110395096 -0.092601076 0.07322888 -0.012688477 -0.10747034 -0.093138486 0.008166973
-0.07364369 0.18881764 0.123573504 0.009585294 -0.0800333 0.1345442 0.057357628 -0.007476116
0.07158677 0.048178095 0.017142547 -0.08507839 -0.06169849 -0.14279024 -0.0073176688 -0.20304126
-0.086253814 -0.06700859 -0.0669005 -0.04318774 0.032269455 0.12020553 0.019678239 0.04346453
0.014530496 -0.050246317 -0.007480328 -0.0066573103 0.053550612 0.0356948 -0.12283975 0.050834548
-0.02380536 0.019340731 0.08351274 0.05435953 0.07481508 0.07376733 0.18328008 0.09865209
0.08854607 0.19183306 0.12720288 0.012764077 0.121954225 -0.0010350405 -0.013096554 0.056542505
0.005087257 -0.010832221 -0.1250784 0.11544514 -0.04762991 -0.09767841 -0.09007456 -0.0468787
00000000: 5132 37bd 1bde 05bd d386 6b3d e718 cb3b
00000010: d574 8abc 1e2c dc3d fa84 5dbe 32d8 8c3d
00000020: 8dab 553d 67b7 1a3d 86a2 88bd eecf 45be
00000030: 72d0 883d 871c 483c 2701 d9be ddf9 693d
00000040: 8639 11be 2074 b4be fe3e d9bc 76e9 18bd
00000050: a542 1dbd b2a6 d43c d734 b93c 0f10 ccbd
00000060: 2fd4 233d 825c d83c bfc0 1bbd d74e f43d
00000070: df66 e1bd 4cbf 003e 5d80 5d3d aacd 1b3d
00000080: 254b df3d ed5f ac3e 4fde 483e bad6 363e
00000090: 9a06 543c 7bcd eebd 6c77 97bc e5a0 fcbc
000000a0: 66f9 bc3d fac6 e9bd 2098 583d 172d dcbd
000000b0: 2177 16bd 2a4d ab3d 9183 613d e1d1 b23b
000000c0: 3b30 f3bd 3bda 32be f3a8 7ebe 931e 1ebc
000000d0: d449 76bc b52f 963d f4f5 c83b bb5f 983d
000000e0: e442 1dbd 26ff 0b3d 1272 d5bd be48 13be
000000f0: 9a3f c23b 6b13 57be d0a3 3fbd c816 77bd
00000100: 7522 a0bd 5180 803c 1150 dabd 5e54 dbbd
00000110: e018 783d d388 94bb e7ff 363c bbe9 593e
00000120: a1cc 58bc 9c9c c23d 1362 61be b0c2 86be
00000130: fc54 a23c 2ce3 85be c9a3 ac3c 0063 793e
00000140: 5df2 15be b67d 1dbd 2912 f7bc 9b87 fdbc
00000150: b4f1 433c 25e4 863e 987a 90bc e8df 1f3b
00000160: 6de1 ca3d 499f 533d 741b a83c 9463 90bd
00000170: 51df 523d b494 f03d a6bf 0cbe af41 23bd
00000180: b6f5 f9bc ad27 b53d f1c8 143e 5d16 a2bd
00000190: 6cb0 ad3d a5f4 90bc dff5 6a3c 99cf 7e3c
000001a0: d58b 553d b192 54bb 8fb9 bebd 8a8d 383c
000001b0: 5321 4e3d 9201 093d f7cf 9e3d 3fe4 8dbd
000001c0: 31bc 81bd 0f1c 853d b399 a0bb b98d 28bd
000001d0: 3e4a 813d 4128 bdbc 9047 75bd ecd9 b8bd
000001e0: 776b 90bd 43db 4dbe a984 d93a 7cca 3ebd
000001f0: ebb6 febd 0e81 1e3d 895f 6e3d 9389 ebbd
00000200: 715a b13d 7f14 b7bd 6750 a23d c33b d23b
00000210: dfe5 db3b e6e7 9e3b af97 a1bc 643e 593d
00000220: dbfd d53d 842a 6bbc 5e77 ab3d fc7b 293e
00000230: b071 113c 7802 873c ac41 013e 9c5e c93d
00000240: 22ee b83c 6d54 11be 52ac 8bbd c293 87be
00000250: 4a5a 9b3c c173 d3bd 84eb c63d d751 3bbe
00000260: d821 7b3c c711 253e dee2 b0bd a9e5 293d
00000270: 7a24 4dbd a5a6 73ba 496a 6cbd 2658 95bd
00000280: 5d7f 8abd 8fb7 fcbb 2e0f a4bb c7c9 9fbd
00000290: b407 613c cf76 69be 6d4c 68bd 60d2 a83c
000002a0: e1e9 0dbe a4a7 0abe d31a 353d c541 1bbd
000002b0: 0ffe cbbd 7bf9 aabd f5b6 41bd c46b 253e
000002c0: 4609 cd3e d5d2 52bd c0d0 a7bc 4d7c 3b3e
000002d0: 30f1 643d 90a9 833d feb9 193d cfeb 10be
000002e0: df9e a2be 98b2 11be ff9f 80bd a17c 04be
000002f0: 865b 4dbd 645f d0bc 161d 3dbd 7696 afbd
00000300: 5193 1dbe d316 e2bd a2a5 bdbd 06f9 953d
00000310: 54e3 4fbc 6919 dcbd 64bf bebd c4ce 053c
00000320: 81d2 96bd 6959 413e 1b14 fd3d a30b 1d3c
00000330: 80e8 a3bd f4c5 093e d5ef 6a3d 35fa f4bb
00000340: 169c 923d 6556 453d 876e 8c3c 943d aebd
00000350: 8eb7 7cbd 9b37 12be 0ec9 efbb 0cea 4fbe
00000360: d7a5 b0bd cd3b 89bd 2103 89bd a1e5 30bd
00000370: fa2c 043d 512e f63d 4234 a13c dd07 323d
00000380: 5111 6e3c 15cf 4dbd 8a1d f5bb 9125 dabb
00000390: e357 5b3d b634 123d 6893 fbbd e337 503d
000003a0: 7503 c3bc 7470 9e3c ba08 ab3d 19a8 5e3d
000003b0: a638 993d 5313 973d c6ad 3b3e 1b0a ca3d
000003c0: a457 b53d e36f 443e 7941 023e 6b20 513c
000003d0: 23c3 f93d 32aa 87ba ee92 56bc 1d99 673d
000003e0: 01b3 a63b a179 31bc 8d14 00be 806e ec3d
000003f0: 9517 43bd 9e0b c8bd 0379 b8bd e103 40bd

bn3.weight f4 [64]
0.10867282 0.14019041 0.15620281 0.18761265 0.16357756 0.120865755 0.26235667 0.08505879
0.14419664 0.18220823 0.07548409 0.095238484 0.114369 0.17146285 0.20879647 0.2014986
0.13984743 0.08767813 0.13065577 0.1955532 0.12907463 0.12789783 0.17339978 0.22330923
0.09026182 0.1758279 0.31622574 0.16882044 0.2233678 0.09955681 0.12254353 0.23174576
0.06912382 0.138579 0.21280375 0.09066611 0.10812389 0.17703617 0.14382313 0.17971097
0.110913776 0.09035901 0.16407476 0.26584476 0.1520098 0.21733029 0.21134098 0.19549865
0.14964348 0.06369495 0.13513958 0.17597488 0.09814742 0.14865126 0.12381535 0.18495664
0.08312315 0.25355664 0.07013107 0.16236675 0.09680361 0.23437268 0.21725263 0.16480125
00000000: db8f de3d 138e 0f3e a1f3 1f3e 881d 403e
00000010: e080 273e 7788 f73d 9d53 863e 4e33 ae3d
00000020: 49a8 133e cb94 3a3e 6797 9a3d 650c c33d
00000030: 4b3a ea3d f593 2f3e bece 553e a655 4e3e
00000040: 2a34 0f3e 9790 b33d a0ca 053e 193f 483e
00000050: 242c 043e a6f7 023e b68f 313e 2dab 643e
00000060: 30db b83d 3b0c 343e 57e8 a13e 44df 2c3e
00000070: 87ba 643e 71e4 cb3d 1af8 fa3d c34e 6d3e
00000080: ca90 8d3d a7e7 0d3e 3ae9 593e 27af b93d
00000090: 0f70 dd3d f848 353e 5f46 133e 2706 383e
000000a0: c326 e33d 250e b93d 3703 283e ce1c 883e
000000b0: 75a8 1b3e d58b 5e3e c569 583e cc30 483e
000000c0: 243c 193e 7f72 823d 0862 0a3e c232 343e
000000d0: 8401 c93d 0938 183e e792 fd3d 4665 3d3e
000000e0: 783c aa3d 2dd2 813e e1a0 8f3d 7843 263e
000000f0: f940 c63d 64ff 6f3e 7977 5e3e a9c1 283e

bn3.bias f4 [64]
0.043836396 0.0034673593 -0.05917345 0.044990554 -0.05828846 0.11571407 -0.04498383 0.18791594
0.038847577 -0.113189414 0.22612752 0.27880117 0.05453466 0.02523466 -0.08929941 -0.15790708
-0.095536515 0.055435345 0.08507843 0.06124851 0.04599931 0.043187596 0.0349874 0.0057019284
0.11365473 -0.43403563 -0.52083147 -0.13439097 -0.07931975 0.07391061 0.04885348 -0.16369879
0.0957364 0.056509785 -0.17616771 0.0546338 0.09900566 -0.011074236 0.027209338 0.12376054
0.021782715 0.13460137 0.0132466415 -0.45504382 0.027266538 -0.08935618 -0.009461739 0.013576497
-0.38147613 0.12484471 -0.13913645 -0.12315458 0.01783569 0.084900685 0.04760128 -0.25644153
0.20448178 -0.02308874 0.08711511 0.11804486 0.13972408 -0.22315107 0.033861402 -0.17115033
00000000: cb8d 333d a33c 633b dc5f 72bd 0448 383d
00000010: e1bf 6ebd 80fb ec3d f740 38bd 096d 403e
00000020: a31e 1f3d dacf e7bd f98d 673e 07bf 8e3e
00000030: bc5f 5f3d ebb8 ce3c 9ce2 b6bd 65b2 21be
00000040: a6a8 c3bd 2c10 633d 9a3d ae3d b8df 7a3d
00000050: c669 3c3d 7ae5 303d f34e 0f3d 3ed7 ba3b
00000060: d0c3 e83d eb39 debe 3655 05bf c99d 09be
00000070: 6572 a2bd 725e 973d 961a 483d a8a0 27be
00000080: 7211 c43d ce76 673d 4f65 34be b1c7 5f3d
00000090: 7bc3 ca3d b670 35bc 1ee6 de3c 2a76 fd3d
000000a0: aa71 b23c f1d4 093e 7108 593c 81fb e8be
000000b0: 135e df3c 5f00 b7bd 6905 1bbc f56f 5e3c
000000c0: d750 c3be 95ae ff3d c979 0ebe 7838 fcbd
000000d0: 271c 923c 69e0 ad3d 8ff9 423d 4e4c 83be
000000e0: ac63 513e 9924 bdbc 6869 b23d 81c1 f13d
000000f0: d413 0f3e b781 64be 41b2 0a3d 0842 2fbe

bn3.running_mean f4 [64]
-0.20155087 -0.27587044 -0.07990188 -0.16212876 -0.3456236 -0.48835042 -0.037573304 0.07863022
-0.36586893 -0.048824362 -0.07943365 -0.17334387 -0.08053515 0.08535632 0.13270617 -0.31527215
-0.18827565 -0.19745916 0.14499702 0.28017482 -0.0801357 -0.043541618 0.010884595 0.036342528
-0.095336124 -0.19324988 -0.18126258 -0.31039855 0.26378703 0.4962111 -0.18393126 0.21845712
-0.26722106 0.09178815 -0.3750537 -0.37530008 -0.09051222 -0.0856614 0.45811725 0.034075722
-0.124831766 -0.26256388 -0.06917096 -0.17226699 -0.026094703 0.07113213 -0.085838184 0.021397494
-0.34938407 -0.24617064 0.0048829475 -0.18932053 -0.37038377 0.5866813 -0.27217808 -0.37218952
-0.28284487 0.037687182 -0.29721713 -0.28425643 -0.47054523 -0.56728023 -0.037695885 -0.3355121
00000000: 5a63 4ebe e43e 8dbe 99a3 a3bd 1505 26be
00000010: 94f5 b0be 1109 fabe 77e6 19bd e108 a13d
00000020: 2c53 bbbe 0efc 47bd 1cae a2bd 0e81 31be
00000030: 9def a4bd 4bcf ae3d 20e4 073e 5a6b a1be
00000040: 55cb 40be bc32 4abe 197a 143e 1373 8f3e
00000050: 301e a4bd b258 32bd 4d55 323c e7db 143d
00000060: 963f c3bd 4ce3 45be e69c 39be 8fec 9ebe
00000070: 180f 873e 620f fe3e 7a58 3cbe 39b3 5f3e
00000080: 33d1 88be 6dfb bb3d 0a07 c0be 5527 c0be
00000090: 795e b9bd 3e6f afbd 588e ea3e fc92 0b3d
000000a0: cca7 ffbd c66e 86be 81a9 8dbd c266 30be
000000b0: 8fc4 d5bc b9ad 913d eecb afbd cc49 af3c
000000c0: 78e2 b2be 2814 7cbe 2201 a03b 3edd 41be
000000d0: f1a2 bdbe bf30 163f ed5a 8bbe a08f bebe
000000e0: 0bd1 90be e05d 1a3d d82c 98be 0f8a 91be
000000f0: 4eeb f0be 4739 11bf 0067 1abd 3ec8 abbe

bn3.running_var f4 [64]
0.03229482 0.100801215 0.07734209 0.32305995 0.09739305 0.028476331 0.37288222 0.02195065
0.066870086 0.21929397 0.017075118 0.033334754 0.06154137 0.26011974 0.41031614 0.061424505
0.09701705 0.028028507 0.058216423 0.3471874 0.049960565 0.04761671 0.076689005 0.17422263
0.025624428 0.0048337053 0.020365592 0.077914566 0.3688692 0.081208535 0.034932088 0.27323213
0.022263415 0.05632328 0.05146473 0.022850621 0.057907876 0.12704647 0.10084043 0.07392438
0.028896406 0.023271454 0.0751297 0.013448942 0.06510596 0.3117659 0.18039496 0.16727443
0.20360254 0.016804904 0.04520364 0.13723582 0.0361254 0.24995996 0.048892986 0.054240856
0.021005562 0.3789551 0.015148575 0.06279172 0.023862284 0.04837323 0.37941927 0.017619038
00000000: 9347 043d de70 ce3d 8865 9e3d 1d68 a53e
00000010: 0276 c73d 3247 e93c 6bea be3e d9d1 b33c
00000020: 2ff3 883d 998e 603e 1ee1 8b3c 068a 083d
00000030: ce12 7c3d 6a2e 853e f514 d23e 4398 7b3d
00000040: e0b0 c63d 0a9c e53c 5874 6e3d 8cc2 b13e
00000050: 73a3 4c3d bd09 433d 200f 9d3d 6b67 323e
00000060: 52ea d13c 0f64 9e3b bed5 a63c ac91 9f3d
00000070: 6cdc bc3e a950 a63d f314 0f3d 15e5 8b3e
00000080: c461 b63c 3db3 663d aecc 523d 3a31 bb3c
00000090: cf30 6d3d 7818 023e 6d85 ce3d aa65 973d
000000a0: 28b8 ec3c c7a3 be3c 9add 993d f458 5c3c
000000b0: 4656 853d c89f 9f3e 75b9 383e fd49 2b3e
000000c0: 2f7d 503e 70aa 893c 7427 393d 8c87 0c3e
000000d0: 3af8 133d 81f5 7f3e 0344 483d a92b 5e3d
000000e0: db13 ac3c 6706 c23e bb31 783c f298 803d
000000f0: d67a c33c 0223 463d 3e43 c23e cd55 903c

conv4.weight f4 [64, 64, 3, 3]
0.041741416 -0.08765638 0.035140447 0.20108455 -0.12549528 0.008623505 0.0013546277 0.022782017
-0.0142041 0.02342945 -0.00058650563 -0.030716294 0.086156175 -0.08997873 -0.09772402 0.0015033248
0.01707121 -0.003267902 0.24304374 -0.20397873 -0.04230284 0.14671528 -0.016347889 -0.01797832
0.0050729522 0.03565765 0.032042675 0.24716549 -3.179645e-05 -0.0019308132 0.087204106 -0.113262236
-0.017931757 0.06455955 -0.009900737 0.016624022 0.18000825 -0.08646229 -0.017797273 -0.064924166
-0.120348014 0.018115733 0.009198473 -0.08787998 0.0059196097 -0.015976314 -0.1417072 -0.011215439
0.14738947 0.23885874 -0.043636117 -0.012693406 0.016597068 -0.011903557 -0.036812365 -0.063167006
-0.023305895 -0.05245686 -0.21059978 -0.08225567 -0.01041476 -0.01932495 -0.025710387 0.093914844
0.068049714 0.006048908 -0.19534019 -0.059999242 0.0988721 -0.012865213 0.0020970698 0.0037720166
0.16013537 -0.012645197 -0.0044324826 -0.24341531 -0.18363538 0.016137414 0.025804114 0.068526685
-0.0010415516 0.085312515 -0.039412037 -0.013181448 0.1291979 -0.13754968 -0.027991232 -0.0040962873
0.00059308944 0.033928752 0.17360494 -0.0051061115 -0.010533167 0.055435643 -0.02934215 0.013301694
-0.07597882 -0.01201312 -0.0042260275 0.06223187 -0.031105079 -0.019504974 -0.031613715 -0.09217978
-0.02465518 0.0009450368 -0.02024014 0.01690246 -0.12184668 0.12730052 0.011568822 0.026094705
-0.030992944 -0.03831199 0.043662496 0.0053964835 0.026092624 -0.031950615 -0.07885328 0.01053002
-0.0006514231 -0.009854676 -0.016331201 -0.0112268 0.0015095405 -0.0025036251 -0.24450262 -0.23468423
-0.04831895 -0.2111489 -0.08516784 -0.049986653 -0.016533585 -0.027001316 -0.04232931 -0.014677418
-0.040182687 0.0502316 -0.018105974 0.007729086 0.02167211 0.005984342 -0.03922403 -0.002282595
-0.0778734 -0.07283839 -0.0399691 -0.09286943 -0.24355994 -0.11861825 -0.007341792 0.017107712
0.023475325 0.07240288 -0.00029107666 0.018203367 -0.02073969 -0.12758392 0.021080317 0.009279907
0.027907468 0.037068624 0.11334096 -0.20340404 -0.0120724365 -0.1335176 0.026355147 0.053704787
-0.046577938 0.022347273 -0.008987284 -0.039719574 -0.063392505 0.0021621853 -0.07109162 -0.3236523
-0.076981515 -0.024220364 -0.085449025 -0.025523296 -0.05467932 0.050147627 0.012315608 -0.23765616
-0.11257837 0.101293206 0.03665633 -0.004802116 -0.00019099798 0.044802606 -0.18542422 0.029886093
-0.10946794 0.04008447 0.035587728 0.034860317 0.009365626 0.02828394 0.05688684 0.18807235
0.04410361 0.21968581 -0.19581993 0.050897364 -0.046799287 -0.011720992 0.019032173 -0.38498855
0.011101253 -0.022614688 -0.08398685 -0.06963285 -0.023534218 0.06200539 0.009664198 0.027148183
-0.07939894 0.11491755 -0.030257497 -0.11327158 -0.30785018 0.011847178 0.053847466 0.012084913
-0.005247846 0.029677201 0.016408173 0.025413413 0.04123257 0.071623504 -0.013870435 -0.04694122
0.012609498 -0.015435749 -0.010483263 0.028937329 -0.009203651 0.03869212 0.015283 0.0012325246
0.003579541 -0.0025099674 0.0063457876 -0.08528296 -0.10512047 -0.014986487 -0.0038066087 -0.039363828
-0.051072314 -0.017831868 0.0059386427 -0.037839144 -0.24873137 -0.20419595 -0.021058554 -0.20541629
00000000: 0cf9 2a3d 3085 b3bd 6eef 0f3d 1ce9 4d3e
00000010: d681 00be 9a49 0d3c c38d b13a 5aa1 ba3c
00000020: 50b8 68bc 1eef bf3c babf 19ba bda0 fbbc
00000030: a672 b03d c546 b8bd 8823 c8bd 360b c53a
00000040: ecd8 8b3c 4c2a 56bb 75e0 783e cddf 50be
00000050: be45 2dbd 883c 163e 02ec 85bc 4547 93bc
00000060: 023b a63b c20d 123d 2e3f 033d f318 7d3e
00000070: 2e5d 05b8 5713 fdba 1198 b23d 08f6 e7bd
00000080: 9fe5 92bc cc37 843d b336 22bc 1a2f 883c
00000090: 1554 383e 2413 b1bd 96cb 91bc f6f6 84bd
000000a0: 0579 f6bd 7267 943c 31b5 163c 6bfa b3bd
000000b0: 49f9 c13b c2e0 82bc b11b 11be f6c0 37bc
000000c0: 44ed 163e 6397 743e c9bb 32bd 01f8 4fbc
000000d0: 93f6 873c 2307 43bc 90c8 16bd b45d 81bd
000000e0: 01ec bebc 01dd 56bd 78a7 57be a975 a8bd
000000f0: aba2 2abc 5c4f 9ebc 979e d2bc 6d56 c03d
00000100: a65d 8b3d eb35 c63b 4207 48be c4c1 75bd
00000110: 757d ca3d 9dc8 52bc fe6e 093b f033 773b
00000120: 87fa 233e cd2d 4fbc 5c3e 91bb dd41 79be
00000130: ea0a 3cbe 9c32 843c 2663 d33c b857 8c3d
00000140: ac84 88ba 54b8 ae3d 846e 21bd 00f7 57bc
00000150: 744c 043e d3d9 0cbe de4d e5bc 263a 86bb
00000160: 8f79 1b3a e0f8 0a3d 7ec5 313e 2b51 a7bb
00000170: 4e93 2cbc 7c10 633d f35e f0bc 59ef 593c
00000180: c99a 9bbd add2 44bc 7d7a 8abb d8e6 7e3d
00000190: 14d0 febc e5c8 9fbc 627d 01bd c1c8 bcbd
000001a0: a9f9 c9bc 59bc 773a a6ce a5bc 0777 8a3c
000001b0: c18a f9bd 115b 023e 288b 3d3c 90c4 d53c
000001c0: eae4 fdbc 09ed 1cbd 72d7 323d fcd4 b03b
000001d0: 33c0 d53c a6de 02bd d47d a1bd 1b86 2c3c
000001e0: 44c4 2aba 8275 21bc 03c9 85bc 9df0 37bc
000001f0: c6db c53a dc13 24bb e55e 7abe 1051 70be
00000200: 17ea 45bd 6b37 58be 7a6c aebd cebe 4cbd
00000210: 7171 87bc dd31 ddbc 8061 2dbd 8e79 70bc
00000220: 9a96 24bd a6bf 4d3d fb52 94bc 4644 fd3b
00000230: b589 b13c 4d18 c43b 60a9 20bd 9797 15bb
00000240: 177c 9fbd 4b2c 95bd a4b6 23bd 5432 bebd
00000250: c767 79be 20ee f2bd 6a93 f0bb 7925 8c3c
00000260: 534f c03c f647 943d a69b 98b9 3a1f 953c
00000270: 48e6 a9bc 5ca5 02be a1b0 ac3c c00a 183c
00000280: 349e e43c 45d5 173d 4e1f e83d 2649 50be
00000290: 78cb 45bc d6b8 08be c0e6 d73c 8df9 5b3d
000002a0: 82c8 3ebd a111 b73c 673f 13bc feb0 22bd
000002b0: eed3 81bd 73b3 0d3b 7c98 91bd c1b5 a5be
000002c0: 7ca8 9dbd c969 c6bc e6ff aebd 3b16 d1bc
000002d0: 6cf7 5fbd 9967 4d3d 67c7 493c 235c 73be
000002e0: 7d8f e6bd d072 cf3d f324 163d 125b 9dbb
000002f0: a146 48b9 f082 373d d9df 3dbe aed3 f43c
00000300: ba30 e0bd 9d2f 243d 70c4 113d b1c9 0e3d
00000310: 4872 193c b9b3 e73c 2d02 693d 0a96 403e
00000320: fda5 343d 51f5 603e 0585 48be c179 503d
00000330: 9cb0 3fbd 6709 40bc 5ce9 9b3c 381d c5be
00000340: 08e2 353c 7042 b9bc 4c01 acbd ab9b 8ebd
00000350: d5ca c0bc 5df9 7d3d 9656 1e3c de65 de3c
00000360: e99b a2bd e459 eb3d 92de f7bc eefa e7bd
00000370: 8a9e 9dbe ab1a 423c 298f 5c3d cdff 453c
00000380: 1ff6 abbb 9a1d f33c 6f6a 863c ca2f d03c
00000390: 7ce3 283d 58af 923d d240 63bc 7045 40bd
000003a0: 1198 4e3c 39e6 7cbc fec1 2bbc fa0d ed3c
000003b0: e9ca 16bc a17b 1e3d 8c65 7a3c aa8c a13a
000003c0: bc96 6a3b 447e 24bb 53f0 cf3b d5a8 aebd
000003d0: 6749 d7bd e289 75bc 4c78 79bb f73b 21bd
000003e0: 3431 51bd 2314 92bc f298 c23b 38fd 1abd
000003f0: 70b3 7ebe be18 51be fd82 acbc a658 52be

bn4.weight f4 [64]
0.54613525 0.09878899 0.31969556 0.055482693 0.22481474 0.09376923 0.2944217 0.16127293
0.35218304 0.10746866 0.761757 0.15189579 0.27917922 0.110328704 0.053893037 0.046469834
0.06370449 0.299542 0.10301891 0.16573068 0.33264586 0.39646974 0.051052846 0.18128796
0.13973208 0.111602806 0.19784407 0.15802501 0.1582609 0.10147787 0.045079216 0.050058268
0.12159959 0.3273874 0.22278912 0.060724445 0.12010479 0.16714424 0.080800556 0.12676355
0.2725419 0.4131172 0.07083512 0.07790816 0.09345869 0.17532048 0.044187676 0.23790343
0.5250479 0.13661845 0.11339917 0.13483864 0.4048867 0.112871766 0.11062137 0.24538644
0.15946442 0.09640375 0.08166236 0.0514881 0.32240194 0.04890444 0.049973972 0.049300462
00000000: 85cf 0b3f e251 ca3d 23af a33e d241 633d
00000010: d635 663e 150a c03d 71be 963e bb24 253e
00000020: 5651 b43e 8718 dc3d 8202 433f 928a 1b3e
00000030: 94f0 8e3e 04f4 e13d f2be 5c3d 2757 3e3d
00000040: 8077 823d 925d 993e 94fb d23d 4eb5 293e
00000050: 8f50 aa3e 15fe ca3e ca1c 513d 8da3 393e
00000060: ed15 0f3e 0390 e43d a397 4a3e 4fd1 213e
00000070: 250f 223e a1d3 cf3d fca4 383d e609 4d3d
00000080: 3509 f93d 529f a73e d522 643e 32ba 783d
00000090: 80f9 f53d dc27 2b3e c37a a53d 4ece 013e
000000a0: 9d8a 8b3e 1984 d33e 0112 913d 508e 9f3d
000000b0: 4567 bf3d 3687 333e 23fe 343d f59c 733e
000000c0: 8a69 063f b5e5 0b3e d33d e83d 2413 0a3e
000000d0: 4f4d cf3e 5029 e73d 758d e23d 9546 7b3e
000000e0: a44a 233e 546f c53d 983e a73d 30e5 523d
000000f0: de11 a53e 0650 483d 82b1 4c3d 48ef 493d

bn4.bias f4 [64]
0.0010441969 0.0058974614 -0.05961454 0.0045181 -0.06673278 0.31245774 -0.05629175 -0.06534981
-0.032164603 -0.4713168 -0.08930251 -0.17004088 -0.025618061 0.038051162 0.03612252 0.022299575
-0.02246422 -0.02148355 -0.06792304 -0.15660109 -0.008490527 -0.008953859 0.027377518 -0.14529571
-0.06717106 -0.044306505 -0.14177604 -0.05669453 -0.11400694 -0.13429074 0.031849775 0.12987164
-0.057753503 -0.038993884 -0.027426116 0.11763714 -0.09288109 -0.07822461 -0.028040413 -0.120762035
-0.008446428 -0.0326282 0.0031640457 0.011670132 -0.033262283 0.006767015 0.09016895 -0.10273102
0.04712841 -0.08822735 -0.028792141 0.102219194 0.024046337 -0.05378803 -0.009640069 -0.01241081
-0.069384076 -0.06779867 -0.02098032 0.10810578 -0.006792547 0.033588488 0.038311377 0.0019768055
00000000: 6fdd 883a 7e3f c13b 602e 74bd 920c 943b
00000010: 32ab 88bd 76fa 9f3e 2e92 66bd 1fd6 85bd
00000020: 08bf 03bd 7050 f1be 3ce4 b6bd 321f 2ebe
00000030: f8dc d1bc 89db 1b3d 35f5 133d 99ad b63c
00000040: e206 b8bc 45fe afbc 3c1b 8bbd 095c 20be
00000050: da1b 0bbc 35b3 12bc d146 e03c 66c8 14be
00000060: fb90 89bd bd7a 35bd bd2d 11be 8638 68bd
00000070: 787c e9bd 8383 09be e974 023d 12fd 043e
00000080: f08e 6cbd 0db8 1fbd bcac e0bc beeb f03d
00000090: 7138 bebd 3934 a0bd 02b5 e5bc 1652 f7bd
000000a0: e362 0abc 26a5 05bd e15b 4f3b 1534 3f3c
000000b0: 083e 08bd d6bd dd3b 80aa b83d a464 d2bd
000000c0: b809 413d 8ab0 b4bd 7fdd ebbc 4c58 d13d
000000d0: d3fc c43c d650 5cbd 61f1 1dbc b656 4bbc
000000e0: 3d19 8ebd 07da 8abd ecde abbc 9066 dd3d
000000f0: 0494 debb 1594 093d 64ec 1c3d 4b8d 013b

bn4.running_mean f4 [64]
-0.26516315 -0.2946168 0.1373454 -0.7815258 0.099330835 -0.19271743 0.40461466 0.122378916
0.41433245 -0.039260514 0.30439755 -0.61047727 0.36678037 -0.02763738 -0.0070489356 -0.1611166
-0.41709054 -0.06634599 0.37496015 0.5301737 0.28679013 0.22547956 0.15802808 -0.2459386
-0.11603576 0.06742215 -0.2928163 0.3281408 0.13382934 -0.16068202 -0.10965128 -0.14410785
-0.12794687 0.23520541 -0.24863727 0.047611877 -0.42883584 -0.1390763 -0.047361083 -0.067700334
0.13385518 -0.1099935 0.025071166 -0.27847543 -0.49396557 -0.20581263 -0.056040496 -0.8687845
-0.27794173 -0.31863308 0.05344623 0.39040405 -0.3332839 -0.14334399 -0.354591 -0.096390195
-0.41025403 0.3493871 -0.22190468 0.039175265 -0.052306015 -0.52127403 -0.42664605 0.05334492
00000000: 77c3 87be 03d8 96be 46a4 0c3e 1312 48bf
00000010: f76d cb3d b857 45be a729 cf3e cca1 fa3d
00000020: 6223 d43e a2cf 20bd ffd9 9b3e 3d48 1cbf
00000030: a3ca bb3e c967 e2bc c2fa e6bb c0fb 24be
00000040: e48c d5be 68e0 87bd c7fa bf3e 77b9 073f
00000050: 28d6 923e 1de4 663e 1dd2 213e 54d7 7bbe
00000060: 28a4 edbd a014 8a3d 05ec 95be 1202 a83e
00000070: 8f0a 093e d489 24be da90 e0bd 0291 13be
00000080: 8104 03be b0d9 703e c59a 7ebe ac04 433d
00000090: 5f90 dbbe 056a 0ebe b2fd 41bd 79a6 8abd
000000a0: 5511 093e 4644 e1bd 0c62 cd3c 5594 8ebe
000000b0: 0ee9 fcbe 8cc0 52be b88a 65bd a968 5ebf
000000c0: 614e 8ebe e023 a3be 6fea 5a3d 0ae3 c73e
000000d0: 30a4 aabe c4c8 12be f48c b5be 3968 c5bd
000000e0: d10c d2be dee2 b23e fb3a 63be 3e76 203d
000000f0: d53e 56bd 3772 05bf 5a71 dabe 3480 5a3d

bn4.running_var f4 [64]
0.17149569 0.14505155 0.14322463 0.05674783 0.20713234 0.055837076 0.14221689 0.117533
0.14981057 0.11577743 0.35038748 0.038024515 0.18096898 0.09794832 0.021228122 0.050264936
0.21011303 0.24713685 0.03930763 0.16963454 0.2113242 0.28505352 0.038333416 0.19830252
0.24099645 0.06731693 0.19211246 0.18533458 0.10188088 0.026583644 0.030440131 0.03573676
0.33035868 0.15231751 0.18100649 0.03243692 0.11697123 0.32798126 0.055629604 0.13655426
0.2092235 0.16279703 0.048696525 0.059576523 0.06708252 0.11418898 0.028991241 0.3602389
0.13502721 0.025086772 0.08815863 0.12711369 0.20347703 0.13166356 0.17070687 0.20634297
0.22245964 0.051583614 0.060946625 0.027357979 0.21319231 0.03837655 0.02831273 0.037929516
00000000: 919c 2f3e 6588 143e 7aa9 123e 6a70 683d
00000010: 801a 543e 6bb5 643d 4ea1 113e 24b5 f03d
00000020: f167 193e b81c ed3d fd65 b33e 98bf 1b3d
00000030: ef4f 393e 2199 c83d 99e6 ad3c 9be2 4d3d
00000040: df27 573e 7111 7d3e 0a01 213d adb4 2d3e
00000050: 5f65 583e 89f2 913e 8003 1d3d d10f 4b3e
00000060: c6c7 763e 75dd 893d 21b9 443e 59c8 3d3e
00000070: eca6 d03d f1c5 d93c 955d f93c b560 123d
00000080: c624 a93e 1ff9 1b3e c459 393e 93dc 043d
00000090: 9d8e ef3d 29ed a73e dedb 633d e1d4 0b3e
000000a0: af3e 563e 44b4 263e 0276 473d 8306 743d
000000b0: 8f62 893d e9db e93d 0a7f ed3c 3c71 b83e
000000c0: 9344 0a3e c682 cd3c 838c b43d 172a 023e
000000d0: 485c 503e d0d2 063e c8cd 2e3e 924b 533e
000000e0: 76cc 633e 5749 533d 2ba3 793d d71d e03c
000000f0: 164f 5a3e bb30 1d3d 19f0 e73c fb5b 1b3d
