ckpt/ckpt-t-cr3-deepsc-t14db-rt-awgn.pth (torch, 766247 bytes, 46 tensors)

conv1.weight f4 [16, 3, 3, 3]
000000 02 15 a0 3d 95 2f ca 3d b2 ef 27 3e ff 1f e7 bd
       0.07816507 0.09872357 0.1640003 -0.112854
000010 23 5b 56 3e ad 65 f3 bd 60 d7 2a bd d4 32 5a bd
       0.20933203 -0.118846275 -0.041709304 -0.05327113
000020 aa fb 2a bd 9d 1c e8 3b 42 ec bf bd 06 9a 02 3d
       -0.04174391 0.007083489 -0.093712345 0.03188517
000030 af 43 86 bd 2f 57 2b 3e 96 80 c5 bd 59 e3 29 bc
       -0.06555878 0.16732477 -0.096436664 -0.010369145
000040 48 9f 71 bd 39 40 48 3c 07 cb 98 bc a0 72 34 be
       -0.058989793 0.012222343 -0.018651498 -0.17621851
000050 5d 89 92 bd 02 3d 56 3d 3a 28 7a 3e 09 b9 4d bd
       -0.07155106 0.052304275 0.24429408 -0.05022529
000060 9e f4 23 3d c3 0c fc 3c 66 d1 11 3d be e0 6a bd
       0.040028207 0.030767804 0.03560009 -0.057343237
000070 8d 59 1d be 30 6c e8 bd 30 fe 05 be 89 60 2f be
       -0.15366192 -0.1134876 -0.13085246 -0.17126669
000080 c7 ad 0d be b5 58 2b bc 98 8a ea 3d a4 02 df bc
       -0.13835822 -0.010458161 0.11452216 -0.027222939
000090 96 a9 f6 bc 83 ca a5 bd db df c9 bd b0 cd 04 be
       -0.030110162 -0.08095267 -0.0985715 -0.12969089
0000a0 fd 92 a0 bd 7d 68 8a bd 0a 54 07 bc 03 41 7a 3d
       -0.07840536 -0.06758211 -0.008259783 0.061097156
0000b0 ad 01 e9 bc 5f a7 9c 3d 89 02 51 3d 4e a4 3a 3d
       -0.028443182 0.07649111 0.05102781 0.04556685
0000c0 21 cf c5 3c 90 ed 96 bd f6 64 83 3d 40 b5 0a 3d
       0.024146618 -0.0736953 0.06415741 0.03386426
0000d0 91 1a de 3d 16 79 97 3b 80 1c 06 bc 2e 3b a9 bc
       0.10844911 0.004622589 -0.008185506 -0.020658102
0000e0 2a b3 09 3c 69 38 4b bd cc da e2 3a 6c 75 73 bc
       0.008404532 -0.049614344 0.0017307638 -0.0148595385
0000f0 7a 14 54 bd 3a f8 9c 3d 50 12 53 bd 3c 6d 21 bb
       -0.05177734 0.07664533 -0.051531136 -0.002463176
000100 de 16 56 3b 3d f4 7e bb 7b 15 5e bd a8 a3 20 3e
       0.0032667438 -0.0038902902 -0.054219704 0.1568743
000110 e2 0b f4 3d c9 b9 10 bd 83 a8 c1 3d c4 6c 03 bb
       0.11916329 -0.03533343 0.09455969 -0.0020053843
000120 43 c5 50 bd cb 23 d8 bc ef 38 57 3d 55 8f 5b bd
       -0.050969373 -0.026384255 0.05254453 -0.05360349
000130 c7 d5 cb 3e dd 36 da 3e 8f ea df bd 4a d9 0d 3e
       0.39811537 0.42619982 -0.109334104 0.1385242
000140 d1 90 74 3d 09 89 54 3d 40 86 0f 3e 56 e7 10 3e
       0.05970842 0.0518885 0.14016056 0.14150748
000150 8c 90 3d 3e bf 8b 43 3e ea 7f 3f 3e b5 91 43 bc
       0.18512172 0.19096278 0.18701139 -0.011936595
000160 40 a0 e2 bd 8a bf a0 3c 8e 4f 0e 3d b1 1b 0f 3e
       -0.110657215 0.019622583 0.034743838 0.13975407
000170 50 d2 e4 3d 64 ea 07 3e 86 ca 05 3e 04 ab 96 3d
       0.111729264 0.13273007 0.13065538 0.073568374
000180 f1 2e ee b9 3b 9e 7c bd b2 59 fe 3c 8e bc d2 bd
       -0.00045429872 -0.061674338 0.03104863 -0.1028987
000190 f3 f1 24 bd 3c 6e ab bd 12 a5 01 3b d7 18 33 3d
       -0.040269803 -0.08370635 0.0019782227 0.04372486
0001a0 8a f7 62 bd 65 22 28 bd 6b 58 f4 bd 42 4e fe bc
       -0.055411853 -0.041048426 -0.11930927 -0.031043176
0001b0 92 f8 3c 3c 8a c8 5c ba ff 5b 3e bd 03 60 e0 3d
       0.011533873 -0.00084222166 -0.046474453 0.10955813
0001c0 f6 cd bc 3c b9 f0 f4 bc 36 0a b4 bc de 6a 81 bd
       0.023047429 -0.029899942 -0.021977525 -0.063192114
0001d0 bb 37 ce bb f2 55 f0 3c b2 06 16 3d 51 5e db 3b
       -0.0062932647 0.029337857 0.03662748 0.006694593
0001e0 1f 1d 41 3e 48 e9 7b 3d 09 10 eb bc dc d5 0b 3b
       0.18858765 0.06150177 -0.02869417 0.0021337187
0001f0 b8 c6 04 bd c8 c3 74 bd ba d1 cc 3d fb 84 60 3e
       -0.032416075 -0.059757024 0.1000094 0.21925728
000200 1c 21 c5 3b 26 48 e9 3e 05 be 77 3e 39 b5 f6 3c
       0.00601591 0.45562857 0.2419358 0.03011571
000210 10 09 b3 3c fa cb ff bc 7f 47 2e 3c 94 4f 02 3d
       0.021854907 -0.031225193 0.010637163 0.031814173
000220 c7 0f 11 bd 75 c6 00 3d dd 49 20 bd 42 c1 87 be
       -0.035415437 0.031439263 -0.03913294 -0.26514632
000230 58 5f a0 bd 44 c2 b7 3d 9f 37 22 3e d5 b8 11 3e
       -0.078306854 0.089726 0.1584153 0.14230664
000240 4d 5c 79 3c 4e 9b 9b bc f7 f8 b0 3d 4d 6c a4 bd
       0.01521976 -0.018994953 0.08641236 -0.08028469
000250 58 bf 2a be cc 11 b4 bd eb ba 1a 3d 72 c1 00 3e
       -0.16674554 -0.08792457 0.037775915 0.12573794
000260 2e 54 df 3d 2e 2b 1d 3c 1e 30 ef bc 23 83 91 bd
       0.10904728 0.009592814 -0.029197749 -0.071050905
000270 ac 92 6d bd ff c5 15 3c af 7d d2 bd 80 67 93 bb
       -0.058001205 0.009141444 -0.102778785 -0.004498422
000280 1e 9a 86 3e 28 72 b4 bc d4 70 b9 bd 77 af c5 3d
       0.26289457 -0.02202709 -0.090547234 0.09652608
000290 b9 d5 3b be d6 a7 0b 3e 43 f0 10 3e 9a 0a 9d bd
       -0.18343247 0.13638243 0.14154153 -0.07668038
0002a0 42 32 da 3b 94 e9 e2 3c d3 80 26 3c a4 ff 43 be
       0.006658823 0.02769927 0.01016255 -0.19140488
0002b0 d5 67 95 3b c7 70 71 be d8 6d 45 bd 4e f9 6f 3d
       0.004559497 -0.23578177 -0.04820046 0.058587365
0002c0 8f 2c a1 bd 60 6e 17 bd 8f 03 ec bc 1f 40 4e bc
       -0.07869827 -0.036970496 -0.02881029 -0.01258853
0002d0 75 9d b0 be c5 ec 9d bd ca 56 43 be 08 30 3c bd
       -0.3449513 -0.07711176 -0.19076076 -0.045944244
0002e0 ec aa b7 3b de d7 1b bd 95 54 1d 3d f5 2c a7 bc
       0.0056050923 -0.038047664 0.03841074 -0.02040718
0002f0 97 46 1f 3d 0d a2 63 bd f1 d0 b3 3b d8 dc be bb
       0.03888568 -0.055574466 0.0054875542 -0.0058246665
000300 45 12 9e 3d ab 46 df 3d 78 b3 07 3e 02 eb d2 3d
       0.077183284 0.10902151 0.13252056 0.102987304
000310 02 6b 4c be e1 9d a2 bd 1c 79 2a bd b0 6a 62 3d
       -0.19962695 -0.07940269 -0.041619405 0.055277526
000320 dc 65 6f bb c9 70 8b 3d 0f ac 60 b9 f7 8b bc 3d
       -0.0036529219 0.068086214 -0.00021426402 0.09206384
000330 a8 f0 13 3e c2 58 2f be 9b d8 d0 bd 94 c9 1f 3d
       0.14447272 -0.17123702 -0.10197564 0.0390106
000340 be 23 92 3d 7c ce 3b bd 85 e7 5d bd a5 d2 41 bd
       0.071357235 -0.045851216 -0.054175872 -0.047320027
000350 38 b1 37 be 99 ad bc 3c ff 26 54 be 06 dd 83 be
       -0.17938697 0.023031997 -0.20718001 -0.25754565
000360 3f b5 89 bc 35 b4 76 3d 01 2a 5f 3c 42 6f a9 bd
       -0.016810058 0.060230453 0.013620854 -0.08273174
000370 c0 53 78 3d b0 30 a4 3c 96 1c 88 3a 5b e5 6a 3d
       0.060626745 0.020042747 0.0010384496 0.057347637
000380 26 84 b4 3c d1 a8 b9 bd 0c c9 0b 3d 1f a1 eb 3b
       0.02203567 -0.09065402 0.03412728 0.007190838
000390 4c 4b 81 be bd 80 8d bc f5 2a af 3b 62 52 ba bd
       -0.2525276 -0.017273301 0.005345697 -0.090977445
0003a0 94 04 8d bb 02 9e 77 bc 0b a9 75 3d ad d3 6e bd
       -0.0043035243 -0.015113356 0.059975665 -0.05830734
0003b0 68 cb 15 bc 21 c1 1e bf 36 ae 21 be d0 f7 b7 bd
       -0.009142734 -0.6201344 -0.15789112 -0.08982813
0003c0 d2 d4 7b bd 7e fb c1 bd 3c 29 13 3c 79 a5 c5 3a
       -0.06148226 -0.094717965 0.008981999 0.0015079222
0003d0 99 38 df 3c 80 32 cf 3c 12 8c b9 bd 64 cb bd bc
       0.027248668 0.025292635 -0.090599194 -0.023168273
0003e0 0f 1c 0d 3d d6 12 64 ba 2f 1b 37 3d ff 5a 35 3c
       0.034450587 -0.00087003165 0.04470366 0.011069058
0003f0 c9 39 2f bd 5c 58 5b bd b0 fb 13 3d 47 22 20 be
       -0.042779718 -0.053551063 0.0361287 -0.15638076

bn1.weight f4 [16]
000000 6e e7 cb 3d 8d 62 42 3e 0c 15 1c 3e 61 2a 42 3e
       0.09956251 0.18982907 0.15242404 0.18961479
000010 c7 25 4e 3e 04 62 e4 3d c3 99 1b 3e 8e a4 06 3e
       0.20131598 0.111515075 0.15195374 0.1314871
000020 93 d0 65 3e 28 da 40 3e 6d 59 2e 3e 94 0e 36 3e
       0.22442846 0.1883322 0.170263 0.17778999
000030 de 1a 13 3e 18 bf 46 3e 1c 78 38 3d 99 04 5c 3e
       0.14365718 0.19408834 0.04503642 0.21486129

bn1.bias f4 [16]
000000 9f 49 90 3e e3 be 52 3d 90 82 63 3d 31 d0 4b bd
       0.28181168 0.051451575 0.055544436 -0.049759094
000010 42 a3 2a be 8c 30 8e 3d 6d c1 9b 3e 18 2f a8 bd
       -0.1666384 0.06942853 0.3042101 -0.082121074
000020 9e 4d 99 bd 4d 5f 20 3e 60 5d 05 3d 73 93 b7 3d
       -0.074855074 0.15661354 0.032559752 0.089636706
000030 c6 36 8e 3d 6d 58 c9 bd c6 db 6b 3d 71 f8 1d bd
       0.06944041 -0.09831319 0.05758264 -0.03856701

bn1.running_mean f4 [16]
000000 51 69 a5 3d 14 ea cd be 3c 75 e4 3e d5 a2 f3 3e
       0.08076728 -0.4021765 0.44620693 0.47585168
000010 09 9f 0a 3f 74 f2 20 3c 68 3a f8 be 9b b5 5d be
       0.5414892 0.00982343 -0.4848206 -0.21651308
000020 55 6b 12 bf 42 00 eb be b0 c5 dd 3e 56 50 66 3e
       -0.57195026 -0.45898634 0.43314886 0.22491583
000030 bb 1a c9 ba a2 7d 69 be b2 54 a1 3c b3 ce c3 be
       -0.0015343049 -0.22801831 0.019693706 -0.38243636

bn1.running_var f4 [16]
000000 6e 9f 43 3b 83 4c 25 3d 80 e5 90 3d e3 9e 67 3d
       0.0029849666 0.04035617 0.07075024 0.05654801
000010 33 29 cb 3d b9 e6 4b 3c be d0 a9 3d 68 3d ea 3c
       0.099199675 0.012445145 0.082917675 0.028593734
000020 40 5f e1 3d f7 1d 91 3d 5a 1d 6c 3d 9c 34 85 3c
       0.110044956 0.070857935 0.05764518 0.016260438
000030 db bd 2a 3c df ed 88 3c cc a0 d7 3a 0e b6 37 3d
       0.010421242 0.016714988 0.001645112 0.044851355

conv2.weight f4 [64, 16, 3, 3]
000000 f5 c1 6d bd 65 90 80 bb c2 16 37 bc a3 92 ce bd
       -0.0580463 -0.003923463 -0.0111748595 -0.100865625
000010 06 0b 6f 3d ed 8a 08 3d e9 40 d6 bc 0d 5f d6 3d
       0.058360122 0.033335615 -0.026153998 0.10467348
000020 00 ee a9 bd 3e a3 aa bd d3 43 df 3c 1b 78 95 bd
       -0.08297348 -0.08331917 0.02725402 -0.07298299
000030 6a cc f8 bc e7 73 b1 3d 0d dd 63 3c f6 a8 29 bd
       -0.03037091 0.08664685 0.013907683 -0.0414209
000040 fe 33 c7 3c 59 99 66 bd e4 5b 84 bd bc 23 50 bc
       0.024316784 -0.056298587 -0.06462839 -0.012703832
000050 62 2d 44 bc 06 d8 63 bb a3 ff 41 3e 0c 38 92 bc
       -0.011973711 -0.0034766211 0.18945174 -0.01784899
000060 f4 ab ab bd 40 8d 26 3e a2 fb c0 3b a5 83 c4 3d
       -0.08382407 0.1626482 0.005889372 0.09595422
000070 b0 65 ae 3c 26 42 95 3d 70 49 29 bb e9 62 86 bd
       0.021288723 0.072880074 -0.0025831126 -0.06561834
000080 ff bf 27 3b b0 69 13 bd d9 23 ac bd 8a 4c bb bd
       0.0025596616 -0.035989463 -0.08405275 -0.09145458
000090 fd ec 28 bd 0d 33 a9 bd e9 33 b8 bd 94 6f 90 bd
       -0.041241635 -0.0826169 -0.08994276 -0.07052532
0000a0 29 7d 8b bd ba 31 ca 3d 8f ae be bd a4 3c 41 3d
       -0.06810982 0.09872766 -0.09310638 0.047176972
0000b0 ad 64 41 3e bf e0 98 bd e6 ed 1d bc 37 6f c2 bb
       0.18886061 -0.07464742 -0.009639239 -0.005933668
0000c0 a1 0a 2c bd 97 0d a2 3d 6b 7d 0f 3d b1 8b 41 3d
       -0.042002324 0.07912748 0.035031717 0.04725236
0000d0 c6 d5 c7 3d 77 6d 81 3c 75 7c 8d bc 30 f1 c0 3d
       0.09757571 0.015799267 -0.01727126 0.09421003
0000e0 d4 0f 6d 3d a9 3c ce 3a b8 70 ad 3d 5f 06 03 3d
       0.057876423 0.0015734631 0.08468765 0.031988498
0000f0 95 7f c6 3c 88 86 41 bd 1d 48 9b bd 83 26 2a 3e
       0.024230758 -0.04724744 -0.07582114 0.16616254
000100 50 a8 5b bb 36 86 9c 3d 3e 9a 1d 3e 31 c6 5a be
       -0.003351707 0.07642786 0.1539087 -0.21364667
000110 d7 9c 28 3d 5b c0 0e bb 62 ff ca bd 3f 28 2b bd
       0.0411652 -0.0021782133 -0.09911992 -0.04178643
000120 a0 fd d1 bd 2c f5 57 3c 0d 9a 8d bd f9 84 95 3b
       -0.10253453 0.013181012 -0.069141485 0.0045629707
000130 66 06 b9 bd 5b fe 2e be 6f ba f6 bd 1c f8 06 be
       -0.090344235 -0.17089216 -0.12047278 -0.13180584
000140 e1 d5 7d bf 96 13 c3 3c fe 04 19 3d 7d 22 b0 3d
       -0.9915448 0.02381305 0.037358277 0.08600328
000150 a0 42 cf 3c 38 d8 3f bd 1e a1 80 be 0b 71 0c 3e
       0.025300324 -0.04683706 -0.25122923 0.13714997
000160 d7 7d 60 be b6 97 ff be cb d5 c4 bc 0d bf 48 3c
       -0.21923004 -0.49920434 -0.024027726 0.012252581
000170 43 4f af bd f7 8b 95 3c d8 32 b9 bc 9a 56 d8 bd
       -0.0856004 0.018255217 -0.022607252 -0.10563393
000180 73 90 2b bd cb 97 e1 3c 94 e9 91 bd 2c 9d 04 bd
       -0.041885804 0.0275382 -0.071246296 -0.032376453
000190 bd 64 03 bd 3f 09 bb 3d 9b ac 97 3d d0 72 21 bc
       -0.032078493 0.09132623 0.07405969 -0.009854034
0001a0 3c f4 d0 3c 25 5b 6e bb 8b 2f a5 3d d5 7f 8b 3c
       0.025507085 -0.0036370244 0.08065709 0.017028729
0001b0 17 c5 01 bd fc 31 ce bb 22 a9 7c bc a3 a5 e3 bd
       -0.0316821 -0.0062925797 -0.015421184 -0.11115577
0001c0 c8 76 b5 bd 9d 8a 8a 39 a9 4c a0 bd 42 53 aa 3c
       -0.08860546 0.00026424686 -0.07827122 0.020791654
0001d0 f2 47 c2 3d 71 68 60 3d 7e d6 99 3d 6c a8 f0 3b
       0.09486379 0.054787103 0.07511614 0.007344296
0001e0 0d 6f 67 bc ae fb 4d 3d c1 23 34 3d 5e de cb 3d
       -0.014125598 0.05028885 0.04397941 0.099545226
0001f0 22 7c 13 3d 37 9d 2c bc a0 ba ce 3d 71 70 1e bd
       0.036007054 -0.01053553 0.1009419 -0.03868145
000200 07 97 e9 bd aa 28 8d 3c 54 6b 0d be 49 24 bd bd
       -0.11405759 0.017231304 -0.13810474 -0.092354365
000210 f5 72 08 be 16 41 f5 bc 0c ba 6e bd 18 1f 05 3d
       -0.13325103 -0.029938262 -0.058282897 0.032500356
000220 be 12 c8 3b 0f 00 88 3c 63 e3 26 bc 9f 68 13 bd
       0.00610575 0.01660159 -0.010186049 -0.035988446
000230 e0 ef 97 bd a3 e3 50 ba 07 7b 53 bd 71 bc c9 bd
       -0.074187994 -0.0007968491 -0.051631 -0.098503955
000240 1e a4 82 bd 10 48 69 3c de 5b 6b 3b 83 03 c8 bc
       -0.06378959 0.014238372 0.0035912911 -0.024415737
000250 36 0b 54 bc ce 97 36 bd d0 2b e9 bd 5c 75 a3 3d
       -0.012942126 -0.044578366 -0.1138531 0.07981369
000260 10 ec ab 3d 2c 99 dc 3c 82 e9 bf 3d f5 61 19 bd
       0.08394635 0.026928507 0.0937071 -0.037446935
000270 e4 f6 0c 3e 34 d0 48 bb ed 51 78 bd 39 02 34 3e
       0.13766056 -0.0030641677 -0.060625006 0.17578973
000280 0e ea 41 3c 3a c8 8b be 1e dc 81 bd 46 69 68 bd
       0.011835588 -0.27301198 -0.06340812 -0.05674102
000290 d1 69 a9 3d 03 d3 cd bd b3 ed d0 3d 85 5a e6 3c
       0.08272136 -0.10050013 0.102015875 0.028119335
0002a0 c1 71 2c bb 9f 7c 9e bc 94 6a e8 3b 0c 1f 78 3c
       -0.002631292 -0.019346533 0.007092783 0.015144121
0002b0 50 bc b8 bc 1c e2 f6 bb 33 fb 9f bd 59 fc 45 3d
       -0.022550732 -0.0075342786 -0.07811584 0.04833636
0002c0 71 3d c6 3c 8e c4 49 be 87 ad d3 3c 2b 60 50 3e
       0.02419922 -0.19703886 0.02583958 0.20349185
0002d0 14 15 2c 3d 79 a8 c6 bc b8 3d 18 be 60 bc 94 ba
       0.04201229 -0.024250256 -0.14867294 -0.0011347644
0002e0 4e f0 db bd c0 cf a5 bd cd ab 5a 39 d0 69 b6 bd
       -0.10739194 -0.08096266 0.00020854101 -0.08906901
0002f0 bc 35 b5 3c ac a6 21 3c 0f 63 44 3d 7a ff 07 3d
       0.02212035 0.009866398 0.047946032 0.033202626
000300 18 ce 3c bc f9 73 02 be c6 de 0a 3e 31 d2 38 bb
       -0.011523746 -0.12739553 0.13561544 -0.0028201456
000310 26 d9 99 bd ef 0c d8 bc 56 01 99 bd 3a 6f 20 bd
       -0.07512121 -0.026373355 -0.07470958 -0.039168574
000320 e6 ea 15 bd 79 09 cc 3d 0d b9 51 be 7b 73 95 bd
       -0.03660097 0.09962744 -0.20480748 -0.07297417
000330 4d 9d bf bc 55 4a a7 be f8 90 38 bd 64 b1 c1 bc
       -0.023390437 -0.32673898 -0.045060128 -0.023644157
000340 06 22 db 3d 79 3c 07 be cd 33 35 be 3f 3f 4d bc
       0.10699849 -0.13206662 -0.17695542 -0.012527286
000350 08 87 a1 bd 8e c5 f4 bd 77 ad 62 3c c3 55 a0 3c
       -0.07887083 -0.11951743 0.013835303 0.019572144
000360 74 34 30 bc b7 0c 05 bd 10 23 fb 3c 7b 50 98 bc
       -0.010754693 -0.03248283 0.030656368 -0.018593064
000370 7c 79 2f 3d 3e 83 12 3e dd b2 20 be a0 63 cc 3c
       0.042840466 0.14307877 -0.15693231 0.024949849
000380 d0 cf d1 3d c4 79 cd 3c 3e 32 49 3d 5e a7 89 3d
       0.10244715 0.025082476 0.04912018 0.06721376
000390 f0 b5 90 3d e8 83 2e 3d 62 12 9e 3d e5 ac 86 3d
       0.07065952 0.042606264 0.0771835 0.06575946
0003a0 8e 81 5b 3c 18 4f 26 3d 6c 60 66 3d 0a ea 6b 3b
       0.013397587 0.040602773 0.0562443 0.0035997652
0003b0 68 14 ce 3d 8f 16 46 bd 44 dd 4a be 6b d1 26 3e
       0.10062486 -0.048361357 -0.19810969 0.16290824
0003c0 44 00 52 3d 02 2b de bd 58 67 9b 3c b8 7d 06 bc
       0.051269785 -0.10848047 0.018970177 -0.008208685
0003d0 b8 aa df 3d 97 d8 fc bc a1 1b 44 be 1b 5d d1 bc
       0.10921234 -0.030864997 -0.19151165 -0.025557091
0003e0 bc 17 1f 3e ec 68 d9 bd ae e8 87 bd 89 27 9a 3d
       0.15536398 -0.106157154 -0.06636177 0.07527072
0003f0 f5 03 b2 bd 83 68 cc bd 5a 6f 68 bd c8 a0 b5 3e
       -0.08692161 -0.099808715 -0.056746818 0.3547423

bn2.weight f4 [64]
000000 8f 15 e6 3d 8b 7f c1 3d a7 39 79 3d 76 ec 82 3d
       0.11234581 0.09448155 0.060845997 0.063927576
000010 19 7f 1a 3e 0a cd b2 3d 8a e3 32 3e 3a d1 f0 3d
       0.15087546 0.08730514 0.17469612 0.11758657
000020 46 84 92 3d f4 b0 65 3d 2b 7c 90 3d d1 34 7b 3d
       0.071541354 0.05607696 0.07054933 0.061329667
000030 f8 4a 53 3e d4 9d de 3d 9f 12 4a 3d 65 c9 1f 3e
       0.20634067 0.10869947 0.049334165 0.1560417
000040 3c 56 67 3d e5 01 d5 3d 81 bb 5f 3e 87 08 1b 3e
       0.056478724 0.10400752 0.21848871 0.15139972
000050 0d fd 08 3e e3 ce 02 3e 6c 91 8e 3d ca 6f 0f 3e
       0.13377781 0.12774234 0.06961331 0.14007488
000060 fb 87 ad 3d 76 86 0b 3e ac fd 32 3e 57 2d d3 3d
       0.08473202 0.13625512 0.1747958 0.10311382
000070 14 36 14 3e 77 b7 0e 3e d1 8a 1d 3e fc 03 d8 3d
       0.14473754 0.13937174 0.15384986 0.10547635
000080 0e a4 2a 3e d9 65 bf 3d 95 f3 54 3e 77 1e d9 3d
       0.16664144 0.09345598 0.20796044 0.10601514
000090 7a c1 0c 3e 87 c6 e0 3d b5 d4 3f 3e df 62 a9 3d
       0.1374568 0.10975366 0.18733485 0.08270811
0000a0 7c a1 32 3d 94 da 1f 3e 21 2c 2a 3e 33 b2 22 3e
       0.043611035 0.15610725 0.16618396 0.1588829
0000b0 5c 55 57 3e 41 2a 6b 3d 8d d2 3f 3e 86 2a 19 3e
       0.21028656 0.057413343 0.18732662 0.14957628
0000c0 31 11 84 3d f4 1b 17 3e 12 73 19 3e bb 05 d2 3d
       0.064485915 0.14756757 0.14985302 0.10254999
0000d0 2b 8c 0c 3e 3e e3 87 3d 07 3b 8b 3d ca 76 1a 3e
       0.13725345 0.0663514 0.06798368 0.15084377
0000e0 60 31 8f 3d 21 74 68 3d e3 a9 92 3d 6c a1 bf 3d
       0.069918394 0.056751374 0.071613096 0.09356961
0000f0 4e ce 30 3e e2 da 4c 3e 56 43 48 3e 16 d6 00 3e
       0.17266199 0.20005372 0.19556937 0.12581667

bn2.bias f4 [64]
000000 90 b3 2d 3c 38 e2 2d 3d 83 3d b5 3d 3a e6 2e 3c
       0.010601893 0.042452067 0.08849623 0.0106750075
000010 b1 89 1d bc 8c 46 a5 3c da 46 44 be cd a2 3f bc
       -0.009615348 0.020175241 -0.19167653 -0.01169653
000020 c8 a4 ef bc 33 a1 09 3d 52 0a 3a 3d ea 5b 60 3d
       -0.029253379 0.033600997 0.04542 0.054775156
000030 54 1c 01 bb 79 d1 13 bd 26 27 ac 3c 3b df 4e be
       -0.0019700723 -0.03608844 0.021014761 -0.20202343
000040 5d 55 92 3d 1c 5e a7 3d c7 c5 b1 be d1 4a a7 be
       0.07145188 0.08172247 -0.34721205 -0.32674268
000050 22 24 7c be 32 d0 90 bb 0c b4 e8 bc 45 be 91 bc
       -0.24623159 -0.00441935 -0.028406166 -0.017790923
000060 d7 7e 93 3c 4d 8b a0 3c 72 2e 77 be 5c ba 34 bd
       0.018004818 0.019597674 -0.24138811 -0.04412304
000070 0f 40 c2 bb 30 8d c0 3c 83 4e 89 be 67 9f 7f 3d
       -0.0059280465 0.023504823 -0.26817712 0.062407877
000080 3a fb b2 bd 0e f0 04 3d 79 ff b6 3a e8 06 f4 bd
       -0.08739324 0.032455496 0.0013961635 -0.1191538
000090 a9 52 8c bd 49 f8 89 bd 24 9a 03 be 67 b4 5f 3d
       -0.06851704 -0.0673681 -0.12851769 0.054615404
0000a0 de d0 b5 3d f7 1e bf be 25 f0 59 be c5 9e be 3d
       0.08877729 -0.37328312 -0.21283014 0.09307627
0000b0 02 fd e8 bc 9a 9f d3 3d 90 0c 8d 3c ef 2f ad 3e
       -0.028440956 0.10333176 0.017217904 0.33825633
0000c0 29 90 81 3d df 6f 33 be 88 42 3a be d4 56 78 3d
       0.063263245 -0.17523144 -0.18189442 0.06062968
0000d0 e5 c6 15 be 89 28 73 3c 0e 58 c9 3d 2a 6d 75 3c
       -0.14626653 0.014841207 0.09831248 0.01497964
0000e0 26 0e 45 3d 6d 88 7a 3d 59 a9 80 3d fc 27 d2 bc
       0.048109196 0.061165262 0.062823005 -0.025653832
0000f0 e0 a9 4a be 2d 75 03 bd c1 4e e6 bd 05 cc 91 bc
       -0.19791365 -0.03209417 -0.1124549 -0.01779748

bn2.running_mean f4 [64]
000000 38 c2 1a be 43 77 eb bd ca a9 3d 3c d6 83 df 3e
       -0.15113151 -0.11497357 0.011576125 0.4365527
000010 91 32 a7 3b cc b4 00 bf 4e 40 f6 3e 83 2e 23 bf
       0.0051024635 -0.50275874 0.48095936 -0.63742846
000020 cf 28 21 be 55 8d ed 3c 82 72 45 3e 73 19 92 be
       -0.15738223 0.028998056 0.19281963 -0.2853504
000030 5a b9 ae bd c3 6a 61 3e 5b b8 34 3f c3 29 87 3e
       -0.08531447 0.22013383 0.70593804 0.2639905
000040 d3 08 10 3d ec ac 02 3d 63 cf aa 3a e0 2a 67 3e
       0.035164665 0.031903192 0.0013031777 0.2257495
000050 9d 9a 91 3e 46 df 7c 3e db 2c d6 3d 4e f8 05 be
       0.28438273 0.24694547 0.10457774 -0.13083002
000060 8f d7 ec be eb 0c d0 be 1f 7b ee bd c4 50 8d be
       -0.46258208 -0.40634856 -0.11644577 -0.27600682
000070 ac 65 85 bd 8a b0 1a 3e ca 38 05 3e a5 da 0c be
       -0.06513533 0.15106407 0.13009945 -0.13755281
000080 78 40 12 bd 3f 09 0d bf c1 c7 75 3e ab 58 1f 3c
       -0.035706013 -0.55092233 0.24001981 0.00972573
000090 8e 9e c2 3e 31 8c b8 3d ca bc 9b be 98 16 88 3d
       0.38011593 0.090111144 -0.30417472 0.066449344
0000a0 a8 a0 83 be ae 58 0e 3f b0 03 1e 3f 53 7a e7 3d
       -0.25708508 0.55604064 0.61724377 0.11302628
0000b0 4e e4 83 be c1 ff 0d 3e 98 a0 de be 50 a2 04 bf
       -0.2576012 0.13867094 -0.43481898 -0.5181017
0000c0 8b dc 0a 3e 04 32 f6 bb 14 f3 1e 3e e6 c7 0f bd
       0.13560693 -0.0075132865 0.15522414 -0.035102747
0000d0 34 97 d5 3d 42 6e c4 3e 5e 44 cd 3d fd fb a1 3d
       0.1042923 0.3836537 0.10022806 0.07909391
0000e0 87 63 2d 3e 06 77 a3 3e 5e 47 b9 be ef e1 e1 bd
       0.16932498 0.31926745 -0.3618726 -0.110294215
0000f0 59 a2 af 3e 05 26 c9 3e 87 6b 2d 3d 2a 58 c5 bd
       0.3430355 0.3928682 0.042338874 -0.096359566

bn2.running_var f4 [64]
000000 89 7a 99 3d 9d 28 a7 3c 34 5f c3 3a 57 91 f4 3b
       0.07494075 0.020405108 0.0014905692 0.007463615
000010 da 52 a8 3c 1e b3 52 3a 63 a4 4d 3c 41 1e a8 3e
       0.02054732 0.0008037555 0.0125514 0.32835582
000020 03 98 9e 3c c8 9f 85 3b ea 6f 05 3d 92 1d ff 3a
       0.019359594 0.0040778853 0.032577433 0.0019463769
000030 61 04 e0 3d 50 78 4b 3d f1 f7 88 3a 3e 4c 2b 3d
       0.10938335 0.049675286 0.0010449869 0.041820757
000040 16 ef 40 3b dc 8a 55 3c 29 bb 14 3e c5 b1 c6 3d
       0.0029439381 0.013033595 0.14524521 0.097018756
000050 5b af d2 3c 5f e0 e4 3c 93 38 5f 3c d1 d6 80 3c
       0.025718382 0.02793902 0.013624328 0.015727432
000060 e6 7c e4 3c fe d9 55 3a ee bb 54 3e 4d 06 ae 3b
       0.027891587 0.00081577885 0.20774814 0.0053108097
000070 a7 6f d4 3c 70 58 99 3c 44 49 09 3e f1 c8 66 3c
       0.025932146 0.018718928 0.13406855 0.014085994
000080 88 f4 26 3e 59 33 c9 3c ea 4c f9 3d 73 12 9e 3d
       0.16304219 0.024560617 0.12172873 0.07718363
000090 84 33 85 3c a0 c6 5b 3c a2 98 76 3e c8 51 13 3d
       0.016259916 0.013414055 0.24081662 0.035966665
0000a0 d0 d0 bc 3a ef b6 40 3c 4b c2 ac 3d b5 b8 4b 3e
       0.0014405493 0.011762365 0.08435496 0.19894679
0000b0 cb 7d fe 3d 12 69 ae 3b 15 58 b6 3d ee 25 cf 3d
       0.12426337 0.005322584 0.08903519 0.101146564
0000c0 1f cc 8e 3b 23 29 01 3e f6 94 3e 3c 21 e5 4c 3c
       0.004357829 0.12613349 0.011632195 0.0125058
0000d0 f0 fa 0e 3c a9 cb 0c 3c df b4 a8 3b 46 78 ac 3c
       0.00872682 0.008593478 0.0051485146 0.021053445
0000e0 be 7c 54 3c e9 86 96 3b a8 b2 56 3b 16 5c b5 3c
       0.012969194 0.0045937193 0.0032760296 0.022138637
0000f0 05 5d 49 3c 33 ea f0 3d ae 01 2e 3e c9 97 9f 3c
       0.012290244 0.1176342 0.16992828 0.019481556

conv3.weight f4 [64, 64, 3, 3]
000000 68 c4 0b bd bd bb bf bc 63 2f 49 3d a4 f1 76 3c
       -0.034122854 -0.02340495 0.049117457 0.01507226
000010 6b 25 45 3b de a8 ae 3d 75 5f 37 be db c6 a2 3d
       0.0030082117 0.085283026 -0.17907508 0.07948085
000020 2f 74 44 3d c2 2c 81 3c 4d b8 9d bd 55 7e 18 be
       0.047962364 0.015768413 -0.07701168 -0.14891942
000030 76 00 52 3d ed 26 0f bc cb 13 ee be eb d1 1f 3c
       0.05126997 -0.008737308 -0.46499476 0.009754638
000040 5b 9c 0d be 1d 6a 83 be 60 22 89 bb c5 59 1c bd
       -0.13829176 -0.25666896 -0.004185006 -0.03817155
000050 c3 8f 3f bd 66 ad c2 bc 3e cb 1f bc b8 51 0a be
       -0.04676796 -0.023764323 -0.009753047 -0.13507736
000060 1c 9f f9 3c 2b ee 0a 3d ec e8 6d bd aa ad c7 3d
       0.030471377 0.03391854 -0.05808346 0.09749921
000070 4b 6d c5 bd 3b c6 b9 3d b7 7f fd 3c 77 e6 dc 3c
       -0.096399866 0.090710126 0.030944688 0.026965363
000080 90 b8 72 3d bd 4e 7e 3e 90 54 30 3e 55 87 c4 3d
       0.059258044 0.24834724 0.17219758 0.09596125
000090 f7 1d 3b 3c e8 25 e3 bd 02 c3 62 bb 1e d1 6c bd
       0.011420718 -0.110912144 -0.0034601097 -0.057816617
0000a0 6e 93 fd 3c bd d6 ed bd 8a 02 88 3c 46 28 ea bd
       0.030954089 -0.11613224 0.016602773 -0.11433463
0000b0 87 8a 0a bd 38 e8 42 3d b7 84 f6 3c 64 ae 6d 3b
       -0.033823516 0.047584742 0.03009258 0.0036267275
0000c0 19 15 1c be e2 fe 31 be bb 1c 7d be a3 8e 58 bd
       -0.15242423 -0.17382386 -0.24717991 -0.052870404
0000d0 82 e8 ae bd ee e5 b0 3c 09 75 cf 3b 45 b5 c2 3d
       -0.08540441 0.021594014 0.0063310903 0.09507231
0000e0 f1 a2 61 3c 57 fa 9a 3c 7b 8a c5 bd 39 e4 1f be
       0.013771758 0.0189182 -0.09645554 -0.15614404
0000f0 ab 02 2b 3c 36 ac 26 be 9d 19 4a bd 6a 49 70 bd
       0.010437648 -0.16276631 -0.049340833 -0.058663763
000100 a2 cd 9a bd 4f 31 1b 3d 54 bd d1 bd 0f 0f d5 bd
       -0.075587526 0.03788882 -0.102411896 -0.10403263
000110 66 e8 a2 3d a9 a1 a3 bc e0 eb c6 3c 70 41 43 3e
       0.07954483 -0.019974547 0.024282396 0.19067931
000120 6d e9 90 3c 63 39 74 3d 8e 73 46 be 12 94 5d be
       0.017689431 0.05962504 -0.19380018 -0.21638516
000130 d9 be 26 bd e4 95 87 be 0a 8a f1 3d 4c 2e 54 3e
       -0.04070935 -0.26481545 0.11793907 0.20720786
000140 0b af f2 bd 09 8e 0b bd b1 ec 91 bc 19 1c 77 bd
       -0.11849793 -0.034071002 -0.017813059 -0.06032953
000150 2d e1 7c bc 8e 05 67 3e 08 08 01 bd 7b 58 01 3b
       -0.015434545 0.22560713 -0.0315018 0.0019736576
000160 6b 6e e5 3d 65 ef 29 3d fb 40 c8 bc c8 f8 bb bd
       0.11202701 0.04148807 -0.024445048 -0.09178311
000170 d7 04 94 3c 8e 4e b1 3d db 22 8a be 36 a0 c4 bd
       0.018068714 0.08657561 -0.26979718 -0.0960087
000180 03 a5 e6 bc 07 f9 56 3c ad 93 f6 3d 47 81 77 bd
       -0.028154856 0.013120896 0.12039886 -0.060426023
000190 b6 de e7 3d f2 99 75 bc ea 33 1a 3d 58 92 0d 3d
       0.113217756 -0.014990317 0.037647165 0.034563392
0001a0 71 d3 26 3d 3a 98 2a bd c7 6e bc bd e2 70 17 3c
       0.04072899 -0.04164908 -0.092008166 0.009243222
0001b0 16 4b 0a 3d 0f 38 c5 3c 45 1e 85 3d d0 80 90 bd
       0.033763014 0.024074582 0.06499914 -0.07055819
0001c0 4d 49 32 bd ea 46 6c 3d ae 72 3c bc 7c b4 15 bd
       -0.043526936 0.057684816 -0.011501951 -0.036549076
0001d0 62 4e 73 3d 27 e8 a1 bc 2b 7a 64 bd fc fb b4 bd
       0.059400924 -0.01976402 -0.05578057 -0.08837125
0001e0 5a 34 62 bd e5 a4 7a be 2d d6 2d 3d 81 c5 59 bd
       -0.055225708 -0.24476965 0.042440582 -0.05316687
0001f0 dc 8b d0 bd 0b 92 2c 3d 44 0f 09 bc 59 6a e1 bd
       -0.10182926 0.042131465 -0.008365456 -0.11006612
000200 4b ec 75 3d 6b 66 94 bd ac c8 a6 3d d9 cd 92 bc
       0.0600398 -0.07246097 0.08143744 -0.017920421
000210 f5 cc 8c bd 8c 01 57 bc d2 77 9b bd a7 80 32 3d
       -0.0687503 -0.013122927 -0.07591213 0.043579724
000220 0f 03 f4 3d 97 96 31 3c 90 1f 43 3d 70 e7 e5 3d
       0.11914646 0.010839126 0.047637522 0.11225784
000230 cb 2d 00 3d 63 42 3a b9 61 eb a8 3d 81 f0 bf 3d
       0.03129367 -0.00017763073 0.0824802 0.09372044
000240 fa 3b 84 3c 2f 52 0a be cb 12 c6 bd f1 86 4c be
       0.01614188 -0.13507913 -0.09671553 -0.19973351
000250 7a 9f 89 3c f1 5f d5 bd 08 f8 a5 3d 5c 18 e7 bd
       0.016799677 -0.1041869 0.08103949 -0.11283943
000260 7c 4b 26 bd fc fc 22 3e 7e 1b b3 bd f6 5a 53 3d
       -0.04059933 0.15916818 -0.08745478 0.05160042
000270 3c 5d 19 bd 85 9c e9 3b 41 3e 9a 3b 9a 79 5d bd
       -0.03744243 0.0071292543 0.0047071283 -0.054071046
000280 ef a9 86 bd 74 5e 77 3c f9 66 86 bc 0d 60 e3 bd
       -0.06575381 0.015098203 -0.016406523 -0.111023046
000290 4a 0b ad ba f5 a1 69 be e9 d1 a1 bd 45 9b 66 3c
       -0.0013202217 -0.22815688 -0.07901365 0.014075105
0002a0 88 72 22 be 14 e8 23 be 47 cb a7 3c b5 d8 06 bd
       -0.15864003 -0.160065 0.020482672 -0.03292151
0002b0 f0 3c bf bd a3 07 71 bd 0b 00 87 bd 22 14 47 3e
       -0.09337795 -0.058845174 -0.06591805 0.19441274
0002c0 93 56 c7 3e f2 49 56 bd 6b 89 d1 bc be 46 32 3e
       0.38933238 -0.052316613 -0.025578221 0.17409799
0002d0 cf 12 b9 3c f6 3a 16 bb 6e d4 43 3c 85 aa 16 be
       0.022591976 -0.0022923327 0.011952503 -0.14713486
0002e0 f8 0e 9b be 37 d1 17 be f4 7d 85 bd 0e 00 0f be
       -0.30284858 -0.14825903 -0.06518164 -0.13964865
0002f0 6b 22 7a bd 02 ad 8f bd 51 74 7f bd 68 77 02 be
       -0.06106798 -0.070154205 -0.062366787 -0.12740862
000300 81 58 2e be 57 61 01 be a2 09 33 be 32 e4 58 3d
       -0.17025949 -0.12634788 -0.17484143 0.052952
000310 8d 1a 49 bb ff 56 e8 bd 9f 51 b9 bd 67 2c ce 3c
       -0.0030685992 -0.11344718 -0.09048771 0.025167657
000320 c0 c8 42 bd 34 35 65 3e 43 27 f7 3d a6 fa 03 3d
       -0.04755473 0.22383577 0.120680355 0.03222146
000330 fb ce ba bd b6 90 08 3e 74 58 c2 3d 22 37 29 b8
       -0.0912151 0.13336453 0.09489527 -4.0344086e-05
000340 36 3d be 3d 13 0a 80 3d 69 ee 91 bc 42 28 2b be
       0.09289019 0.062519215 -0.017813878 -0.16714576
000350 02 9d 4a bd b6 70 f7 bd 2c e4 48 bd 04 30 37 be
       -0.04946614 -0.12082045 -0.049045727 -0.1788941
000360 f7 5f 8e bd 8b b8 71 bd 8c cd 90 bd 2d a4 00 bd
       -0.069518976 -0.059013885 -0.07070455 -0.03140657
000370 ab ee c3 ba fe df 54 3d 24 1a c4 3c 26 20 39 bd
       -0.0014948448 0.051971428 0.023938246 -0.045196675
000380 75 da 92 bd 9a eb 3a bd 87 8a 54 3c f5 5a 29 bc
       -0.071705736 -0.045634843 0.012972481 -0.010336627
000390 57 30 48 3d 8e 44 94 3d 77 dd e7 bd 39 65 86 3a
       0.048874225 0.07239638 -0.11321538 0.0010253555
0003a0 6a 2b 9b bd ab c5 db bc b4 a7 96 3d 41 d9 23 3d
       -0.0757664 -0.026827654 0.073562056 0.04000211
0003b0 95 e0 4b 3d b0 c8 c7 3d b2 ec 27 3e ae 8d bf 3d
       0.049774725 0.09755075 0.16398886 0.09353195
0003c0 a9 26 c1 3d a6 52 3f 3e 52 08 e8 3d 9a f7 7f bb
       0.09431202 0.18683872 0.11329712 -0.0039057494
0003d0 61 65 7f 3d 99 d0 c8 3b a7 06 d8 bc 8b a4 1f bd
       0.06235254 0.0061283824 -0.02637036 -0.03897528
0003e0 77 61 26 bd 46 e8 bc 3c 29 6e aa bd 1a 44 b8 3d
       -0.040620293 0.023059975 -0.08321793 0.08997364
0003f0 6b c2 88 bd fe 97 e5 bd d7 6c 84 bd a1 f6 35 bd
       -0.06677707 -0.11210631 -0.06466072 -0.044424657

bn3.weight f4 [64]
000000 fe 63 d0 3d 3b b0 29 3e ee 8a 2c 3e ea 7e 5c 3e
       0.10175322 0.16571133 0.16849872 0.21532789
000010 25 ca 29 3e 54 f2 ea 3d 0c ae 59 3e 73 08 a0 3d
       0.16581018 0.11472002 0.212578 0.078141116
000020 40 ff 28 3e 12 d3 49 3e f7 47 8b 3d 74 ef ce 3d
       0.1650362 0.19709423 0.068008356 0.10104266
000030 e0 a9 0a 3e 41 28 3a 3e 0b 7c 60 3e d5 b4 2c 3e
       0.13541365 0.18179418 0.21922319 0.16865857
000040 19 3c 14 3e e5 95 83 3d 8a 2a 10 3e f7 7c 2a 3e
       0.1447605 0.064250745 0.14078727 0.16649233
000050 17 6d eb 3d 9a 1f dd 3d 12 f4 32 3e cd fb df 3d
       0.114954166 0.10797043 0.17475918 0.10936699
000060 74 df a7 3d d4 28 26 3e a9 e9 9d 3e d1 73 23 3e
       0.08196917 0.16226512 0.3084233 0.15962149
000070 41 47 68 3e b0 46 c8 3d 8c b0 e7 3d a6 04 69 3e
       0.22683431 0.097791076 0.113129705 0.2275568
000080 bf 76 67 3d 15 2a 1a 3e 0f ca 4f 3e 33 f6 bf 3d
       0.05650973 0.15055116 0.20291923 0.09373131
000090 22 21 ee 3d cc 02 25 3e 7f 4e 20 3e e3 68 42 3e
       0.11627413 0.16114348 0.15654944 0.18985324
0000a0 96 2f ce 3d 0c be ac 3d a7 a7 29 3e b1 d2 81 3e
       0.1006767 0.08434686 0.1656786 0.25356057
0000b0 c7 98 10 3e 93 72 53 3e bb c0 4d 3e 39 66 45 3e
       0.1412078 0.20649175 0.20093052 0.19277276
0000c0 c3 dd 18 3e fc ca 54 3d b8 98 09 3e 7c 30 27 3e
       0.14928345 0.051951393 0.13437164 0.16327089
0000d0 10 69 ae 3d db 49 1f 3e ee 6b eb 3d ef 6a 37 3e
       0.08516133 0.15555517 0.11495195 0.17911886
0000e0 d4 ae a5 3d 41 18 72 3e c9 9a 70 3d 0e d0 29 3e
       0.080899864 0.23642065 0.058741365 0.16583273
0000f0 e2 72 bf 3d 1f d5 62 3e 47 52 37 3e f3 45 21 3e
       0.09348084 0.22151612 0.1790248 0.1574934

bn3.bias f4 [64]
000000 4e 85 3e 3d b1 46 fd bb fc c3 10 bd 8e cd f9 3c
       0.046513848 -0.0077293743 -0.035343155 0.030493524
000010 37 39 70 bd 5a 25 00 3e 42 fc 54 bd 43 06 55 3e
       -0.058648314 0.12514248 -0.051998384 0.2080317
000020 e4 8a 89 3d 4f 51 fc bd cf b8 7c 3e 9e 20 95 3e
       0.067159444 -0.12320196 0.24679874 0.29126447
000030 e5 05 48 3d 05 67 04 3d 9f d7 8f bd 68 88 1a be
       0.048833746 0.03232481 -0.07023548 -0.15091097
000040 77 52 d9 bd d9 20 7a 3d 8c be aa 3d 59 79 5f 3d
       -0.10611432 0.061066482 0.08337125 0.054559086
000050 8b 42 55 3d fd 6a 87 3d ea 6b 47 3d 97 d8 47 3d
       0.052065413 0.06612203 0.0486869 0.04879054
000060 51 d3 cd 3d d3 db d4 be d4 8d f7 be f5 42 09 be
       0.10050071 -0.41573963 -0.48350394 -0.13404448
000070 99 c3 4b bd 22 60 80 3d 35 43 5f 3d 54 d4 26 be
       -0.049747083 0.06268336 0.054507453 -0.16291934
000080 ab 53 c8 3d c7 fe 92 3d 13 df 36 be 6c c4 3e 3d
       0.097815834 0.07177501 -0.17858534 0.04657404
000090 9c 05 d8 3d ff 22 26 bc 4b 0b 02 3d 02 24 f7 3d
       0.10547945 -0.01014018 0.03174905 0.12067415
0000a0 54 33 12 3d 79 fb 0d 3e f9 03 29 3d f7 23 d5 be
       0.03569348 0.1386546 0.041263554 -0.41629001
0000b0 d3 4d 77 3d b9 d2 a2 bd 3e 88 c0 bc 83 69 f4 3c
       0.060376953 -0.079503484 -0.023502465 0.029835468
0000c0 20 f8 b9 be 5c 4d ec 3d 0c 2a 21 be 6a 1d db bd
       -0.36322117 0.11538193 -0.15738696 -0.1069897
0000d0 5d 5e 91 3c 93 dd b5 3d a9 86 75 3d ac d6 7a be
       0.017745191 0.088801526 0.059942875 -0.24495953
0000e0 db 5d 56 3e e5 5b 71 bc a0 18 bc 3d c7 e2 04 3e
       0.2093424 -0.014731382 0.09184384 0.12977134
0000f0 5a 9f 11 3e 9b da 5c be 09 47 0a 3d 11 88 23 be
       0.14220944 -0.21567766 0.03375915 -0.15969874

bn3.running_mean f4 [64]
000000 4d 2a 61 be cf bb 8d be c1 9f cb bd da ab 24 be
       -0.21988793 -0.2768235 -0.0994258 -0.16081181
000010 a0 bb b6 be 43 f9 f0 be 8c 92 d8 3c 0e 07 65 3d
       -0.35690022 -0.47065172 0.026437066 0.05591493
000020 5a aa 8c be f8 ce 12 3d 55 4e 91 bd d6 5e 85 be
       -0.27473718 0.035841912 -0.07095019 -0.26048917
000030 d1 ac 3a bc 28 6f 96 3d 06 01 e7 3d 00 d0 b1 be
       -0.011393742 0.0734542 0.11279492 -0.34729004
000040 30 66 5c be bd bb 76 be 0c 44 e9 bb a2 37 68 3e
       -0.21523356 -0.24095054 -0.0071187075 0.22677472
000050 91 ca 6a bd eb a1 a5 bd 04 72 7f 3d 53 c7 95 3b
       -0.05732209 -0.08087524 0.062364593 0.0045708804
000060 63 24 f7 bc 75 7d 90 be 27 44 28 be f6 64 70 be
       -0.030168718 -0.28220716 -0.16432248 -0.23476014
000070 2a ea 95 3e 2d 48 e1 3e ac 1e 0a be 3b 20 80 3e
       0.29280216 0.44000378 -0.13488263 0.2502459
000080 48 a2 86 be fe 27 8d 3c 1c b7 99 be 7c 46 b7 be
       -0.26295686 0.017230984 -0.30022514 -0.35795963
000090 f6 ad b9 bd 36 f2 52 bd a0 18 f1 3e 49 39 1d bb
       -0.090663835 -0.05150052 0.470891 -0.0023990443
0000a0 cb 18 08 be 39 5f 06 be f7 b8 2c be c2 8f 73 be
       -0.13290708 -0.13122262 -0.16867433 -0.23785308
0000b0 65 c1 80 bd c2 76 05 3e 06 24 f1 bd 30 b7 86 3d
       -0.06286887 0.13033584 -0.11774449 0.06577909
0000c0 be c8 e6 be c0 9c 85 be e0 6b 83 bd 68 0a 3b be
       -0.4507503 -0.26096153 -0.0641706 -0.18265688
0000d0 f7 6b 89 be a1 97 1e 3f 74 d7 b8 be 72 4a e2 be
       -0.26840183 0.6195012 -0.36101878 -0.44197422
0000e0 18 f5 bb be 0e 7e 3a 3c fc e9 6a be fe 48 64 be
       -0.3671043 0.011382593 -0.2294082 -0.2229347
0000f0 20 7f f9 be be bf 01 bf 97 9b 67 bd fe 10 be be
       -0.487298 -0.506832 -0.056544866 -0.3712234

bn3.running_var f4 [64]
000000 ff bb db 3c e9 2a fe 3d 8f f0 87 3d d8 c5 a8 3e
       0.026823042 0.12410528 0.0663768 0.32963443
000010 4c da cc 3d 01 63 a8 3c ff 08 c1 3e 48 6c 73 3c
       0.10002574 0.020555021 0.37702176 0.014857359
000020 9e 9f 80 3d d3 27 74 3e eb 8d 6f 3c 3b 3b e8 3c
       0.062804446 0.23843317 0.014621238 0.028348556
000030 64 19 9f 3d 33 ce 90 3e 54 b1 eb 3e 04 9c 1c 3d
       0.07768515 0.28282318 0.46033728 0.038234726
000040 8d 58 d5 3d cd 65 7f 3c cf 88 7d 3d 76 ca a6 3e
       0.1041728 0.015588236 0.06189805 0.3257634
000050 a9 ad 19 3d 89 b2 25 3d e4 d3 88 3d df 25 7f 3d
       0.03751913 0.040453468 0.0668104 0.062291976
000060 a7 44 8a 3c b0 05 6c 3b ea 99 a3 3c 0a 4f a5 3d
       0.01687844 0.0036014132 0.019970853 0.08071716
000070 b0 ce cc 3e 92 82 8c 3d 55 5d db 3c ac 21 a2 3e
       0.4000144 0.06860842 0.026777903 0.31666315
000080 6f 0b 77 3c dc 2f 4c 3d 5f e3 1e 3d 36 84 8b 3c
       0.01507841 0.04985033 0.038791057 0.017030817
000090 2e af 84 3d e0 8f 0e 3e 29 09 02 3e 47 30 82 3d
       0.064787254 0.13922071 0.12698807 0.063568644
0000a0 4a 06 ac 3c 46 31 86 3c bf 9a 8a 3d ab eb 60 3c
       0.020999093 0.016380917 0.06767797 0.013728063
0000b0 96 1c 79 3d ab 05 bf 3e d0 60 08 3e 95 2a 10 3e
       0.060818277 0.37309012 0.13318181 0.14078744
0000c0 43 5d 8f 3e 38 00 31 3c ee 55 41 3d 37 d3 01 3e
       0.2800084 0.010803275 0.04720109 0.12678228
0000d0 b5 dd 08 3d 63 5c 82 3e 26 ed 2a 3d 49 b8 46 3d
       0.03341456 0.2546111 0.04173007 0.04851559
0000e0 d7 07 8d 3c dd e4 c1 3e 39 7f 22 3c e8 b1 5c 3d
       0.017215652 0.3786992 0.009918028 0.053880602
0000f0 57 e9 b8 3c 16 9a 0d 3d 35 c0 b3 3e d9 65 a6 3c
       0.022572203 0.034570776 0.3510758 0.020312237

conv4.weight f4 [64, 64, 3, 3]
000000 8f 09 2b 3d 99 8a 62 bd 7e d2 ad 3c 92 c7 49 3e
       0.041757163 -0.05530796 0.021218535 0.19705036
000010 22 ce d1 bd 9c 1b 5b 3c 8a 00 72 bc 01 df a5 3b
       -0.10244395 0.013373282 -0.014770636 0.0050619845
000020 fa 89 8f bc 9f 16 55 3d 7e 8c 09 bc 2e d3 d4 bc
       -0.017521847 0.052023526 -0.008395312 -0.025979605
000030 f8 13 91 3d d8 e4 7b bd b3 aa 9f bd de a5 a8 bb
       0.07083887 -0.06149754 -0.0779623 -0.005146726
000040 77 78 88 ba 06 5a 96 bc aa e4 49 3e 8d 57 7c be
       -0.0010411878 -0.018353473 0.19716135 -0.24642773
000050 58 cf 09 bd 6c 50 ef 3d 39 7a 6d bd 00 c6 16 3c
       -0.033645004 0.11685261 -0.05797789 0.00920248
000060 99 f4 9b 3b 84 1d 2d 3d b1 8d 67 3c 1d 26 84 3e
       0.004759383 0.042264476 0.014132903 0.25810328
000070 bb ed b7 bb 15 b8 c4 bc 9f ab b8 3d f0 cd ee bd
       -0.0056130565 -0.024013558 0.09017109 -0.11660373
000080 b9 f2 f7 bc a8 13 53 3d d5 96 81 bc b4 14 81 3b
       -0.030267106 0.051532418 -0.015818993 0.0039392356
000090 b1 8c 61 3e 4f 08 89 bd cb 15 ea bc 01 54 46 bd
       0.22026326 -0.06691038 -0.028574845 -0.048419956
0000a0 ef 0a f0 bd d7 26 82 3c 0b db be 3c 3e 1d 7c bd
       -0.117208354 0.01588766 0.023297807 -0.061551325
0000b0 c5 88 8a 3b 90 a7 0a 3c bc c1 2f be 9a ef b0 bc
       0.00422773 0.008462802 -0.17163748 -0.021598626
0000c0 b6 96 14 3e e7 5b 5c 3e db 61 39 bd af 18 dd bc
       0.14510617 0.21519433 -0.045259338 -0.02698931
0000d0 f6 3f 97 3b 19 cb 93 bc b4 85 99 bd d2 65 8d bd
       0.004615779 -0.01804118 -0.07496205 -0.06904186
0000e0 ea e8 eb bc 40 08 89 bd b3 5a 0f be 32 9a a4 bd
       -0.028797586 -0.06691027 -0.13999443 -0.08037223
0000f0 16 07 8e bc e2 f5 f6 bc 9b 96 99 bc e1 76 c3 3d
       -0.017337363 -0.030146543 -0.018748572 0.09544159
000100 dc 68 9e 3d 19 3a 61 b9 90 6e 44 be cd ae c2 bd
       0.07734844 -0.00021479315 -0.19182801 -0.09505997
000110 67 34 93 3d 6e 0f d2 bc f3 ad 21 bc 6c 45 4d 3c
       0.07187729 -0.025642123 -0.009868133 0.0125287585
000120 da 1f 11 3e 36 31 2d bc 85 65 97 3b 37 98 7c be
       0.14172307 -0.010570815 0.0046202564 -0.2466744
000130 02 de 2c be f1 3f fc 3b 67 56 c1 3b e1 f6 e6 3c
       -0.16881564 0.007698052 0.0059001925 0.028193893
000140 55 31 92 3a 01 5c d0 3d 45 f8 d5 bc 48 e2 ac bb
       0.0011153618 0.10173798 -0.02611936 -0.0052759983
000150 08 8d 1c 3e 2d 53 00 be d9 fd ae bc 57 8a 50 bc
       0.15288174 -0.12531729 -0.021361278 -0.012728295
000160 5c 64 1b bc 6b 8f 57 3c 1b 55 1e 3e 17 49 5b bc
       -0.009484377 0.013156752 0.15462153 -0.013384125
000170 3d e4 bc bb 4a 8a 78 3d 76 f1 3b bd 7d f9 d3 3c
       -0.005764513 0.060678758 -0.045884572 0.025875801
000180 da 58 83 bd 70 a0 f1 bc 97 26 bc 3a 7d fd e7 3c
       -0.064134315 -0.029495448 0.0014354762 0.028319115
000190 1e f6 f3 bc 3b 67 46 bc 1f 48 85 bd 94 5d d6 bd
       -0.029780444 -0.012109573 -0.06507897 -0.10467067
0001a0 0d a7 46 bc fb 65 a6 bc 86 e6 db bc 7c b1 41 3c
       -0.012124789 -0.0203123 -0.02684332 0.011822101
0001b0 7f b4 16 be dc b3 18 3e e9 67 db 3c ec bf 3e 3d
       -0.14717291 0.14912361 0.026782947 0.04656975
0001c0 d9 94 57 bd 8a 81 d9 bc 40 75 37 3d 65 d4 2e bc
       -0.052632187 -0.026551027 0.044789553 -0.010670756
0001d0 3f d3 8e 3c a3 50 45 bd 24 4f b2 bd 01 f2 a7 ba
       0.017434714 -0.048172604 -0.08706501 -0.0012813212
0001e0 de b7 cf 3b 9b a9 02 3d ea b3 c1 3a 60 b0 85 bb
       0.0063390573 0.03190003 0.001477835 -0.0040798634
0001f0 ad 10 ba bb 61 54 32 3c cc 6b 7f be ae d4 4f be
       -0.0056782574 0.010884375 -0.24943465 -0.20295975
000200 40 79 1b bd 98 cc 6f be 90 22 cd bd 2a 84 28 bd
       -0.03795743 -0.2341789 -0.10016358 -0.041141666
000210 b6 b3 5e bc 33 55 e4 bb 0b 2e e3 bc 09 db 1f 3d
       -0.013592651 -0.0069681644 -0.027731916 0.039027248
000220 1f a5 f8 bb 4c 74 49 3d e8 5c 1a bd 03 24 41 bd
       -0.0075880433 0.049183175 -0.03768626 -0.047153484
000230 e7 6d f6 3c 4f c2 ef 3b e6 c3 ae bc 8c 42 7f bc
       0.030081702 0.0073168646 -0.021333646 -0.015579831
000240 e2 ce 66 bd a5 11 1a bd 30 ee da bc 83 78 cc bd
       -0.056349643 -0.037614483 -0.026724905 -0.09983923
000250 c4 be 70 be 7f 3b e6 bd 3c ed c7 39 02 97 55 3c
       -0.23510271 -0.11241817 0.0003813299 0.013036491
000260 43 85 ab 3c dd 7d bb 3d ac 6d 3e 3d 66 ce c0 3c
       0.020937568 0.09154866 0.04649131 0.023535918
000270 0e 04 ef bc 2a 2b c6 bd 20 4f 11 3d 2c b1 14 3c
       -0.029176738 -0.09676202 0.03547585 0.009075444
000280 b5 35 ea 3c 49 d3 e7 3c 41 5f de 3d 3c 72 73 be
       0.028590063 0.02829899 0.10858012 -0.23774046
000290 34 cf c7 bc df 3b 0d be a4 d7 b0 3c 3b 4f 0a 3d
       -0.024390794 -0.1379237 0.0215872 0.033766966
0002a0 05 e8 09 bd 99 19 99 3c f8 b7 47 bc e1 40 1d bc
       -0.033668537 0.018688964 -0.012189858 -0.009597988
0002b0 e4 ad 43 bd 03 db 45 3a 21 59 6e bd c3 21 94 be
       -0.047773257 0.0007547589 -0.05819047 -0.28932008
0002c0 7a 4e 9d bd f8 f3 4e bc 66 fd a3 bd c5 4f e4 bc
       -0.07680984 -0.012631409 -0.08007316 -0.027870068
0002d0 2b 41 ba bc ca b9 46 3d cc d5 9e bc 7f e5 57 be
       -0.022736153 0.048517026 -0.019389056 -0.2108364
0002e0 9c c7 08 be fd c2 b5 3d 0e a3 d2 3c 57 5d 0e 3c
       -0.13357395 0.08875082 0.025712516 0.008689246
0002f0 11 78 a7 3b b7 b2 8e 3d 22 6d 31 be 70 b0 83 3c
       0.0051107486 0.06967681 -0.17326787 0.016075343
000300 fc 78 cc bd 18 01 fe 3c 92 74 0c 39 c6 af a4 3c
       -0.099840134 0.03100638 0.00013394866 0.020103347
000310 c4 95 28 3c 9c ce 8c 3c 10 ad 60 3d 13 7e 30 3e
       0.010289613 0.017188363 0.054852545 0.17235593
000320 e7 90 0d 3c 73 6e 45 3e b6 c9 5d be b9 86 18 3d
       0.008640504 0.19280414 -0.21658978 0.037237857
000330 77 bd 29 bd bf 46 2a 3c 8f 67 64 3c 7a ff 99 be
       -0.041440453 0.010392844 0.013940706 -0.30077726
000340 88 61 50 3d e1 d7 81 bd 8e dd 70 bd 89 79 4e bd
       0.050874263 -0.06340004 -0.05880504 -0.050408874
000350 48 2d b3 bc a2 5a 61 3d 88 b6 be 3b 93 47 92 3c
       -0.021872178 0.055018075 0.0058200993 0.017856395
000360 26 94 64 bd 5a 2e f9 3d 89 e6 a4 bc 42 53 e0 bd
       -0.055805348 0.12167044 -0.020129459 -0.1095338
000370 6e 03 88 be de 74 b6 bb 11 1d 48 3d 43 fd 41 3c
       -0.26565117 -0.005568131 0.048855845 0.011840167
000380 61 25 8c bc cc fc 6c 3c 13 1b 3a bc 3d 0d 88 3c
       -0.017107667 0.014464568 -0.011358994 0.016607875
000390 f9 59 7c 3c 22 83 05 3d cb d1 6e bc f9 5c 6e bd
       0.0154023105 0.03259576 -0.014576386 -0.058194134
0003a0 2b 4e 82 bc 03 59 8b bc 79 13 55 bc f5 80 cb 3b
       -0.015906414 -0.017010218 -0.013005131 0.0062104412
0003b0 f6 24 bd 3b e5 a0 e4 3c a6 fc 14 bc 4e 42 4d bc
       0.0057722284 0.027908752 -0.009093439 -0.012528015
0003c0 38 c5 4b ba 0e 9c 89 ba d8 9f 2e 3c 52 a4 1c bd
       -0.00077732233 -0.0010498778 0.010658227 -0.038242646
0003d0 e5 30 bb bd 67 3b 35 bd 78 d8 ac 3c 92 4b 55 bd
       -0.09140185 -0.044246104 0.021099314 -0.052074023
0003e0 f4 b1 90 bc 8f 22 b1 bc 1c 8f ad 3b 38 0a d2 bc
       -0.01766298 -0.021622924 0.005296601 -0.025639638
0003f0 f5 45 82 be 51 fa 4f be b2 41 72 bc 59 a9 53 be
       -0.25443998 -0.20310332 -0.014786171 -0.2067007

bn4.weight f4 [64]
000000 bb 57 01 3f 56 8f b2 3d b9 cd a1 3e fd 74 26 3d
       0.5052449 0.087187454 0.31602266 0.040638912
000010 9e e7 52 3e 69 84 b1 3d 4f 42 88 3e 53 da 11 3e
       0.20596167 0.08667833 0.2661309 0.1424344
000020 2f ff a4 3e 6c 97 dd 3d 6e f2 46 3f 2a f9 14 3e
       0.3222594 0.10819897 0.7771367 0.14548174
000030 a8 d8 8e 3e 77 fe d6 3d 6b 4b 3c 3d 58 29 27 3d
       0.2789967 0.10497754 0.04597036 0.040810913
000040 2c f0 5d 3d 2f 78 a8 3e ce 4d bc 3d 15 84 19 3e
       0.054184124 0.32904193 0.091945276 0.14991792
000050 b1 1f b5 3e 6e ad bf 3e 9e 2c 2a 3d 9d 95 2c 3e
       0.3537574 0.37437004 0.041546457 0.16853948
000060 52 b3 09 3e 84 f5 d6 3d 06 44 3d 3e 0f 91 06 3e
       0.13447312 0.10496047 0.1848298 0.13141273
000070 4a b7 1b 3e 0b e6 bf 3d e0 f1 45 3d af 77 1f 3d
       0.15206638 0.09370049 0.048326373 0.0389325
000080 8b 0b ab 3d fd 23 9d 3e 8e fc 55 3e 1e aa 5f 3d
       0.08351811 0.3069152 0.20897123 0.054605596
000090 ed 19 e5 3d 3a 07 27 3e 6b 0d 85 3d 15 70 ee 3d
       0.111865856 0.1631135 0.064967 0.11642472
0000a0 f0 62 93 3e 65 87 de 3e 90 6e 76 3d 7c 6a 63 3d
       0.2878642 0.43462673 0.060164034 0.055521473
0000b0 2e 39 b5 3d 3b 83 31 3e 05 a0 24 3d 16 e1 48 3e
       0.08848797 0.17335217 0.04019167 0.19617113
0000c0 83 79 f8 3e 8f cf fc 3d ec 33 a2 3d be 84 08 3e
       0.48530206 0.12344276 0.079200596 0.13331887
0000d0 39 07 c8 3e 49 5d e4 3d f7 e1 c2 3d 6e e9 61 3e
       0.3906801 0.11150605 0.095157556 0.22061703
0000e0 c6 b1 09 3e 31 da 9a 3d ad f9 4b 3d da 4d 63 3d
       0.13446721 0.07561148 0.049798656 0.055494167
0000f0 66 9b 9b 3e 3e ef 27 3d bb 22 2a 3d ee 2e 1e 3d
       0.30391997 0.040999644 0.041537028 0.038618974

bn4.bias f4 [64]
000000 18 4d 28 3d 4f 3f cd 3b cf 75 a4 bd 8b 45 44 3c
       0.041089147 0.0062636505 -0.08030283 0.011979471
000010 b6 48 62 bd c3 85 9e 3e 4f 7c a1 bd 0f 53 b9 bd
       -0.055245124 0.30961427 -0.07885038 -0.09049045
000020 8e 45 7d bd ff 76 de be 54 cc 5e bd f8 81 20 be
       -0.06183391 -0.43450162 -0.05439408 -0.15674579
000030 64 f1 27 bd b1 ea e0 3c c5 90 01 3d 8c 1e 3b 3c
       -0.041001692 0.02745566 0.031632204 0.011420857
000040 75 e5 eb ba 0f 59 84 bb e5 37 80 bd 4e a2 1a be
       -0.0017997461 -0.004038937 -0.06260661 -0.15100977
000050 51 d7 2d bc 6f fe ce bc 33 28 0f 3d b7 02 0a be
       -0.010610417 -0.025267808 0.034950446 -0.13477598
000060 7c b2 81 bd ac 62 23 bd 55 fb 18 be db 62 26 bd
       -0.06332871 -0.039889023 -0.14939626 -0.04062162
000070 a3 10 f7 bd d6 cb 0b be 23 9b e4 3c d9 2d fb 3d
       -0.1206372 -0.13651976 0.027906006 0.12264604
000080 07 ec 14 bd c4 86 81 bd 2a 75 b6 bc ac fb f7 3d
       -0.036357906 -0.06324533 -0.022272665 0.121085495
000090 03 c8 c9 bd 40 6b 67 bd bd 22 2c bc 8a 40 c9 bd
       -0.09852602 -0.056498766 -0.010506329 -0.09826763
0000a0 85 4a a0 bc fa 15 77 bd 72 95 92 3c a1 44 cb 3c
       -0.019566784 -0.060323693 0.017893527 0.024812998
0000b0 48 b6 09 bd 97 4f c2 3c 81 49 ab 3d 95 fa 83 bd
       -0.033621103 0.023719592 0.08363629 -0.06444279
0000c0 83 db 71 3d bb b4 af bd 48 12 06 bc 9e dd d1 3d
       0.059047233 -0.085793935 -0.0081830695 0.10247348
0000d0 d4 24 02 3d c2 40 5b bd 2d db d1 ba 72 d4 ea bc
       0.031773403 -0.053528555 -0.0016010754 -0.028665755
0000e0 3b c3 7a bd cd fd 7e bd e8 ca 30 bb 65 0b da 3d
       -0.061221343 -0.062253762 -0.002697641 0.106467046
0000f0 02 3f b2 bc c0 59 3e 3d d0 54 4c 3d 9f 84 07 bc
       -0.02175856 0.04647231 0.04988557 -0.008271365

bn4.running_mean f4 [64]
000000 6c 76 7b be f2 14 5a be c0 5e c3 3b 96 19 22 bf
       -0.24556893 -0.21297053 0.005962223 -0.6332029
000010 b7 49 b5 bd 4c b7 88 be 7c 35 a4 3e 3d 2c 44 3e
       -0.088519506 -0.26702344 0.32072055 0.191575
000020 71 29 bf 3e 68 ee 5f be 4f ce ec 3e 1c 39 3d bf
       0.37336305 -0.21868289 0.4625115 -0.73915267
000030 42 04 96 3e 74 d8 da 3b 52 0f 3a bd 32 80 7b be
       0.29300123 0.0066786353 -0.045424767 -0.24560621
000040 4c 35 98 be 12 7e a8 3c 14 40 b8 3e 2f e4 05 3f
       -0.29728162 0.020567928 0.35986388 0.52301306
000050 bd 55 7f 3e 09 c6 40 3e e9 58 99 3e 11 97 0d be
       0.2493505 0.18825544 0.29950646 -0.13827159
000060 09 58 ea 3c 34 f8 0f 3e 5b 24 ba be 2b bd 85 3e
       0.028606432 0.14059526 -0.36355862 0.26120886
000070 9b 32 d5 3d 91 42 c4 bd 78 2f 95 bd d7 31 24 be
       0.10410043 -0.09583009 -0.072844446 -0.16034637
000080 c7 84 c5 bb 7f 77 2f 3e a2 02 a7 be fc dc ac 3d
       -0.006027791 0.17135428 -0.32619196 0.08440587
000090 34 d9 06 bf c1 03 4f be e9 a2 5e bd c7 c8 21 be
       -0.52675176 -0.20216276 -0.054354582 -0.15799247
0000a0 45 4f 38 3e 1c 49 12 be 34 3d 84 3b 17 44 7b be
       0.17998989 -0.14285702 0.0040356163 -0.24537693
0000b0 c5 ea ea be 6f 7d 6c be b0 32 a9 bd d2 68 3a bf
       -0.4588224 -0.23094724 -0.08261621 -0.72816193
0000c0 aa 3f 36 be 52 8e cd be e1 1e 08 bc 58 f2 c7 3e
       -0.17797723 -0.40147644 -0.008308143 0.3905208
0000d0 8a e5 90 be fd ff ba bd 16 5b e4 be 13 a1 ea bd
       -0.28300124 -0.09130857 -0.44600743 -0.11456504
0000e0 4c 9e 8b be aa 1d dc 3d 77 c6 cb bd 67 3f d5 bc
       -0.27269208 0.107478455 -0.099499635 -0.02603121
0000f0 f2 5a 1c be af 8c 0d bf c9 ba af be a2 e7 1f 3d
       -0.15269068 -0.5529279 -0.34322193 0.03903926
