ckpt/ckpt-t-cr3-deepsc-trandom-awgn.pth (torch, 766247 bytes, 46 tensors)

conv1.weight f4 [16, 3, 3, 3]
0	0x3d93eeae	0.07223259
1	0x3dca1865	0.09867934
2	0x3e1ab6a5	0.15108736
3	0xbdc90f62	-0.09817387
4	0x3e2856cf	0.16439365
5	0xbdb35a2d	-0.08757434
6	0xbd4a3003	-0.049362194
7	0xbd1230a6	-0.035690926
8	0xbccedd25	-0.025251934
9	0x3bce1765	0.00628941
10	0xbd7c01b1	-0.06152505
11	0x3cdf4ef5	0.02725933
12	0xbd3caca9	-0.0460631
13	0x3e0b27fc	0.13589472
14	0xbd992467	-0.07477646
15	0xbc4de2f5	-0.012566318
16	0xbd27e40a	-0.04098896
17	0xbbe012df	-0.006838187
18	0xbd174462	-0.03693045
19	0xbe21a9dc	-0.15787452
20	0xbdbca633	-0.092113875
21	0x3d6dd6e5	0.058066268
22	0x3e4ba38e	0.1988661
23	0xbd383440	-0.044971704
24	0x3d3f293f	0.046670195
25	0x3d5e9cec	0.05434887
26	0x3cf73deb	0.030180892
27	0xbd5c6314	-0.053805426
28	0xbe0e495d	-0.13895173
29	0xbdec3e42	-0.11535312
30	0xbdf2148d	-0.11820326
31	0xbe190de0	-0.14946699
32	0xbe29387a	-0.1652545
33	0x3c34a6d1	0.0110261
34	0x3d98a709	0.074537344
35	0xbd2c4585	-0.042058486
36	0xbccd87a6	-0.025089096
37	0xbdb6b11c	-0.089205
38	0xbdc69985	-0.0969725
39	0xbddb5797	-0.10710066
40	0xbd91a5ef	-0.071117274
41	0xbd956781	-0.072951324
42	0x3bde9bf5	0.006793494
43	0x3d2056bb	0.039145213
44	0xbc47f0de	-0.012203423
45	0x3da34f8b	0.07974156
46	0x3d3582c4	0.04431416
47	0x3d5c8e08	0.05384639
48	0x3c865688	0.016398683
49	0xbd1662de	-0.03671538
50	0x3d82d854	0.063889176
51	0x3cc5f5a1	0.024164977
52	0x3dc5e1c3	0.09662201
53	0x3c829f42	0.01594508
54	0xbce0dc0f	-0.027448682
55	0x3cf43b90	0.029813558
56	0x3d586c91	0.052837912
57	0xbd171b7f	-0.036891457
58	0x3d7ccd18	0.06171903
59	0x3d5b29b9	0.053506587
60	0xbd670fcf	-0.05641156
61	0x3dace6b8	0.084424436
62	0xbc47468b	-0.012162815
63	0xbc204d30	-0.009784028
64	0x3ce97c30	0.0285016
65	0x3d2a9b25	0.041651864
66	0xbd2a538a	-0.041583575
67	0x3e0bff9c	0.13671726
68	0x3e15190f	0.1456034
69	0xbd459ab6	-0.048243247
70	0x3da12dcb	0.078700624
71	0x3cd3064e	0.025759842
72	0xbd65dd30	-0.056119144
73	0xbcffc2b5	-0.031220773
74	0x3d798c81	0.06092501
75	0xbd1bc361	-0.038028125
76	0x3e92189a	0.28534395
77	0x3ebe3f42	0.37157637
78	0xbddb688e	-0.107133016
79	0x3d928bcb	0.0715557
80	0x3cec5516	0.028849166
81	0x3d5c3be6	0.05376806
82	0x3dea18d7	0.11430519
83	0x3e0ca37e	0.13734242
84	0x3e3d51ca	0.18488231
85	0x3e1cf3f0	0.1532743
86	0x3e61a107	0.22034083
87	0xbd072108	-0.032990485
88	0xbd9c93a5	-0.076453485
89	0x3d1157e3	0.035484206
90	0x3cc1099a	0.023564149
91	0x3e0d7f0e	0.13817999
92	0x3dc8c76d	0.098036624
93	0x3de65ead	0.11248527
94	0x3dce74e6	0.1008089
95	0x3d93ffd4	0.0722653
96	0xbc9b565c	-0.018962078
97	0xbd1c7fc0	-0.03820777
98	0x3c266192	0.0101550985
99	0xbdd2b8bd	-0.10289142
100	0xbc8b685d	-0.017017538
101	0xbdb80275	-0.08984844
102	0xbbc22f87	-0.005926076
103	0x3c98806d	0.018615926
104	0xbd8b5560	-0.06803393
105	0xbd0ce707	-0.034400012
106	0xbdaae601	-0.08344651
107	0xbd219ab7	-0.03945419
108	0x3d70e479	0.05881164
109	0x3d44b320	0.04802239
110	0xbcf157b7	-0.029460771
111	0x3e1bc58f	0.15212081
112	0x3d7bc53e	0.0614674
113	0xbc0e12c8	-0.00867147
114	0x3d2c57cd	0.04207592
115	0xbbd0fc2a	-0.0063777165
116	0xbc251810	-0.010076538
117	0x3d841cbd	0.06450794
118	0x3d8fea4a	0.07027109
119	0x3bb7abe9	0.00560521
120	0x3e4f9981	0.20273401
121	0x3db8e409	0.09027869
122	0x3bb432d7	0.0054992246
123	0x3d17d1e9	0.03706542
124	0x3cabd3c9	0.02097501
125	0xbcf5aa7d	-0.029988522
126	0x3dcde4b0	0.10053384
127	0x3e35b050	0.17743039
128	0xbc377819	-0.011198067
129	0x3eb05933	0.34443054
130	0x3e346329	0.17615952
131	0x3ce352f8	0.027749524
132	0x3c6fdee4	0.014640544
133	0xbc5dd704	-0.013540033
134	0x37e760b1	2.7582371e-05
135	0x3cb5f862	0.022213165
136	0xbd707541	-0.058705572
137	0x3c7f75bf	0.015592038
138	0xbda2ad19	-0.07943172
139	0xbe4b299d	-0.19840093
140	0xbd9a8ea2	-0.07546736
141	0x3db48c64	0.0881584
142	0x3e4c3fd6	0.19946226
143	0x3dff1c58	0.12456578
144	0x3c671c29	0.014105835
145	0xbd459123	-0.048234116
146	0x3d37cb30	0.04487151
147	0xbdaa34db	-0.08310863
148	0xbe003ce2	-0.12523225
149	0xbdc6cd93	-0.09707179
150	0x3d8006fe	0.06251334
151	0x3e1cb79e	0.1530442
152	0x3db43e49	0.088009425
153	0xbcd02cb4	-0.025411941
154	0xbd93c223	-0.07214763
155	0xbd78abb2	-0.060710616
156	0xbd800bf0	-0.06252277
157	0x3c4dd5ba	0.012563163
158	0xbd4b227a	-0.049593426
159	0xbb0308dc	-0.0019994294
160	0x3e53bbcd	0.20677109
161	0x3c6353ee	0.013874991
162	0xbd54adec	-0.051923677
163	0x3d9e178d	0.07719336
164	0xbe2c14ef	-0.1680486
165	0x3ddd46be	0.108045086
166	0x3df23f6d	0.11828504
167	0xbd529fed	-0.05142205
168	0x3bf16d49	0.007367764
169	0x3d0298ca	0.031883992
170	0xbb6c7856	-0.0036082468
171	0xbe1e570d	-0.15462895
172	0xbc67400f	-0.014114394
173	0xbe8254e1	-0.25455382
174	0xbd82764d	-0.0637022
175	0x3d248db1	0.04017419
176	0xbd8ccf6a	-0.068754986
177	0xbc40bd3a	-0.011763865
178	0xbc47a288	-0.012184747
179	0xbc5f6960	-0.013635963
180	0xbe880efa	-0.26573926
181	0xbd83a5f8	-0.064281404
182	0xbe41b220	-0.18915606
183	0xbd545cb9	-0.05184624
184	0x3b80f9ff	0.003936052
185	0xbd07efbf	-0.033187624
186	0x3cf0836b	0.02935954
187	0xbbe2c6bc	-0.0069206636
188	0x3d0747ff	0.033027645
189	0xbcc5bd15	-0.024138013
190	0x3c13ff56	0.009033045
191	0xbb823029	-0.0039730263
192	0x3d85970f	0.06522953
193	0x3cf3e832	0.029773805
194	0x3dd6b892	0.10484423
195	0x3d95c63e	0.07313202
196	0xbe4ae7af	-0.19814943
197	0xbd086547	-0.03329971
198	0xbb73bc22	-0.0037190993
199	0x3d982a8b	0.074299894
200	0xbae3f059	-0.0017390355
201	0x3dc057c4	0.0939174
202	0xbbfca9ed	-0.0077106864
203	0x3d777128	0.06041065
204	0x3e05ca95	0.1306556
205	0xbe0ff5e4	-0.14058644
206	0xbdd3cc8e	-0.1034175
207	0x3c7cacbc	0.015422042
208	0x3da51cae	0.08062111
209	0xbd915f19	-0.070982166
210	0xbcaf5105	-0.021400938
211	0xbd350e27	-0.04420295
212	0xbe3b18bc	-0.18271154
213	0x3c63a3d6	0.013894042
214	0xbe3acee3	-0.18242984
215	0xbe9ba6e1	-0.30400756
216	0xbd30c5b5	-0.043157298
217	0x3cdb5abb	0.026776662
218	0x3cf0ec6d	0.029409612
219	0xbdf65383	-0.12027647
220	0x3c9b8184	0.018982656
221	0x3c9ae1ad	0.018906439
222	0xbd3ef435	-0.046619613
223	0x3ccdb849	0.025112288
224	0x3d24e3e8	0.04025641
225	0xbdd4d67f	-0.103924744
226	0x3c191572	0.009343492
227	0x3be7c820	0.0070734173
228	0xbe81ecf2	-0.25376087
229	0xbd01579e	-0.0315777
230	0xbb4191cf	-0.0029536372
231	0xbdf6b6d7	-0.12046593
232	0xbc80151e	-0.01563507
233	0x3b5aaaaa	0.0033365884
234	0xbb2acf17	-0.0026063377
235	0xbd620332	-0.05517883
236	0xbc9cacc0	-0.019125342
237	0xbefd2e7a	-0.4944952
238	0xbdfeb6e3	-0.124372266
239	0xbda75f4d	-0.08172474
240	0xbdc7a305	-0.097478904
241	0xbd97ee34	-0.074184805
242	0x3c3732e2	0.011181565
243	0xbd1719fe	-0.036890022
244	0xbced6df6	-0.028983098
245	0x3c4fbcad	0.012679261
246	0xbe0ad754	-0.13558704
247	0xbd7122a5	-0.05887093
248	0x3bd7d6c3	0.006586881
249	0xbd17ed9a	-0.03709183
250	0x3be804b9	0.007080641
251	0xbb0c8fbd	-0.002144798
252	0xbd86c604	-0.06580737
253	0xbd90cd1f	-0.07070374
254	0x3cd2e1e6	0.025742482
255	0xbe352d5a	-0.17693081

bn1.weight f4 [16]
0	0x3da32dc5	0.07967714
1	0x3e137d35	0.14403231
2	0x3dfbf2d8	0.12302178
3	0x3e1034c4	0.14082628
4	0x3e385e89	0.18004812
5	0x3dc7676a	0.097365215
6	0x3df23145	0.11825804
7	0x3dd8d063	0.105866216
8	0x3e31e8c8	0.17373955
9	0x3e233133	0.15936737
10	0x3df150be	0.117829785
11	0x3e06ae6b	0.13152473
12	0x3dd157f8	0.10221857
13	0x3e188a2e	0.14896461
14	0x3d340d19	0.043957803
15	0x3e23d80c	0.16000384

bn1.bias f4 [16]
0	0x3e654010	0.22387719
1	0x3ce129a6	0.02748568
2	0x3d005a2e	0.031336002
3	0xbce1e91e	-0.02757698
4	0xbe1525aa	-0.14565149
5	0x3d672bd2	0.056438275
6	0x3e67d033	0.22638015
7	0xbd68fe23	-0.05688299
8	0xbd805f67	-0.062681966
9	0x3e03cf69	0.1287209
10	0x3d0897e7	0.03334799
11	0x3da17f5d	0.07885621
12	0x3d649c7d	0.0558133
13	0xbdb74008	-0.0894776
14	0x3d80f5ff	0.0629692
15	0xbd358bb7	-0.044322696

bn1.running_mean f4 [16]
0	0x3db71330	0.089392066
1	0xbec5cfb0	-0.38635015
2	0x3f022c96	0.5084928
3	0x3ee032ee	0.43788856
4	0x3f3b7a27	0.73233265
5	0xbbe227f2	-0.0069017345
6	0xbee77f02	-0.45214087
7	0xbe76db30	-0.24107051
8	0xbf2d092e	-0.6759213
9	0xbf208f14	-0.6271832
10	0x3ec74fed	0.38928166
11	0x3e5ecc82	0.21757701
12	0x3c7408ba	0.014894659
13	0xbe6a6cd3	-0.22893076
14	0x3c2992d8	0.010349952
15	0xbec22c19	-0.3792427

bn1.running_var f4 [16]
0	0x3b4bf0f1	0.0031118954
1	0x3d1b2c7c	0.03788422
2	0x3d9d820e	0.076908216
3	0x3d4829c2	0.04886795
4	0x3e0fa21a	0.1402668
5	0x3c7713a9	0.015080371
6	0x3d8cb1e8	0.068698704
7	0x3d09dc28	0.033657223
8	0x3e09a2d8	0.13441026
9	0x3dd32d1b	0.103113376
10	0x3d5979b8	0.053094596
11	0x3c847daf	0.016173212
12	0x3c1543f5	0.0091104405
13	0x3c8ee98c	0.017445348
14	0x3b368846	0.0027852221
15	0x3d4946ee	0.04913991

conv2.weight f4 [64, 16, 3, 3]
0	0xbd9602ca	-0.07324751
1	0xbd18d766	-0.037314795
2	0xbcb23e1c	-0.021758132
3	0xbd972198	-0.073794544
4	0x3d15d1a6	0.03657689
5	0x3ce29ac1	0.027661683
6	0xbd455e74	-0.04818578
7	0x3d920fd9	0.07131929
8	0xbcd35c6f	-0.025800912
9	0xbd52697d	-0.051370133
10	0xbca720c2	-0.020401362
11	0xbd009a51	-0.031397168
12	0xbd0f51f7	-0.034990277
13	0x3d17f227	0.03709617
14	0x3d0f806b	0.03503458
15	0xbc98268e	-0.018573072
16	0x3d1df52d	0.038563896
17	0x3cefb5c7	0.029261483
18	0xbd806e51	-0.06271041
19	0xbc8b61aa	-0.017014343
20	0xbcd7443e	-0.026277658
21	0xbcd27dee	-0.025694814
22	0x3e1aff8f	0.1513655
23	0xbbfb9d25	-0.007678645
24	0xbdb11af7	-0.08647721
25	0x3ddb14ea	0.106973484
26	0xbd0d29b0	-0.034463584
27	0x3de2b7f3	0.11070242
28	0x3c7673cb	0.015042256
29	0x3d4f3b13	0.050593447
30	0x3c90a67d	0.017657513
31	0xbd8e054f	-0.06934606
32	0xbd281b4b	-0.041041654
33	0xbd33a352	-0.043856926
34	0xbdcb2bdd	-0.09920476
35	0xbde3bd7d	-0.111201264
36	0x3b722907	0.0036950724
37	0xbd271742	-0.040793665
38	0xbd36a170	-0.044587553
39	0xbd82645f	-0.063668005
40	0xbd7a36da	-0.061087467
41	0x3d1ea766	0.038733862
42	0xbd8afc3c	-0.06786391
43	0x3d2eb3b0	0.042651832
44	0x3e038fe8	0.12847865
45	0x3b9c7385	0.004774513
46	0xbcba7208	-0.022759452
47	0x3b667d7d	0.0035170012
48	0xbd2fbf2c	-0.042906925
49	0x3db2c298	0.08728522
50	0xbd2aff3e	-0.041747324
51	0x3c9c7541	0.01909888
52	0x3dcce930	0.100054145
53	0xbd8212b8	-0.063512266
54	0xbc6ec92d	-0.014574331
55	0x3c8956ba	0.016764987
56	0x3d74c690	0.059759676
57	0xbc6aac75	-0.0143233435
58	0x3d2dd819	0.042442415
59	0x3d1899ed	0.03725617
60	0x3d1e3a19	0.038629625
61	0xbd0bfe04	-0.034177795
62	0xbd376860	-0.044777274
63	0x3dac2785	0.08405975
64	0x3d1602b6	0.03662368
65	0x3db28109	0.08716018
66	0x3e052526	0.13002452
67	0xbe709752	-0.23495224
68	0xbcaa58c1	-0.020794274
69	0xbc1fb543	-0.009747806
70	0xbd9c3cd6	-0.07628791
71	0x3d7675f7	0.060171094
72	0xbda501c8	-0.0805698
73	0x3cade989	0.021229522
74	0xbdbb5da5	-0.09148721
75	0xbc47d7c0	-0.012197435
76	0xbd147d4b	-0.0362523
77	0xbe0a0112	-0.13476971
78	0xbe51fd62	-0.20506814
79	0xbdef2646	-0.11677222
80	0xbf50f972	-0.81630623
81	0x3d9625ef	0.07331454
82	0x3d015840	0.031578302
83	0x3ca80366	0.020509433
84	0x3ce38718	0.027774379
85	0xbd872dc3	-0.06600525
86	0xbea6d2b6	-0.32582635
87	0x3dccf660	0.1000793
88	0xbe3514d8	-0.17683733
89	0xbf049036	-0.5178255
90	0x3b060a07	0.0020452754
91	0xbccdfe76	-0.02514575
92	0xbdfa8716	-0.12232797
93	0xbbfd07cd	-0.007721877
94	0xbd38e3a6	-0.045138977
95	0xbdc22c6d	-0.0948113
96	0xbd93eba4	-0.07222679
97	0xbca7d232	-0.020485971
98	0xbdbb5afd	-0.09148214
99	0xbce7e23f	-0.028306125
100	0xbd917506	-0.071023986
101	0x3c8f601a	0.01750188
102	0x3d132cda	0.035931446
103	0x3c1339d0	0.008985952
104	0x3ca0c3d1	0.019624623
105	0xbcc16fc1	-0.023612859
106	0x3d673980	0.05645132
107	0x3c65d9b5	0.014028956
108	0xbc9e7e67	-0.019347383
109	0xbc88ed03	-0.016714578
110	0xbad31cf5	-0.0016106652
111	0xbd68592c	-0.056725666
112	0xbe668cf7	-0.22514711
113	0x3d69ad11	0.057049815
114	0xbd4372b2	-0.047716804
115	0xbd9c2f9e	-0.0762627
116	0x3db59e74	0.08868113
117	0x3d328edc	0.043593273
118	0x3de9f0e7	0.114229016
119	0xbd58d39c	-0.05293618
120	0x3aa05b9f	0.0012234336
121	0x3d8640c3	0.06555321
122	0xbbc2dfab	-0.0059470735
123	0x3d49ee9f	0.049299832
124	0x3d9aa74e	0.07551442
125	0x3d2ec71c	0.042670354
126	0x3ca9480d	0.02066424
127	0xbd80292b	-0.06257852
128	0xbd6c0909	-0.057625804
129	0xbc7e78a4	-0.015531693
130	0xbe182e86	-0.14861497
131	0xbcad31b1	-0.021141859
132	0xbe282b00	-0.16422653
133	0x3b765acd	0.0037590743
134	0x3cf6e8a4	0.030140229
135	0x3d9e5755	0.07731501
136	0x3bbb49d2	0.005715587
137	0x3ce745c4	0.028231509
138	0x3cdb790e	0.026791122
139	0xbcd0ddd5	-0.025496403
140	0xbd155426	-0.036457203
141	0xbbd9200d	-0.006626135
142	0xbd28a309	-0.041171107
143	0xbd755450	-0.05989486
144	0xbd9322ad	-0.07184348
145	0xbccb5481	-0.024820568
146	0x3d11b8e0	0.0355767
147	0x3d0ba00f	0.03408819
148	0xbc3679ab	-0.011137406
149	0xb905b0e4	-0.00012749765
150	0xbdb59716	-0.08866708
151	0xbc26c97a	-0.010179872
152	0x3d4b9303	0.04970075
153	0x3cb738a9	0.022365885
154	0x3cd30e00	0.025763512
155	0xbd41228a	-0.04715208
156	0x3ddd3979	0.10801978
157	0xbd3ac37c	-0.045596585
158	0xbd967e62	-0.07348324
159	0x3dec3178	0.11532873
160	0xbcc2f3f4	-0.023797967
161	0xbe40cc2d	-0.18827887
162	0xbdc823c1	-0.097724445
163	0xbd77e00d	-0.060516406
164	0x3cbb5d08	0.02287151
165	0xbdd1c06d	-0.102417804
166	0x3dac3747	0.08408981
167	0x3d14f55c	0.036366805
168	0xbc449e9f	-0.012000709
169	0xbc8fc233	-0.017548656
170	0x3d009ec7	0.031401422
171	0x3d4e9695	0.050436575
172	0x3c519800	0.012792587
173	0x3cbc6784	0.022998579
174	0xbd98e9c2	-0.07466461
175	0x3da0fad8	0.07860345
176	0x3d9a2ca8	0.07528049
177	0xbe1f6729	-0.15566696
178	0x3d6624de	0.056187503
179	0x3e510adb	0.20414297
180	0x3dc5355d	0.09629319
181	0xbd9b821f	-0.07593178
182	0xbe12f31b	-0.1435055
183	0x3b1c47a6	0.0023846417
184	0xbe0e336e	-0.13886806
185	0xbd7eddb8	-0.062223166
186	0x3c8870b5	0.016655305
187	0xbda5d8e3	-0.080980085
188	0xbc20c517	-0.009812615
189	0x3d2c3956	0.042046867
190	0xbbf7f5da	-0.0075671496
191	0xbd82f2b8	-0.06393951
192	0xbcb3613d	-0.021896953
193	0xbe81179d	-0.25213328
194	0x3df4135d	0.11917756
195	0xbd80d633	-0.06290855
196	0xbc2b6b20	-0.010462552
197	0x3e07e2da	0.13270131
198	0xbd9ba8f5	-0.07600585
199	0xbd1d2383	-0.038363945
200	0xbc2350a1	-0.009967954
201	0x3d85c8b5	0.065324225
202	0xbe1cde3b	-0.15319149
203	0xbbead880	-0.007166922
204	0xbb563630	-0.0032686107
205	0xbe87578d	-0.26433983
206	0xbd75121a	-0.059831716
207	0xbd273c9d	-0.04082929
208	0x3e3c0f16	0.1836513
209	0xbdbf6755	-0.09345881
210	0xbe3d0e0f	-0.18462394
211	0x3cff5cdb	0.031172207
212	0xbd96f541	-0.07370997
213	0xbdc30e28	-0.095241845
214	0x3cac2a67	0.021016313
215	0x3d3e34c7	0.04643705
216	0x3c8d041f	0.01721388
217	0xbcd966ab	-0.026538214
218	0x3d8628fa	0.065507844
219	0x3d4c120a	0.04982189
220	0xbd099a7b	-0.03359459
221	0x3dfa030a	0.12207611
222	0x3d087b9e	0.033321016
223	0xbc1eb14c	-0.009685826
224	0x3d6ca5f0	0.057775438
225	0x3ca5f162	0.020256702
226	0x3d09b2aa	0.033617653
227	0x3d35d08e	0.044388346
228	0x3dea5a1e	0.1144297
229	0x3d055c30	0.03255862
230	0x3da1387d	0.078721024
231	0x3dcfdbe2	0.10149361
232	0xbc3d5515	-0.01155593
233	0xbb8d77cc	-0.0043172594
234	0xbac9271f	-0.0015346742
235	0xbd14c37f	-0.036319252
236	0x3da93e5c	0.08263847
237	0xbe136b45	-0.14396389
238	0xbe2b1bc4	-0.1670981
239	0x3dfa9a5f	0.12236475
240	0x3c4867b6	0.012231758
241	0xbd46e5b1	-0.048558895
242	0x3be5f8e1	0.007018194
243	0xbcdbe455	-0.026842276
244	0x3d41de53	0.047331166
245	0x3c33a111	0.010963694
246	0xbe244215	-0.16040833
247	0xbd0c2d22	-0.03422273
248	0x3e3a4d1e	0.1819348
249	0xbd9d6cd5	-0.07686774
250	0xbd04334b	-0.03227548
251	0x3e010371	0.12598969
252	0xbdefe43b	-0.117134534
253	0xbde7ec34	-0.11324349
254	0xbdc7dee0	-0.09759307
255	0x3ea39b24	0.319543

bn2.weight f4 [64]
0	0x3d8f1161	0.06985737
1	0x3d99bceb	0.07506736
2	0x3d63959e	0.055562608
3	0x3d3a6af8	0.04551217
4	0x3dd0daa4	0.101979524
5	0x3d95e638	0.07319301
6	0x3e12f7b6	0.14352307
7	0x3def9e38	0.117001
8	0x3d5666e6	0.052344225
9	0x3d3564a1	0.04428542
10	0x3d6c14c1	0.05763698
11	0x3d60d0d8	0.05488667
12	0x3e0e4dee	0.13896915
13	0x3db83ea2	0.08996321
14	0x3d3079c6	0.043084882
15	0x3e17f526	0.1483961
16	0x3d2b05d6	0.041753612
17	0x3de54c42	0.11196186
18	0x3e29e2d9	0.16590442
19	0x3dfd0ead	0.12356315
20	0x3de97fa8	0.114013016
21	0x3da2fc18	0.07958239
22	0x3d5ef107	0.05442908
23	0x3dcde4da	0.100534156
24	0x3dd2ad29	0.10286934
25	0x3e02f511	0.12788798
26	0x3e1abdeb	0.1511151
27	0x3d759778	0.059958905
28	0x3db13ac1	0.086537845
29	0x3dd2903f	0.10281419
30	0x3dfad53b	0.12247702
31	0x3da68623	0.08131053
32	0x3df82602	0.121166244
33	0x3db4956c	0.088175625
34	0x3e448c8c	0.1919424
35	0x3dcb34e5	0.09922198
36	0x3de03a40	0.1094861
37	0x3d8fb53c	0.070169896
38	0x3e05c264	0.13062435
39	0x3dc1c69e	0.09461711
40	0x3d2b2297	0.041781034
41	0x3de4cc14	0.11171737
42	0x3ddf81c5	0.109134234
43	0x3db1f287	0.086888365
44	0x3e2f468d	0.17116757
45	0x3d4e85ec	0.050420687
46	0x3e09156f	0.13387083
47	0x3de67967	0.112536244
48	0x3d446d0a	0.04795555
49	0x3dcb9339	0.0994019
50	0x3ddcb608	0.10776907
51	0x3d87dc92	0.06633867
52	0x3db75d16	0.089533016
53	0x3d52edb7	0.051496234
54	0x3d849973	0.064745806
55	0x3dceba74	0.10094157
56	0x3d5ee9bf	0.054422136
57	0x3d543bbb	0.051814776
58	0x3d8f4812	0.06996168
59	0x3d89ecd8	0.067346275
60	0x3e0a5fa1	0.13513042
61	0x3e15b920	0.14621401
62	0x3e2fd6ad	0.17171736
63	0x3dd0c6e5	0.10194186

bn2.bias f4 [64]
0	0x3ac0c70b	0.0014707757
1	0x3ce44f66	0.027869891
2	0x3d8fbed8	0.070188224
3	0x3c4937c1	0.012281359
4	0xbb76395a	-0.0037570805
5	0x3c9e101a	0.019294787
6	0xbe188c3a	-0.14897242
7	0x3d11aa92	0.03556306
8	0xbc90aa46	-0.017659318
9	0x3c98f269	0.018670278
10	0x3d443548	0.047902375
11	0x3d467121	0.048447732
12	0x3be51dae	0.0069920635
13	0xbd1d0661	-0.03833616
14	0x3d216069	0.039398585
15	0xbdf53ce0	-0.119745016
16	0x3dfe0feb	0.1240538
17	0x3d154182	0.036439426
18	0xbe91385b	-0.28363308
19	0xbe86a25e	-0.2629575
20	0xbe4ebaa1	-0.20188381
21	0x3d0ac533	0.03387947
22	0xbca238e7	-0.019802524
23	0x3b012b2c	0.001970957
24	0x3d8e5052	0.06948914
25	0x3cf2fb36	0.029660802
26	0xbe382230	-0.17981791
27	0xbc1a5167	-0.009418822
28	0xbbcdcb95	-0.0062803724
29	0xb8f10b56	-0.00011493887
30	0xbe4c6c6d	-0.19963236
31	0x3c7e6e02	0.015529158
32	0xbd66abd8	-0.056316227
33	0x3ce3690b	0.02776005
34	0xbca5d8d5	-0.020244995
35	0xbdc5c6be	-0.09657048
36	0xbd17497e	-0.036935322
37	0xbd4510ba	-0.048111655
38	0xbdd5931a	-0.10428448
39	0x3d6102fb	0.054934483
40	0x3d85900e	0.06521617
41	0xbeabab4a	-0.3352912
42	0xbe1a65ee	-0.15077946
43	0x3d8b6594	0.06806484
44	0x3b90f0b5	0.0044232258
45	0x3de91e7b	0.11382767
46	0x3d04879c	0.03235589
47	0x3e8b23d2	0.27175766
48	0x3d5f6c65	0.054546732
49	0xbe1cc76d	-0.1531045
50	0xbdd409f2	-0.103534594
51	0x3d07e3d5	0.033176262
52	0xbdc3534e	-0.095373735
53	0x3d0b2043	0.033966314
54	0x3d99c63a	0.07508512
55	0x3bdc3540	0.006720215
56	0x3d058a7b	0.03260277
57	0x3cb55f4f	0.022140173
58	0x3d63faa8	0.055658966
59	0xbd61cc3d	-0.055126417
60	0xbe1ac42e	-0.15113899
61	0xbd2e0049	-0.04248074
62	0xbdbf4b21	-0.093405016
63	0x3a02ec68	0.0004994334

bn2.running_mean f4 [64]
0	0xbe6000bf	-0.21875285
1	0xbc3f23f7	-0.0116662895
2	0x3d0b999e	0.034082048
3	0x3e90787e	0.28216928
4	0xbcb26a0e	-0.021779086
5	0xbe9da793	-0.3079191
6	0x3ea81ede	0.3283605
7	0xbf043e07	-0.51657146
8	0xbd4ff69e	-0.0507723
9	0x3d987f83	0.07446196
10	0x3e1e5d14	0.15465194
11	0xbe51395c	-0.20432037
12	0x3c2eeec5	0.010677044
13	0x3e164570	0.14674926
14	0x3eff3c61	0.49850753
15	0xbdae1904	-0.08500865
16	0x3dbad1a3	0.09122016
17	0x3c312d9d	0.010814098
18	0x3dfb3f50	0.12267935
19	0x3e422588	0.1895963
20	0x3ddb68f7	0.1071338
21	0x3e4d05e7	0.20021783
22	0x3de1f8ee	0.11033808
23	0xbca4f9f6	-0.020138722
24	0xbea2ba20	-0.31782627
25	0xbe92aa93	-0.28645763
26	0xbe25985f	-0.16171406
27	0xbe7f03a1	-0.24903728
28	0xbd64f52a	-0.05589787
29	0x3e1d8ef1	0.15386559
30	0xbc006460	-0.007836431
31	0xbe2f6813	-0.17129545
32	0xbd310085	-0.043213386
33	0xbee77ee4	-0.45213997
34	0x3e1c9540	0.1529131
35	0xbdbf96b3	-0.093549155
36	0x3e8f8aa7	0.2803547
37	0x3e31c303	0.17359547
38	0xbe21da62	-0.15805963
39	0xbe0a5076	-0.13507256
40	0xbe1697b7	-0.14706312
41	0x3ea5c98a	0.32380325
42	0x3eb10853	0.34576663
43	0x3d0dc4d0	0.034611523
44	0xbe19b4fe	-0.1501045
45	0x3e35a48a	0.17738548
46	0xbeaa5d3d	-0.3327426
47	0xbeabd42b	-0.3356031
48	0x3deb6eef	0.11495768
49	0x3d643f13	0.055724215
50	0x3d439428	0.047748715
51	0x3d508533	0.05090828
52	0x3d92728d	0.07150755
53	0x3eb2afed	0.34899846
54	0x3d6f8b70	0.058482587
55	0x3d46ca4e	0.048532777
56	0x3dd2df4d	0.102964975
57	0x3e1e6f2b	0.15472095
58	0xbe9050f5	-0.28186765
59	0x3dbdd963	0.09269979
60	0x3e5513c6	0.20808324
61	0x3e9bf89b	0.30463108
62	0xbcbd31fc	-0.023095123
63	0xbdf78fd6	-0.120879814

bn2.running_var f4 [64]
0	0x3cd6e0f5	0.026230315
1	0x3c500b2f	0.012697979
2	0x3a24da4d	0.0006288633
3	0x3ba1ae08	0.004934076
4	0x3c158925	0.009126936
5	0x3a30a2e2	0.00067381386
6	0x3bcee1df	0.006313547
7	0x3d95f52c	0.073221534
8	0x3c16c780	0.009202838
9	0x3b108345	0.00220509
10	0x3c213252	0.009838657
11	0x3ac05989	0.0014675121
12	0x3d036339	0.032077048
13	0x3c810535	0.015749553
14	0x3a228232	0.000619921
15	0x3c5a751b	0.013333584
16	0x3a9c8b50	0.0011943374
17	0x3c17c11f	0.009262352
18	0x3da432d3	0.080175065
19	0x3d125029	0.035720978
20	0x3c4607b8	0.012086801
21	0x3c0a1c04	0.008429531
22	0x3c0c594f	0.008566215
23	0x3be94398	0.0071186535
24	0x3c505b4b	0.012717078
25	0x39d38ba6	0.00040349102
26	0x3db5259f	0.08845066
27	0x3b31cb05	0.0027129066
28	0x3c30830d	0.010773432
29	0x3c223e80	0.0099025965
30	0x3d6331cc	0.055467412
31	0x3bc99952	0.0061523104
32	0x3d701c64	0.058620825
33	0x3c56a2e7	0.013100362
34	0x3d9835d1	0.0743214
35	0x3d1c97c5	0.038230676
36	0x3c512242	0.012764515
37	0x3b98de99	0.0046652076
38	0x3d9b2b36	0.07576601
39	0x3cde68c1	0.02714956
40	0x3a28a1b2	0.0006432786
41	0x3b00d5c8	0.0019658674
42	0x3cd4168a	0.025889654
43	0x3d75fc9a	0.060055353
44	0x3d996c8a	0.07491405
45	0x3b3c7a54	0.0028759437
46	0x3d05b215	0.032640535
47	0x3d29b51e	0.041432492
48	0x3b35809c	0.0027695065
49	0x3d116e98	0.03550586
50	0x3bebea29	0.007199545
51	0x3bbbdf59	0.005733412
52	0x3b900294	0.0043948386
53	0x3bab222e	0.0052225804
54	0x3b7994eb	0.0038083147
55	0x3c0dab98	0.008646868
56	0x3b87192c	0.004122874
57	0x3b4fdca9	0.0031717217
58	0x3b2e6acb	0.0026613947
59	0x3be12e17	0.0068719494
60	0x3b9c3663	0.0047672256
61	0x3d2ae870	0.041725576
62	0x3dcc03fd	0.09961698
63	0x3c0f9cf3	0.008765447

conv3.weight f4 [64, 64, 3, 3]
0	0xbdd36740	-0.10322428
1	0xbd1a9fd9	-0.0377501
2	0x3d25dfff	0.040496822
3	0xbd3acddb	-0.045606475
4	0xbd09fd18	-0.033688635
5	0x3d513d77	0.051084008
6	0xbe4a997d	-0.19785114
7	0x3d2d100e	0.04225164
8	0x3dc6fa13	0.097156666
9	0xbc1bd051	-0.009510116
10	0xbd9be194	-0.07611385
11	0xbe7432e0	-0.23847532
12	0x3d71fd6d	0.059079576
13	0xbd872ce1	-0.06600357
14	0xbea50477	-0.3222997
15	0x3d248b5b	0.040171962
16	0xbdd5ed7e	-0.10445689
17	0xbeba6c41	-0.36410716
18	0x3a5c8b20	0.0008413065
19	0x3ca559ba	0.020184387
20	0xbc96b7c4	-0.018398173
21	0xbd0581e6	-0.032594584
22	0xbd1e4986	-0.038644336
23	0x3c45d4cc	0.0120746605
24	0x3d60f731	0.05492324
25	0x3daa98d7	0.08329933
26	0xbc29d3c2	-0.010365428
27	0x3d9e95c5	0.0774341
28	0xbdcb4045	-0.09924368
29	0x3ded68a0	0.11592221
30	0x3c95603f	0.01823437
31	0x3d59ab23	0.053141724
32	0x3d6f1f86	0.058379672
33	0x3e86122f	0.26185748
34	0x3d95599c	0.07292482
35	0x3e20741f	0.15669297
36	0xbd3fc881	-0.046822075
37	0xbd082dd6	-0.033246838
38	0xbd62617b	-0.055268746
39	0xbd2e4bb7	-0.042552676
40	0x3caa60ca	0.020798106
41	0xbd882f1a	-0.06649609
42	0x3d0ec7ea	0.03485862
43	0xbd975da3	-0.07390907
44	0xbd874e7a	-0.06606765
45	0x3e00644c	0.1253826
46	0x3d9b6f4c	0.075895876
47	0x3d1c3977	0.03814074
48	0xbc9193be	-0.017770644
49	0xbe3184a4	-0.17335755
50	0xbe3bd987	-0.18344699
51	0x3dfffef9	0.12499804
52	0x3d5bee72	0.053694196
53	0xbca6cbb0	-0.020360798
54	0x3cc3976e	0.023875918
55	0x3d727e07	0.05920222
56	0xbdaa686e	-0.083207
57	0x3db7590c	0.08952531
58	0xbd8218c9	-0.06352384
59	0xbdaaaf7f	-0.083342545
60	0xbb78f2c5	-0.0037986499
61	0xbe2abdc9	-0.1667396
62	0x3cde85ff	0.027163504
63	0xbdac73bb	-0.08420511
64	0xbd963737	-0.0733475
65	0x3cc48cdf	0.023992954
66	0xbd8bab03	-0.06819727
67	0xbe47584d	-0.19467278
68	0x3bd70d62	0.0065628747
69	0xb9eecbb1	-0.0004554666
70	0x3cd1f20c	0.025628112
71	0x3e7d9a4c	0.24765891
72	0xbce9ba1d	-0.028531129
73	0x3dca6d83	0.09884169
74	0xbe4da02f	-0.20080636
75	0xbe324799	-0.17410125
76	0x3e04aab8	0.12955749
77	0xbe1345c8	-0.14382088
78	0xbdffe472	-0.12494744
79	0x3e0b87d0	0.13626027
80	0xbe2b9f93	-0.16760091
81	0xbd4f6500	-0.05063343
82	0xbcf512bc	-0.02991616
83	0x3d52149c	0.051289186
84	0xbd173d86	-0.036923908
85	0x3e10625f	0.14100026
86	0x3dbb2f69	0.09139902
87	0x3b53a22a	0.0032292702
88	0x3d90de78	0.070736825
89	0x3d43cd67	0.04780331
90	0x3d4b34a1	0.049610738
91	0x3d99bced	0.07506738
92	0x3d593c62	0.0530361
93	0x3d5205f3	0.051275205
94	0xbd6e2522	-0.05814088
95	0x3da3cabf	0.07997655
96	0xbc65322f	-0.0139890155
97	0x3db2c0ef	0.087282054
98	0x3e04caf8	0.12968051
99	0xbe20afa9	-0.15692009
100	0x3b88e5f4	0.004177803
101	0xbd8fdf76	-0.07025044
102	0xbdcef59f	-0.10105442
103	0xbd4a7e12	-0.049436636
104	0x3cbfe84e	0.023426201
105	0xbd090ecb	-0.033461373
106	0xbe0ef576	-0.13960823
107	0xbc9ba598	-0.01899986
108	0x3d6512c0	0.055926085
109	0x3d129a17	0.035791483
110	0x3dbfd41a	0.09366627
111	0xbd62dc9f	-0.055386182
112	0xbdc6da46	-0.09709601
113	0x3cf9437b	0.030427685
114	0xbd09096e	-0.03345626
115	0xbc8a8647	-0.016909732
116	0x3adcca19	0.0016844898
117	0xbc1e90c5	-0.00967807
118	0xbd4ba843	-0.049721014
119	0xbda2d001	-0.0794983
120	0xbdb346f4	-0.087537676
121	0xbe1353d1	-0.14387442
122	0xba40588e	-0.00073374144
123	0xbdc8216c	-0.09772
124	0xbdc8d4ef	-0.09806239
125	0x3dab919c	0.08377382
126	0x3dd7113c	0.10501334
127	0x3c8cf4e4	0.017206617
128	0xbcacab3c	-0.021077745
129	0xbdcbee5a	-0.09957571
130	0x3db8d624	0.09025219
131	0xbd89e8ee	-0.06733881
132	0xbd128db6	-0.035779677
133	0x3ccf58cb	0.025310894
134	0x3cb92576	0.02260087
135	0x3cf49d4c	0.029860161
136	0x3d85ff7f	0.06542873
137	0xbd7c9daf	-0.061673816
138	0x3cf296d4	0.029612936
139	0x3d9b5e28	0.07586318
140	0xbda20ab4	-0.07912198
141	0x3b98950b	0.004656439
142	0x3dd06c35	0.10176889
143	0x3d22958f	0.03969341
144	0x3cee5c89	0.029096859
145	0xbcc2da40	-0.02378571
146	0x3d6e7634	0.058218196
147	0xbdf60a31	-0.120136626
148	0x3d3c93f1	0.046039525
149	0x3c72ba96	0.014814993
150	0x3d7c6b48	0.06162575
151	0xbe384ef3	-0.17998867
152	0xbbf7df09	-0.0075644297
153	0x3e0e35e3	0.13887744
154	0xbd6bde61	-0.057585124
155	0x3cdcc61c	0.026949935
156	0xbd06282e	-0.032753162
157	0x3da2a79c	0.07942125
158	0xbdfeb8ff	-0.12437629
159	0xbd222930	-0.03959006
160	0xbda1313a	-0.07870717
161	0x3dc705f5	0.09717933
162	0x3d13eaf9	0.03611276
163	0xbc0d0cec	-0.008609038
164	0x3d7f8e15	0.06239136
165	0xbd692ec1	-0.056929354
166	0xbd217853	-0.03942139
167	0x3d9cd9bd	0.07658718
168	0xbda1e994	-0.079058796
169	0xbdb9b851	-0.09068359
170	0x3d4954a2	0.049152978
171	0xbb26fc22	-0.0025479873
172	0xbda7d943	-0.08195736
173	0xbcfc5860	-0.03080386
174	0x3d188759	0.037238453
175	0x3d1b9431	0.037983123
176	0x3ea3c9a6	0.31989783
177	0xbcc605d9	-0.02417271
178	0x3c522814	0.012826938
179	0x3e05437f	0.13014029
180	0x3cd0bb79	0.025480019
181	0x3d888fb4	0.06668034
182	0x3d33e8dd	0.043923248
183	0xbd115c63	-0.035488497
184	0xbe4966c1	-0.19668104
185	0xbd48ad7a	-0.048993565
186	0xbd05f845	-0.03270747
187	0xbd8a6403	-0.06757357
188	0xbd4ddf73	-0.050261926
189	0xbcd674d3	-0.026178753
190	0xbdb92b7f	-0.09041499
191	0xbd26a765	-0.040686984
192	0xbe3a04aa	-0.18165842
193	0xbdfb64ec	-0.12275109
194	0x3ccac9e1	0.024754466
195	0x3c81cb5b	0.015844038
196	0xbd4870c4	-0.048935667
197	0x3d1617c7	0.03664377
198	0xbdc50a15	-0.096210636
199	0xbce3168e	-0.027720716
200	0xbd4abf52	-0.049498864
201	0x3d513ee0	0.051085353
202	0x3d5414c1	0.051777605
203	0x3be8a97d	0.0071002827
204	0xbe0c248b	-0.13685815
205	0x3db9f26a	0.0907944
206	0x3c485509	0.012227305
207	0xbcffc5fe	-0.03122234
208	0xbbb39df3	-0.0054814755
209	0xbc2b2763	-0.010446402
210	0x3c50111f	0.0126993945
211	0xbd7feca4	-0.062481537
212	0x3c7223b8	0.014779024
213	0xbe186180	-0.14880943
214	0xbd3c23a8	-0.045932442
215	0xbd9575aa	-0.07297833
216	0xbdb3e727	-0.08784323
217	0xbdb1fad1	-0.086904176
218	0xbdecaa34	-0.11555901
219	0xbd961c1a	-0.07329579
220	0x3b9a34c8	0.004705999
221	0xbd9c50db	-0.076326095
222	0x3c6dd202	0.014515402
223	0x3da0af5f	0.078459494
224	0x3d717cb0	0.058956802
225	0xbba0dcef	-0.00490915
226	0xbd0235be	-0.031789534
227	0x3c0a0df1	0.008426175
228	0x3cc677b5	0.024227003
229	0x3d513056	0.051071487
230	0x3cb07ea2	0.021544758
231	0x3c3532fa	0.011059517
232	0x3d73f1f4	0.059556916
233	0x3dbc00e3	0.09179857
234	0x3d6f6277	0.058443513
235	0x3d88839e	0.06665729
236	0x3df8a453	0.12140717
237	0x3dd6e88b	0.10493573
238	0x3e398bf6	0.18119797
239	0x3e4bf714	0.19918472
240	0x3d7ca636	0.06168195
241	0x3d9b7bf2	0.07592
242	0x3e0dd9f0	0.13852668
243	0xbd79beec	-0.060973093
244	0x3e0b7c07	0.13621531
245	0xbcdb5d65	-0.026777932
246	0x3d427f9d	0.047484983
247	0x3d81d9e0	0.063403845
248	0x3d9e58fd	0.07731817
249	0xbde14d6f	-0.110010974
250	0xbddfd6e0	-0.10929656
251	0xbdd0d8d2	-0.10197605
252	0xbd2b744b	-0.041858952
253	0xbdae08b2	-0.08497752
254	0xbdb71cae	-0.08941017
255	0xbcef706c	-0.029228412

bn3.weight f4 [64]
0	0x3d6a0d15	0.057141382
1	0x3dd91900	0.106004715
2	0x3ddcf222	0.10788371
3	0x3ded6ef8	0.11593431
4	0x3dc1db28	0.09465629
5	0x3da1e511	0.07905019
6	0x3e5f3d97	0.21800838
7	0x3d424439	0.047428343
8	0x3dd1c5f5	0.102428354
9	0x3dc5bb16	0.096548244
10	0x3d592d90	0.053021967
11	0x3d7bebcf	0.06150418
12	0x3d8a4078	0.06750578
13	0x3dfd7cb2	0.12377299
14	0x3e177d4a	0.14793888
15	0x3e2ede7f	0.17077063
16	0x3dde3784	0.108504325
17	0x3e00e00c	0.12585467
18	0x3d94f6b8	0.0727362
19	0x3e4b4393	0.19849996
20	0x3da7a133	0.08185043
21	0x3d999b28	0.07500297
22	0x3e03272d	0.12807913
23	0x3e5fc4da	0.21852437
24	0x3d6e033e	0.05810856
25	0x3df081e1	0.117435224
26	0x3e654b1a	0.2239193
27	0x3de5375f	0.11192202
28	0x3e24676b	0.16055076
29	0x3d732723	0.059363496
30	0x3da53954	0.08067575
31	0x3e21704f	0.15765499
32	0x3d39d198	0.0453659
33	0x3db68e8a	0.08913906
34	0x3e1e096b	0.1543328
35	0x3d5af975	0.053460557
36	0x3d644a60	0.055734992
37	0x3e5384e7	0.20656167
38	0x3dffd524	0.12491825
39	0x3de191b3	0.11014118
40	0x3da0b07f	0.07846164
41	0x3d517617	0.05113801
42	0x3e04b309	0.12958921
43	0x3e5d3ac0	0.21604443
44	0x3da6f6fc	0.08152577
45	0x3e2852a4	0.16437775
46	0x3e5500cc	0.20801085
47	0x3dfe9e70	0.12432563
48	0x3ddcfdbc	0.107905835
49	0x3d2bf75e	0.041983955
50	0x3dbea2f7	0.09308427
51	0x3e080f62	0.13287118
52	0x3d947834	0.072494894
53	0x3da47377	0.08029836
54	0x3d88da1a	0.066822246
55	0x3e1187a7	0.14211904
56	0x3d805d2b	0.062677704
57	0x3e6b3fa2	0.22973493
58	0x3d45da51	0.048303906
59	0x3dbce212	0.09222807
60	0x3d4425e3	0.047887694
61	0x3e1c0cc5	0.15239246
62	0x3e42f568	0.19038928
63	0x3e030bd3	0.1279748

bn3.bias f4 [64]
0	0x3cb0b4fa	0.021570671
1	0x3d78cb4d	0.060740758
2	0xbd9ce05d	-0.076599814
3	0x3d287771	0.041129533
4	0xbcfdd511	-0.030985387
5	0x3d8f13a6	0.069861695
6	0xbd9dc654	-0.07703844
7	0x3df8d619	0.12150211
8	0x3c946548	0.0181147
9	0xbd05e1f8	-0.032686204
10	0x3e1d5032	0.15362623
11	0x3e21a18e	0.15784284
12	0x3d525cb7	0.05135795
13	0x3d04a64f	0.032385167
14	0xbd8964a8	-0.06708652
15	0xbe2846c3	-0.16433243
16	0xbd8edd19	-0.06975765
17	0x3d2fe500	0.042943
18	0x3d6a802b	0.057251137
19	0x3d59816f	0.053101953
20	0x3cc92e5b	0.024558237
21	0x3d077f7b	0.03308056
22	0x3b32cc70	0.0027282499
23	0xbd36ec5f	-0.044659015
24	0x3e080259	0.13282146
25	0xbed3de7b	-0.41380677
26	0xbed1f2d7	-0.41005585
27	0xbdcb41e9	-0.09924681
28	0xbd9d9e6b	-0.076962315
29	0x3d7433e5	0.059619803
30	0x3cc08528	0.023500994
31	0xbdcbf6e7	-0.09959202
32	0x3dce32e3	0.100682996
33	0x3c005ec6	0.007835096
34	0xbe35ee9c	-0.17766804
35	0x3d40d923	0.047082078
36	0x3d62717c	0.05528401
37	0x3d31b7cb	0.04338817
38	0x3d4f355a	0.05058799
39	0x3ddc1e36	0.1074795
40	0xb7c04e14	-2.2924542e-05
41	0x3da45e85	0.08025841
42	0x3b640333	0.0034791946
43	0xbe953597	-0.29142448
44	0x3c61c62e	0.01378016
45	0xbda92b8b	-0.08260258
46	0xbcc608e3	-0.02417416
47	0xba051509	-0.0005076682
48	0xbe979b3f	-0.2961063
49	0x3df5806e	0.11987387
50	0xbd8ad387	-0.06778627
51	0xbdc733fb	-0.09726711
52	0x3bde91d3	0.006792286
53	0x3d827667	0.0637024
54	0x3d1dd474	0.03853269
55	0xbe393ab5	-0.18088801
56	0x3dfaaa62	0.12239529
57	0xbd40f226	-0.04710593
58	0x3d6a2cb4	0.05717154
59	0x3d9812bf	0.074254505
60	0x3d9a31c6	0.07529025
61	0xbe35ebee	-0.17765781
62	0x3d4871b9	0.04893658
63	0xbdebc06f	-0.11511313

bn3.running_mean f4 [64]
0	0xbe4cbecd	-0.1999466
1	0xbce85925	-0.02836282
2	0xbcd3aa0b	-0.025837919
3	0xbe0bb592	-0.13643482
4	0xbe31d9ad	-0.17368193
5	0xbed144bc	-0.40872753
6	0xbcea6c19	-0.028615998
7	0x3dad6347	0.08466201
8	0xbe15b262	-0.14618829
9	0xbdd8218c	-0.105532736
10	0xbdbad4b5	-0.09122602
11	0xbe06319f	-0.13104866
12	0xbdc8c016	-0.098022625
13	0x3d7aed60	0.061261535
14	0x3d90bb21	0.07066942
15	0xbe6b022f	-0.22950052
16	0xbce427fd	-0.0278511
17	0xbcf07b29	-0.029355602
18	0x3e3903e1	0.18067886
19	0x3e001a7b	0.12510101
20	0xbdb9655e	-0.090525374
21	0xbc817809	-0.015804308
22	0xbc12ac8c	-0.008952271
23	0x3da1a16e	0.078921184
24	0x3d7a1cb9	0.06106255
25	0xbe218400	-0.1577301
26	0xbd9d8ada	-0.076924995
27	0xbea4550a	-0.3209613
28	0x3e4e5192	0.20148304
29	0x3e845ccd	0.2585205
30	0xbc638b5e	-0.013888208
31	0x3d93681c	0.07197592
32	0x3d08fdc9	0.033445153
33	0xbb33f8fc	-0.0027461639
34	0xbe59b7e1	-0.2126155
35	0xbe687464	-0.2270065
36	0xbdd9ceb3	-0.10635128
37	0x3d60da8b	0.05489592
38	0x3e9e8820	0.3096323
39	0x3d0b5fea	0.034027018
40	0xbdc4dbbd	-0.09612224
41	0xbe20b0c0	-0.15692425
42	0xbb619ef4	-0.003442702
43	0xbe4230e3	-0.18963961
44	0xbc87fa0b	-0.016598722
45	0xbd131a76	-0.035913907
46	0xbdf12f73	-0.11776628
47	0xbc81fdf7	-0.01586817
48	0xbe33bb37	-0.17551886
49	0xbe3a3578	-0.18184459
50	0xbcdaface	-0.026730921
51	0xbe0c284b	-0.13687246
52	0xbe62c318	-0.22144735
53	0x3ea62e05	0.32456985
54	0xbdc53891	-0.0962993
55	0xbe5bd771	-0.21468903
56	0xbdee35b9	-0.116313405
57	0xbc19b0de	-0.009380547
58	0xbe5629c1	-0.20914365
59	0xbe1c3024	-0.15252739
60	0xbe26ca8f	-0.16288207
61	0xbeb461cd	-0.35230866
62	0xbd2084b9	-0.039189074
63	0xbe93ac68	-0.28842473

bn3.running_var f4 [64]
0	0x3c41436a	0.011795858
1	0x3d41df8f	0.047332343
2	0x3ce0f2c6	0.027459513
3	0x3de814ff	0.1133213
4	0x3cd09f73	0.025466656
5	0x3c776d5e	0.015101759
6	0x3e18bf36	0.14916691
7	0x3c182b29	0.009287634
8	0x3cd8d1e9	0.02646728
9	0x3d5a7483	0.05333377
10	0x3c194bcf	0.009356453
11	0x3c7ae381	0.01531303
12	0x3cb6715c	0.02227085
13	0x3db2bcca	0.08727415
14	0x3e184077	0.14868341
15	0x3cf2cb61	0.029637994
16	0x3d17e28e	0.037081294
17	0x3d853c96	0.065056965
18	0x3ca50d39	0.020147907
19	0x3e68766f	0.22701429
20	0x3c87c7c9	0.016574757
21	0x3c7a0260	0.015259355
22	0x3d0fb1ab	0.035081547
23	0x3dd05bff	0.10173797
24	0x3c4b2dd2	0.012401061
25	0x3b07c681	0.0020717683
26	0x3ba7de81	0.00512296
27	0x3d073319	0.033007715
28	0x3df3517b	0.118807755
29	0x3cf6cddc	0.030127458
30	0x3c7fb385	0.015606766
31	0x3de903a5	0.11377648
32	0x3c280ba3	0.010256681
33	0x3cc74807	0.024326338
34	0x3caa6d25	0.020803997
35	0x3c4618ab	0.012090842
36	0x3c8e7f5e	0.017394718
37	0x3db7124e	0.08939038
38	0x3d52297e	0.0513091
39	0x3cebe960	0.028797805
40	0x3c64a993	0.013956445
41	0x3c1a46f3	0.00941633
42	0x3d100c8d	0.03516822
43	0x3c794cfa	0.015216107
44	0x3cb28eeb	0.021796664
45	0x3dbd0df2	0.092311755
46	0x3e1568b1	0.14590718
47	0x3d491c2f	0.049099144
48	0x3d400a35	0.046884734
49	0x3bd87605	0.006605866
50	0x3cf8470d	0.030307317
51	0x3d1f8e8a	0.038954295
52	0x3c9b8e2b	0.01898869
53	0x3d7b664c	0.061376855
54	0x3c8354b9	0.01603161
55	0x3cd5ec40	0.02611363
56	0x3c496ea1	0.012294442
57	0x3e6a361f	0.22872208
58	0x3be5e123	0.007015364
59	0x3cdf5cea	0.027265985
60	0x3be29d58	0.0069157295
61	0x3c9a228f	0.018815307
62	0x3df6985f	0.12040781
63	0x3c58f64b	0.013242315

conv4.weight f4 [64, 64, 3, 3]
0	0x3c4c5d4e	0.012473417
1	0xbdedba22	-0.11607768
2	0x3cdde5ed	0.027087176
3	0x3e2f76ef	0.17135213
4	0xbdcc8c3f	-0.09987687
5	0x3c8b8adb	0.017033985
6	0x3ccac556	0.0247523
7	0x3c4bff65	0.0124510275
8	0xbc2074bb	-0.009793456
9	0x3d319886	0.04335835
10	0x3bdeb140	0.006796032
11	0xbc3bf14f	-0.011471107
12	0x3e3d09b1	0.18460728
13	0x3ca72bb1	0.020406576
14	0xbd4a632c	-0.049410984
15	0xbc2cc70f	-0.010545506
16	0x3c5a87e9	0.013338068
17	0xbbd7a0d3	-0.006580451
18	0x3df36cb7	0.1188597
19	0xbd9eefbc	-0.077605695
20	0xbceed36c	-0.029153548
21	0x3e0b2475	0.13588126
22	0xbba7ea86	-0.005124393
23	0xbc288e74	-0.01028787
24	0xbbebe162	-0.0071984986
25	0x3c9a79d7	0.018856926
26	0x3cb20cd3	0.02173463
27	0x3dedb0e2	0.11606003
28	0xbd92fb1b	-0.07176801
29	0x3b0685ae	0.0020526457
30	0x3d6b1d62	0.05740107
31	0xbdacff09	-0.084470816
32	0xbc2d4201	-0.010574819
33	0x3ceed0a7	0.029152228
34	0x3cd3726d	0.025811398
35	0x3c667c57	0.014067731
36	0x3d492733	0.04910965
37	0xbe196aef	-0.14982198
38	0x3ca1baf7	0.019742472
39	0xbdd54a5d	-0.10414574
40	0xbd53f7bf	-0.05174994
41	0x3c957401	0.018243792
42	0xbbe0622c	-0.0068476405
43	0xbd7e3358	-0.062060684
44	0x3ab435a6	0.0013748899
45	0xbcc0db24	-0.023541994
46	0xbd4c2635	-0.049841125
47	0xbcd7eb6c	-0.026357375
48	0x3dd37e13	0.10326781
49	0x3e30d865	0.17270048
50	0x3cb42e92	0.021994863
51	0x3c81efac	0.015861355
52	0x3b27d4bb	0.0025608975
53	0xbc6e8523	-0.014558109
54	0x3cb290b9	0.021797525
55	0x3ba55b1e	0.0050462624
56	0xbc2c8d77	-0.010531775
57	0xbd68ce7d	-0.056837548
58	0xbeb93077	-0.36169788
59	0xbdefc696	-0.11707799
60	0x3c0af2b4	0.0084807165
61	0x3c48701e	0.012233762
62	0x3b924f6f	0.0044650356
63	0x3d455ccc	0.0481842
64	0x3d9437e3	0.07237222
65	0x3b353728	0.0027651284
66	0xbe2ea4ad	-0.17055006
67	0xbcf00e1e	-0.029303607
68	0x3d7f89be	0.06238722
69	0xbc33f9f5	-0.010984887
70	0xbb53dbb8	-0.0032327008
71	0xbc2688e9	-0.010164478
72	0x3df9a23f	0.12189149
73	0x3cce6229	0.02519329
74	0xbc23f1ca	-0.0100063775
75	0xbdbb5479	-0.09146971
76	0xbd8ad36f	-0.06778609
77	0xbbf0bc5f	-0.0073466743
78	0x3beac430	0.0071645007
79	0x3d736596	0.05942305
80	0xbb8a0e59	-0.004213136
81	0x3dab69e3	0.08369806
82	0xba31de6a	-0.00067851564
83	0xbc31f109	-0.01086069
84	0x3da7b49f	0.081887476
85	0xbe0f3df7	-0.13988481
86	0xbc6be923	-0.014398846
87	0x3c9cccb5	0.01914058
88	0x3d2805c5	0.041021127
89	0xbc6c062d	-0.014405769
90	0x3e43bbeb	0.19114654
91	0x3d81aff5	0.06332389
92	0xbc7f49a5	-0.015581523
93	0x3dd8602b	0.105652176
94	0x3cad034c	0.021119736
95	0x3c008669	0.007844546
96	0xbce2be3a	-0.027678598
97	0xbc4a480d	-0.01234628
98	0xbcd5ec54	-0.026113667
99	0x3d9722ed	0.073797084
100	0x3b11bb78	0.0022236984
101	0xbb555d11	-0.0032556693
102	0xbcefdf64	-0.029281326
103	0xbc5aa1a3	-0.013344201
104	0xbcabb4b6	-0.020960193
105	0xbc2f0a30	-0.010683581
106	0xbc96e446	-0.018419396
107	0x3cc1c2c2	0.023652438
108	0xbe09de31	-0.13463666
109	0x3daf685c	0.08564827
110	0xbb350571	-0.0027621652
111	0x3d60533f	0.05476689
112	0xbcf987ce	-0.030460265
113	0xbd61c618	-0.055120558
114	0x3cb70e8f	0.02234581
115	0x3cc86dc6	0.024466407
116	0x3bfbfee2	0.0076902965
117	0xbd4f3e2a	-0.050596394
118	0xbd273fc5	-0.0408323
119	0xbbbcb00c	-0.005758291
120	0xbd6541da	-0.055971004
121	0xbd46642b	-0.04843537
122	0x3cdbb16a	0.026817996
123	0xbc066f2f	-0.008205219
124	0xba870a0f	-0.001030268
125	0xbd0a10d8	-0.03370747
126	0xbe1bd8a6	-0.15219364
127	0xbe228ce8	-0.15874064
128	0xbba1996e	-0.0049316203
129	0xbe0ae199	-0.13562621
130	0xbd36d38f	-0.04463535
131	0xbd1258ac	-0.035729095
132	0x3bbb330a	0.0057128714
133	0xbd06c125	-0.03289904
134	0xbcb4c6b3	-0.022067403
135	0x3a93c7e7	0.0011274786
136	0x3d1d3ec5	0.03838994
137	0x3c19bdb2	0.009383606
138	0x3e38fe63	0.18065791
139	0x3e507e55	0.20360692
140	0xbc191eb7	-0.009345702
141	0x3c86ea4f	0.016469149
142	0x3c97d04b	0.018531939
143	0x3c273206	0.010204798
144	0xbddd64df	-0.10810255
145	0xbd626478	-0.055271596
146	0x3c5cfada	0.013487542
147	0xbd72e66c	-0.05930178
148	0xbe55b081	-0.20868112
149	0xbdd52903	-0.10408213
150	0x3a846079	0.0010099552
151	0x3bfaa74f	0.0076493393
152	0x3c91d293	0.017800605
153	0xbd6501ec	-0.055910036
154	0xbe36ea2b	-0.17862765
155	0x3d86523f	0.06558656
156	0xbd8f0fd6	-0.06985442
157	0xbd488cb3	-0.048962306
158	0x3d02bed9	0.031920288
159	0x3c965277	0.01834987
160	0x3c4e5063	0.012592408
161	0x3d0842c5	0.0332668
162	0x3dd66705	0.10468868
163	0xbdb63b42	-0.08898021
164	0x3bf3cf59	0.0074404893
165	0xbdc58c8d	-0.096459486
166	0x3d772611	0.060339037
167	0x3d800d28	0.06252509
168	0xbd186b9c	-0.037212
169	0x3c6dd53c	0.014516171
170	0x3c703b8a	0.014662633
171	0xbca0a28e	-0.019608762
172	0xbca0bd13	-0.019621408
173	0x3c88e02d	0.016708458
174	0xbdb967e8	-0.09053022
175	0xbed6f3b9	-0.4198282
176	0xbd2b7b11	-0.041865412
177	0xbcdd131b	-0.02698665
178	0xbd1c5a43	-0.038172018
179	0xbcb50aef	-0.02209994
180	0x3c1a226c	0.009407621
181	0x3d6c23c8	0.05765131
182	0x3c9b6685	0.018969784
183	0xbe442dab	-0.19158046
184	0xbd7db126	-0.06193652
185	0x3dd10c9c	0.10207483
186	0x3bde97d4	0.0067930017
187	0xbbc67398	-0.0060562603
188	0x3cda10c0	0.026619315
189	0x3c999763	0.018748945
190	0xbdf8e746	-0.12153487
191	0xbc20989a	-0.009802008
192	0x3c3fcea3	0.011706981
193	0x3b577a8e	0.0032879445
194	0x3ca8b98c	0.020596288
195	0x3cbf58fe	0.023357864
196	0xbba3eb49	-0.0050024134
197	0x3c609845	0.013708179
198	0x3cb07a7f	0.021542786
199	0x3de1fce1	0.11034561
200	0x3d3df56c	0.04637663
201	0x3e01264f	0.1261227
202	0xbe16cc96	-0.14726481
203	0x3d218478	0.039432973
204	0xbc50e85b	-0.01275071
205	0x3ccfeff4	0.025382973
206	0x3c8ef878	0.017452464
207	0xbeb5ea98	-0.35530543
208	0xbde4c221	-0.1116984
209	0x3c833170	0.016014785
210	0x3b65854b	0.0035022076
211	0xbbd40396	-0.006470154
212	0xbb846081	-0.0040398245
213	0x3c2a0820	0.010377914
214	0x3ce1005b	0.02746599
215	0x3cbdba7c	0.023160212
216	0xbd912a0f	-0.070881
217	0x3de53cc6	0.11193232
218	0xbc7670c4	-0.015041534
219	0xbd8dc91b	-0.069231234
220	0xbe2b1e2a	-0.16710725
221	0x3d119361	0.035540942
222	0x3cfcd019	0.030860947
223	0x3bc765da	0.0060851397
224	0xbb9e6a2f	-0.0048344354
225	0xbc3bc3f7	-0.011460296
226	0xbca23bef	-0.01980397
227	0x3c4bca44	0.012438361
228	0xbc263bf8	-0.010146134
229	0x3c5fc5f4	0.013658036
230	0xbd0874a6	-0.03331437
231	0xbd0028ca	-0.0312889
232	0x3c19dc7d	0.009390947
233	0x3b4ff3f3	0.0031731098
234	0x3b87c08d	0.004142827
235	0x3d18b95f	0.03728616
236	0xbb86e9db	-0.004117233
237	0x3bec9306	0.007219675
238	0x3c84c7e0	0.01620859
239	0xbcc1c1dc	-0.02365201
240	0x3a3842a4	0.0007028973
241	0xbcb625d1	-0.02223483
242	0xbcbf0955	-0.02331988
243	0xbdfff3d8	-0.124976814
244	0xbd09b13b	-0.033616286
245	0xbc88fde8	-0.016722634
246	0xbbfb055d	-0.0076605515
247	0xbd3374b0	-0.043812454
248	0x3b7e7ea3	0.0038832806
249	0xbb403e48	-0.0029333998
250	0x3cfd6fe5	0.030937145
251	0xbd0528eb	-0.032509726
252	0xbe20f7c5	-0.15719517
253	0xbe22dd57	-0.15904747
254	0x3a4f08e2	0.0007897747
255	0xbe533a9a	-0.20627823

bn4.weight f4 [64]
0	0x3eb7e724	0.35918534
1	0x3dc40547	0.09571319
2	0x3e723b95	0.23655541
3	0x3d88053a	0.06641622
4	0x3e37e5c4	0.17958742
5	0x3d88c5ae	0.066783294
6	0x3e6579d8	0.22409761
7	0x3e0b962d	0.13631506
8	0x3e6eceda	0.23321095
9	0x3d8a50b0	0.06753671
10	0x3f105c28	0.5639062
11	0x3dd8ae02	0.10580064
12	0x3e2c868a	0.16848198
13	0x3dc75b43	0.09734204
14	0x3d1f8517	0.038945284
15	0x3cf0db2c	0.029401384
16	0x3d2e52e4	0.04255952
17	0x3e3eaecd	0.18621369
18	0x3d8da195	0.06915585
19	0x3dfe43b7	0.12415259
20	0x3e6287f1	0.2212217
21	0x3e85b96f	0.26118037
22	0x3d237a5a	0.039911605
23	0x3e205c72	0.15660265
24	0x3dd7790d	0.105211355
25	0x3dc31034	0.09524575
26	0x3e1bab5c	0.15202087
27	0x3e0010cb	0.12506406
28	0x3dec4de9	0.11538298
29	0x3d79bc63	0.060970675
30	0x3d05c981	0.032662872
31	0x3d1e28f5	0.03861328
32	0x3df144d2	0.117807046
33	0x3e64e05c	0.22351211
34	0x3e227e4c	0.15868491
35	0x3d5a35c4	0.05327393
36	0x3dbe9f8b	0.09307774
37	0x3e0e1212	0.13874081
38	0x3d7aa8f9	0.0611963
39	0x3dbb7fd1	0.091552384
40	0x3e80eaab	0.25179037
41	0x3eb61bd6	0.35568112
42	0x3d6b1796	0.05739554
43	0x3d7519ae	0.059838943
44	0x3d661974	0.056176618
45	0x3e11553b	0.14192669
46	0x3cfaf771	0.030635567
47	0x3e4d2e29	0.2003714
48	0x3ebc35b2	0.36759716
49	0x3dcdc214	0.10046783
50	0x3dd92840	0.1060338
51	0x3daf74fd	0.085672356
52	0x3e8a3687	0.26994726
53	0x3d9203d7	0.07129639
54	0x3dd0a800	0.101882935
55	0x3e43378b	0.19064157
56	0x3e146b12	0.14493969
57	0x3e156fb2	0.1459339
58	0x3d7070ab	0.0587012
59	0x3cf8c33e	0.030366536
60	0x3e689216	0.22711977
61	0x3d49fa28	0.049310833
62	0x3d3ac8f4	0.0456018
63	0x3d32ba01	0.04363442

bn4.bias f4 [64]
0	0x3b8a81c7	0.0042268964
1	0x3d7528b7	0.05985328
2	0xbdf8efb4	-0.12155095
3	0xbd764c92	-0.060131617
4	0xbde4842e	-0.11158024
5	0x3e5ea27f	0.21741675
6	0xbd768aa4	-0.06019081
7	0xbce3ba78	-0.027798876
8	0xbc7d7732	-0.015470313
9	0xbee4f366	-0.44716948
10	0xbd8a963d	-0.06766937
11	0xbe0eb2e0	-0.13935423
12	0xbba25a68	-0.004954625
13	0x3d1cba7a	0.038263775
14	0x3d03470d	0.03205018
15	0x3c957749	0.018245356
16	0xbce368bc	-0.027759902
17	0xbd14718a	-0.03624109
18	0xbd478dad	-0.048719097
19	0xbdefc393	-0.11707225
20	0xbb1b3be8	-0.002368683
21	0x3c134ff2	0.008991228
22	0x3c9c2389	0.019059913
23	0xbe0e7800	-0.13912964
24	0xbd07536f	-0.033038553
25	0xbdc82de3	-0.09774377
26	0xbdd38a97	-0.10329168
27	0xbd9a0ce3	-0.07521989
28	0xbdf5d3d9	-0.12003297
29	0xbda5da62	-0.08098294
30	0x3c8a7fa6	0.01690657
31	0x3d927599	0.07151336
32	0xbca3ca4f	-0.01999393
33	0xbce5cc67	-0.028051568
34	0xbcbcd750	-0.023051888
35	0x3d9d887b	0.07692047
36	0xbd633aaa	-0.05547587
37	0xbda123f6	-0.07868187
38	0xbce7eb73	-0.028310513
39	0xbdba7843	-0.09104969
40	0xbb9f06aa	-0.0048530893
41	0xbd1c21f2	-0.03811831
42	0xbbf4ca83	-0.0074704303
43	0xbbb13e62	-0.005409048
44	0xbc978134	-0.018494226
45	0x39883b02	0.00025983906
46	0x3d8eec15	0.06978623
47	0xbd467328	-0.048449665
48	0x3cfd24db	0.030901363
49	0xbd933e55	-0.07189623
50	0xbd190ed8	-0.03736767
51	0x3dae0a8f	0.08498108
52	0xbb1da239	-0.002405299
53	0xbc9aae45	-0.018881926
54	0x3c3972e0	0.011318892
55	0x3c2783f6	0.010224333
56	0xbd78b6ff	-0.060721394
57	0xbe13363f	-0.14376162
58	0x3c90af43	0.017661696
59	0x3d998435	0.074959196
60	0x3bb36676	0.005474861
61	0x3d88f491	0.06687272
62	0x3ca6a049	0.020340102
63	0xbb7cc433	-0.0038569092

bn4.running_mean f4 [64]
0	0xbd0381d1	-0.032106224
1	0xbe1c8ac3	-0.15287308
2	0xbe08e04d	-0.13366814
3	0xbf0c6a3b	-0.54849595
4	0x3d6658d0	0.056237042
5	0xbe454ab7	-0.19266783
6	0x3ec9d5af	0.3942084
7	0x3e65f512	0.22456768
8	0x3e52016f	0.2050836
9	0xbdaf0348	-0.08545548
10	0x3de74c96	0.112939045
11	0xbea297fb	-0.31756577
12	0x3e39d8d9	0.18149127
13	0xbe693dcf	-0.22777484
14	0xbe31d1d8	-0.17365205
15	0x3c970883	0.018436676
16	0xbefd31cf	-0.49452063
17	0xbe5ce160	-0.21570349
18	0x3dfb108e	0.12259017
19	0x3e67d868	0.22641146
20	0x3e5a9461	0.21345665
21	0x3e33d410	0.17561364
22	0x3dfb127e	0.122593865
23	0xbe8cf4b5	-0.27530447
24	0xbe5d7c85	-0.21629532
25	0x3dc96021	0.09832788
26	0xbe637152	-0.22211197
27	0x3e5ad26f	0.21369337
28	0x3e10e840	0.14151096
29	0xbd1a862a	-0.037725605
30	0x3cb81e53	0.022475397
31	0xbe203d6f	-0.15648435
32	0xbe8ba2d3	-0.27272663
33	0x3e55ea02	0.20890048
34	0xbcba2f27	-0.022727562
35	0x3de25111	0.110506184
36	0xbdfac3df	-0.12244391
37	0xbe8a5b6d	-0.27022877
38	0x3e02b087	0.12762652
39	0xbe13e027	-0.14440976
40	0xbd4e983f	-0.050438162
41	0x3d910698	0.07081336
42	0xbe1c963c	-0.15291685
43	0xbd7940fa	-0.060852982
44	0xbeb4d375	-0.3531758
45	0xbdfc06d5	-0.123059906
46	0xbda8d417	-0.08243578
47	0xbeeb890c	-0.46002996
48	0xbe3cd007	-0.18438731
49	0xbe5ecbd7	-0.21757446
50	0x3d1c4301	0.038149837
51	0x3eb4ae2e	0.3528914
52	0xbe02dd33	-0.12779693
53	0xbda4030e	-0.08008395
54	0xbe8e1791	-0.27752355
55	0xbe316991	-0.17325427
56	0xbeb7f310	-0.3592763
57	0x3e2e5e03	0.1702805
58	0xbe55fc50	-0.20897031
59	0x3e2c20e5	0.16809423
60	0xbd162b5f	-0.036662456
61	0xbe6df661	-0.23238517
62	0xbdfececf	-0.12441789
63	0xbc370e08	-0.011172779

bn4.running_var f4 [64]
0	0x3d0ccc6b	0.034374636
1	0x3d5fabe6	0.054607294
2	0x3d9d1b28	0.07671195
3	0x3d15a333	0.036532592
4	0x3da10a50	0.07863295
5	0x3c7c46ec	0.0153977685
6	0x3d568bc8	0.0523794
7	0x3d8365dc	0.064159125
8	0x3d230600	0.039800644
9	0x3ce2c55b	0.027681997
10	0x3dae7c63	0.08519819
11	0x3c662bf0	0.014048561
12	0x3d2049de	0.039132945
13	0x3d90e886	0.070756
14	0x3c274c4e	0.010211064
15	0x3c92585f	0.017864404
16	0x3d3ad4dc	0.045613155
17	0x3d5ff1c0	0.05467391
18	0x3c656988	0.014002211
19	0x3d29b05a	0.041427948
20	0x3d5174c0	0.051136732
21	0x3da9755e	0.08274339
22	0x3c7d9208	0.015476711
23	0x3e08a655	0.133447
24	0x3dbc2465	0.09186629
25	0x3caf3904	0.021389492
26	0x3d9febdf	0.07808661
27	0x3d96c80c	0.07362375
28	0x3d034d87	0.032056358
29	0x3c1d09a9	0.009584823
30	0x3c4af62e	0.012387795
31	0x3c86c307	0.016450418
32	0x3e380949	0.17972292
33	0x3d4e2a72	0.050333448
34	0x3d406ad7	0.04697689
35	0x3c63512b	0.013874332
36	0x3d655539	0.055989478
37	0x3dfacfc1	0.12246657
38	0x3c9015e5	0.017588565
39	0x3d08c4ff	0.033390995
40	0x3d472b30	0.04862517
41	0x3d36542d	0.04451387
42	0x3ce06360	0.027391136
43	0x3cc89023	0.024482792
44	0x3ce6353c	0.028101556
45	0x3cfae9dd	0.030629093
46	0x3c2c66e2	0.010522576
47	0x3e064de4	0.1311565
48	0x3d0b7759	0.034049366
49	0x3c0ef4ac	0.0087253265
50	0x3d3b2004	0.04568483
51	0x3d534edb	0.051588874
52	0x3d409640	0.04701829
53	0x3d424e6d	0.047438074
54	0x3d819ba7	0.063285165
55	0x3d5f441e	0.05450832
56	0x3e203218	0.15644109
57	0x3d32ea3f	0.043680426
58	0x3d04a753	0.032386135
59	0x3c01de28	0.007926501
60	0x3d82b862	0.063828245
61	0x3d114674	0.03546758
62	0x3cafe2b9	0.021470414
63	0x3ca7925d	0.020455534
