ckpt/ckpt-t-cr6-deepsc-t18db-awgn.pth (torch, 729127 bytes, 46 tensors)

conv1.weight f4 [16, 3, 3, 3]
0	0x3e15b683	0.14620404
1	0xbd2b46a9	-0.041815434
2	0x3e044dcc	0.12920302
3	0x3d053dba	0.03252957
4	0xbda63c1d	-0.081169344
5	0xbe2df1ce	-0.16986772
6	0xbc79bbed	-0.015242559
7	0x3db59091	0.088654645
8	0xbdab0c32	-0.083519354
9	0xbcd3eaa0	-0.025868714
10	0xbd4b6cdd	-0.049664367
11	0x3d99bb9a	0.07506485
12	0xbda816a1	-0.08207441
13	0x3d5a06f7	0.0532293
14	0xbddb21f4	-0.106998354
15	0xbd44d6ba	-0.04805634
16	0x3e3891ea	0.18024412
17	0x3d1ffc24	0.03905882
18	0xbd5ea9ff	-0.05436134
19	0xbda91c81	-0.0825739
20	0xbe1bf162	-0.15228799
21	0xbd148ceb	-0.036267202
22	0x3db14b44	0.08656934
23	0xbe685f4e	-0.22692606
24	0x3d15f06d	0.03660624
25	0x3eb708bb	0.35748848
26	0x3d4e7566	0.05040493
27	0xbe38c8e8	-0.1804539
28	0xbe775151	-0.24152113
29	0xbdd02da5	-0.10164956
30	0xbcd0ca74	-0.025487162
31	0x3d160eb5	0.03663512
32	0x3d4ce2b7	0.0500209
33	0x3c1f2b9a	0.009714985
34	0x3dc8ec24	0.09810665
35	0x3d84947c	0.06473634
36	0xbe41aa39	-0.18912591
37	0xbe8388e7	-0.25690386
38	0xbe903eeb	-0.28173003
39	0xbe064fdd	-0.13116403
40	0x3ba2d0a7	0.004968721
41	0xbd51d88d	-0.05123191
42	0xbdd7e550	-0.10541785
43	0x3cf20352	0.029542599
44	0xbd122c4d	-0.03568678
45	0xbd710932	-0.05884666
46	0xbde891e3	-0.11355951
47	0xbdb461a3	-0.08807685
48	0x3d67feda	0.05663953
49	0x3cb63f7c	0.022247069
50	0x3d814188	0.06311327
51	0xbc995899	-0.018719004
52	0x3db12eb1	0.08651484
53	0x38b3cfec	8.5741136e-05
54	0x3b9f44ce	0.004860497
55	0x3d881dca	0.06646307
56	0x3db9ffed	0.09082017
57	0xbdb379b2	-0.08763446
58	0x3cd96128	0.026535586
59	0x3dbc40d4	0.091920525
60	0xbe05f825	-0.13082941
61	0x3d7acf73	0.061232995
62	0xbd9ca1e8	-0.07648069
63	0x3d000bd0	0.031261265
64	0x3dda52fb	0.106603585
65	0x3d35118c	0.044206187
66	0xbda66261	-0.08124233
67	0x3dfa732d	0.12228999
68	0x3e0c1929	0.13681473
69	0xbda4c04f	-0.080444925
70	0x3d26aebf	0.040693995
71	0xbe03f62d	-0.12886877
72	0xbcff272b	-0.031146606
73	0x3e0009d4	0.12503749
74	0x3daf881f	0.08570885
75	0xbd3c8cf2	-0.046032853
76	0x3e6783f2	0.22608927
77	0x3e8eb9af	0.2787604
78	0xbdc999da	-0.09843798
79	0x3e283586	0.16426668
80	0x3babb7f4	0.005240435
81	0x3c9fbd10	0.019499332
82	0x3db8c476	0.09021847
83	0xbceefde5	-0.0291738
84	0x3e15eae9	0.14640392
85	0x3db38744	0.08766034
86	0xbd44c44d	-0.04803877
87	0xbceee448	-0.029161587
88	0xbc33dddc	-0.010978188
89	0xbc5405f6	-0.012940874
90	0x3e7755d9	0.24153842
91	0x3eab6ce7	0.33481523
92	0x3e0965fc	0.1341781
93	0x3e951022	0.2911387
94	0x3e7592d2	0.23981789
95	0x3c2bfec7	0.010497755
96	0xbce950a4	-0.028480835
97	0x3cc9f75b	0.024654081
98	0xbbd26e3e	-0.0064218333
99	0xbd5833e4	-0.05278386
100	0x3bbc493a	0.005746034
101	0xbc8c1f7d	-0.017104859
102	0xbcf46f24	-0.029838152
103	0xbbfc26f7	-0.0076950747
104	0xbe0f90b7	-0.14020048
105	0xbd9f2872	-0.07771386
106	0xbdbd80e0	-0.092530966
107	0xbd96212b	-0.07330545
108	0x3e29cda9	0.1658236
109	0x3e40f077	0.1884173
110	0xbcbb4065	-0.022857854
111	0x3dac7747	0.08421188
112	0x3d93cb0b	0.07216462
113	0xbd6cda40	-0.057825327
114	0xbdd5fde2	-0.10448815
115	0xbdc88f6d	-0.09792981
116	0x3cb32e9d	0.021872813
117	0xbd318923	-0.043343674
118	0xbc39059d	-0.011292842
119	0xbcbeaca5	-0.023275683
120	0xbd98a1fe	-0.074527726
121	0xbd68ccd9	-0.056835983
122	0xbdfa69c0	-0.122272015
123	0xbe23095b	-0.15921538
124	0xbe37b638	-0.17940605
125	0xbd133df4	-0.035947755
126	0x3e6e0b0b	0.232464
127	0x3e366dbf	0.17815302
128	0xbd1d0d58	-0.038342804
129	0x3e402952	0.18765762
130	0x3dd75981	0.105151184
131	0xbd07b89a	-0.033135034
132	0x3d33007e	0.04370164
133	0xbe1c9283	-0.15290265
134	0xbd850b45	-0.0649629
135	0xbb8360c4	-0.004009338
136	0x3d3e2376	0.046420537
137	0xbcf71613	-0.030161893
138	0x3de5e987	0.112261824
139	0x3e842d31	0.25815728
140	0x3c010a06	0.007875925
141	0x3ea819a7	0.3283207
142	0x3f181b1b	0.5941636
143	0x3de45ab8	0.11150116
144	0xbd4df3d8	-0.050281376
145	0xbc5d818f	-0.013519659
146	0xbcbb857d	-0.0228908
147	0xbdb055cf	-0.08610117
148	0x3db366f0	0.08759868
149	0xbd9268ea	-0.07148917
150	0xbd94dcbf	-0.072686665
151	0x3db98561	0.09058643
152	0xbc0f0b23	-0.008730683
153	0xbd1b4a64	-0.03791274
154	0xbd57c420	-0.052677274
155	0xbd7b9cf2	-0.06142897
156	0xbd481920	-0.048852086
157	0x3c211183	0.009830835
158	0xbdee049d	-0.11621974
159	0xbb965737	-0.0045880335
160	0x3d43e7fa	0.047828652
161	0xbcc40771	-0.02392933
162	0xbcea3eb4	-0.028594352
163	0xbd8aab13	-0.06770911
164	0xbdde7964	-0.10862997
165	0x3e37aefe	0.17937848
166	0xbd5c4448	-0.053776056
167	0xbe15a35d	-0.146131
168	0x3e2004ae	0.15626785
169	0xbd5e2aff	-0.054240223
170	0x3dd24a80	0.10268116
171	0xbb54725a	-0.0032416792
172	0xbdbfe552	-0.09369911
173	0xbd8198fa	-0.06328006
174	0x3db9f1a6	0.09079294
175	0xbde7297b	-0.11287209
176	0xbe34f35f	-0.17670964
177	0x3e0fd218	0.14044988
178	0xbd866a2b	-0.06563219
179	0x3dd515e7	0.10404568
180	0xbc4152bf	-0.011799513
181	0xbe28adb6	-0.16472515
182	0xbdeba0b6	-0.115052626
183	0xbcc6d98c	-0.024273656
184	0xbe0619cd	-0.1309578
185	0xbdde02ee	-0.108404025
186	0x3c6d0566	0.014466619
187	0xbe2df468	-0.16987765
188	0xbd025f13	-0.03182895
189	0xbbff5344	-0.0077919085
190	0x3d8b7554	0.06809488
191	0x3cca9854	0.024730839
192	0x3e40810d	0.18799229
193	0x3e179fd8	0.1480707
194	0xbd30e202	-0.043184288
195	0xbd90f5b6	-0.07078116
196	0xbe3f53c4	-0.18684298
197	0xbdca9770	-0.09892166
198	0xbd6d263f	-0.057897802
199	0x3e1fa9af	0.15592073
200	0xbd95b4c3	-0.07309868
201	0x3e2fa856	0.17154059
202	0x3e00eba3	0.12589888
203	0xbde83fb0	-0.113402724
204	0x3bc52b24	0.0060171057
205	0x3c8430c2	0.01613653
206	0xbe79eecc	-0.244075
207	0xbdb61cf0	-0.08892238
208	0x3cf166b4	0.029467918
209	0xbdcccfae	-0.10000549
210	0xbda7e5ab	-0.081981026
211	0xba91434d	-0.0011082679
212	0xbe3b22ff	-0.18275069
213	0xbe351d11	-0.17686869
214	0xbdbe03c9	-0.09278066
215	0xbe364440	-0.17799473
216	0x3d0cce32	0.03437633
217	0x3db8eb97	0.0902931
218	0x3d957a4a	0.072987154
219	0xbe32d872	-0.1746538
220	0x3ad8254f	0.0016490611
221	0x3d8f05aa	0.06983502
222	0x3cd92c8a	0.026510496
223	0x3d42d96a	0.047570623
224	0x3d8af262	0.06784512
225	0xbc651260	-0.013981432
226	0x3cf00c60	0.029302776
227	0x3d42c7b2	0.047553726
228	0xbebcaaa1	-0.3684893
229	0xbdc76c56	-0.0973746
230	0x3d096024	0.033538952
231	0xbdc57259	-0.09640951
232	0xbdb77504	-0.08957866
233	0xbd0299b1	-0.031884853
234	0x3d3f365f	0.04668271
235	0xbccd8d90	-0.025091916
236	0x3d9ac51d	0.075571276
237	0xbf138c9b	-0.5763642
238	0xbe261c9e	-0.16221854
239	0xbca42bb4	-0.02004037
240	0xbd125bd9	-0.035732124
241	0xbddcd1d5	-0.1078221
242	0x3d179bc0	0.03701377
243	0xbdab5b11	-0.08366979
244	0xbe19403d	-0.14965911
245	0x3dbb4d5f	0.09145617
246	0xbe3395c6	-0.17537603
247	0xbe09b1bf	-0.13446711
248	0x3dbe98e2	0.09306504
249	0x3b8d3e45	0.0043104016
250	0xbd1ccd9b	-0.03828202
251	0x3d029e4b	0.03188924
252	0xbcfdf039	-0.030998336
253	0xbde4ae47	-0.11166053
254	0x3d91adba	0.07113214
255	0xbabb8b78	-0.0014308533

bn1.weight f4 [16]
0	0x3e0b18bb	0.13583653
1	0x3e60c1bf	0.21948908
2	0x3e7302cb	0.23731534
3	0x3e5c77db	0.21530096
4	0x3df5ed4e	0.12008153
5	0x3e54c4f0	0.2077825
6	0x3e84f3f6	0.25967377
7	0x3e62b48c	0.22139186
8	0x3e90b4ed	0.28263035
9	0x3e56c33d	0.20972915
10	0x3de701b6	0.11279623
11	0x3e83f6b5	0.2577416
12	0x3e3e36d6	0.18575606
13	0x3e812d84	0.25230038
14	0x3e230021	0.15918018
15	0x3e814902	0.25251013

bn1.bias f4 [16]
0	0x3c9e28f1	0.019306632
1	0x3ed7ea40	0.42170906
2	0x3dd5cbdb	0.10439273
3	0x3d4448ba	0.04792092
4	0x3d573713	0.052542757
5	0xbe61a563	-0.22035746
6	0xbde39a9e	-0.11113475
7	0xbe711baf	-0.23545717
8	0x3e014dc6	0.12627324
9	0xbc1dda0b	-0.009634505
10	0xbc6bb7d9	-0.014387094
11	0xbde92326	-0.11383657
12	0x3db6f44d	0.089333154
13	0xbd9b33a3	-0.07578208
14	0x3e2bd170	0.16779113
15	0xbdf66855	-0.120316185

bn1.running_mean f4 [16]
0	0x3bf90b30	0.0076002106
1	0xbf1e8d88	-0.6193471
2	0x3edb7db7	0.4286935
3	0x3ef3bee1	0.47606567
4	0xbc1a34c8	-0.009411998
5	0x3ef9f048	0.48816133
6	0xbed8353e	-0.4222812
7	0xbeb45003	-0.35217294
8	0xbf004175	-0.5009988
9	0xbe93671b	-0.287896
10	0x3d6401d4	0.055665806
11	0x3f046ecc	0.5173156
12	0x3f0ca3a5	0.549372
13	0xbecec6ef	-0.4038615
14	0x3e36c655	0.17849095
15	0xbefe67c9	-0.49688557

bn1.running_var f4 [16]
0	0x3c1f68f2	0.009729611
1	0x3dee0ade	0.116231665
2	0x3d89af88	0.06722933
3	0x3d85c55d	0.06531785
4	0x3cc552cc	0.024087332
5	0x3da4e5fd	0.08051679
6	0x3d8a77bf	0.06761121
7	0x3d7a931f	0.06117546
8	0x3dd086c1	0.10181952
9	0x3d07fb9d	0.03319894
10	0x3d08d003	0.0334015
11	0x3ddd65ff	0.1081047
12	0x3daff297	0.08591192
13	0x3d2c70e0	0.042099833
14	0x3cda4039	0.026641952
15	0x3d8f6076	0.0700082

conv2.weight f4 [64, 16, 3, 3]
0	0xbd209feb	-0.03921501
1	0xbd838add	-0.064229704
2	0xbce40f4b	-0.027839324
3	0x3cb83a25	0.022488663
4	0xbe610ca6	-0.21977481
5	0x3d33de13	0.04391296
6	0xbe089efd	-0.13341899
7	0xbca7e657	-0.020495577
8	0xbe801fb6	-0.25024194
9	0x3d59194d	0.053002644
10	0x3d7fff62	0.06249941
11	0xbbce5b41	-0.0062974994
12	0x3dc31214	0.095249325
13	0xb8302abd	-4.2001473e-05
14	0xbd12e09d	-0.03585874
15	0x3d0282e5	0.031863112
16	0x3dc5505c	0.09634468
17	0xbe1b95b8	-0.15193832
18	0x3de70af4	0.11281386
19	0xbe1bf6b9	-0.15230836
20	0xbc4701a7	-0.01214639
21	0x3df05232	0.117344275
22	0xbe20ff43	-0.15722375
23	0xbdefd121	-0.1170981
24	0x3cc4ebed	0.02403828
25	0x3e0079d0	0.12546468
26	0xbe2a8d59	-0.16655482
27	0xba3d8321	-0.00072293176
28	0xbc3ac7d3	-0.011400181
29	0x3dab7821	0.08372522
30	0x3cc0f618	0.023554847
31	0xbb9e272d	-0.0048264475
32	0xbc4dc13d	-0.012558279
33	0xbd303249	-0.043016706
34	0x3c267ee8	0.010162093
35	0xbd879d8a	-0.06621845
36	0xbc43f757	-0.011960826
37	0xbc6a8496	-0.0143138375
38	0xbea06002	-0.31323248
39	0xbe7f676b	-0.24941795
40	0xbe186bcf	-0.14884876
41	0xbea1f12d	-0.31629315
42	0x3cd2b8ed	0.025722945
43	0xbc8a9302	-0.016915802
44	0xbd2331e4	-0.0398425
45	0x3c00813e	0.007843314
46	0x3d12e760	0.035865188
47	0x3d9f045e	0.07764505
48	0x3dcc731e	0.09982894
49	0xbd0f462e	-0.034979038
50	0xbdcdb376	-0.10043995
51	0xbce18bff	-0.027532576
52	0xbd2a3d31	-0.041562263
53	0xbddf0046	-0.10888724
54	0xbe089034	-0.13336259
55	0xbca38e76	-0.019965392
56	0xbd899768	-0.067183316
57	0x3d8fa6a4	0.07014206
58	0x3d9cf4ad	0.07663856
59	0x3d73ed93	0.05955274
60	0x3daa2065	0.0830696
61	0x3c05508b	0.008136879
62	0x3e0a12d3	0.13483743
63	0xbddaae8b	-0.10677823
64	0x3ab044bf	0.0013448222
65	0xbe603d76	-0.21898445
66	0x3d3f091e	0.046639554
67	0x3da54857	0.08070438
68	0xbd955512	-0.072916165
69	0xbd1b1f6b	-0.03787176
70	0x3cefab94	0.02925662
71	0xbe4b2caf	-0.19841264
72	0x3ca59522	0.020212714
73	0x3c11a391	0.008889095
74	0xbd24016c	-0.04004042
75	0xbd0f2b5e	-0.034953468
76	0xbe15a381	-0.14613153
77	0xbe0e77a4	-0.13912827
78	0x3e64fe7a	0.223627
79	0x3c8fc66e	0.017550673
80	0x3d91cd57	0.071192436
81	0xbe045fd4	-0.1292718
82	0xbc02efcd	-0.007991743
83	0xbc731bbe	-0.014838157
84	0x3e11ede7	0.14250909
85	0x3cb58d48	0.022162095
86	0xbd3e5d40	-0.04647565
87	0xbe2e3361	-0.17011787
88	0xbd9b797c	-0.07591531
89	0xbe05bbf8	-0.13059986
90	0x3d5f6178	0.054536313
91	0xbe3df2c8	-0.18549645
92	0xbd73453c	-0.0593922
93	0xbdda5c88	-0.1066218
94	0xbe389aed	-0.1802785
95	0xbcea9e10	-0.028639823
96	0xbd526c65	-0.051372904
97	0x3daaea0c	0.08345422
98	0xbe1b97f8	-0.1519469
99	0xbbbed0b8	-0.005823221
100	0x3d2b2cab	0.041790646
101	0x3d975b9e	0.073905215
102	0x3c88c4c0	0.01669538
103	0x3e48321b	0.19550364
104	0x3d0f7e57	0.035032596
105	0xbe0db2fd	-0.1383781
106	0x3d5d2764	0.053992644
107	0xbd15b1ea	-0.036546625
108	0x3deb2d0f	0.114832036
109	0xbdde2c92	-0.10848345
110	0xbd480b43	-0.048838865
111	0x3dd3fec3	0.10351326
112	0xbc730778	-0.014833324
113	0x3d113147	0.035447385
114	0x3e1b32be	0.15156075
115	0x3e4b33af	0.19843934
116	0xbdf224b1	-0.118234046
117	0xbdaeed47	-0.08541351
118	0xbd72ddac	-0.059293434
119	0xbd6ac864	-0.057320014
120	0xbdae1abb	-0.08501192
121	0x3c091548	0.00836689
122	0x3de109a2	0.109881654
123	0x3dc70b48	0.097189486
124	0x3d95b93e	0.07310723
125	0x3c37c518	0.011216424
126	0x3da9d462	0.08292462
127	0x3e53a2e0	0.206676
128	0xbe8d2610	-0.27568102
129	0xbce65193	-0.02811507
130	0xbd7f67de	-0.062354915
131	0xbeb82ea8	-0.35973096
132	0x3e6886aa	0.2270762
133	0x3d3db8c6	0.04631879
134	0xbeec9c5b	-0.4621304
135	0xbd9e9afd	-0.077444054
136	0x3de311a0	0.11087346
137	0x3d14b7ef	0.036308225
138	0x3c97edf2	0.018546078
139	0x3e123865	0.14279325
140	0xbc832599	-0.016009139
141	0xbe53a4ed	-0.20668383
142	0xbe0fa971	-0.1402948
143	0xbc854404	-0.016267784
144	0xbe91be85	-0.28465667
145	0xbedc80d3	-0.43067035
146	0xbd2c88d7	-0.04212269
147	0xbe36afe0	-0.17840528
148	0xbe602ad9	-0.21891345
149	0xbe1ca943	-0.15298943
150	0xbdba7185	-0.091036834
151	0xbe5103ba	-0.20411578
152	0xbe21d764	-0.15804821
153	0xbdd69f67	-0.10479622
154	0xba5544da	-0.0008135565
155	0x3cfe4956	0.031040829
156	0xbdbeff93	-0.09326091
157	0xbd40b784	-0.047050014
158	0x3d6d5c1d	0.057949174
159	0xbdb93d8f	-0.090449445
160	0xbe21e6b6	-0.15810665
161	0xbd6818b5	-0.056664187
162	0xbd480400	-0.04883194
163	0xbbbcb69f	-0.005759075
164	0xbc63d4ca	-0.013905713
165	0xbcba2e7b	-0.022727242
166	0x3ccb4a85	0.024815807
167	0x3c1a3ccf	0.009413912
168	0xbd5710a1	-0.052506093
169	0x3ca01120	0.019539416
170	0xbcede15b	-0.029038122
171	0xbcb7ee9e	-0.022452649
172	0xbd0dbf45	-0.034606237
173	0xbd19896d	-0.037484575
174	0xbc894a64	-0.016759105
175	0x3d9cd29a	0.076573566
176	0x3d984262	0.074345365
177	0x3a8ddbca	0.0010822949
178	0x3dd1588e	0.102219686
179	0x3e0dead0	0.13859105
180	0xbcf1c17c	-0.029511206
181	0xbd881922	-0.06645419
182	0xbd89cac3	-0.06728127
183	0xbe8ebf70	-0.2788043
184	0xbda084df	-0.07837843
185	0xbd9d2d3e	-0.07674645
186	0xbeb2d48b	-0.34927782
187	0xbe9184c8	-0.28421617
188	0xbdd6ddd6	-0.104915306
189	0xbde56f03	-0.112028144
190	0xbdc2d850	-0.095139146
191	0xbd26eca6	-0.04075303
192	0xbe37a56a	-0.17934194
193	0xbe52cd5f	-0.20586155
194	0xbdd41e1f	-0.10357308
195	0xbe234726	-0.1594511
196	0xbe603836	-0.21896443
197	0xbe83f204	-0.2577058
198	0x3e0f657f	0.14003561
199	0x3d8da138	0.06915516
200	0x3dc66106	0.096864745
201	0x3dc9d69b	0.09855386
202	0xbe41ffb3	-0.18945198
203	0xbe088599	-0.13332213
204	0x3d423fe5	0.047424216
205	0xbe30bd25	-0.17259653
206	0xbe089c63	-0.13340907
207	0x3e06a558	0.13149011
208	0xbdc88665	-0.09791259
209	0x3cb2887e	0.0217936
210	0x3cea8dc0	0.028632045
211	0xbe027415	-0.12739594
212	0x3d8f5593	0.06998744
213	0x3e0eb2d8	0.13935411
214	0xbd126eea	-0.035750307
215	0x3e052fd9	0.13006534
216	0xba98746f	-0.001163138
217	0xbdd0f099	-0.1020214
218	0xbdbb0009	-0.09130866
219	0x3d034b3e	0.03205418
220	0xbe1124e3	-0.14174227
221	0xbe4e6973	-0.20157413
222	0xbd65d067	-0.05610695
223	0xbe039e8a	-0.12853447
224	0xbe6e0165	-0.2324272
225	0x3d8ab722	0.06773211
226	0x3d63dd00	0.055630684
227	0xbd427e7c	-0.047483906
228	0x3e1b5159	0.1516775
229	0x3c371eb6	0.011176756
230	0xbdca3e84	-0.09875205
231	0x3e0122f6	0.12610993
232	0x3c46f383	0.012143019
233	0xbe2af5c2	-0.16695312
234	0xbe5a6637	-0.21328054
235	0xbe237918	-0.15964162
236	0xbdcce278	-0.10004133
237	0xbe44f314	-0.19233352
238	0xbe282d48	-0.16423523
239	0xbd531843	-0.05153681
240	0xbe954b33	-0.29158935
241	0xbe48c400	-0.19606018
242	0xbdd655f4	-0.10465613
243	0xbd967b9a	-0.07347794
244	0xbca9e263	-0.020737832
245	0x3c3a5a93	0.011374134
246	0xbdaf1bef	-0.0855025
247	0x3d084e91	0.03327805
248	0x3df4e02b	0.11956819
249	0xbd6d9be4	-0.058009997
250	0xbd548b49	-0.051890645
251	0x3ac01392	0.001465427
252	0xbd705cfd	-0.05868243
253	0xbd0f3d5c	-0.034970626
254	0xbe0bfd1c	-0.13670772
255	0xbd9ccb0d	-0.07655916

bn2.weight f4 [64]
0	0x3de88876	0.11354153
1	0x3e21d1df	0.15802716
2	0x3dcbba73	0.09947672
3	0x3e15d9da	0.14633885
4	0x3e1e0dd7	0.15434967
5	0x3e5b83ea	0.2143704
6	0x3e0da457	0.13832222
7	0x3e064b2a	0.1311461
8	0x3e0a795e	0.1352286
9	0x3e27320f	0.1632769
10	0x3e34488f	0.17605804
11	0x3e7c097b	0.24612992
12	0x3e4f0e9a	0.20220414
13	0x3e51f054	0.20501834
14	0x3db0735a	0.086157516
15	0x3db4282c	0.08796725
16	0x3e2532bd	0.16132636
17	0x3e165d64	0.14684063
18	0x3df0f350	0.11765158
19	0x3de2e847	0.1107946
20	0x3e8630db	0.2620915
21	0x3dc297f8	0.09501642
22	0x3e4b1ca0	0.19835138
23	0x3e6f40d5	0.23364575
24	0x3df4f22f	0.11960255
25	0x3dc35b51	0.095389016
26	0x3e0011b3	0.12506752
27	0x3e7623ce	0.24037096
28	0x3deecefc	0.11660573
29	0x3e0b0ed6	0.13579878
30	0x3e50d6cd	0.2039444
31	0x3e279cab	0.16368358
32	0x3ddb318c	0.1070281
33	0x3e10205c	0.14074844
34	0x3e7642c0	0.240489
35	0x3e095435	0.13411029
36	0x3e57f078	0.21087825
37	0x3dbddd72	0.09270753
38	0x3e1a9028	0.15094054
39	0x3e6fd5ca	0.23421398
40	0x3dbce8bd	0.09224079
41	0x3e2c6047	0.16833602
42	0x3e1dd8f0	0.15414786
43	0x3dd35c97	0.103203945
44	0x3e8b3a97	0.27193138
45	0x3de3b609	0.11118705
46	0x3de7220a	0.11285789
47	0x3dee4b18	0.11635417
48	0x3e4ca439	0.19984521
49	0x3db39ce1	0.08770157
50	0x3dcd3538	0.10019916
51	0x3dede3c7	0.11615711
52	0x3df8ad18	0.1214239
53	0x3e1a24f0	0.15053153
54	0x3e097f9e	0.13427588
55	0x3e3ef33c	0.18647474
56	0x3db4002e	0.08789097
57	0x3de55778	0.11198324
58	0x3e618b95	0.22025903
59	0x3df30b46	0.118673846
60	0x3e150b7b	0.1455516
61	0x3e368cab	0.17827098
62	0x3e006051	0.12536742
63	0x3e724318	0.23658407

bn2.bias f4 [64]
0	0x3c84c240	0.016205907
1	0xbd675684	-0.056478992
2	0x3bc361a6	0.0059625683
3	0xbd3ba4d4	-0.04581149
4	0xbd8ddf8a	-0.06927402
5	0xbee47ef6	-0.44628114
6	0xbd8a733b	-0.0676026
7	0xbd6d81a6	-0.05798497
8	0x3d60f90b	0.054925006
9	0xbc204815	-0.009782811
10	0x3e02b947	0.1276599
11	0xbead27db	-0.3381947
12	0xbeccaf25	-0.39977375
13	0xbe745e37	-0.23864065
14	0x3c236cb0	0.009974644
15	0x3d18b2cb	0.037279885
16	0xbd6f1366	-0.05836811
17	0xbd0013b9	-0.03126881
18	0x3cb13737	0.021632774
19	0xbca69648	-0.020335332
20	0xbecacb72	-0.3960834
21	0x3d6783c1	0.056522135
22	0x3cf9b574	0.030482031
23	0x3e232ae2	0.15934327
24	0xbd3d321f	-0.046190377
25	0x3cb08326	0.021546911
26	0xbb33a71c	-0.0027412837
27	0xbe9dc4df	-0.30814263
28	0x3d8f8f6c	0.070097774
29	0xbd8a61c6	-0.0675693
30	0xbe023efc	-0.12719339
31	0xbba865af	-0.0051390748
32	0x3ded8661	0.11597896
33	0x3d67cdae	0.056592636
34	0x3dcaf603	0.09910204
35	0x3dde66f0	0.108594775
36	0xbe5969b2	-0.21231726
37	0x3da10873	0.0786294
38	0x3cd963b2	0.026536796
39	0xbd81d335	-0.06339113
40	0x3db9cdad	0.09072433
41	0xbee197cd	-0.44061127
42	0xbdeeff5a	-0.11669798
43	0x3d0a98ca	0.033837117
44	0xbde52292	-0.111882344
45	0x3c85b3f7	0.016321165
46	0xbc3fca98	-0.011706017
47	0x3d44737e	0.047961704
48	0xbc912e93	-0.017722404
49	0x3e50a12b	0.2037398
50	0xbc8d1a57	-0.017224474
51	0xbc83e9a0	-0.016102612
52	0xbd799a16	-0.060937963
53	0xbdb6f296	-0.08932988
54	0x3c3a5a1d	0.011374024
55	0x3d290c11	0.041271273
56	0x3e050be2	0.12992814
57	0xbd69f8a3	-0.057121884
58	0xbe2f8b4b	-0.1714298
59	0x3b89af41	0.0042018
60	0xbd325e99	-0.043547247
61	0xbee8c35d	-0.4546155
62	0x3e5debb8	0.21671951
63	0xbecb6f5c	-0.39733398

bn2.running_mean f4 [64]
0	0xbe0b9e3f	-0.13634585
1	0xbf190c33	-0.5978424
2	0x3e5b13a4	0.21394211
3	0x3c325c72	0.0108862985
4	0xbe567ff8	-0.20947254
5	0x3f19bfb9	0.6005817
6	0xbdea973b	-0.11454626
7	0x3ecaa05d	0.39575472
8	0xbee13bcb	-0.4399093
9	0xbebe1ad5	-0.37129846
10	0x3d3d8fa7	0.046279576
11	0x3ee463bd	0.44607344
12	0x3eae10d2	0.33997208
13	0x3e8e8ca9	0.2784169
14	0x3ebf4416	0.37356633
15	0x3f3cf324	0.73808503
16	0xbdcbeff3	-0.09957876
17	0x3d794d8d	0.060864974
18	0x3ddf3cd0	0.10900271
19	0xbea1558b	-0.31510577
20	0x3d5000e0	0.050782084
21	0xbec0cf91	-0.3765836
22	0xbe901030	-0.2813735
23	0xbe399ca7	-0.18126164
24	0xbf4ad9c2	-0.7923852
25	0xbe3b88bf	-0.18313883
26	0x3ecc2ef2	0.39879566
27	0xbe96d5bd	-0.29459944
28	0xbec93c51	-0.3930383
29	0x3e28341d	0.1642613
30	0xbe6564d2	-0.22401741
31	0x3de0ee3d	0.1098294
32	0xbee330ba	-0.44373113
33	0x3d689b8e	0.056788974
34	0xbdbb0610	-0.09132016
35	0xbe9527bf	-0.29131886
36	0x3f098f43	0.53734225
37	0xbe9f45e3	-0.31108007
38	0xbf1bb1df	-0.60818285
39	0x3f037604	0.5135195
40	0xbd946d61	-0.07247425
41	0x3f8c8503	1.0978092
42	0x3f3d004f	0.73828596
43	0x3df64f3f	0.12026834
44	0x3d5feb3e	0.054667704
45	0x3f07f987	0.53115124
46	0xbe9b711b	-0.3035973
47	0xbec73757	-0.38909408
48	0x3c663c72	0.014052497
49	0xbdc2c3a6	-0.09509973
50	0x3dd3a947	0.103350215
51	0x3f07844c	0.52936244
52	0x3df1871b	0.117933474
53	0x3f04442b	0.51666516
54	0x3dcbe306	0.09955411
55	0x3bd86b43	0.0066045835
56	0x3d32b68c	0.04363112
57	0xbdd8a88f	-0.10579025
58	0xbe88929a	-0.26674348
59	0x3ecaa5b6	0.39579552
60	0x3e85d6bd	0.26140395
61	0x3f8c0f2b	1.0942129
62	0xbeb933b4	-0.3617226
63	0xbc0e86bc	-0.008699115

bn2.running_var f4 [64]
0	0x3c7759c4	0.015097085
1	0x3e1bb68c	0.15206355
2	0x3b41b3e5	0.0029556688
3	0x3dd41fc2	0.1035762
4	0x3d20e3b4	0.039279655
5	0x3cee5aec	0.02909609
6	0x3de72e93	0.1128818
7	0x3c7d39d1	0.015455679
8	0x3c83aa81	0.016072514
9	0x3c9b006c	0.0189211
10	0x3d23463e	0.03986191
11	0x3c76b16c	0.015056949
12	0x3e59945f	0.21248005
13	0x3dc4de20	0.096126795
14	0x3bdf98a6	0.006823617
15	0x3cb96f12	0.02263597
16	0x3ca352ed	0.019937003
17	0x3e1bb078	0.15204036
18	0x3c2ec510	0.010667101
19	0x3cc93009	0.024559038
20	0x3e9afc4d	0.30270615
21	0x3c4b4b48	0.012408085
22	0x3e81bce1	0.25339416
23	0x3e0d9f6b	0.13830344
24	0x3ca1d55d	0.01975506
25	0x3c5d1e4c	0.013495993
26	0x3c347732	0.0110147465
27	0x3dba89ee	0.09108339
28	0x3d3526e5	0.044226546
29	0x3bf6cf3d	0.007532029
30	0x3f192f04	0.59837365
31	0x3e02459c	0.12721866
32	0x3d8622cd	0.065496065
33	0x3d137fe6	0.036010645
34	0x3e437208	0.19086468
35	0x3c21e240	0.009880602
36	0x3c8a8b3a	0.016912092
37	0x3bcdadf6	0.0062768413
38	0x3cdead1f	0.02718216
39	0x3e1ffae3	0.1562305
40	0x3d09257b	0.03348301
41	0x3d889949	0.06669862
42	0x3c905a92	0.017621312
43	0x3cdda3f1	0.027055712
44	0x3e4b7be7	0.19871484
45	0x3c6c8a84	0.014437322
46	0x3c3a5f04	0.011375193
47	0x3cd5b709	0.026088255
48	0x3db772fa	0.08957477
49	0x3d58bd8b	0.052915137
50	0x3bca89c8	0.0061809756
51	0x3cb57d1d	0.022154385
52	0x3c5c45fb	0.013444419
53	0x3c41552d	0.011800093
54	0x3cd078bf	0.025448201
55	0x3d16c6d9	0.03681073
56	0x3bf50f06	0.0074785976
57	0x3c0c6789	0.008569607
58	0x3e1f49c9	0.1555549
59	0x3c516de0	0.012782544
60	0x3d4bb40e	0.04973226
61	0x3c31aab3	0.0108439205
62	0x3cc318a7	0.023815466
63	0x3e7ba332	0.24573973

conv3.weight f4 [64, 64, 3, 3]
0	0xbe047c57	-0.12938057
1	0xbc98aaf1	-0.018636199
2	0xbcb7dc1f	-0.02244383
3	0x3b842ee2	0.004033909
4	0x3d50834e	0.050906472
5	0xbe02b2a3	-0.12763457
6	0x3e4d6ab1	0.20060231
7	0x3e193109	0.14960112
8	0xbcf4908d	-0.029854083
9	0xbd74b58d	-0.059743453
10	0xbc909c19	-0.017652558
11	0xbe136781	-0.14394952
12	0x3d849b57	0.06474941
13	0x3e325f57	0.17419182
14	0x3db72721	0.0894301
15	0xbe6863ae	-0.22694275
16	0xbd39f9ed	-0.045404363
17	0x3c89c5cb	0.016817948
18	0x3b9efb34	0.004851723
19	0xbd15269c	-0.036413774
20	0xbd80a1bb	-0.06280848
21	0xbd81baec	-0.06334481
22	0xbd281878	-0.04103896
23	0xbe0f5f56	-0.14001212
24	0x3e0168e0	0.12637663
25	0x3d3bf3dd	0.045886863
26	0xbdb4f789	-0.08836276
27	0x3c0e5cdc	0.008689132
28	0xbd10a60f	-0.035314616
29	0x3c9e43cd	0.01931944
30	0xbdfe9d41	-0.124323376
31	0xbdea9e69	-0.114559956
32	0x3c638438	0.013886504
33	0xbe06772e	-0.13131401
34	0xbe584ef2	-0.21123865
35	0xbce23809	-0.02761461
36	0x3bde89d6	0.0067913337
37	0xbc657ff1	-0.014007554
38	0x3dc839cb	0.09776648
39	0xbb84136b	-0.004030635
40	0x3e8c21f3	0.2736965
41	0xbd14591b	-0.03621779
42	0x3d4d25aa	0.050084747
43	0x3cf2f733	0.02965889
44	0xbdbbb929	-0.09166176
45	0xbd3b5c7e	-0.045742504
46	0x3dbe7798	0.093001544
47	0x3e77b992	0.24191883
48	0x3d73c1a0	0.059510827
49	0x3e266158	0.16248071
50	0x3e22234d	0.15833779
51	0xbd173a1e	-0.03692066
52	0x3c8ed411	0.017435106
53	0x3db6ad9b	0.08919831
54	0xbd7d5512	-0.061848707
55	0x3b21b493	0.002467428
56	0xbe0b2a88	-0.13590443
57	0x3d00e3f5	0.031467397
58	0xbe95166c	-0.2911867
59	0x3e199d48	0.15001404
60	0xbd34c5fe	-0.044134133
61	0xbdbeb0a8	-0.09311038
62	0x3cbd271b	0.023089936
63	0x3cd6b60c	0.026209854
64	0x3da24af9	0.07924456
65	0xbdf3fed3	-0.11913838
66	0x3e0238bb	0.12716953
67	0x3e0a2663	0.13491206
68	0x3d9c8026	0.0764163
69	0xbc5e2e5f	-0.01356086
70	0x3e5cfc84	0.21580702
71	0xbd09432c	-0.033511326
72	0xbd5ecdb2	-0.054395385
73	0x3d677c6b	0.05651514
74	0xbe264be5	-0.16239889
75	0xbdd918a5	-0.10600404
76	0xbcffd3f3	-0.031228995
77	0x3cc86297	0.024461074
78	0x3cc6ac84	0.024252184
79	0x3d8fedfd	0.070278145
80	0xbdfa5887	-0.122239165
81	0x3d96ce46	0.07363562
82	0x3dcf179a	0.101119235
83	0xbe0ea9bd	-0.13931938
84	0x3e336601	0.1751938
85	0x3e0f95c2	0.14021972
86	0x3d01881f	0.031623956
87	0x3e45b0a7	0.19305669
88	0x3e2a228c	0.16614741
89	0x3e388a7e	0.1802158
90	0xbdcfb99e	-0.101428255
91	0xbd298922	-0.041390546
92	0x3b92fed0	0.0044859424
93	0x3df980d8	0.12182778
94	0xbda19d0e	-0.07891284
95	0x3cd4ca7e	0.025975462
96	0xbdf4c0c9	-0.11950833
97	0xbd9ff6ee	-0.0781077
98	0x3d4d6a8a	0.05015043
99	0x3d0f5b05	0.034998912
100	0xbdd7e90c	-0.10542497
101	0x3d9fe06c	0.07806477
102	0x3db52537	0.08844989
103	0xbe26eb14	-0.16300613
104	0xbd9ced8a	-0.076624945
105	0x3d6387f2	0.05554957
106	0xbd70eb66	-0.058818243
107	0x3d447757	0.047965374
108	0xbd970881	-0.07374669
109	0xbe11aa87	-0.14225207
110	0xbe920f25	-0.2852718
111	0x3d194de2	0.03742779
112	0x3dc84e83	0.097806
113	0xbb918415	-0.0044407942
114	0x3e2d3e2a	0.16918245
115	0x3a1db6ed	0.0006016333
116	0x3e480990	0.19534898
117	0xbcb6e48e	-0.02232578
118	0xbda7422f	-0.081669204
119	0x3d27ba18	0.040948957
120	0x3caaa451	0.020830305
121	0xbe0d648f	-0.13807891
122	0x3dd3a3eb	0.10333999
123	0xbe8f34b9	-0.27969912
124	0xbe679072	-0.22613695
125	0xbd96405d	-0.07336495
126	0xbc7f6248	-0.015587397
127	0x3dd209e1	0.102557905
128	0x3da456e2	0.08024384
129	0x3c9c4ac8	0.019078627
130	0x3d936fc2	0.071990505
131	0x3ce57c27	0.028013302
132	0x3df6d16e	0.12051664
133	0x3e3c32fe	0.18378827
134	0x3e625dbc	0.2210607
135	0xbd19d247	-0.03755405
136	0xbdc20b64	-0.09474829
137	0xbe0ed2b8	-0.1394757
138	0xbdd2a417	-0.10285204
139	0xbe1231a5	-0.1427675
140	0xbda7173a	-0.08158727
141	0xbd348026	-0.044067524
142	0xbe47c453	-0.19508485
143	0xbd06a11d	-0.032868493
144	0xbd176978	-0.036965817
145	0xbe54e666	-0.20791015
146	0x3e3a68d2	0.18204048
147	0x3e399f7f	0.18127249
148	0x3e0fb380	0.14033318
149	0xbbcee62f	-0.006314061
150	0x3dd1277e	0.10212611
151	0x3cbfe427	0.023424221
152	0xbe1fb547	-0.15596496
153	0x3d7ebe0c	0.06219296
154	0x3e06dce6	0.13170204
155	0x3e1c0131	0.1523483
156	0xbe3ba9ae	-0.18326446
157	0xbdc11db0	-0.094294906
158	0x3c2dfafa	0.0106189195
159	0xbe9100ac	-0.28320825
160	0xbe570fd8	-0.21002138
161	0xbcc708e9	-0.02429624
162	0xbdfcc7b7	-0.1234278
163	0xbe10f14c	-0.14154547
164	0xbe0156c8	-0.1263076
165	0x3d65fc95	0.056149084
166	0xbe0f7e49	-0.14013018
167	0xbd5aa529	-0.053380165
168	0xbe05217a	-0.13001052
169	0x3de1635c	0.110052794
170	0xbcca9ebf	-0.0247339
171	0x3e609ba2	0.21934369
172	0x3e220e22	0.15825704
173	0xbd48db43	-0.04903723
174	0xbd83ac0a	-0.06429298
175	0x3db15da0	0.08660436
176	0x3d5c4d75	0.053784806
177	0x3d21ba78	0.03948447
178	0x3da7defd	0.081968285
179	0x3dcd0d8a	0.10012348
180	0x3c6a1369	0.014286854
181	0x3e4a4d89	0.1975614
182	0x3d0795a3	0.03310169
183	0x3c8d3994	0.01723937
184	0xbdc5064c	-0.09620342
185	0x3d47c9a7	0.048776295
186	0xbe24d736	-0.16097721
187	0xbe29a1cf	-0.16565631
188	0xbe4b7799	-0.19869842
189	0xbdd31ba9	-0.1030801
190	0xbe846b22	-0.25862986
191	0x3df364ba	0.118844464
192	0xbc1e57c7	-0.009664482
193	0x3d95798f	0.07298576
194	0x3d88eb06	0.06685452
195	0x3deda32a	0.11603387
196	0xbbbf3a8d	-0.005835837
197	0x3aaa1ce8	0.0012978585
198	0xbd996253	-0.07489457
199	0xbd7aa577	-0.061192956
200	0xbc9877ea	-0.018611867
201	0x3c27714a	0.010219881
202	0xbdfa6537	-0.122263364
203	0xbd0cd105	-0.034379024
204	0x3b8b2a23	0.0042469664
205	0x3dc543de	0.09632085
206	0x3e101c24	0.14073235
207	0x3d8c302b	0.06845125
208	0x3ca2e013	0.019882238
209	0x3e233f7a	0.15942183
210	0xbcc19469	-0.023630338
211	0x3dab78ae	0.08372627
212	0x3dcedab1	0.10100306
213	0xbdaa8a2c	-0.083271354
214	0x3d244c77	0.040111985
215	0xbd7a47d7	-0.061103668
216	0xbdd95de3	-0.106136106
217	0xbce32340	-0.02772677
218	0x3c58fd97	0.013244054
219	0xbd81fa91	-0.0634662
220	0xbd623860	-0.055229545
221	0x3dec244f	0.11530363
222	0xbe839bec	-0.25704896
223	0xbe45df8b	-0.19323556
224	0xbe2992a6	-0.16559848
225	0xbe4b0b86	-0.19828615
226	0xbeb879b6	-0.36030358
227	0xbc8eab3e	-0.017415639
228	0x3c162a9a	0.00916543
229	0xbdba44ec	-0.09095177
230	0xbe0081d4	-0.12549525
231	0xbd80f26c	-0.06296238
232	0x3db3325b	0.08749839
233	0xbe31c727	-0.17361127
234	0xbdca4769	-0.09876902
235	0xbd7212b5	-0.05909987
236	0xbbc059e5	-0.0058700913
237	0x3d856b51	0.065146096
238	0x3e6f0b88	0.23344243
239	0x3d58ccd2	0.052929707
240	0xbd5a05eb	-0.0532283
241	0xbb199838	-0.0023436677
242	0xbda2bbce	-0.07945977
243	0xbe1b51a9	-0.1516787
244	0xbf208da6	-0.6271614
245	0x3dbf5956	0.09343211
246	0xbe9d1086	-0.3067667
247	0xbdd54774	-0.10414019
248	0xbd29a289	-0.04141477
249	0xbe1e6cf9	-0.15471257
250	0x3da5caa3	0.080952905
251	0xbdded98e	-0.10881339
252	0xbc30b346	-0.01078493
253	0xbd9d3703	-0.07676508
254	0x3d97caa8	0.074117005
255	0x3db5b70f	0.08872806

bn3.weight f4 [64]
0	0x3df3c29a	0.11902352
1	0x3e1b7e31	0.15184857
2	0x3e298abe	0.16556832
3	0x3e38985d	0.18026872
4	0x3e132c0e	0.14372274
5	0x3ddc5c35	0.107597746
6	0x3e16a9cf	0.14713214
7	0x3e80c385	0.2514917
8	0x3e23c75e	0.15994021
9	0x3e3a414a	0.18188968
10	0x3e1c288b	0.15249841
11	0x3e553ba2	0.2082353
12	0x3e567296	0.20942149
13	0x3dee590a	0.116380766
14	0x3e71408e	0.23559782
15	0x3e5fe9a1	0.21866466
16	0x3e94abde	0.29037374
17	0x3e78d7c2	0.24301055
18	0x3e2b43de	0.16725108
19	0x3dbccf87	0.0921927
20	0x3e40f893	0.18844824
21	0x3e35b642	0.17745307
22	0x3e31e037	0.17370687
23	0x3e1bcb7d	0.15214343
24	0x3e0c027a	0.1367282
25	0x3e95adb4	0.29234087
26	0x3e06f565	0.13179548
27	0x3e3c87f1	0.18411233
28	0x3ea02f1b	0.3128594
29	0x3eac3ae5	0.33638683
30	0x3e3af460	0.18257284
31	0x3dfdeb42	0.123983875
32	0x3df1fb8f	0.11815559
33	0x3e112a14	0.14176208
34	0x3e19a29a	0.15003434
35	0x3e49dae2	0.19712403
36	0x3e17b269	0.14814152
37	0x3e12cb54	0.14335376
38	0x3e35265b	0.17690413
39	0x3e2016bd	0.15633674
40	0x3dd084f8	0.10181612
41	0x3e6006b8	0.21877563
42	0x3e377fba	0.17919818
43	0x3e24f4e6	0.16109046
44	0x3e0a6dcc	0.13518447
45	0x3e20460e	0.15651724
46	0x3ea447cd	0.3208603
47	0x3e0fad4a	0.14030948
48	0x3e0f4b0f	0.13993476
49	0x3e8bf381	0.27334216
50	0x3e1df073	0.15423755
51	0x3e3b6cba	0.18303195
52	0x3dfa705c	0.12228462
53	0x3e930869	0.28717354
54	0x3df97937	0.12181323
55	0x3e84cd4d	0.25937882
56	0x3e5b7f98	0.21435392
57	0x3e6e3372	0.23261812
58	0x3e14587b	0.14486878
59	0x3e27ec38	0.16398704
60	0x3e933260	0.2874937
61	0x3dd7338e	0.1050788
62	0x3e7d45c7	0.24733649
63	0x3e1caec9	0.1530105

bn3.bias f4 [64]
0	0x3cbaab42	0.02278674
1	0x3da9cda4	0.08291176
2	0x3da2fcb1	0.07958353
3	0xbd54ef48	-0.05198601
4	0xbcacfe97	-0.021117492
5	0x3d919ada	0.07109614
6	0x3dd3de58	0.10345143
7	0xbdcf881a	-0.10133381
8	0xbafc1c33	-0.0019234478
9	0x3cbe478e	0.02322748
10	0xbce4450a	-0.027864952
11	0xbd135062	-0.03596533
12	0xbde7731e	-0.11301254
13	0x3dc0e0ee	0.09417902
14	0xbc9dd8a8	-0.019268349
15	0xbe19ebcd	-0.15031357
16	0xbe27ba59	-0.1637968
17	0xbf433f72	-0.76268685
18	0x3cf8a66f	0.0303528
19	0x3dda5e2b	0.10662492
20	0xbe72da29	-0.23716034
21	0x3dc647fb	0.09681698
22	0xbd86628c	-0.06561765
23	0x3d045cf7	0.03231522
24	0x3d0f12b3	0.034929942
25	0xbf260420	-0.64850044
26	0x3d9a5f8d	0.07537756
27	0x3afe5c69	0.0019406202
28	0x3db9cf6a	0.09072764
29	0x3d066697	0.03281268
30	0x3dba80d8	0.09106606
31	0x3e48ac58	0.19596994
32	0x3d2b6da5	0.041852612
33	0x3da68705	0.08131222
34	0x3cb2f54a	0.021845479
35	0x3bb528b9	0.005528536
36	0xbceeb637	-0.029139621
37	0x3d5a0765	0.05322971
38	0xbdd917cb	-0.10600241
39	0xbc3fd6f8	-0.011708967
40	0x3e345bb6	0.1761311
41	0xbe5a4690	-0.2131598
42	0x3d800cf7	0.06252473
43	0x3dac2604	0.084056884
44	0x3d6dea08	0.058084518
45	0x3d88b3b0	0.06674898
46	0xbeb389c6	-0.3506605
47	0x3db45035	0.08804361
48	0x3da7d380	0.08194637
49	0xbd7e5182	-0.06208945
50	0x3c8f9252	0.017525826
51	0xbdda9867	-0.106736
52	0x3d0ce3c8	0.034396917
53	0x3d812745	0.06306318
54	0x3d7b9bb9	0.061427806
55	0xbda1a1ff	-0.078922264
56	0xbe110e84	-0.14165694
57	0xbea7b97b	-0.32758698
58	0x3d1f6c65	0.038921732
59	0x3df821ae	0.12115799
60	0xbda3ea55	-0.0800368
61	0x3dc9d74a	0.09855516
62	0xbe7bc0f4	-0.24585325
63	0xbbc89684	-0.0061214585

bn3.running_mean f4 [64]
0	0x3dfa4578	0.12220281
1	0xbe017d74	-0.12645513
2	0xbe0312a0	-0.12800074
3	0x3ec6ab2d	0.38802472
4	0xbd6148dd	-0.05500113
5	0xbf30c625	-0.69052345
6	0xbd8f4c15	-0.06996933
7	0xbe2477f3	-0.16061382
8	0xbe87296f	-0.263988
9	0xbef252f2	-0.47328907
10	0x3d8bcc47	0.06826072
11	0x3e453afb	0.1926078
12	0xbdd6b0b9	-0.10482926
13	0x3eac686b	0.33673415
14	0xbebf53c8	-0.37368608
15	0xbebff0a7	-0.3748829
16	0xbeb4a95a	-0.35285455
17	0xbe28a03c	-0.16467375
18	0xbdff5328	-0.12467033
19	0xbdd76544	-0.10517362
20	0xbe3c3026	-0.18377742
21	0xbea056df	-0.31316277
22	0xbe09a72a	-0.13442674
23	0xbea89abc	-0.32930553
24	0xbdbc91ca	-0.092074946
25	0xbf2898ed	-0.65858346
26	0xbeb9b7b5	-0.3627297
27	0xbe65b379	-0.22431745
28	0x3e7f1efd	0.24914165
29	0x3e878a73	0.26472816
30	0xbea58223	-0.3232585
31	0x3d1bf8cb	0.038079064
32	0xbe8d9745	-0.27654472
33	0x3df5bdb6	0.11999075
34	0xbe9f20e1	-0.31079772
35	0x3e542e3c	0.20720762
36	0xbee1d8f6	-0.4411084
37	0xbef07bc4	-0.46969426
38	0xbeb6efe2	-0.3572989
39	0xbe153326	-0.14570293
40	0xbd95bbee	-0.07311235
41	0xbeb90ec0	-0.36144066
42	0xbdb226d4	-0.08698812
43	0xbebaa89a	-0.36456758
44	0xbe7b384f	-0.24533199
45	0x3e7d5fae	0.2474353
46	0x3e974f44	0.29552662
47	0x3a9c3117	0.0011916485
48	0x3eb45e82	0.35228354
49	0xbeff66c6	-0.49883097
50	0xbe6802bd	-0.22657295
51	0xbf009fd4	-0.5024388
52	0xbe131ea3	-0.14367156
53	0x3f0b564f	0.5442857
54	0x3de59d23	0.11211612
55	0xbe1974fa	-0.1498603
56	0xbe10ff9a	-0.14160004
57	0x3db7ae6b	0.089688145
58	0xbea0dcdd	-0.31418505
59	0xbe10323d	-0.14081664
60	0xbcd1cb6f	-0.0256097
61	0xbec0c0d0	-0.37647104
62	0xbab5e530	-0.0013877507
63	0xbd6a38d0	-0.057183087

bn3.running_var f4 [64]
0	0x3cb772f5	0.022393683
1	0x3d8a76a1	0.06760908
2	0x3d326de3	0.043561827
3	0x3e0c6452	0.13710144
4	0x3d43f450	0.047840416
5	0x3d5581a8	0.052125603
6	0x3d0fa082	0.03506518
7	0x3d2d9d29	0.042386208
8	0x3d27e9d4	0.04099448
9	0x3d22b381	0.03972197
10	0x3d0440a6	0.032288216
11	0x3efe42a9	0.49660233
12	0x3dffaa76	0.12483685
13	0x3dec2a07	0.115314536
14	0x3e834f6c	0.25646532
15	0x3da53c74	0.08068171
16	0x3e2ed3e5	0.17073019
17	0x3cffe63e	0.031237718
18	0x3e12fe5a	0.1435484
19	0x3cb622ba	0.022233356
20	0x3d7252c1	0.05916095
21	0x3dabbbde	0.08385442
22	0x3d66300b	0.05619816
23	0x3d19bc67	0.03753319
24	0x3d07ae6d	0.03312533
25	0x3c8b882c	0.017032705
26	0x3d2b8f96	0.04188498
27	0x3d1e3808	0.038627654
28	0x3f6d1eca	0.92625105
29	0x3f3506bf	0.7071342
30	0x3dd05b1f	0.1017363
31	0x3d02dfd7	0.03195175
32	0x3cc7dfbf	0.024398683
33	0x3d53cb93	0.051707815
34	0x3cbb48fd	0.022861952
35	0x3e29f7fd	0.16598506
36	0x3cf265b2	0.029589508
37	0x3da1daea	0.07903083
38	0x3e01906a	0.12652746
39	0x3d9c86a8	0.07642871
40	0x3ce727e8	0.028217271
41	0x3da711fa	0.08157726
42	0x3d5f931e	0.05458366
43	0x3db8d484	0.09024909
44	0x3e2cab9c	0.16862339
45	0x3d299497	0.041401472
46	0x3d52b074	0.05143781
47	0x3ce35c3a	0.027753938
48	0x3e15ce07	0.14629374
49	0x3f230b32	0.6368896
50	0x3defa416	0.11701219
51	0x3dbd2129	0.092348404
52	0x3cfaea9e	0.030629452
53	0x3f0c7065	0.54859
54	0x3de652c4	0.11246255
55	0x3de5ee07	0.11227041
56	0x3e5b3e8d	0.2141058
57	0x3db95700	0.09049797
58	0x3d8ce684	0.06879905
59	0x3d2b7729	0.041861687
60	0x3f17dc1e	0.5932025
61	0x3cde0243	0.027100688
62	0x3d50feff	0.051024433
63	0x3d9c0b62	0.076193586

conv4.weight f4 [64, 64, 3, 3]
0	0x3d652b5f	0.055949565
1	0x3d897a8a	0.067128256
2	0x3cb1b0ea	0.021690805
3	0x3c8ad1ab	0.01694568
4	0xbce27839	-0.027645217
5	0x3e0bd6ac	0.1365611
6	0x3d30d992	0.04317624
7	0xbdf2aab3	-0.118489645
8	0xbdca0439	-0.09864087
9	0x3db1ab2f	0.08675229
10	0x3defb107	0.11703687
11	0x3c3f550a	0.01167799
12	0x3cad6fe8	0.021171525
13	0xbdf14516	-0.11780755
14	0xbdb72d7b	-0.089442216
15	0x3d90c811	0.0706941
16	0xbe88fdb7	-0.2675607
17	0xbdd62158	-0.104555786
18	0xbbf71ed9	-0.007541519
19	0x3d34e63d	0.044164885
20	0x3cb24c65	0.021764943
21	0xbd32281a	-0.043495275
22	0x3d887f4f	0.06664907
23	0xbe0659a3	-0.13120131
24	0x3c766044	0.0150376
25	0x3da78ace	0.08180772
26	0x3cb20d33	0.02173481
27	0x3b049a8f	0.0020233726
28	0x3bf53594	0.0074831937
29	0xbc90daf7	-0.017682536
30	0x3e2dfb54	0.16990405
31	0x3e687279	0.22699918
32	0xbcc2d599	-0.023783492
33	0xbd7a42f1	-0.061098997
34	0x3d7ede41	0.062223677
35	0xbddfd79d	-0.10929797
36	0x3cf707d4	0.0301551
37	0xbb896011	-0.00419236
38	0xbc054c67	-0.0081358915
39	0xbcf88460	-0.030336559
40	0x3daee1b1	0.08539141
41	0xbe9dc279	-0.30812433
42	0xbca1e7f9	-0.019763933
43	0xbdd45e85	-0.10369591
44	0xbe803efe	-0.2504806
45	0xbba87953	-0.005141416
46	0xbdb914cb	-0.09037169
47	0xbdff94f2	-0.12479581
48	0xbe42b0fa	-0.19012824
49	0x3dcfce77	0.10146802
50	0x3c7522b1	0.014961884
51	0xbdd108a9	-0.1020673
52	0x3d5b1dce	0.05349522
53	0xbc166577	-0.009179465
54	0xbd4fe154	-0.050752
55	0xbce63aca	-0.028104205
56	0xbcd65e4c	-0.026168011
57	0xbc49280d	-0.012277615
58	0xbd7443e4	-0.059635058
59	0xbe54fd15	-0.20799668
60	0xbd988216	-0.07446687
61	0x3b402020	0.0029316023
62	0x3dadfb69	0.08495218
63	0x3c0f3401	0.008740426
64	0xbda1dda6	-0.07903604
65	0xbd60ac21	-0.054851655
66	0x3c69cd03	0.01427007
67	0x3d15bff0	0.03656
68	0xbdbc4c6e	-0.09194265
69	0x3deae8ae	0.114701614
70	0xbe08f840	-0.1337595
71	0x3d62db5f	0.05538499
72	0x3d829e9f	0.06377911
73	0xbd0993d2	-0.033588238
74	0xbd07c5a5	-0.033147473
75	0x3e3ecef1	0.1863363
76	0x3d9ad487	0.075600676
77	0xbca997a4	-0.02070219
78	0x3c467090	0.012111798
79	0xbc8b93e6	-0.017038297
80	0xbd3586f4	-0.044318154
81	0xbcf8c944	-0.030369408
82	0x3db6149f	0.08890652
83	0x3da6b7e4	0.08140543
84	0xbc9c36f6	-0.019069176
85	0xbdf0d1b7	-0.1175875
86	0x3dafafe0	0.08578467
87	0x3d6d80ab	0.057984035
88	0xbdf75c9b	-0.1207821
89	0x3e37fc4f	0.17967342
90	0x3dee0e11	0.11623777
91	0x3e7d09ce	0.24710771
92	0xbc9fed47	-0.019522322
93	0x3d05ed60	0.03269708
94	0x3dcf6fbd	0.10128734
95	0x3d72507b	0.059158783
96	0x3dc0950b	0.09403428
97	0xbe67dc18	-0.22642553
98	0x3cf80737	0.030276878
99	0x3dee90d9	0.11648721
100	0x3e066be3	0.13127093
101	0xbcc3ab9c	-0.02388554
102	0x3de5c978	0.11220068
103	0x3ce910f2	0.028450463
104	0x3e88ce93	0.26720104
105	0xbd131678	-0.0359101
106	0x3d9edd6e	0.07757078
107	0x3dfd9161	0.123812445
108	0x3cfd5107	0.030922426
109	0xbd1155b3	-0.03548212
110	0xbd4ea18a	-0.050447024
111	0x3d920645	0.07130102
112	0xbde84435	-0.113411345
113	0x3d214cdf	0.03937995
114	0xbdaaac62	-0.08333661
115	0xbd9c6cff	-0.07637977
116	0xbe36a88f	-0.17837738
117	0xbcdfd14c	-0.02732148
118	0x3c1191f4	0.008884896
119	0xbd5138f3	-0.0510797
120	0xbdb2e6f1	-0.08735455
121	0xbe0832ac	-0.1330058
122	0xbda66a8d	-0.08125792
123	0xbdc5d08f	-0.0965892
124	0x3d89384f	0.06700193
125	0x3c6e3f3c	0.014541443
126	0x3c359d8b	0.011084924
127	0x3e40d237	0.1883019
128	0x3dfc8fb5	0.123320974
129	0x3dc16c8a	0.0944453
130	0x3e6a8105	0.2290078
131	0x3d887a8d	0.06664
132	0x3ccad7a8	0.024761036
133	0xbe336511	-0.17519023
134	0x3ddda149	0.10821778
135	0xbe2848a1	-0.16433956
136	0xbc911d64	-0.01771421
137	0xbc9cfc46	-0.019163262
138	0xbe60155f	-0.21883152
139	0x3b6e3e51	0.0036353061
140	0xbd9426d7	-0.072339706
141	0xbdadcdca	-0.08486517
142	0x3cd001c9	0.025391476
143	0x3e4affee	0.19824192
144	0x3cb85702	0.022502426
145	0x3d30783e	0.043083422
146	0x3ccdca5e	0.02512091
147	0xbc22756f	-0.009915694
148	0x3d477cc3	0.048702966
149	0x3ea56fe1	0.3231192
150	0xbd30df46	-0.04318168
151	0x3de7bcb7	0.113152914
152	0x3cf75b4e	0.030194905
153	0xbcadb2c1	-0.0212034
154	0x3d64bb14	0.055842474
155	0x3d8ee8ec	0.0697802
156	0xbd7be9ee	-0.06150239
157	0x38e9499c	0.000111240166
158	0x3d51db30	0.051234424
159	0x3d2574aa	0.040394463
160	0x3b9fe0f3	0.004879111
161	0x3de57d79	0.11205573
162	0x3c9de03d	0.019271964
163	0xbd240d0c	-0.040051505
164	0xbd88fe5f	-0.066891424
165	0xbcfdbd7c	-0.030974142
166	0x3e32e1b3	0.1746891
167	0x3da6072a	0.08106835
168	0x3e2342bc	0.15943426
169	0x3c5d9e89	0.013526567
170	0xbd06efe1	-0.03294361
171	0x3dc53a74	0.0963029
172	0x3d066bcb	0.032817643
173	0x3e86beb7	0.2631738
174	0x3dc9f274	0.098606974
175	0xbe17f32e	-0.1483886
176	0x3d8362d1	0.06415332
177	0xbd4ba2a8	-0.049715668
178	0xbbf71ab8	-0.007541027
179	0x3e0cf537	0.13765417
180	0xbdb9d82a	-0.09074433
181	0xbdcc2729	-0.09968407
182	0xbd78275c	-0.06058441
183	0xbccb0fb6	-0.024787765
184	0xbe55bd73	-0.2087305
185	0xbe332122	-0.17493108
186	0xbcf224ac	-0.029558502
187	0xbe4411ab	-0.19147365
188	0xbde320bd	-0.11090229
189	0xbd3bacd5	-0.045819122
190	0xbce67e1c	-0.028136306
191	0xbcaafb78	-0.020871863
192	0xbda255fb	-0.07926556
193	0xbd49b150	-0.049241364
194	0x3db92d66	0.09041862
195	0xbcf448bc	-0.029819839
196	0xbc536538	-0.01290255
197	0xbd9c1856	-0.07621829
198	0xbd259624	-0.04042639
199	0xbe43f3ef	-0.19136022
200	0xbb9143c8	-0.004433129
201	0x3bd3ea8c	0.006467169
202	0xbd688409	-0.056766544
203	0x3d94636d	0.072455265
204	0x3df42544	0.1192117
205	0xbcf97b6f	-0.030454366
206	0x3ddeaa85	0.10872368
207	0xbdca20f4	-0.098695666
208	0xbdd55c18	-0.10417956
209	0xbd96bb07	-0.073598914
210	0xbd9b5609	-0.07584769
211	0xbab9ed40	-0.0014185086
212	0x3dc60226	0.096683785
213	0x3bc522da	0.0060161175
214	0xbe4f0db3	-0.2022007
215	0x3c9cfdff	0.019164084
216	0x3c3fe4a8	0.011712231
217	0xbc0919ee	-0.0083679985
218	0x3d800cf5	0.06252471
219	0xbd291946	-0.04128387
220	0xbdcb8487	-0.09937387
221	0xbe0103d9	-0.12599124
222	0x3c8400dd	0.016113693
223	0xbda13efc	-0.078733414
224	0x3db4774e	0.08811818
225	0xbc026517	-0.007958672
226	0x3be4fc10	0.006988056
227	0xbce64c9b	-0.0281127
228	0x3cfa8d62	0.030584995
229	0xbd63120a	-0.055437125
230	0x3d35b4d7	0.044361915
231	0x3b9e0a07	0.0048229727
232	0x3cab5f38	0.020919427
233	0xbca62e16	-0.020285647
234	0x3cb9ff31	0.022704693
235	0xbdacbfc2	-0.084350124
236	0xbd489f0b	-0.0489798
237	0x3d3858e5	0.04500665
238	0xbe0feae9	-0.14054455
239	0x3b8e8243	0.0043490245
240	0x3e381c90	0.17979646
241	0xbd1a1b99	-0.037623975
242	0x3dc95091	0.0982982
243	0xbd0b03e7	-0.03393927
244	0x3d2f72c9	0.042834077
245	0xbddb14c8	-0.10697323
246	0x3d12bfb6	0.03582736
247	0xbd377dff	-0.044797894
248	0x3ca86ec0	0.020560622
249	0xbbe52d2b	-0.00699391
250	0x3e86163a	0.26188833
251	0xbd9f8b0f	-0.07790195
252	0xba9a3c3b	-0.0011767218
253	0xbd1b1f36	-0.037871562
254	0xbd350895	-0.044197638
255	0xbd56c426	-0.052433155

bn4.weight f4 [64]
0	0x3e768115	0.24072678
1	0x3e4e47c9	0.20144571
2	0x3e380f93	0.17974691
3	0x3e91f200	0.28504944
4	0x3e17e2c7	0.14832602
5	0x3dcbcd12	0.099512234
6	0x3dc88902	0.09791757
7	0x3eab2081	0.33423236
8	0x3e806b68	0.25081944
9	0x3de2230d	0.11041842
10	0x3e391b86	0.18076906
11	0x3e419723	0.1890531
12	0x3dca2f4c	0.098723024
13	0x3dde7503	0.10862162
14	0x3ef2ffc3	0.47460756
15	0x3e445bd1	0.1917565
16	0x3e00c66e	0.12575695
17	0x3e659bd6	0.22422728
18	0x3e46b8ce	0.19406435
19	0x3e2ac3c9	0.16676249
20	0x3e1f9cd0	0.15587163
21	0x3e657bc5	0.22410496
22	0x3e5368b9	0.20645417
23	0x3e7dbcef	0.24779104
24	0x3d9257a4	0.071456224
25	0x3e157ef0	0.14599204
26	0x3ec0c3c1	0.37649348
27	0x3ed601f8	0.41798377
28	0x3db388dc	0.08766338
29	0x3dad8aea	0.084737614
30	0x3e38daed	0.18052264
31	0x3f148655	0.58017474
32	0x3deac91a	0.11464138
33	0x3d9c37bd	0.07627819
34	0x3e00009f	0.12500237
35	0x3e13b826	0.14425716
36	0x3ec6304f	0.38708732
37	0x3deeca51	0.116596825
38	0x3e120eeb	0.14263503
39	0x3ec82361	0.39089492
40	0x3f0aedad	0.54268914
41	0x3ddf6c68	0.10909349
42	0x3eb0e4fc	0.345497
43	0x3e277a04	0.16355139
44	0x3e83232c	0.25612772
45	0x3d7e7241	0.06212068
46	0x3e236784	0.15957457
47	0x3e6fa133	0.23401336
48	0x3e5917b2	0.21200445
49	0x3e75aec8	0.23992455
50	0x3e298d5b	0.16557829
51	0x3f18d571	0.59700686
52	0x3dbe56b9	0.09293885
53	0x3e0be89f	0.13662957
54	0x3dd5b156	0.10434215
55	0x3f080932	0.5313903
56	0x3e24978b	0.16073434
57	0x3db01e09	0.08599479
58	0x3d9c528d	0.07632933
59	0x3e051e17	0.1299976
60	0x3dc57975	0.09642307
61	0x3ebeff41	0.37304118
62	0x3efd5aaf	0.4948325
63	0x3e4a67ed	0.19766207

bn4.bias f4 [64]
0	0xbd7e9b1e	-0.06215965
1	0xbd3c6c1a	-0.04600153
2	0x3c062d91	0.008189575
3	0xbe0cbf07	-0.13744746
4	0xbd235201	-0.039873127
5	0xbd8af667	-0.06785279
6	0x3a38c0f4	0.0007047795
7	0xbdef21ca	-0.116763666
8	0xbe4aa90f	-0.19791053
9	0x3cd79276	0.026314955
10	0xbe6d64de	-0.23183009
11	0xbdc8e6a5	-0.09809617
12	0x3ae9bf2b	0.0017833462
13	0x3d440483	0.047855865
14	0xbdeecae4	-0.11659792
15	0xbc88904f	-0.016670374
16	0xbd9fe042	-0.07806446
17	0xbd277a6c	-0.040888235
18	0xbe2df01e	-0.16986129
19	0xbd4792fc	-0.04872416
20	0xbe05283d	-0.13003631
21	0xbe318bf9	-0.17338552
22	0xbe71359a	-0.23555604
23	0xbe72b08b	-0.23700158
24	0x3c9d1d8b	0.019179126
25	0xbe350cd0	-0.17680669
26	0xbd1aee36	-0.037824832
27	0xbcc27029	-0.023735123
28	0x3d81378b	0.06309422
29	0x3cfea801	0.03108597
30	0xbdc1b233	-0.09457817
31	0xbd53ffc6	-0.051757596
32	0xbce2f7d1	-0.027706059
33	0x3cac8b30	0.021062464
34	0xbd5bf8b2	-0.05370397
35	0xbcfa649a	-0.030565549
36	0xbd46db00	-0.0485487
37	0x3bef56ff	0.007304072
38	0xbca0712c	-0.019585215
39	0x3b8d6b8e	0.0043158
40	0xbe001d13	-0.12511091
41	0x3da9b80c	0.08287057
42	0xbde2f288	-0.110814154
43	0xbdf7babb	-0.12096163
44	0xbe6681a9	-0.22510399
45	0x3d0b1280	0.03395319
46	0xbca9ccbe	-0.020727511
47	0xbe6c2ba2	-0.2306352
48	0xbe7c45fc	-0.24636072
49	0xbe330fce	-0.17486498
50	0xbe2eeb88	-0.17082036
51	0xbb7a3944	-0.0038181106
52	0x3d0876e9	0.033316527
53	0xbdf5b9a9	-0.119983025
54	0x3c71682a	0.014734307
55	0xbe15defd	-0.14635845
56	0xbe2a4b9b	-0.16630404
57	0xbb4f81bf	-0.0031663028
58	0x3d3291b6	0.043595992
59	0xbcd47124	-0.025932856
60	0xbc28d26b	-0.010304074
61	0xbc5ba1d9	-0.013405287
62	0xbc4a7c8e	-0.012358798
63	0xbd9a2c8e	-0.075280294

bn4.running_mean f4 [64]
0	0xbee00ad1	-0.43758252
1	0x3c90b63a	0.017665017
2	0x3e50cf98	0.2039169
3	0x3d4f7653	0.050649952
4	0xbe26c4e4	-0.16286045
5	0xbea7967d	-0.32732
6	0xbeb54e9f	-0.35411546
7	0x3ec5a681	0.38603595
8	0xbef53b43	-0.47896776
9	0xbe51cef7	-0.20489107
10	0xbf37176d	-0.7152012
11	0xbe127443	-0.14302163
12	0xbed8eef0	-0.42369795
13	0xbc6bd245	-0.014393394
14	0x3dc8603b	0.097839795
15	0x3e9d3f9c	0.30712593
16	0x3dc5e667	0.096630864
17	0x3ebfe9e3	0.3748313
18	0x3ce61556	0.028086346
19	0x3d87a91d	0.06624053
20	0x3e0bec5f	0.13664387
21	0xbd8c8315	-0.068609394
22	0xbe24c5f3	-0.16091137
23	0xbdf99e40	-0.12188387
24	0xbe3c5abe	-0.1839399
25	0xbf899099	-1.0747253
26	0x3e1543f3	0.14576702
27	0x3d34b060	0.044113517
28	0x3e96bba1	0.29440024
29	0xbe1af135	-0.15131076
30	0xbe418360	-0.18897772
31	0xbe65064a	-0.2236568
32	0xbd4a789b	-0.049431425
33	0x3e196e7c	0.14983553
34	0xbf037a8c	-0.51358867
35	0xbe7ea599	-0.24867858
36	0xbe232f9e	-0.15936133
37	0xbe6b5ae4	-0.22983891
38	0x3dfe999a	0.12431641
39	0x3dc950ef	0.0982989
40	0x3e596c6f	0.2123277
41	0xbe583b35	-0.21116336
42	0xbf192571	-0.59822756
43	0xbf4389ec	-0.7638233
44	0xbd34e9a7	-0.04416814
45	0xbe44be61	-0.19213249
46	0xbe490144	-0.19629389
47	0x3f1a16ff	0.6019134
48	0xbc6de67b	-0.014520283
49	0xbea77539	-0.3270662
50	0xbefadbd3	-0.48995838
51	0x3e819cd5	0.25314966
52	0x3cbda44a	0.023149628
53	0x3f5b93f3	0.8577263
54	0xbeb85b7b	-0.36007294
55	0x3de6e07a	0.11273284
56	0xbf0305cb	-0.51180714
57	0xbe8ab373	-0.27090034
58	0xbe9436b7	-0.28947994
59	0xbe2fe8a1	-0.17178585
60	0xbeb42b06	-0.35189074
61	0x3e858539	0.26078203
62	0xbe6278cc	-0.22116393
63	0x3e0ef074	0.13958913

bn4.running_var f4 [64]
0	0x3f475fd9	0.77880627
1	0x3e688781	0.2270794
2	0x3e95aaca	0.29231864
3	0x3e58809d	0.21142812
4	0x3e9a706a	0.3016389
5	0x3d428787	0.04749253
6	0x3de2e314	0.11078468
7	0x3e89b735	0.26897588
8	0x3e8dbf22	0.27684885
9	0x3e781b5e	0.2422919
10	0x3d2b3145	0.041795034
11	0x3eed142f	0.4630446
12	0x3d55ba2d	0.052179504
13	0x3db94a76	0.090474054
14	0x3e9a5d8b	0.30149493
15	0x3f57d731	0.8431273
16	0x3dc5b6eb	0.096540295
17	0x3e86f846	0.26361293
18	0x3df167e4	0.11787394
19	0x3e725fc7	0.23669349
20	0x3e0cc0d0	0.13745427
21	0x3ec951ff	0.3932037
22	0x3e004568	0.12526476
23	0x3eda744b	0.4266685
24	0x3d6af80c	0.057365462
25	0x3da2052a	0.07911141
26	0x3e82062b	0.2539533
27	0x3f6694a1	0.9007054
28	0x3d5083b7	0.050906863
29	0x3d8ce622	0.06879832
30	0x3e9a1ab5	0.300985
31	0x3f9c24e3	1.2198757
32	0x3d821bbd	0.06352947
33	0x3d592720	0.053015828
34	0x3e22e525	0.15907724
35	0x3e386a65	0.18009336
36	0x3f58e3d5	0.84722644
37	0x3dc4c2b7	0.096074514
38	0x3e344562	0.17604592
39	0x3ec4b2aa	0.3841756
40	0x3f19012b	0.5976741
41	0x3e095189	0.1341001
42	0x3ea09547	0.3136389
43	0x3dc85963	0.09782674
44	0x3e746d26	0.23869762
45	0x3d4cf619	0.050039385
46	0x3e934919	0.28766707
47	0x3e80e6d5	0.2517611
48	0x3dbd4c03	0.09243014
49	0x3e85195e	0.25995916
50	0x3e44de4a	0.19225422
51	0x3f2075a2	0.62679493
52	0x3d9c6b4f	0.07637655
53	0x3e19664f	0.14980434
54	0x3db91fcd	0.09039269
55	0x3ebb35d0	0.36564493
56	0x3e2e2282	0.17005351
57	0x3d896c22	0.06710078
58	0x3d8797b6	0.066207334
59	0x3e3f4c1b	0.18681376
60	0x3d996863	0.07490613
61	0x3f0e9dd2	0.55709565
62	0x3eb2dab3	0.3493248
63	0x3e7b20f4	0.2452429
