ckpt/ckpt-t-cr3-deepsc-t2db-awgn.pth (torch, 766247 bytes, 46 tensors)

conv1.weight f4 [16, 3, 3, 3]
000000 79 b5 a1 3d d2 eb 03 3e 07 e8 31 3e 3f 2a ba bd
       0.07895941 0.12882927 0.17373668 -0.09090089
000010 74 7e 51 3e 06 84 bd bd af 17 8c bd b5 60 72 bb
       0.20458394 -0.09253697 -0.06840455 -0.0036983911
000020 a9 ca 78 bd d0 d5 cb 3b 1a 65 62 bd 07 94 13 3d
       -0.060740147 0.006220557 -0.0552722 0.03602984
000030 d7 ef 63 bd 20 fa 35 3e aa 95 b4 bd 53 13 3a bd
       -0.05564865 0.17771196 -0.08817609 -0.045428585
000040 4f dc b4 bc a8 f1 30 bd e2 76 12 bd cb 78 2d be
       -0.022077708 -0.04319921 -0.035757907 -0.1694061
000050 7f a9 d8 bd 8e 19 96 3d cb cd 69 3e 6d 99 5a bd
       -0.10579204 0.07329093 0.2283241 -0.053368974
000060 1c 3c 5e 3d c3 83 b4 3d 36 17 00 3d d2 21 7f bd
       0.054256544 0.08814194 0.031272136 -0.062288113
000070 01 ef 20 be e9 f3 e6 bd e0 92 0e be 80 55 1a be
       -0.15716173 -0.11276991 -0.13923216 -0.15071678
000080 0d cc 20 be 3a eb c0 3b 34 db c1 3d 78 4e 77 bc
       -0.15702839 0.005887416 0.09465638 -0.015094392
000090 e9 45 0f bd bf e6 e6 bd df 48 de bd d8 a3 0f be
       -0.03497878 -0.1127448 -0.10853743 -0.14027345
0000a0 29 e1 b3 bd a8 80 c2 bd 29 28 8d 3c 48 6c 56 3d
       -0.0878318 -0.094971955 0.017231064 0.05234936
0000b0 d1 a2 96 3b 89 a2 8e 3d 2e 96 9a 3c 45 7b 52 3d
       0.004597046 0.06964595 0.01887044 0.05138709
0000c0 16 35 8e 3b c5 73 b2 bd d8 b0 64 3d b9 60 33 3d
       0.0043398244 -0.087134875 0.055832714 0.043793414
0000d0 7a d5 c4 3d bd 2b 66 3d e2 a4 f2 bc 9e c4 cf 3c
       0.0961103 0.056194056 -0.029619638 0.025362309
0000e0 e5 0c 61 3d 99 f8 9c bc 0a 72 05 3e 5c da 02 3e
       0.054943938 -0.01916151 0.13031784 0.1277861
0000f0 26 78 62 bd 0d b5 cc 3d f0 c7 8b bc 0c 11 bf bc
       -0.055290364 0.0999547 -0.017063111 -0.023323558
000100 f0 45 be 3c 52 00 d7 ba 66 70 0d bd 09 0d 74 3e
       0.023226708 -0.0016403294 -0.03453102 0.23833098
000110 93 5d 54 3e a7 96 23 bd 31 3f c3 3d 1c e1 00 3b
       0.2073882 -0.039938595 0.09533537 0.0019665426
000120 89 39 66 bd ea 64 99 bb 77 df 29 3d c4 64 07 bd
       -0.056207214 -0.0046812193 0.04147288 -0.033055082
000130 7f 8c b5 3e a5 a6 c1 3e c7 d3 ce bd c6 f9 d0 3d
       0.35458753 0.37822452 -0.10098987 0.102038905
000140 46 13 21 3d fa 8e 2a 3d 0a 5c d3 3d 56 12 03 3e
       0.03932502 0.04164026 0.103202894 0.12799963
000150 ef af 53 3e 66 be 2b 3e ae 6b 64 3e fb bc f6 bc
       0.20672582 0.1677185 0.22306702 -0.03011941
000160 1b 1c dd bd e5 aa 1a 3c 03 97 38 3d af 67 37 3e
       -0.10796376 0.0094401585 0.04506589 0.17910646
000170 80 62 de 3d 70 73 19 3e 27 90 08 3e 55 ef b7 3d
       0.10858631 0.14985442 0.1333624 0.08981196
000180 f6 cb c3 bc ac 8e 63 bd 35 ff 80 bb b6 5e d0 bd
       -0.023900967 -0.055555984 -0.003936673 -0.10174315
000190 7f 1f 33 3c ab 2e af bd 18 33 3c 3c e0 8b 64 3d
       0.010932802 -0.08553823 0.011486791 0.055797458
0001a0 4f 12 5a bd d5 cc 64 bd e4 03 d5 bd 14 cb 74 bd
       -0.053240117 -0.055859406 -0.10401133 -0.059763983
0001b0 ef 05 92 3d 02 4f 8c 3d 61 b5 43 bd c0 06 27 3e
       0.07130038 0.06851007 -0.0477804 0.16311169
0001c0 36 7a b7 3d 8a d5 0f bc 7f 69 58 bc 03 28 13 bd
       0.08958857 -0.008778939 -0.013208746 -0.03592683
0001d0 ea 87 d6 bc 81 51 a1 3d bb 14 95 3d 0b 36 90 bc
       -0.026187856 0.07876874 0.07279345 -0.017603895
0001e0 57 2e 71 3e 9e c5 dc 3d 39 51 68 bc 99 e8 84 3c
       0.23552833 0.1077988 -0.014179521 0.016224192
0001f0 bb 75 b0 ba 65 a2 8e bd 2c 15 04 3e 24 90 44 3e
       -0.0013462821 -0.06964568 0.12898701 0.1919561
000200 b5 82 d6 bc 24 99 cd 3e e6 2a 46 3e 21 df e7 3c
       -0.026185373 0.401559 0.19352302 0.028304638
000210 24 8e 0e 3c 2c a4 2c bd b8 a1 31 bc ba e3 9c 3c
       0.008700881 -0.042148754 -0.010841779 0.019151557
000220 ad 11 31 bd f6 12 71 3c f8 43 77 bd ca 14 71 be
       -0.043229748 0.014713993 -0.060367554 -0.23543087
000230 c8 7f 92 bd 8a a9 e4 3d 66 30 35 3e 1b 17 0d 3e
       -0.071532786 0.111651495 0.17694244 0.13778345
000240 ae d0 eb bb 44 78 2b bd 10 ec 3e 3d 79 7b e8 bd
       -0.0071965074 -0.04186274 0.046611845 -0.113516755
000250 b9 41 16 be f6 50 b9 bd ce b7 9d 3d 1d 6a 29 3e
       -0.14673509 -0.09048645 0.077010736 0.16544385
000260 7a 3f 00 3e 69 92 16 bc ac 81 23 bd a3 e2 bf bd
       0.12524214 -0.00919018 -0.039918587 -0.093693994
000270 11 ef b3 bd b3 fc 29 3c 2d 1d a7 bd 7f d5 bf 3c
       -0.08785833 0.01037519 -0.08159862 0.023417233
000280 7c 51 85 3e 37 ca 3b bc 75 4a d7 bd cc 7d 77 3d
       0.2603873 -0.011461786 -0.105122484 0.060422704
000290 c0 53 5f be 18 11 c3 3d 27 8a f6 3d 01 54 ad bd
       -0.21809292 0.09524745 0.12038069 -0.08463288
0002a0 2d 3d 89 bc 96 ed bf 3c 47 d8 f8 bb a2 92 38 be
       -0.016752804 0.02342872 -0.0075941416 -0.18024686
0002b0 e6 11 51 bc e2 d2 7c be 7b 18 d6 bc 0b 86 53 3d
       -0.012760615 -0.2468982 -0.02613472 0.051641505
0002c0 1c c2 98 bd 30 0f 9a bc 53 de 8e bc a6 bd 22 bc
       -0.074588984 -0.01880607 -0.017439997 -0.009932911
0002d0 a3 36 b4 be c2 c1 b4 bd 55 8d 75 be d1 84 08 bd
       -0.35197935 -0.08826019 -0.23979695 -0.03332979
0002e0 21 41 05 3c a8 97 3e bd c8 25 d5 3c ff 08 c0 bb
       0.008133204 -0.04653135 0.026018992 -0.0058604474
0002f0 ab 76 c2 3c 84 6e 3a bc 36 e8 90 bb 75 68 e1 bc
       0.023738226 -0.011378888 -0.004422213 -0.02751563
000300 41 1a ae 3d 0d f8 43 3d 22 77 45 3d ef 05 a7 3d
       0.08501101 0.04784398 0.048209317 0.081554286
000310 f5 e0 53 be 62 76 fb bd af 0e 16 bc 20 56 86 3d
       -0.20691283 -0.12278439 -0.009158774 0.06559396
000320 83 24 5d 3b 4b b9 ac 3d 62 29 cf bc 72 4d 3f 3d
       0.0033743687 0.08433779 -0.025288288 0.046704717
000330 d5 c5 17 3e af 8c 0d be 5b 3f 10 be bc 8e 7e 3d
       0.1482156 -0.13823198 -0.14086668 0.06214784
000340 8e 19 af 3d a0 dc b4 bc 03 bb fc bc bb df a0 bd
       0.08549796 -0.022077858 -0.030850893 -0.07855173
000350 49 a0 63 be a2 f2 09 3d b6 a1 5e be bf d5 d2 be
       -0.22229113 0.03367866 -0.21741375 -0.411787
000360 77 e4 27 bd 95 62 db 3c e3 f0 cc 3c 41 16 fe bd
       -0.040989365 0.026780406 0.025017207 -0.12406588
000370 cf 0c 6d 3c 36 46 9c 3c e9 5a f8 bc 82 c6 05 3d
       0.014468386 0.019076448 -0.030316787 0.032660015
000380 83 83 4d 3d 14 27 cf bd 77 78 4d 3c 25 97 22 3c
       0.050174247 -0.101148754 0.012540928 0.009923731
000390 63 58 8c be a0 f5 42 bd ba 65 84 b9 95 a5 f8 bd
       -0.27411184 -0.047597528 -0.00025252794 -0.12140957
0003a0 8f 61 df bc 13 81 e1 bb 73 90 24 3d 47 dd 80 bd
       -0.0272682 -0.006881842 0.04017682 -0.06292205
0003b0 52 f8 a3 bb 28 74 11 bf 31 e2 25 be be a4 b0 bd
       -0.0050039673 -0.56817865 -0.16199566 -0.08625172
0003c0 88 33 9b bd ab bf bd bd 99 9d cb 3c 3a 1d 4a bd
       -0.07578188 -0.092650734 0.024855422 -0.04934428
0003d0 44 96 01 bd 6a c6 8f 3c 06 31 2c be 08 a6 94 bd
       -0.031637445 0.017550666 -0.16815576 -0.072582304
0003e0 61 2b d0 3c 0f 37 09 bc 4d 33 d5 3c 24 f3 1a 3d
       0.02541131 -0.008374943 0.026025439 0.037829533
0003f0 eb f9 8b bd f4 8a a0 bd 29 08 33 3d 43 2e 4e be
       -0.068347774 -0.07839003 0.043708954 -0.20134835

bn1.weight f4 [16]
000000 d4 84 cc 3d b8 25 45 3e 60 ff 3c 3e ed 0d 39 3e
       0.099862725 0.1925267 0.18456793 0.18071719
000010 ac 7e 59 3e 6b 72 f7 3d cb 37 25 3e 8d a7 1f 3e
       0.21239728 0.1208237 0.16134565 0.1559126
000020 fe 16 76 3e 0f 32 4d 3e 65 2a 1f 3e fa 14 38 3e
       0.24032208 0.20038627 0.15543516 0.17976752
000030 4f 4b 0b 3e aa c0 4c 3e 32 33 46 3d b9 02 5e 3e
       0.13602947 0.1999537 0.048388667 0.21680726

bn1.bias f4 [16]
000000 7d e3 8b 3e 66 68 ae 3c 4e 0a 04 3d 86 b3 9a bc
       0.27321997 0.021290015 0.03223639 -0.018884432
000010 46 ae 16 be e7 e1 23 3d 0b 5b 97 3e 5f c5 ae bd
       -0.14714918 0.04001036 0.29561648 -0.08533739
000020 c3 07 48 bd 94 59 10 3e eb 5b 4d 3d 18 cc b4 3d
       -0.048835527 0.14096671 0.050136488 0.0882799
000030 03 5f 09 3d 23 eb c0 bd 34 bc 56 3d fb 26 88 bd
       0.033537876 -0.09419849 0.05242558 -0.0664806

bn1.running_mean f4 [16]
000000 87 09 14 3e 9b ff de be 4c 3a 31 3f 6c e0 f7 3e
       0.1445676 -0.43554386 0.6922958 0.48413408
000010 0b 7e 32 3f eb b0 01 3b 2c b1 18 bf 7e e6 bf be
       0.69723576 0.001978929 -0.5964534 -0.3748054
000020 cb a5 32 bf b5 26 1a bf 1e 2b f9 3e 40 dd a4 3e
       -0.6978423 -0.6021531 0.48665708 0.3220005
000030 a9 17 73 3c e0 20 aa be 4f f1 fa 3c 05 5f f9 be
       0.014837184 -0.33228207 0.030632643 -0.48705307

bn1.running_var f4 [16]
000000 6d 7f f1 3b 1d fc 4a 3d 7b ef 06 3e 47 fe 7b 3d
       0.0073699267 0.04955684 0.13177292 0.061521795
000010 3b 9d 0e 3e 81 d7 9a 3c 52 05 e5 3d 72 fb 87 3d
       0.13927166 0.018901588 0.111826554 0.06639756
000020 ed 77 15 3e b0 07 d5 3d 4b b6 a4 3d 21 38 05 3d
       0.1459653 0.10401857 0.08042582 0.03252423
000030 3a 1e 5d 3c 9a 41 0b 3d 45 80 b2 3b 6d a3 9b 3d
       0.013495976 0.03399811 0.00544742 0.0759953

conv2.weight f4 [64, 16, 3, 3]
000000 0c 8e 2d bd 18 aa cd bc 94 db d3 bc e2 99 9e bd
       -0.042371795 -0.025105521 -0.025861539 -0.077441946
000010 b5 53 36 3d b3 54 51 3d c5 ea ab 3b e0 e1 f7 3d
       0.044513423 0.051106166 0.0052464926 0.12103629
000020 bb 8e 8c 3c 6c 9d 25 bd f9 ba 3a 3d f2 af 69 bd
       0.017157903 -0.040433332 0.045588467 -0.05705256
000030 3a 1d b4 3b 63 f1 c5 3d a5 51 da 3c 53 9f e8 bc
       0.005496648 0.096651815 0.02665026 -0.028396284
000040 23 83 03 3d 13 4f 89 bd 53 cc 12 bd 04 d3 87 bb
       0.032107484 -0.06704535 -0.03583939 -0.004145028
000050 77 3c 9f 3c ad 37 30 bc 0e 02 37 3e cc 4f 07 bd
       0.019438012 -0.010755462 0.17871878 -0.033035085
000060 74 3e 9b bd 57 b5 1a 3e e1 c3 40 bc d2 99 09 3e
       -0.07580271 0.15108238 -0.011765451 0.13437584
000070 56 23 8c 3c 75 80 34 3d 63 19 26 bb c8 a1 c2 bd
       0.017106693 0.04406782 -0.0025344722 -0.095035136
000080 20 ce 8e bd 4f 53 46 bd 8f 28 ec bd 3a 46 27 be
       -0.06972909 -0.048419293 -0.115311734 -0.16335383
000090 a3 18 e0 bc 81 01 00 bd f1 bc 89 bd 34 e5 86 bd
       -0.027355498 -0.031251434 -0.06725491 -0.06586686
0000a0 1c 42 6a bd 04 cf 96 3d 45 00 2d bd d6 29 6a 3d
       -0.057191953 0.07363704 -0.042236585 0.057168804
0000b0 92 71 26 3e 58 44 a2 bd 95 de f1 bd d6 5d 8d bd
       0.16254261 -0.07923192 -0.11810032 -0.069026634
0000c0 e4 dd 9c bd cd 0d 01 3c f3 03 b3 bc 57 d6 e6 bb
       -0.0765951 0.0078768255 -0.02185247 -0.0070445943
0000d0 7a d4 2b 3e c9 33 b1 bc 9c 60 1d bc a1 77 d7 3d
       0.16780272 -0.021631138 -0.009605553 0.10520864
0000e0 cd cd 3e 3d b5 e1 93 3b 05 00 d3 3d a9 7b 89 3d
       0.046582986 0.0045129904 0.10302738 0.067130394
0000f0 fd d0 9b 3b 08 80 aa bd 76 e2 74 bd 7b f1 df 3d
       0.004755138 -0.08325201 -0.059786282 0.109347306
000100 b3 33 04 bc 36 2f df bc ae 45 23 3e 44 ff 6d be
       -0.008068967 -0.027244192 0.1594455 -0.23241907
000110 01 cf 66 bc c1 ff 34 bd b6 8d 0e be 6c 63 63 bd
       -0.0140874395 -0.04418922 -0.13921246 -0.055514738
000120 10 b1 66 bd c8 7d e6 3c 8a 8f d3 bb 3b 98 28 3c
       -0.056321204 0.028136149 -0.00645632 0.010290201
000130 66 be 1e bd f2 27 ea bd 0f 42 a2 bd 3a 1c b3 bd
       -0.038755797 -0.114334 -0.07922756 -0.08745618
000140 93 cd 6e bf 1f 2a 5a 3d e8 5e d8 3c 4e 5c 22 3d
       -0.9328243 0.053262826 0.026412442 0.03963881
000150 97 12 1b 3d 72 09 62 bd b0 c0 9c be de d6 d8 3d
       0.037859526 -0.05518479 -0.3061576 0.10587858
000160 ac 1a 68 be 45 3d 1e bf 5e d5 27 bd 85 67 32 3a
       -0.22666425 -0.6181224 -0.040974967 0.0006805587
000170 c0 8d bc bd 95 c5 12 bd 59 14 1b bd 27 c0 96 bd
       -0.09206724 -0.03583296 -0.037861202 -0.07360869
000180 80 63 cc bd a8 52 94 bc bb 62 a3 bd 63 62 da 3c
       -0.099799156 -0.01810582 -0.07977816 0.026658243
000190 46 62 15 3c 4c 76 96 3d d0 e8 98 3d 0f 1d a2 bc
       0.0091176685 0.07346782 0.074662805 -0.019789247
0001a0 16 61 8f 3c 41 06 14 3a 88 86 29 3d 51 29 99 3b
       0.017502349 0.0005646684 0.041388065 0.0046741148
0001b0 ad 46 37 bc 40 27 50 bd 46 c8 31 bd 76 6a 23 be
       -0.011186284 -0.05081868 -0.043403886 -0.1595858
0001c0 b9 cb f3 bd ee 04 81 3d e2 b2 63 be 91 61 c6 bc
       -0.119040914 0.062997684 -0.22236207 -0.024216445
0001d0 1c c6 87 3d c7 73 97 3d 21 d5 31 3d 00 31 57 bd
       0.06629583 0.0739513 0.043416146 -0.052536964
0001e0 6b bc 21 bc ba cf bc bd 98 ef ec bc db 36 0e 3e
       -0.0098715825 -0.09219308 -0.028922841 0.13888113
0001f0 42 6a 48 3d c3 18 1e bd e5 39 ea 3d b1 b8 6e bc
       0.04892946 -0.038597833 0.11436824 -0.014570401
000200 5b d9 0e bd bd 9b b1 3d 8e 0c 4a bd a8 6c 2f bd
       -0.034875255 0.08672283 -0.04932838 -0.042828232
000210 05 47 13 be c0 19 6a bd 2f cf 7a bd 2e 39 4f 3d
       -0.1438256 -0.057153463 -0.061232742 0.05059164
000220 31 2e 2a bc bf 2e 42 3c 37 cd ac ba ee 35 fe bc
       -0.010386989 0.011851965 -0.0013183717 -0.031031575
000230 9b 95 40 bd 98 f1 ad 3c 1b a8 55 bc 01 16 ae bd
       -0.047017675 0.021233365 -0.013040568 -0.08500291
000240 7f 75 c0 bd 3a bf 3d 3c 30 06 c1 3d dd d4 4d bc
       -0.093974106 0.0115812365 0.09425008 -0.012562958
000250 ff 2a 13 bd 20 6b 85 3d 42 7e f9 bc 43 9b 33 3d
       -0.035929676 0.06514573 -0.030455712 0.04384924
000260 47 a5 ed 3d 60 a5 e3 3d be 70 be 3d 2c 66 dc bd
       0.1160379 0.11115527 0.092988476 -0.10761675
000270 4e 6c 4a 3e 7a 6f 96 3c a4 6c c7 bd b8 e5 c2 3d
       0.19767877 0.018363703 -0.097375184 0.095164716
000280 23 d8 cb bd 57 e2 bb be 0c a1 95 bc e7 ca 6d bd
       -0.09953334 -0.3669612 -0.01826527 -0.05805483
000290 dc e6 5a bd 4b aa 6a bd a6 23 f8 3d 87 c2 2d bd
       -0.05344282 -0.05729131 0.121161744 -0.042421844
0002a0 23 c5 94 3c 67 f4 ff bc fb 92 5d bd f2 1f f3 bc
       0.018160408 -0.03124447 -0.05409525 -0.029678319
0002b0 11 02 44 bc f4 71 91 3c f1 f8 db bd 31 0c 0e 3d
       -0.011963383 0.017754532 -0.10740841 0.034679595
0002c0 a4 cd 74 3d a8 b5 4c be be 3f 38 3d 73 0a 6f 3e
       0.059766427 -0.19991171 0.044982664 0.2334383
0002d0 bf 61 10 3d ea 99 3d bd 17 2d 10 be e4 37 2f 3d
       0.035249468 -0.046289362 -0.140797 0.04277791
0002e0 80 db d7 bd b0 f3 b4 bd 2b db 20 3c e5 43 e8 bd
       -0.10539913 -0.08835542 0.009817879 -0.11341075
0002f0 19 1b d2 bc 12 f3 3e 3d 15 c4 58 be ff 03 0c be
       -0.025647687 0.04661853 -0.2116855 -0.136734
000300 36 c3 63 3c ca 9c d4 bd 79 d4 ad bb 86 eb 23 be
       0.013901522 -0.10381468 -0.0053048697 -0.16007814
000310 15 31 11 be 11 81 11 3d ee 5e 67 3a e0 34 08 3d
       -0.1417888 0.035523478 0.00088260963 0.03325355
000320 2b 62 62 3d 12 f8 c2 3d 57 2d 3b be b9 db 7d 3b
       0.0552694 0.09519972 -0.18279015 0.0038735701
000330 6e 2b 83 bd 31 84 b8 be f6 59 89 bd 15 9a 0a be
       -0.06404768 -0.36038354 -0.06706612 -0.1353534
000340 e3 54 0e 3e df a9 7f be d5 80 70 be 51 27 38 3d
       0.13899569 -0.24967144 -0.23486646 0.04495937
000350 0b 2f ae bd 34 2d 3e be d4 40 43 bd 14 45 cb bc
       -0.085050665 -0.18571931 -0.047669247 -0.024813212
000360 9b ad 3e 3d 28 8d ac bc 36 28 be 3c 7f 4b 93 bd
       0.04655228 -0.021063402 0.023212533 -0.07192134
000370 99 51 8c bd 5c f2 c9 3d 77 5d b1 bd c0 0d aa bd
       -0.06851501 0.098606795 -0.08660405 -0.08303404
000380 31 a2 d1 bc 77 b9 89 3d 1b 45 61 3d b5 0c 68 3d
       -0.025590034 0.06724828 0.054997545 0.056652743
000390 63 70 5c 3d 8e e3 aa 3c d5 5e 8e 3d f1 05 06 3d
       0.053818118 0.02086046 0.069516815 0.03272051
0003a0 d4 d8 94 bd 3b 34 0e bd df b4 76 3d 0d 9d b7 3c
       -0.07267919 -0.03471778 0.060231086 0.022413755
0003b0 54 11 1c 3e 36 45 37 bd 4f 9c 17 be 14 86 38 3e
       0.15240985 -0.04474374 -0.14805721 0.18019897
0003c0 a7 d6 bf bc b9 e4 b7 bd a4 9e 59 3c cf 9f ae bc
       -0.023417784 -0.08979172 0.013282452 -0.021316437
0003d0 75 e0 c3 3d 28 37 ac 3c 1c 89 15 be 59 0a bb bc
       0.09564296 0.021022394 -0.14603084 -0.022832083
0003e0 d2 10 66 3e 95 99 d3 bd 47 66 3d bd 69 bd fb 3d
       0.22467354 -0.10332028 -0.046240117 0.122919865
0003f0 d7 16 1c bd de 86 21 bd ae fa ec bd ab fa 3b 3d
       -0.03810772 -0.03943526 -0.11571251 0.045893352

bn2.weight f4 [64]
000000 35 fa c6 3d 70 48 04 3e ea 75 87 3d 9b ed 29 3d
       0.09715692 0.12918258 0.06614287 0.041486364
000010 16 ef e6 3d fe 7a ee 3d 4d c8 3a 3e 8a e8 fc 3d
       0.11276071 0.11644553 0.18240471 0.12349041
000020 74 d6 92 3d 6b 63 77 3d 8e 1d b5 3d 83 00 7f 3d
       0.0716981 0.060397547 0.08843528 0.062256347
000030 95 9f 3f 3e c1 4f fa 3d 17 ef be 3d f8 59 52 3e
       0.1871322 0.12222243 0.093229465 0.20542133
000040 bf e8 50 3d 1e 13 05 3e 5f 7c 5f 3e ab 04 1b 3e
       0.051003214 0.12995574 0.21824788 0.151385
000050 be 59 11 3e e9 9c ed 3d 63 b5 99 3d ed aa d4 3d
       0.1419439 0.11602194 0.075053 0.10384164
000060 7f 75 f3 3d f8 72 1a 3e 49 f2 40 3e 45 c6 0c 3e
       0.11887645 0.1508292 0.18842424 0.13747509
000070 2c c6 cb 3d ea 52 dc 3d b5 c5 29 3e 70 68 ec 3d
       0.09949908 0.10758002 0.16579325 0.11543357
000080 63 6a 2b 3e 2d fe f0 3d 4b d2 7c 3e 87 57 0f 3e
       0.16739802 0.1176723 0.24689595 0.13998233
000090 a0 42 12 3e 6f 81 c3 3d ab 9a 3d 3e ae 6d a4 3d
       0.14283228 0.09546172 0.18516032 0.08028732
0000a0 91 26 4a 3d 35 f9 11 3e cc 73 19 3e 8d c9 10 3e
       0.049353186 0.14255221 0.14985579 0.14139386
0000b0 41 42 5b 3e 73 5a 97 3d 02 9e 2f 3e e9 a6 fa 3d
       0.21411993 0.07390299 0.17150119 0.12238867
0000c0 86 a3 7d 3d ae 78 fc 3d 40 2f 3e 3e 2d 9f cf 3d
       0.061923526 0.12327705 0.18572712 0.10137782
0000d0 77 37 1b 3e b7 26 41 3d ea f0 85 3d 1a c2 a3 3d
       0.15157877 0.047156062 0.06540091 0.07996006
0000e0 6a 30 76 3d 3f 77 79 3d 11 de ad 3d 61 d2 a8 3d
       0.060104765 0.060904738 0.084896214 0.082432516
0000f0 b6 c5 35 3e df 40 42 3e 01 3c 50 3e 3c 4b d7 3d
       0.17751202 0.18970059 0.2033539 0.10512397

bn2.bias f4 [64]
000000 7c d9 ae bb 64 e3 a3 3c 37 d4 e4 3d e6 37 b5 3c
       -0.0053359848 0.02000589 0.11173289 0.022121381
000010 f7 6c 49 bd 40 9d 4b 3d 94 92 4b be 25 5c 06 3d
       -0.049176183 0.049710512 -0.19880134 0.03280272
000020 06 2b a8 bc 86 4a 85 3b c2 19 99 3d d6 75 6b 3d
       -0.020528328 0.004067722 0.07475616 0.057485424
000030 72 72 fd 3b 4f 11 46 bd 62 00 d5 bc ad 53 27 be
       0.00773459 -0.04835635 -0.02600116 -0.16340514
000040 8a 93 b5 3d 3a 0d 4a 3d 2f 6c b9 be e8 5c ad be
       0.088660315 0.04932902 -0.3621535 -0.33859944
000050 7e b9 76 be 8e 48 21 3d 66 c5 3a bd dc a5 22 bd
       -0.24094197 0.039375834 -0.04559841 -0.039708957
000060 72 0d da 3d 4a 88 12 3c 43 a0 68 be 53 05 3d bd
       0.10647096 0.008943627 -0.22717385 -0.046147656
000070 39 53 0f bd 04 8b 2a 3d e0 0a 83 be 1e 56 9e 3c
       -0.034991477 0.041636482 -0.25594234 0.019328173
000080 31 fc af bd 16 3c c5 3c bf d9 a3 3a 19 ad d7 bd
       -0.085930236 0.024076503 0.0012500806 -0.10531063
000090 75 d8 95 bd ac 2a c6 bd cd 8d e0 bd 35 e4 db 3c
       -0.073166765 -0.09676108 -0.10964546 0.026842216
0000a0 d8 f9 d8 3d ba 1c d7 be 9f e1 7b be af 61 9f 3d
       0.10594529 -0.42014104 -0.24597786 0.077823035
0000b0 0b 72 9f bc db 33 c8 3d bc b8 b8 3c f8 a9 90 3e
       -0.01946356 0.09775516 0.022549026 0.28254676
0000c0 a3 57 a7 3d 8c 94 52 be d5 84 19 be 93 8e 93 bd
       0.08171012 -0.20564479 -0.14992078 -0.07204928
0000d0 ca d5 29 be 2b 3d 26 3d 8a be cd 3d ec b0 78 bb
       -0.1658546 0.040585678 0.10046108 -0.003794725
0000e0 30 57 5a 3d 00 bc 55 3d 45 74 cf 3d be 53 11 bd
       0.053305805 0.052181244 0.101295985 -0.035480253
0000f0 6d 1d 39 be c1 0e 37 bd 37 06 e7 bd 97 18 1c bd
       -0.18077631 -0.044691805 -0.11280482 -0.03810939

bn2.running_mean f4 [64]
000000 24 91 56 be bf a9 db bd 9a 54 e5 3c 8d df e2 3e
       -0.20953804 -0.10725736 0.027994443 0.4431118
000010 55 a4 20 bd b6 49 cc be cc cd f8 3e f6 12 02 bf
       -0.03921922 -0.39899987 0.4859451 -0.5081018
000020 e7 e5 4c bc 3e 82 04 bc e2 72 fc 3d a2 03 ae be
       -0.012505985 -0.008087693 0.123266 -0.33987147
000030 79 41 e9 ba b0 14 71 3e 8e 91 10 3f a2 6a 35 bd
       -0.0017796002 0.23543048 0.564721 -0.044291146
000040 03 3a a6 3d 62 2e 07 bd e6 7c eb 3d 0c 6b ad 3e
       0.081165336 -0.03300322 0.11498432 0.33870733
000050 b8 97 4e 3e 6e bc 5c 3e d1 9d 85 3e 9c 89 bc bd
       0.20175064 0.21556255 0.26096967 -0.092059344
000060 a5 a9 c8 be e7 fd c1 be b6 3c be be 20 b9 e6 bd
       -0.39191929 -0.37889025 -0.37155694 -0.112657785
000070 31 24 64 bd bd d3 3c 3e 2a ea 81 3c 00 94 57 be
       -0.055698577 0.18440147 0.015858728 -0.21052551
000080 c4 99 13 be 7e e8 13 bf ed 5a 4a 3e 5d 93 90 bc
       -0.14414126 -0.5777663 0.19761248 -0.017648393
000090 6b 7a 99 3e 21 3f db 3d 78 89 8d be 07 9e 62 bc
       0.2997621 0.107054 -0.27643943 -0.013831622
0000a0 5f cf 85 be da 1a fe 3e c1 73 26 3f 84 43 0f 3e
       -0.26134774 0.4962986 0.65020376 0.13990599
0000b0 5b e0 6b be d4 a0 86 3d b7 09 96 be 93 c0 0f bf
       -0.23034804 0.06573644 -0.29304287 -0.5615322
0000c0 ba 65 1b 3d 5f 6f 5b 3d 88 84 42 3e 37 f6 a6 bc
       0.03793881 0.05357301 0.18995869 -0.020381076
0000d0 34 77 50 3e 92 ec bb 3e ae 89 d4 3d 0d 50 21 3e
       0.20357972 0.36703926 0.10377823 0.15753193
0000e0 18 ef e7 3c c4 44 8e 3e 45 c4 d0 be bc 4f 66 3c
       0.028312251 0.2778684 -0.40774742 0.014057096
0000f0 c1 07 6f 3e c4 f0 90 3e cf df ff 3d bb d8 05 be
       0.23342802 0.2830869 0.1249386 -0.13070957

bn2.running_var f4 [64]
000000 60 78 95 3d cd 80 61 3d 81 dd fc 3a 87 8a d0 3b
       0.0729835 0.055054475 0.0019292088 0.00636417
000010 ec db 9b 3c 37 0c 5a 3b 97 7f 6b 3c bc 9a 59 3e
       0.019025765 0.003327144 0.0143736815 0.21250433
000020 14 a4 9d 3c e9 fe 77 3b 88 1d 1e 3d d7 af 48 3b
       0.019243278 0.0037841147 0.038602382 0.0030622387
000030 70 47 9c 3d c1 db 2b 3d a9 bb 6f 3c 62 d6 cf 3d
       0.07630813 0.04195762 0.014632144 0.10148312
000040 da 8b 82 3b de 7b 83 3c 86 d0 23 3e 85 41 84 3d
       0.0039839568 0.016050275 0.15997514 0.06457809
000050 1f 24 f5 3c 3a 82 d0 3c 34 8c 7c 3c 3e b0 81 3c
       0.02992445 0.025452722 0.015414286 0.01583111
000060 ae 50 53 3d 99 40 38 3a f3 8e 84 3e b5 59 47 3c
       0.051590614 0.0007028669 0.25890312 0.012167384
000070 b4 0f b8 3c 65 bf cb 3c 08 e8 c1 3d 1c 8e c9 3c
       0.022468425 0.024871537 0.094680846 0.024603896
000080 9e 57 30 3e db 03 b1 3c 3f 40 29 3e 57 3c f6 3d
       0.17220923 0.021608284 0.16528414 0.12023228
000090 ae 63 89 3c 0b 19 91 3c 87 dc 46 3e 34 dd b2 3c
       0.016771164 0.017712137 0.19420062 0.021833993
0000a0 92 79 28 3b 0b 11 93 3b c3 c9 86 3d 52 9e 1e 3e
       0.0025707227 0.0044881157 0.06581452 0.15490082
0000b0 2c 85 33 3e b4 8f 4b 3c e2 d2 73 3d 5a 82 a3 3d
       0.1753127 0.012424398 0.059527285 0.07983847
0000c0 cd 90 c3 3b 02 8c a7 3d b7 a2 9e 3c fb 8d 46 3c
       0.0059681893 0.08181001 0.019364698 0.012118812
0000d0 54 74 7d 3c 64 0b 02 3c 0f 49 5d 3c 48 37 84 3c
       0.015469629 0.007937286 0.013506188 0.016139641
0000e0 f6 49 be 3b 55 f6 1d 3c 16 12 1c 3c 1b 5d 02 3d
       0.0058071567 0.00964125 0.009525796 0.031827074
0000f0 2d 75 29 3c c2 d9 aa 3d 52 f3 36 3e a1 84 a6 3c
       0.010342878 0.08342315 0.17866257 0.020326914

conv3.weight f4 [64, 64, 3, 3]
000000 1b 27 af bc 62 73 ad bb 91 66 99 3d 68 a7 11 bd
       -0.021380952 -0.0052932957 0.07490266 -0.03556004
000010 90 5f 32 3b c4 41 4d 3d e2 a2 48 be d3 47 8a 3c
       0.0027217604 0.050111547 -0.19593385 0.016879952
000020 eb bd 88 3b 1c 47 9d 3d 56 34 7a 3d 2a 71 c6 bd
       0.0041730306 0.07679579 0.061085068 -0.09689553
000030 53 3b 21 bd 0d 2a a8 bd 5b cb 81 be 59 e4 63 3d
       -0.039363217 -0.082111456 -0.2535046 0.05563769
000040 fd 7d cd bd c1 bd 32 be b1 86 d8 3c 2b 66 05 3d
       -0.10033796 -0.17455198 0.026431413 0.032568138
000050 d5 a4 68 3d 2a cf 2e 3e 9d 0c 1a 3d 26 60 98 bd
       0.05679782 0.17071214 0.037609685 -0.07440214
000060 ca 04 2a 3d 5d 11 aa bc 6d 87 6f 3d 1a ce ae 3d
       0.041508473 -0.020760233 0.05847876 0.085354045
000070 10 38 da 3b 13 ac 5e bd 71 fd 3d bc 11 1a 85 3e
       0.006659515 -0.05436332 -0.01159607 0.2599645
000080 63 1b 33 3e b8 66 89 3d ce 0a 1f 3d 49 1a c8 bd
       0.17490916 0.06709045 0.038828664 -0.097706385
000090 46 bc 0f bd 85 24 f2 bd 8c ca 02 be 90 07 be bb
       -0.03509166 -0.11823372 -0.12772578 -0.0057992414
0000a0 f6 9e ed 3d 6c 43 c1 3c c6 5d 77 3d 41 81 38 bc
       0.11602585 0.02359172 0.060392164 -0.011261285
0000b0 cc 73 92 3d 64 24 a5 3c 1e 79 e2 bb 57 c6 ee 3d
       0.07150993 0.020158954 -0.006911411 0.11658924
0000c0 b5 e6 57 be 1a 37 b5 be 55 2e 9b be e5 8b 36 bd
       -0.21084101 -0.35393602 -0.30308786 -0.044567008
0000d0 3e a6 55 bd 17 18 8f 3d 47 05 98 3c f0 86 cc 3d
       -0.052160494 0.06987017 0.018557204 0.09986675
0000e0 97 a2 c6 3d 65 6b b3 3d 31 0d e9 bd c4 01 30 be
       0.0969898 0.08760718 -0.11379469 -0.17188174
0000f0 d6 75 24 3c b2 e0 1a be 01 4f 9a 3b 72 45 ce bc
       0.01003786 -0.15124777 0.004709125 -0.025179598
000100 8b ff 92 bd 36 8f 40 3d bc 41 c2 bd b1 a3 4c be
       -0.07177647 0.047011577 -0.09485194 -0.19984318
000110 d8 ff 1d bd 32 c3 d2 bc c2 1b 51 3d 8e af ce 3d
       -0.03857407 -0.025727842 0.051051863 0.10092078
000120 6c 3b a7 3c 30 45 07 3e 9a d1 2f be cf cd 3c be
       0.020414077 0.13209987 -0.171698 -0.18437885
000130 b0 c8 29 3d 1f c5 31 be ee ee e3 3d 58 4d 6b 3e
       0.041451156 -0.17360352 0.111295566 0.22978723
000140 0f 3a ca 3c 69 e2 39 3d 3b 8b f8 bd 08 bf 60 bd
       0.024685888 0.045381937 -0.12135931 -0.05486968
000150 8e 64 be 3d 8d 64 51 3e fc dc c6 3d 35 95 79 3d
       0.09296523 0.20448513 0.09710118 0.06093331
000160 0d 0e 87 3d ac 82 9e 3d fa db 5e bd 74 8a d7 bd
       0.06594477 0.077397674 -0.054409005 -0.10524455
000170 bc c2 54 3c 66 c4 aa 3d d2 d8 5d bd 02 e3 07 bd
       0.012985881 0.08338241 -0.054161854 -0.033175476
000180 bc 8d 9d 3c f8 5f 33 3d 1d 31 3b 3e 2a 1d 0e be
       0.019232623 0.043792695 0.18280454 -0.13878313
000190 12 76 6b 3d 67 da 41 bd ae 5a 23 3c 41 95 25 3e
       0.057485647 -0.047327425 0.00997035 0.16170217
0001a0 58 ee 5c 3d 40 e7 e2 bc 45 a8 0c 3d 66 40 77 bd
       0.05393824 -0.02769816 0.03434016 -0.06036415
0001b0 eb 8a 7f 3d 1c 63 d2 3c e0 c6 a8 3d 09 42 45 bc
       0.062388342 0.025682025 0.082410574 -0.01203967
0001c0 5b aa ee bd f8 19 f4 3c c3 39 90 3b 07 a0 76 bc
       -0.116535865 0.02979754 0.004401417 -0.015052802
0001d0 c7 c8 b8 3d 68 94 44 bc 15 1b 84 bd 88 d3 e7 bc
       0.0902267 -0.011998273 -0.06450478 -0.028299108
0001e0 aa 81 ab bd 52 e5 10 be 96 b7 07 3d 3c d9 62 bd
       -0.08374341 -0.14149979 0.033134066 -0.055382952
0001f0 60 3a 12 be 89 aa 69 3d f7 98 09 3d 1a 37 f0 bd
       -0.14280081 0.0570474 0.033593144 -0.1172926
000200 0b e6 e5 3d 2e 00 23 be 53 e2 4b be 3d 2e bf 3c
       0.11225518 -0.15918037 -0.19910555 0.023337478
000210 61 75 55 bd db 10 98 3d 02 1f d2 3d 4f 86 0d 3d
       -0.052113894 0.0742509 0.102598205 0.034551915
000220 22 7f b1 3d 94 82 03 bc 88 48 28 3d e8 b1 5a bc
       0.08666827 -0.008026738 0.041084796 -0.01334808
000230 27 2e 62 bd 50 f1 af 3d 7a f4 1c 3e ce b0 bb 3d
       -0.055219796 0.085909486 0.15327635 0.09164582
000240 b4 ec 6c 3d 53 a6 54 3d 44 08 e2 bb 05 7c 84 bd
       0.057842925 0.05191643 -0.006897958 -0.06468967
000250 a7 15 14 3e 41 f6 0f 3d 7d cc 09 3d c5 8b 38 be
       0.14461385 0.035146955 0.03364228 -0.18022068
000260 13 fa f7 bc 76 fb 8c 3d f6 72 1d bb 1f 4f 4d bb
       -0.030270612 0.068839 -0.002402482 -0.0031327677
000270 af a9 ab bd 50 f8 96 3d 6f 2b 26 be e6 22 97 bc
       -0.08381974 0.073715806 -0.16227506 -0.018449258
000280 ed 9f 0b 3d cd 3f c8 3d 7c d1 a9 3b cc 97 52 bd
       0.034088064 0.09777794 0.005182443 -0.051414296
000290 41 07 d4 bc 01 b4 29 be 49 96 7e bd 48 d6 e8 3d
       -0.025882365 -0.16572572 -0.06215504 0.11368996
0002a0 da f4 9d bd 47 f4 b8 bd 8e 77 59 3d a3 40 15 bd
       -0.07712717 -0.09030967 0.05309253 -0.036438596
0002b0 d5 78 d1 bd 5e 4e 8e bd 20 db f3 bc 4d fb 45 3d
       -0.10228125 -0.06948541 -0.029767573 0.048335362
0002c0 60 77 d4 3e 1f 06 e8 bc 7c 6a 01 3d cc 85 1b 3e
       0.41497326 -0.028323231 0.031595692 0.15187758
0002d0 6c 61 0f 3d f4 89 a8 3b 77 09 82 3d 6b 07 89 bd
       0.035005018 0.0051433984 0.063494615 -0.06690868
0002e0 04 11 c6 be de 0d 38 be f8 d5 2b bd 5d cf 04 be
       -0.38684857 -0.1797404 -0.041952103 -0.12969728
0002f0 f6 60 86 bd 88 de c1 bc 65 50 32 3c 49 a4 af bb
       -0.065614626 -0.023665681 0.010883425 -0.0053601605
000300 b3 37 5a be 32 c0 87 bd 58 f4 a5 3d fe 38 46 3c
       -0.2131031 -0.06628455 0.081032455 0.012098549
000310 df 39 e6 bb c8 07 a5 bb bb f0 bb bd 92 ff 30 bc
       -0.0070259417 -0.005036328 -0.09176775 -0.01080312
000320 34 5a 32 be 34 6c 2b 3e 42 9f 16 3e 8b b9 ef bc
       -0.17417222 0.16740495 0.1470919 -0.029263278
000330 b8 40 12 be d9 f9 88 3d a0 61 82 3c 4c 83 8a 3c
       -0.142825 0.0668828 0.015915692 0.01690831
000340 47 6e ff 3d 4a 11 e9 3c 9e ac 0d bb 0a 23 8c 3e
       0.124722056 0.028450627 -0.002161778 0.27370483
000350 a8 ab 29 3d 36 e5 ac bd c5 4e 8f bc d8 43 20 be
       0.04142347 -0.08442156 -0.017493615 -0.1565088
000360 a6 e3 09 bd c7 f1 83 bd 7a 3c a5 bd 1e f0 e6 3c
       -0.033664368 -0.064426 -0.080681756 0.028190669
000370 5e 9b ef 3d ad 49 cb bc a0 e2 87 3d 59 7c 75 3d
       0.11699556 -0.024815405 0.06635022 0.05993304
000380 be 07 92 bd c0 13 c0 3b d4 1d 8d 3d 21 de 5c 3d
       -0.07130383 0.0058617294 0.06890455 0.053922776
000390 e0 f9 8e bc 3d 2a 45 bc 1c b2 13 be 9a 36 9b bc
       -0.017453134 -0.012033996 -0.14423412 -0.018946934
0003a0 8f 55 84 bd a4 68 9c bb 42 a7 82 3d a6 96 88 3d
       -0.064616315 -0.0047732163 0.06379558 0.06669359
0003b0 d5 90 9a 3d ae f9 13 3d f8 ca 86 3e a0 a2 4d 3e
       0.07547156 0.036126785 0.26326728 0.20081568
0003c0 af 7d dc 3d ef 7f 8b 3e 4a 64 20 3e 50 0c d7 bb
       0.1076616 0.27246043 0.15663257 -0.006562747
0003d0 b0 c1 cc 3d ae e0 c8 bc ac 83 cc bd f2 9b 12 be
       0.099978805 -0.024521198 -0.09986052 -0.14317301
0003e0 72 91 f5 bb d4 db 91 3d 77 c4 28 be 5b 41 59 3d
       -0.007494145 0.07122007 -0.16481195 0.053040843
0003f0 81 65 8e bd 13 bf 82 bd 50 65 b2 3d 16 dc 44 3c
       -0.06952954 -0.06384101 0.0871073 0.012015363

bn3.weight f4 [64]
000000 a4 c6 eb 3d 0b 21 fb 3d 0a cd 17 3e fd 58 2b 3e
       0.11512497 0.12262162 0.1482431 0.16733165
000010 64 56 fb 3d 70 27 d6 3d a1 b5 49 3e 0f d1 5b 3d
       0.12272337 0.10456741 0.19698192 0.05366617
000020 27 f4 50 3e 88 b2 23 3e 5d 8e 9a 3d 79 ae b1 3d
       0.20405637 0.15986073 0.07546685 0.08675856
000030 04 cc 2a 3e bf 7a 53 3e 85 83 3e 3e e1 33 45 3e
       0.16679388 0.20652293 0.18604858 0.19258071
000040 ee 2b 06 3e 3a f2 dd 3d 83 9a 1f 3e 51 7a 26 3e
       0.13102695 0.10837217 0.15586285 0.16257598
000050 e8 01 1a 3e 68 ee ba 3d eb 14 22 3e e4 aa 37 3e
       0.1503979 0.09127504 0.15828292 0.17936283
000060 87 97 a8 3d b9 6c 28 3e df a6 9b 3e 5d 01 12 3e
       0.082320265 0.16447724 0.3040075 0.14258333
000070 5b eb 5a 3e 66 f3 9e 3d ae 5c 03 3e 51 64 58 3e
       0.21378843 0.07761268 0.12828323 0.21132018
000080 42 16 5f 3d f8 77 24 3e 97 0a 55 3e f6 40 b5 3d
       0.054464586 0.1606139 0.20804821 0.08850281
000090 88 0b b4 3d cd f3 3a 3e ae 01 2c 3e 8e 04 0c 3e
       0.08791262 0.18257065 0.16797516 0.13673612
0000a0 e0 0a c0 3d df 38 90 3d b7 de 22 3e bc 75 98 3e
       0.09377074 0.07042097 0.15905271 0.29777324
0000b0 d9 d9 07 3e 29 fb 8d 3e 0c 64 1d 3e c7 cd 73 3e
       0.13266696 0.27730682 0.15370196 0.23808967
0000c0 8d 79 07 3e 03 55 8c 3d 01 15 1c 3e e4 ab 25 3e
       0.13229962 0.06852152 0.15242387 0.16178852
0000d0 2c 7b a3 3d 59 c6 13 3e 95 df df 3d 14 e4 3d 3e
       0.079824775 0.14431132 0.10931317 0.18544036
0000e0 18 25 af 3d 6c 79 8a 3e 0c 3a 88 3d 17 74 d2 3d
       0.08551997 0.27045763 0.066516966 0.10276049
0000f0 9f ac 9f 3d a2 cd 5b 3e 37 ba 38 3e 3f 84 29 3e
       0.07796597 0.21465161 0.18039785 0.16554354

bn3.bias f4 [64]
000000 12 75 35 3d f7 56 3b 3d 54 18 a3 bd 67 ef 7d 3d
       0.0443011 0.045737233 -0.079636246 0.06199589
000010 2c 28 e8 bc 83 6b 0f 3e 4d 37 8b bd 69 1a 0f 3e
       -0.028339468 0.14005856 -0.06797657 0.13974918
000020 6c fe b2 3c e0 c1 5b bd e5 65 46 3e c0 57 83 3e
       0.021849833 -0.05365169 0.19374807 0.25652885
000030 2d f2 53 3b 5a 4a 32 3d 1f 54 c5 bd 38 21 4d be
       0.0032340393 0.04352794 -0.096351855 -0.20032203
000040 41 ad a6 bd bd 39 1d 3d ef 6c 17 3d 78 9b b2 3d
       -0.08138514 0.03838514 0.03696912 0.087210596
000050 02 94 85 bc 46 cb f9 3d c1 6f 35 bc 71 53 13 3c
       -0.016305927 0.121969745 -0.0110740075 0.008992062
000060 69 2e 36 3e fd ac e8 be dc b7 01 bf f3 99 e6 bd
       0.17791142 -0.4544448 -0.5067117 -0.11259832
000070 17 ed ca bd 85 bd 86 3d 33 0d 77 3a 94 94 0f be
       -0.099085025 0.06579117 0.0009424269 -0.14021522
000080 cb 7e e7 3d 30 6a 5f 3d 70 e9 63 be 1b 5d b7 3d
       0.11303481 0.054544628 -0.22257018 0.08953305
000090 28 3d 36 3e c2 b1 32 3d d2 03 99 3d 2d 3c 89 3d
       0.17796767 0.043626554 0.07471432 0.06700931
0000a0 ce 63 eb 3c f9 b0 05 3e ae d9 1c bd dc b9 c0 be
       0.028734114 0.13055791 -0.038293533 -0.376418
0000b0 f8 31 89 3d e1 1e c2 bd 62 6c 84 3b 71 8b 18 bc
       0.06698984 -0.09478546 0.0040412406 -0.009310589
0000c0 9f 3d d0 be 17 7b 31 3e b9 2c f5 bd 60 5c ee bd
       -0.40672013 0.17332111 -0.11971421 -0.11638713
0000d0 95 b1 bb 3d fc 2f f5 3d f2 0b 93 3d 75 18 78 be
       0.091647305 0.11972043 0.07180013 -0.2422808
0000e0 eb 8c 57 3e 91 a0 14 bc fb 96 eb 3d a1 b0 c9 3d
       0.2104985 -0.009071485 0.115034066 0.098481424
0000f0 36 aa 11 3e 00 97 80 be 6a 3f 69 3d da c2 79 be
       0.14225087 -0.25115204 0.056945242 -0.24390736

bn3.running_mean f4 [64]
000000 c3 75 46 be bf 4c ac be fa 9a 60 be f5 48 58 be
       -0.1938086 -0.33652303 -0.21934119 -0.21121581
000010 45 48 6c be bb fc e0 be 74 41 2c be 72 a5 e1 bc
       -0.23074444 -0.43942818 -0.16821843 -0.02754471
000020 b9 0b b3 be e1 e5 c0 bd 39 6a 22 be ef de 4b bd
       -0.3496988 -0.09418846 -0.15860833 -0.049773153
000030 a0 53 6b be 32 5d 97 3c e5 04 4b 3b 36 d7 69 be
       -0.22981119 0.018477056 0.003097826 -0.22836003
000040 29 fc 83 be 69 5c a5 3d f3 b3 98 bd e8 01 88 3d
       -0.2577832 0.080742665 -0.074561976 0.066409886
000050 c5 e3 82 3d 9e 7c e1 bd aa f0 70 bd 63 1d a4 bc
       0.063911 -0.11010097 -0.058823265 -0.020033544
000060 4c 8b 22 3d bc ae 05 be 1b 54 e7 bd 25 f4 27 bf
       0.039683625 -0.13054937 -0.11295339 -0.6560691
000070 87 87 6d 3e fb b9 f2 3e 30 c5 10 3e 09 9c a0 3a
       0.23196231 0.47407517 0.14137721 0.0012253533
000080 42 0e d9 bd 11 a8 36 bd 04 00 be be d4 5c 9c be
       -0.105984226 -0.044593874 -0.37109387 -0.30539572
000090 1b d1 c1 bd dd c0 20 be f5 0f 82 3e cb 00 a5 3d
       -0.09463712 -0.15698572 0.254028 0.08056792
0000a0 b0 16 31 be 51 f9 3c be 0f cf 20 be 0d 70 fe bd
       -0.17293811 -0.18454482 -0.15703987 -0.12423716
0000b0 f3 ed de bd c2 e6 29 bd 8a f8 91 bd 1e 11 d7 bb
       -0.10885229 -0.041479833 -0.07127483 -0.00656332
0000c0 7c 2f 1f be 52 27 90 be 33 3a 14 be b8 fd cd 3c
       -0.15545458 -0.28155 -0.14475326 0.025145397
0000d0 cc 7c de be 3b 09 92 3e 20 bb 8a be 92 16 9a be
       -0.43454587 0.28522667 -0.2709589 -0.30095345
0000e0 62 0c b0 be b0 c1 52 3d 10 c8 91 be 18 c9 d3 bd
       -0.34384447 0.051454246 -0.28472948 -0.1034109
0000f0 87 bb 53 be b9 7d 01 bf 73 07 52 be bb d1 72 be
       -0.20677005 -0.5058246 -0.20510654 -0.23712818

bn3.running_var f4 [64]
000000 08 08 6d 3d 58 96 a9 3d da c3 dd 3c 47 9d 35 3e
       0.057868987 0.08280629 0.027070928 0.17735778
000010 af cc 7c 3d 00 7f 2b 3d 4a f0 70 3e d3 ae 95 3c
       0.06171864 0.041869164 0.23529163 0.01827184
000020 8a d7 05 3e d0 3e 15 3e 7f 89 a1 3c b9 94 fd 3c
       0.13070503 0.14574742 0.019718884 0.030954706
000030 86 2b 71 3d 85 1e 1f 3e a9 fc 95 3e ea eb 82 3d
       0.058879398 0.15538986 0.29294327 0.06392653
000040 d0 71 95 3d 96 fb 86 3d 2c d8 44 3d 59 a5 99 3e
       0.07297099 0.06590955 0.04805772 0.30008963
000050 1e 3d 30 3d 6b 87 ee 3c 84 de 33 3d 28 22 e4 3d
       0.043027036 0.029117307 0.04391338 0.11139327
000060 56 53 10 3d f7 9f b5 3b 63 23 63 3c 88 f4 18 3d
       0.035235725 0.005542751 0.013863417 0.03734258
000070 ff 91 82 3e 8c 65 57 3d 31 53 70 3d f4 b2 87 3e
       0.2550201 0.052587077 0.058673088 0.26503718
000080 ad 61 87 3c d9 89 b5 3d 21 b7 cf 3c d1 cd 1a 3d
       0.016526068 0.08864183 0.025355877 0.037793938
000090 b4 cc 0e 3d 87 e3 20 3e 73 85 f6 3d 9c 62 4a 3d
       0.03486319 0.15711795 0.12037172 0.049410447
0000a0 b0 51 eb 3c d2 91 b9 3c 37 89 3e 3d a7 81 1e 3d
       0.028725475 0.02265254 0.046517577 0.038697865
0000b0 47 7d dc 3d 1c 23 8a 3e 81 be 17 3e 6f a4 31 3e
       0.10766082 0.2697991 0.14818765 0.17347883
0000c0 20 51 d2 3d 99 b7 8a 3c 85 34 96 3d 60 93 eb 3d
       0.102693796 0.01693325 0.07334236 0.11502719
0000d0 6f 64 fd 3c 59 8e 5a 3e 4e 5a 0d 3d ed 86 33 3d
       0.03093168 0.21343364 0.03450995 0.043829847
0000e0 ec a7 f9 3c a4 43 98 3e fc 96 7b 3c 32 c7 4e 3d
       0.03047558 0.29739106 0.015355822 0.050482936
0000f0 c5 a5 bb 3c c9 a7 0a 3d 5d 2b 6b 3e 0b ca 00 3c
       0.022906194 0.03385142 0.2296576 0.007860671

conv4.weight f4 [64, 64, 3, 3]
000000 58 96 14 3e 8f 16 9e bd d3 3b 66 bd 29 76 24 3e
       0.14510477 -0.077191465 -0.056209397 0.160607
000010 d2 23 47 bd 0e cb c5 3c ee f9 1c bd 6e 56 2b 3c
       -0.048618145 0.024144676 -0.03832429 0.010457618
000020 f4 86 43 3c 78 4f 47 3e ce 6d d7 bb 8a 8a 21 3b
       0.011934031 0.19463909 -0.006574369 0.0024649226
000030 a2 2d 05 3e e6 36 be bd 1f 4b 01 be 50 a1 e6 3c
       0.13005689 -0.09287815 -0.12626313 0.028153092
000040 b1 52 c1 3b 37 30 ed bb 1c 59 42 3e 7d b7 9c bd
       0.00589975 -0.0072384137 0.18979305 -0.07652185
000050 70 49 bc bc 0c 21 53 3e 8c 0d 55 bd c1 df 31 bd
       -0.022984236 0.20618075 -0.052014872 -0.04342628
000060 44 3e 10 bc 02 66 7a 3d 91 29 0d bc c8 e8 88 3e
       -0.008803908 0.06113244 -0.008615867 0.26740098
000070 36 27 51 3d 61 37 4e 3a 89 c5 69 3c 44 c9 9a be
       0.051062785 0.00078665285 0.014268287 -0.30231678
000080 b6 66 d0 bc 16 b9 19 3d 84 0e bd bc 2b 84 a0 3c
       -0.025439601 0.037530027 -0.02307821 0.019594273
000090 8f d5 30 3e e9 cf 06 3d ac 51 af bb ac d9 cd bd
       0.17268966 0.032913122 -0.005350312 -0.10051283
0000a0 e7 97 44 be ba c3 a8 3c 65 b6 b1 bc 6a 97 4c bd
       -0.19198571 0.020601142 -0.021693418 -0.049949087
0000b0 00 7d 20 3d ce 84 1b bd f7 ef b0 bd f1 a1 9b 3c
       0.03918171 -0.03796845 -0.0863952 0.018998118
0000c0 f8 9a f2 3d 69 93 18 3e 26 f8 71 bc ca c0 28 3d
       0.11845964 0.14899983 -0.014768636 0.041199483
0000d0 58 af 2a 3b 46 d6 da bc d6 8c 85 3d 4b 6a 88 3d
       0.0026044454 -0.026713502 0.06521003 0.06660899
0000e0 03 f0 bb 3c 3e 58 ec bd 2d ba 84 be 19 6c 84 bd
       0.022941595 -0.11540268 -0.2592329 -0.064659305
0000f0 83 22 92 3b a0 f4 dc bc 6e a0 eb bc 0b 80 e1 3d
       0.0044596805 -0.026972115 -0.028763022 0.110107504
000100 7b 9c c5 bc 56 c4 1b 3d 67 e1 54 be a9 e7 b9 bd
       -0.024122467 0.038029037 -0.20789109 -0.09077389
000110 f3 f0 fc 3d cf 57 fd bc 9b 12 5a 3c 83 0b 79 bc
       0.12350645 -0.03092566 0.0133101 -0.0152004985
000120 33 6d bc 3d 66 e8 ec 3c c2 f2 4b 3c d6 88 94 be
       0.092005156 0.02891941 0.012448015 -0.29010648
000130 35 a7 3d be fa de 86 3d 81 52 9c bc 86 d1 4d 3d
       -0.18520816 0.06585498 -0.01908231 0.050248645
000140 4b 07 04 3d ad 2c 8b 3d 4f 35 ac bc f0 40 a6 3b
       0.032233518 0.067956306 -0.021021513 0.005073659
000150 10 1f d8 3c f7 85 a3 be c8 d7 af bc 6e 89 e4 3b
       0.026382 -0.31938145 -0.021465197 0.0069743907
000160 35 a0 97 bb 4a 6e 8d bc e2 d7 30 3d 65 80 98 3c
       -0.0046272525 -0.017264504 0.043174632 0.01861591
000170 95 f0 25 3c 14 4d f5 3d 24 8d 84 bd a0 eb 15 bd
       0.01012816 0.11977592 -0.06472233 -0.036601663
000180 89 c7 25 bd 95 89 bb bd 84 22 51 bc a6 82 2e 3e
       -0.040473495 -0.09157101 -0.012764577 0.17042026
000190 c1 12 ce 3b 6c cc 85 bc 3a a2 a8 3c 9a db 5c bd
       0.0062888567 -0.016332828 0.020585168 -0.053920366
0001a0 3a d6 b7 bb f4 1d 15 bd 62 89 86 bd f6 4d 41 3c
       -0.0056102546 -0.03640552 -0.065691724 0.0117983725
0001b0 f9 df 41 bd 1c 9e 7a 3e 35 19 08 3d 5f 7b 40 3e
       -0.047332738 0.24474376 0.033227164 0.18797062
0001c0 b7 a1 05 3e e1 7b 07 bd 3c db 91 3d 78 9c 25 bc
       0.1304997 -0.033077125 0.07121894 -0.010108106
0001d0 3c c1 62 bb c2 de cc bd af 2d 08 bd 3c 3a 1b 3d
       -0.003460004 -0.10003425 -0.033246692 0.037897334
0001e0 1f 8e 5e bd c1 fd 82 3c e1 f6 4c 3d df a1 05 bb
       -0.054334756 0.01599014 0.05004013 -0.0020390672
0001f0 96 a1 07 bc 29 d8 a0 3c ab 6b 23 be 6d f3 1a be
       -0.008278271 0.019634323 -0.15959041 -0.15131922
000200 6c 9f 0d 3c 42 98 44 be 5e a0 d2 bd 28 6b 62 bd
       0.008643966 -0.19198707 -0.10284494 -0.055277973
000210 a3 88 e2 3c 06 96 d3 3b 80 17 97 bc 34 84 5d bc
       0.027653044 0.006457093 -0.018443823 -0.013520289
000220 7c f7 2c 3d ef bc a0 bc b2 5d 12 3e 4c 4e 3d 3e
       0.042228207 -0.01962134 0.14293554 0.18486899
000230 89 a9 0f bd 69 18 74 3d d0 34 de 3d 42 67 81 bc
       -0.03507379 0.05959359 0.10849917 -0.015796307
000240 00 18 b4 bd b7 55 22 bd 5b 80 a7 3c 7e 02 f3 bd
       -0.0879364 -0.039632525 0.020446947 -0.1186571
000250 2b eb 73 be a5 42 98 bd e2 65 ba 3c 53 ad 2f 3d
       -0.23820178 -0.074345864 0.02275366 0.042889904
000260 fa a4 24 3d c3 ff 41 3d 59 89 c6 bd ac 1a 65 3b
       0.040196396 0.047363054 -0.09694166 0.0034958525
000270 d4 8f 0c bb 8d 9b 12 be 16 2b 54 3d 86 6e 79 3c
       -0.0021448033 -0.1431715 0.051798902 0.015224105
000280 b3 f9 fc bb 36 83 c8 3c 94 be cf bc 84 69 8e be
       -0.007720196 0.024476629 -0.02535943 -0.27814877
000290 c1 ea 45 bd 36 19 70 be 1d 29 a8 bd 7c ae 3e 3d
       -0.048319582 -0.23447117 -0.08210967 0.04655312
0002a0 9b d7 93 bd 6b b5 43 3d c8 18 9f 3c 08 3c a2 bc
       -0.07218858 0.047780436 0.019420996 -0.019804016
0002b0 ad 6a 1e bd 35 50 e8 39 4c 5f 80 bd 33 10 b1 be
       -0.038675953 0.00044310247 -0.062681764 -0.34582672
0002c0 ce 4e b2 bd f6 00 15 bd 6b 86 9e bd 68 88 25 bd
       -0.08706437 -0.03637787 -0.07740482 -0.04041329
0002d0 c0 e4 bc bc 51 8a 6e 3d 15 fa 3a 3c 67 6e 62 be
       -0.023058295 0.058237378 0.011412163 -0.22112428
0002e0 42 93 24 be cc 85 d2 3d 68 29 83 3c 3b ff 55 3d
       -0.160718 0.10279426 0.016010955 0.05224536
0002f0 c3 48 9e 3c e4 96 49 3c 32 c3 0c be 12 1a 04 bd
       0.019321805 0.012304042 -0.13746336 -0.032251425
000300 85 67 9a bc 88 09 73 bd 27 24 a9 bc cd c4 0c 3c
       -0.01884819 -0.05933526 -0.020647122 0.008591843
000310 d8 ad 6e 3a d1 1f c8 3c cd 1d 1c 3e 19 0b 76 3e
       0.0009104884 0.024429234 0.15245743 0.24027671
000320 5e 49 2b 3d 68 e7 61 3e dd bb 24 be 08 35 9b 3d
       0.041818015 0.2206093 -0.16087289 0.07578474
000330 36 2b 28 bd be a2 3c 3b d7 0a c5 bb 23 3f 6b be
       -0.041056834 0.0028783525 -0.006013255 -0.22973303
000340 52 70 f0 3d db a7 33 bb b5 31 dd bd 71 f8 30 bd
       0.117401734 -0.0027413282 -0.108004965 -0.043205682
000350 a2 76 f6 3a 7d 87 2c 3d dd 63 20 3d 41 0a 11 bc
       0.0018803666 0.0421214 0.039157737 -0.008852542
000360 49 95 2a be d8 46 8f 3d 5c cf 0c bd 88 50 09 be
       -0.1665851 0.06995934 -0.03437744 -0.13409626
000370 6e 5b 04 be 75 5f b0 3c f9 0d 83 3d 68 54 4b 3d
       -0.12925503 0.021529892 0.063991494 0.049641043
000380 46 27 79 bc c2 cd a3 bb d4 18 ef bc c5 00 5c 3c
       -0.015207117 -0.0049988935 -0.029186644 0.013427918
000390 1b 9e 0a bc d5 93 bc bb 90 d1 60 bd 0b dd c3 bc
       -0.008460547 -0.0057549276 -0.054887354 -0.023909112
0003a0 93 67 b1 bc 92 35 1b 3a b0 3d 06 ba 68 9c 88 bb
       -0.021655833 0.00059207634 -0.00051208865 -0.0041690357
0003b0 e0 d7 f2 bb 5b 94 2c 3b b9 43 c3 3c 03 50 12 3c
       -0.007410988 0.0026333544 0.023836004 0.008930209
0003c0 75 b5 26 3d af df bd 3b e6 9c 79 3c 32 9e 33 bc
       0.040700395 0.0057944874 0.015235161 -0.01096301
0003d0 6f 0e 36 bd a2 e4 05 bc 08 ee 71 3c f3 54 0c be
       -0.04444736 -0.008172186 0.014766224 -0.1370428
0003e0 91 21 4f 3b 71 47 7a bb ac 09 cc bc e5 e1 52 bd
       0.00316057 -0.0038189555 -0.024906956 -0.05148496
0003f0 79 42 be bd b6 06 dc bd 76 7e 8f 3c 34 86 86 be
       -0.092900224 -0.107434675 0.017516356 -0.26274264

bn4.weight f4 [64]
000000 da df 0e 3f db 68 9c 3d 09 00 d5 3e 0e 04 6f 3d
       0.5581032 0.07637187 0.4160159 0.058353476
000010 c4 90 3c 3e 64 ea ac 3d 9f f5 a9 3e 2a 56 f9 3d
       0.18414599 0.08443144 0.33195207 0.121746376
000020 17 5b c1 3e da 31 57 3d 23 a6 42 3f 78 a8 10 3e
       0.3776481 0.052537777 0.76034755 0.14126766
000030 c7 17 a0 3e c4 01 aa 3d 99 d9 31 3d 87 a7 8b 3d
       0.3126814 0.08301118 0.043420408 0.06819063
000040 29 e1 f3 3c 32 9f bc 3e a2 93 ba 3d 84 43 36 3e
       0.02977045 0.36840206 0.0911019 0.17799193
000050 35 d0 a9 3e 44 e5 be 3e 12 d0 76 3d 3d 37 29 3e
       0.33166662 0.3728429 0.060257025 0.16524978
000060 a3 dd 1f 3e e2 24 03 3e 94 9f 2d 3e 21 bd 09 3e
       0.15611891 0.12807038 0.16955405 0.13451053
000070 64 e9 1a 3e 91 8e b6 3d 68 3e 25 3d b8 ee 3d 3d
       0.15128094 0.08913911 0.04034272 0.046370238
000080 33 2c 14 3e e5 f9 bb 3e fb 21 81 3e 8f 00 53 3d
       0.14469986 0.36714092 0.25221238 0.051514205
000090 f7 44 d6 3d 54 84 f7 3d 18 b4 97 3d 56 8f d2 3d
       0.10462373 0.120857865 0.07407397 0.102812454
0000a0 76 c0 98 3e d3 65 f9 3e 49 43 4a 3d 85 aa c7 3d
       0.29834336 0.48710498 0.049380574 0.09749321
0000b0 5a 01 c6 3d de 7d 66 3e c8 be 32 3d 28 c2 25 3e
       0.096682265 0.22508952 0.043638974 0.16187346
0000c0 09 d4 f4 3e 14 8b 06 3e bd f0 a3 3d cb 73 0c 3e
       0.4781802 0.13138992 0.080049016 0.13716047
0000d0 f1 4b dc 3e fe a6 ce 3d db 41 c5 3d 57 8e 83 3e
       0.4302669 0.10090445 0.096317016 0.25694534
0000e0 0d da f2 3d 26 5e d8 3d 12 6f 79 3d d6 f2 19 3d
       0.11857996 0.105648324 0.06089694 0.037585102
0000f0 23 7f b2 3e 19 11 25 3d 1c 29 aa 3d 18 9f 4a 3d
       0.34862623 0.04029951 0.08308622 0.04946813

bn4.bias f4 [64]
000000 f7 9f 80 3c c7 e4 5e 3d e8 d0 08 be 0f e3 7b bc
       0.015701277 0.054417398 -0.13360941 -0.015373959
000010 ee b9 d7 bd 5d 5f 8c 3e 23 0a b3 bd 86 90 9a bd
       -0.1053351 0.27416506 -0.08742168 -0.07547097
000020 36 9a 9a bc 2f 4d cf be ac e4 33 bd 01 ca 25 be
       -0.018872362 -0.40488574 -0.04391925 -0.1619034
000030 bd 2b 79 bc a5 7f c0 3d 17 35 91 3d 17 b8 b8 bc
       -0.015208182 0.09399346 0.07090204 -0.022548718
000040 49 39 73 3c 72 88 d9 bc 19 aa a9 bd 85 ac 22 be
       0.014845201 -0.02655432 -0.08284397 -0.15886123
000050 53 bb 03 3c b3 11 3d bc 2d 78 6e 3d 21 a8 25 be
       0.008040267 -0.011539864 0.058220077 -0.16177417
000060 55 1c b7 bd 02 15 95 bd 84 3f 17 be 5b 01 55 bd
       -0.08940951 -0.072793975 -0.14770323 -0.052003246
000070 3f 5f 0c be 17 83 1e be 4b 87 60 3d cc 85 f0 3d
       -0.13708209 -0.15479694 0.054816525 0.1174427
000080 51 00 86 bc c0 cd d5 bc bb d1 fa bc 51 f0 e2 3d
       -0.016357573 -0.026099086 -0.030617585 0.11080993
000090 d3 e7 c6 bd 28 c7 b3 bd 90 5c 05 bd bd b8 c9 bd
       -0.09712186 -0.087782204 -0.032558978 -0.09849689
0000a0 a5 de 02 bd 39 a5 0d be ae 8b 0e bc 14 f4 30 3c
       -0.03195061 -0.13832559 -0.008700294 0.01080038
0000b0 ee c2 2a bd b9 7a 44 bc b3 a1 97 3d 26 e4 49 bd
       -0.041689806 -0.01199215 0.074038886 -0.049289845
0000c0 78 f1 1b 3d d5 2c a2 bd f4 f6 92 39 17 0f ba 3d
       0.03807208 -0.07918707 0.00028031284 0.090849094
0000d0 a0 bf 82 3c 59 80 2d 3c 21 2a 75 3d a0 c3 2a 3c
       0.015960515 0.0105896825 0.05985463 0.010422617
0000e0 dc 9e 42 bd 4a d1 39 bd 47 da a5 3b e9 70 ae 3d
       -0.04751478 -0.04536561 0.005061421 0.0851763
0000f0 c2 1a 09 3b d9 6d 54 3d ec 7e 03 3d 08 88 21 3b
       0.002092049 0.05186257 0.032103464 0.0024647731

bn4.running_mean f4 [64]
000000 6e b5 53 be 47 1c b8 be 08 75 10 3e 9e 54 02 bf
       -0.20674679 -0.35959074 0.14107144 -0.50910366
000010 e5 de 92 3d fb 20 28 be c4 b1 46 3f 34 74 56 3c
       0.0717142 -0.16418831 0.77615 0.013089228
000020 ac 63 3c 3e 78 1b 2f 3e ee 56 97 3e d9 9c 03 bf
       0.18397397 0.17100322 0.2955851 -0.51411206
000030 c8 dc 92 3e 15 b7 8b be c2 ed b7 3d f8 d5 2e bd
       0.28684068 -0.27288118 0.089808956 -0.042684525
000040 ae c3 98 be 8c c1 2b 3d ad 34 38 3d 11 87 e5 3d
       -0.29836792 0.041932628 0.04497211 0.112074025
000050 80 4a ec 3d c7 ce f0 3d a4 3a c2 be 3c 0c 2e be
       0.11537647 0.1175819 -0.37935364 -0.16996855
000060 9b ce ba be 89 c4 43 3e ad e0 15 bf c9 f0 33 3e
       -0.36485752 0.19117941 -0.58545953 0.17572321
000070 7d 11 09 3e d3 9f 3f 3e 8b 9d 67 3e 25 25 0e be
       0.13385577 0.18713312 0.22618692 -0.13881357
000080 44 e7 a4 be 8f c1 a0 bc 45 72 82 be dd 62 2d be
       -0.32207692 -0.019623546 -0.25477806 -0.16932245
000090 af 14 e6 be 3f 01 85 be 39 25 92 be 1e 50 58 be
       -0.44937655 -0.25977513 -0.28544024 -0.21124312
0000a0 f4 2d af 3e 92 19 a0 bc 0c 3a 9d be 0b d8 b5 be
       0.34214747 -0.019543443 -0.3070835 -0.3551639
0000b0 dd 02 aa be 91 6c a2 bd 84 e3 6d be 15 aa 49 bf
       -0.3320531 -0.07930864 -0.23231322 -0.7877515
0000c0 98 4d 4a be b0 41 25 be 9f 1b a6 be 6f 22 d8 3e
       -0.19756162 -0.16138339 -0.32442948 0.4221377
0000d0 57 21 31 be 76 4d 3f be e4 a3 82 be 68 ad 4f be
       -0.17297874 -0.18681893 -0.25515664 -0.20280993
0000e0 95 cc 08 bf 59 be c4 3d ff 30 2a bf 17 93 2c 3d
       -0.5343717 0.096066184 -0.6648101 0.042132463
0000f0 cc b5 c3 bd df a1 01 bf c2 80 35 bf 8a 1f c8 3e
       -0.095561594 -0.5063762 -0.70899594 0.39086562
