ckpt/ckpt-t-cr3-deepsc-t18db-rt-rayleigh.pth (torch, 766247 bytes, 46 tensors)

conv1.weight f4 [16, 3, 3, 3]
00000000: 357d 7f3d e4cd 683c 2d94 073e 10c4 fcbd
00000010: bf54 723e 74c3 09be 9b6c 4dba 451e dabd
00000020: 1e61 3fb9 59db e03c 12b0 f2bd a231 5b3d
00000030: db61 c9bd 37f0 333e 8037 01be 2791 c13c
00000040: 9114 afbd 53e0 4d3d 84e1 ba3b 0362 22be
00000050: 9c81 01bd 6409 0f3c 6567 5c3e 4f41 77bd
00000060: e037 233d 4037 6abb 5164 3f3d 38f5 38bd
00000070: 78f9 20be c8bd e9bd ddd4 f9bd 5ea1 45be
00000080: f7d9 13be ef9a a03b 2c46 003e 2b5b 52bc
00000090: f3dd debc 5498 88bd 9826 bcbd 157d 0dbe
000000a0: 6d8e aebd 29bf 97bd 6ffe 14bc 9df9 7d3d
000000b0: f52b cfbc ab37 623d 439b 423d 4bf9 c23c
000000c0: d019 e23b cba4 81bd 25fb 693d d8cb d83c
000000d0: bf19 f73d 0241 643c 1a1d 353b df86 dcbc
000000e0: 7cbc 5b3b b9a2 0cbd ec8d 263b 694c 9fbc
000000f0: 6d17 2cbd 83f2 853d aa05 67bd 6dee c73b
00000100: 1042 643b a6ca 04bc 30a8 41bd 51f5 1d3e
00000110: e251 d63d 4002 d3bc 3861 b53d 50ea b8bb
00000120: a870 5abd e9fe e7bb 9aa1 853d d10c 72bd
00000130: 47a5 d33e b803 e33e f267 ccbd dad6 223e
00000140: 2646 d43d e4a1 5f3d da5a 153e c04f 1a3e
00000150: d69a 293e ce05 543e 4998 343e 1b6a b7bc
00000160: a97b 03be e5e9 083c c060 1d3d 166a e93d
00000170: 9440 c13d 55c1 0c3e 47fe 0b3e 3899 893d
00000180: 0919 123c c5fc 8dbd 8866 e43c 8682 acbd
00000190: ab62 2dbd 7b9d 54bd b08b 9f3c fdbd 3a3d
000001a0: 5532 1ebd 1d15 11bd fe0b 08be 0501 00bd
000001b0: dd17 2a3c 8b2b 12bc 6789 15bd 0e63 d03d
000001c0: 80b4 b73c a871 b4bc 50ed 04bd 6345 84bd
000001d0: 61f2 01bc a129 d83c 292a ef3c a9b7 4a3c
000001e0: b387 293e 985d 5a3d 1613 26bd 102e 3cbc
000001f0: ef6f 02bd fa05 89bd 4963 e83d 4097 703e
00000200: a919 a63b 24b2 e03e de4a 803e 322b 9a3c
00000210: b775 3c3c 8912 acbc ff41 0f3c 3cec 393c
00000220: cc29 9abc 174a be3c b2ca 72bc ca4e 93be
00000230: 8690 1fbd bdd1 303d a44a 2e3e fc49 f33d
00000240: 0c97 9bba 0af8 1abb ff6f a23d c8ef 40bd
00000250: 6c74 37be 991e 46bd 336a d73b 4720 103e
00000260: c819 a53d 296e 643c 78b6 95bc 6651 9fbd
00000270: 2a09 babc 082d 18bc f7d0 d0bd 848a c1ba
00000280: b501 8c3e 1b48 5dbd 1451 bcbd ce58 dd3d
00000290: a0dd 47be 590b 113e 764b 163e 2353 abbd
000002a0: f0e8 df38 6404 fe3c 5ece 3c3c 4a9c 27be
000002b0: 969f 1d3d 7725 54be 605a 63bc 70fb 8b3d
000002c0: b65c 93bd 81d0 cabc cffc bbbc 02f8 44bb
000002d0: 482e b3be 87bc 91bd 7007 3ebe b2f7 78bd
000002e0: 4faa 413b dc7d 14bd 893a bb3c a187 b1bc
000002f0: a4bd 313d eda6 3bbd 01f3 2bbc 2eb8 e13b
00000300: 34f0 643d 2f5a e13d 69e4 053e 8bfe 893d
00000310: d6d4 3cbe 0e71 94bd dc1a 57bd 2183 fb3c
00000320: a9c1 82ba ed72 513d db14 963b 814e bb3d
00000330: 2f66 073e f64c 19be 49b8 cdbd d8bd 5d3d
00000340: f600 623d ba05 efbc 08dd 64bc a7bb 45bd
00000350: 0bc3 2cbe 19ca 8c3d 28e4 6ebe ed79 afbe
00000360: b888 15bc ae28 8f3d ede1 0e3c df0b 8ebd
00000370: 88ee 8d3d 8da2 a23c 73e3 453c fdd5 783d
00000380: c04c ae3c c03f 99bd a75e fd3c 3cfb c1ba
00000390: d1d3 68be 0217 b1bc 99b9 7a3b f753 93bd
000003a0: c417 38bc a6d1 a9bc 5df9 893d 64bf 5cbd
000003b0: 0439 b33b 3a97 30bf 827a 28be 5627 a2bd
000003c0: cc22 93bd 8a96 c8bd 3aae 6a3c 8928 dcbb
000003d0: 2662 ea3c 3312 313c 42be a8bd 0aab 9cbc
000003e0: 62b2 c73c 2922 573c 2728 4b3d f870 503c
000003f0: 499b 23bd 0b7c 55bd 82c8 f83c 59ca 01be
0.062375266 0.014209244 0.13240118 -0.123420835 0.2366514 -0.13453466 -0.0007836313 -0.10650305
-0.00018251358 0.027448343 -0.11849989 0.05351413 -0.098331176 0.17572103 -0.12618828 0.023628784
-0.085488446 0.05026276 0.005703153 -0.15857701 -0.031617746 0.008730266 0.21523817 -0.060365018
0.03984821 -0.0035738498 0.04672653 -0.045155734 -0.15720165 -0.11413151 -0.121988036 -0.19299838
-0.14438616 0.004901282 0.12526768 -0.012839119 -0.027205443 -0.06669679 -0.09187049 -0.13817246
-0.08523259 -0.07409508 -0.009093865 0.062005628 -0.025289515 0.05522887 0.04751135 0.023800513
0.0069000497 -0.0633026 0.057124276 0.026464388 0.120654576 0.013931515 0.0027635754 -0.02691978
0.0033529093 -0.034334872 0.0025414182 -0.019445615 -0.042014528 0.06540396 -0.056401886 0.0061014206
0.0034829415 -0.008104956 -0.047279537 0.15425612 0.10464837 -0.025757909 0.08856434 -0.0056431666
-0.053330094 -0.007079948 0.06524964 -0.059094254 0.41337034 0.44338775 -0.099807635 0.15902272
0.10364942 0.05459775 0.14585438 0.15069485 0.16562971 0.2070534 0.17636217 -0.022389462
-0.12840141 0.008356546 0.038422346 0.113971874 0.094361454 0.13745625 0.13671218 0.06718677
0.008917102 -0.069329776 0.027880922 -0.08423333 -0.042330425 -0.051907998 0.019475788 0.045591343
-0.03862222 -0.035420526 -0.13285825 -0.031250972 0.010381666 -0.008921514 -0.03650799 0.10175143
0.022424936 -0.022026852 -0.03245288 -0.06458547 -0.007931323 0.026387038 0.029194908 0.01237289
0.16555671 0.053311914 -0.040545546 -0.0114855915 -0.03184503 -0.06690593 0.11347062 0.23495197
0.005068977 0.4388591 0.2505712 0.018819425 0.011502675 -0.021004932 0.008743762 0.011347827
-0.018818758 0.023228688 -0.014818834 -0.2877105 -0.038956188 0.043168772 0.1702066 0.11879346
-0.0011870577 -0.0023646378 0.07931518 -0.047103673 -0.17915505 -0.048369024 0.006573939 0.14074813
0.08061558 0.01394228 -0.018275484 -0.077791974 -0.022709448 -0.00928808 -0.10196107 -0.0014766012
0.27345052 -0.054023843 -0.09195152 0.10807954 -0.19518137 0.14164485 0.14677224 -0.083654664
0.000106768566 0.031007953 0.011523811 -0.16368213 0.03848227 -0.20717417 -0.013876528 0.06835067
-0.071954176 -0.024757626 -0.022947697 -0.003005505 -0.34996247 -0.07116037 -0.18557525 -0.060783096
0.0029550975 -0.03625284 0.02285506 -0.021671118 0.043393746 -0.04581349 -0.010494948 0.006888411
0.055893138 0.11003529 0.13075413 0.06738003 -0.18440565 -0.07248126 -0.05251585 0.030702176
-0.0009975928 0.051134992 0.004580123 0.09145833 0.13222574 -0.14970765 -0.10044915 0.054136127
0.055176698 -0.029177535 -0.013968714 -0.048274662 -0.16871278 0.068744846 -0.23329222 -0.3427271
-0.009126835 0.06990181 0.008720857 -0.06935858 0.06930262 0.0198529 0.012078154 0.06075095
0.021276832 -0.074828625 0.030928923 -0.0014799605 -0.22737052 -0.021617416 0.0038257597 -0.071937494
-0.011236135 -0.020729851 0.067370154 -0.05389346 0.0054694433 -0.68980753 -0.16452983 -0.07917659
-0.07184371 -0.09794338 0.014323765 -0.0067186994 0.028611254 0.010807562 -0.08239414 -0.019124527
0.024377052 0.013130703 0.04959884 0.012722246 -0.039943013 -0.05212025 0.030369047 -0.12674846

bn1.weight f4 [16]
00000000: c1ff b53d a76b 363e 29b1 1c3e d384 373e
00000010: b8af 4d3e e2bd bd3d 8d05 193e 62cd 033e
00000020: a267 663e d4a7 413e da0f 2d3e a23f 3c3e
00000030: 01de 133e 0e11 4e3e da27 3e3d 2383 5d3e
0.08886672 0.17814504 0.15301956 0.17921762 0.20086563 0.09264733 0.14943524 0.12871316
0.2250047 0.18911678 0.16900578 0.18383649 0.14440157 0.20123693 0.046424724 0.21632056

bn1.bias f4 [16]
00000000: 1695 963e 9b18 5b3d f935 663d 63e6 55bd
00000010: 2567 1bbe aa25 8e3d 0a5f 9b3e 8fc3 acbd
00000020: c2a6 aabd 8dcf 123e 42e3 453c e79c b93d
00000030: 78f5 a73d f87b cabd eee8 c63d 8c03 87bc
0.2941062 0.053490262 0.056203816 -0.052221667 -0.15176065 0.069407776 0.30345947 -0.08435737
-0.08332588 0.14336987 0.012078108 0.0906313 0.08201116 -0.098869264 0.097123966 -0.016481183

bn1.running_mean f4 [16]
00000000: 1385 a63c 79ce c8be c033 f53e ba96 ea3e
00000010: 2df9 f73e e6a4 b93b 4429 cdbe 1166 70be
00000020: 2b1a 08bf 2e9f d8be 2e92 d23e 2d13 673e
00000030: f957 913b cd9c 69be d82a e83c 1ac3 b8be
0.020327127 -0.39220026 0.47891045 0.4581812 0.48432294 0.0056654094 -0.40070546 -0.23476435
-0.5316493 -0.42308944 0.4112715 0.22565909 0.004435536 -0.22813721 0.028340742 -0.3608635

bn1.running_var f4 [16]
00000000: 869e 243a deb1 243d acf3 9c3d 207a 603d
00000010: 9442 a53d 003c ff3b c225 773d eeba f03c
00000020: a8cd c63d 360a 7c3d c651 553d a07d 793c
00000030: 3365 d93b c1eb 7c3c 829c a63a 6b9b 233d
0.00062797253 0.04020869 0.07663664 0.054803967 0.080693394 0.007789135 0.060338743 0.02938601
0.097071946 0.061533175 0.05207994 0.015227705 0.0066343783 0.0154370675 0.0012711438 0.03994314

conv2.weight f4 [64, 16, 3, 3]
00000000: 98a3 7fbd 16cd 1a3d 1956 7bbd cd2f 73bd
00000010: b678 d73c 55a6 72ba 8d58 0abd b291 a63d
00000020: a50c c8bd 0fc1 d4bd de77 b73c caa5 a4bd
00000030: c4fc 2ebc 9529 de3d 2c77 ab3c 4187 a8bc
00000040: f74c 3e3d 0224 40bd 38b9 5dbd ee09 25bc
00000050: fc7f 78bc 5938 3a3b 8e6a 443e ce8d 963b
00000060: 4a73 8ebd bd8e 223e 9d23 e33c dfc1 aa3d
00000070: 7c45 c83c 590f 4e3d a153 c2bb 02f4 5fbd
00000080: e5e2 1dbc 6e1e aebc 8f75 69bd a8bb 88bd
00000090: ff87 4fbd c820 a3bd bf6f b7bd be15 5ebd
000000a0: acee 04bd 8d1a d03d 12fa a2bd 0551 823d
000000b0: 291c 3e3e fbe7 cebd c211 97bc 102f bcbc
000000c0: 825d 99bc 3ad9 ad3d 4a3c 883d 3d1b 0c3d
000000d0: f19d b63d 2e66 223d b368 93bc 2604 ac3d
000000e0: e056 8b3d 1175 80bc 5945 983d dcd2 4e3c
000000f0: 8f5a 5c3d 6dba 42bd c001 b8bd efcd 483e
00000100: 2630 433b 744f c83d 9032 fa3d 440c 41be
00000110: ab48 993b d417 913b 545e f2bd bce6 43bd
00000120: 0f08 d1bd 3334 053d 59d6 3fbd d51d 9b3c
00000130: 5ac4 c5bd 27a1 46be b79e 07be d64a 19be
00000140: 291b 88bf 1895 6a3c c9fd 303d 0d89 ad3d
00000150: c7b7 4d3d a794 1ebd 60db 8bbe 30fd f83d
00000160: 0fc4 57be 71b0 01bf bc3c 7abc 2afe 073d
00000170: 09d3 7ebd 24fd 433c 3a23 4ebc 61ac b0bd
00000180: 881f afbc 5337 da3c 91b7 48bd 9b4a 23bd
00000190: b43a 3dbd 5b70 353d d182 533d 8e70 84bc
000001a0: ce41 983c f9a0 2dbc 995b 9a3d b433 103d
000001b0: ba3d debc 2dc3 4bba c2bc 69bc 8608 89bd
000001c0: 7d6e 7ebd 6a31 48bb 4608 d5bd 9dba a83a
000001d0: 8c06 813d d3b4 153d 3c7d 513d 2774 043c
000001e0: 4414 3ebc 5757 9b3c 783f 223d 457e 8b3d
000001f0: 77a6 d1bb 1ff2 2dbd e0cf c73d 37cf e8bc
00000200: 171b b5bd c032 02bb da52 30be 8ac0 b2bd
00000210: bfdb 37be db9b 6dbd e34b d5bd af01 613c
00000220: d151 963c 431e 7f3c 78fa 383b b4b7 acbc
00000230: fade 88bd 4694 0c3c c4e6 dcbc be36 d1bd
00000240: 5cc7 debb 7684 893d aac5 a1bc ae6d 93bc
00000250: 6d4c bdbb 29a5 53bd 0585 37be 1965 e73d
00000260: 9b4d c7bb b33a 523b a750 9c3d 0e63 ecbc
00000270: 6343 e93d 9d0e cfba 261e b2bd e700 3f3e
00000280: 7922 02bc d193 96be df1a 6cbd 11f6 8dbd
00000290: a18f 293d adec 97bd 118c bd3d a551 c93c
000002a0: bf88 713b b612 83bc 3386 bf3b 3542 27ba
000002b0: 3a1a 81bc df36 4bbc 631d 8cbd 815f 453d
000002c0: 36b2 c83c 3162 63be 4624 ce3c 1ce2 623e
000002d0: 7cbd 9c3c 02d2 cfbc 53ea e4bd c527 c1bc
000002e0: 83e4 a3bd 428f 47bd 9694 b8bd 0035 c8bd
000002f0: c2a6 233d 5ba1 36bd f860 0dbd f4a6 69bd
00000300: a4fa c1bc 0fe7 66bd 437a d13d 954e 14bd
00000310: 7942 a7bd 6cf4 2fbd 00a3 efbc af24 37bd
00000320: 3221 8ebc 3217 8d3d 419d 60be d1f3 71bd
00000330: d8f6 0dbc fc85 a8be 3a89 38bd 83b4 8fbd
00000340: 0e57 3e3d edb4 a0bd 0e3c 2dbe c26e 1dbd
00000350: 8a42 8bbd dc58 29be 386c 98bc b252 dabc
00000360: f53d 09bd 62d4 2dbd 7b2d 0d3d b3b4 4cbd
00000370: d6a7 313d 46fb de3d 88e5 edbd f550 dc3c
00000380: 0d12 a23d dce4 203d 75d8 533d 6de5 ac3d
00000390: f6a5 263d b559 183d 75bc 8e3d 5522 973d
000003a0: 27a6 a03c 4a42 f43c c37d 743d c803 bfbc
000003b0: d497 623d 4e44 8cbd 87af 36be 3e3a 333e
000003c0: ee7a 2a3d 42af 01be 497b 133d 7b98 503a
000003d0: fde1 9b3d 0618 87bd 171e 3cbe f71c aebb
000003e0: ad20 153e 7ca2 1ebe 5710 67bd 059f 9c3d
000003f0: 329e c4bc 0a88 cfbd 56cb 19bd 0f85 a13e
-0.062411875 0.03779324 -0.061361406 -0.05937176 0.026302677 -0.0009256353 -0.033775855 0.08133258
-0.09768037 -0.103883855 0.022396024 -0.08039434 -0.010680381 0.10847775 0.020930849 -0.020572307
0.04646012 -0.04690934 -0.054131716 -0.010073168 -0.015167233 0.0028414933 0.19181272 0.004594541
-0.069555834 0.15874763 0.027726943 0.08337759 0.024447195 0.050307605 -0.0059303795 -0.054676063
-0.009636615 -0.021254744 -0.05699688 -0.066764176 -0.050666805 -0.07965237 -0.08956861 -0.054219954
-0.032454178 0.10161314 -0.079578534 0.063631095 0.1856543 -0.101028405 -0.018441085 -0.02297166
-0.018721346 0.08488698 0.06652124 0.034205664 0.08916844 0.039648227 -0.01799426 0.08399229
0.068036795 -0.015680822 0.07435102 0.012623515 0.0537973 -0.04754107 -0.08984709 0.19609807
0.0029783337 0.097807795 0.12216675 -0.18852335 0.004677852 0.0044278894 -0.11834398 -0.047827467
-0.10206615 0.032520484 -0.046835277 0.018935123 -0.09656592 -0.19397412 -0.13244139 -0.14969954
-1.0633289 0.014317773 0.04321078 0.08473406 0.05022409 -0.038715985 -0.27315807 0.12157667
-0.21070884 -0.50659853 -0.015273269 0.033201374 -0.062212978 0.011962209 -0.012581641 -0.08626629
-0.02137734 0.026637709 -0.049003188 -0.03986607 -0.04619856 0.044296604 0.051638428 -0.016166952
0.018586066 -0.010597461 0.07537002 0.035205558 -0.027129043 -0.0007772919 -0.014266195 -0.06691079
-0.06211709 -0.0030547031 -0.10401969 0.0012872998 0.06300077 0.0365494 0.051144823 0.0080843335
-0.011601511 0.018962545 0.03961131 0.068111934 -0.006398018 -0.042467233 0.09756446 -0.02841912
-0.088430576 -0.0019866675 -0.17219105 -0.0872813 -0.1795492 -0.058009963 -0.10414865 0.013733312
0.01834956 0.01557118 0.0028225463 -0.02108369 -0.066831544 0.008580273 -0.026965506 -0.10215519
-0.006798668 0.06714718 -0.019747574 -0.017996635 -0.005776933 -0.05167118 -0.17921837 0.1129858
-0.0060822493 0.0032078444 0.07632571 -0.028855827 0.11389806 -0.0015797202 -0.086971566 0.18652688
-0.007942789 -0.2940965 -0.057642814 -0.06931699 0.04139674 -0.07418189 0.09255231 0.024575064
0.0036855189 -0.016000133 0.005844855 -0.000638041 -0.015759576 -0.012403219 -0.068415426 0.048186783
0.02449904 -0.22205426 0.02516378 0.22156566 0.019133322 -0.025368694 -0.11177506 -0.023578534
-0.080025695 -0.048720606 -0.090127155 -0.09775734 0.039953955 -0.044587474 -0.034516305 -0.057043985
-0.023679085 -0.0563727 0.10228398 -0.036207754 -0.081669755 -0.04295771 -0.02925253 -0.04471272
-0.017349813 0.0688919 -0.21934988 -0.059070412 -0.008664809 -0.32914722 -0.045052744 -0.07016852
0.04646974 -0.07847009 -0.1691744 -0.038435705 -0.06799801 -0.16537803 -0.01860629 -0.02665076
-0.033506352 -0.042438872 0.0344672 -0.049977016 0.04337295 0.1088777 -0.11616045 0.026894072
0.07913599 0.039280757 0.0517201 0.08442197 0.040685616 0.037194926 0.06969539 0.07379595
0.019610478 0.029816765 0.05969025 -0.023317233 0.055320576 -0.068489656 -0.17840396 0.17502686
0.04162114 -0.12664512 0.036006246 0.00079572917 0.07611463 -0.06596379 -0.18370853 -0.0053135115
0.14563246 -0.1549167 -0.056412067 0.07647518 -0.024001215 -0.10133369 -0.037547432 0.31546828

bn2.weight f4 [64]
00000000: 909a 083e a89a e13d c6dc 4f3d ef2e 4f3d
00000010: 8fef 0f3e c9b7 c13d c58b 283e b3eb df3d
00000020: 95a3 5e3d b31b 263d 267f 793d 8d1b 5d3d
00000030: 81cb 743e 07da ab3d 8d44 2c3d c2af 0f3e
00000040: 8f89 2b3d 1eb2 d13d 3029 653e 9ffa 1d3e
00000050: 6d88 053e 6e8f ec3d c890 823d 1f3a 123e
00000060: 7cff 8e3d 223c 913d 3508 343e 2f50 ca3d
00000070: 820b 093e 2393 023e a8f8 233e 318f fa3d
00000080: 4f07 373e 052f be3d 2f29 693e 821d cd3d
00000090: 35e6 f83d 52ca ba3d ec60 443e 714c a53d
000000a0: ee6b 063d 1927 213e fa46 2c3e 788a 2a3e
000000b0: 4487 723e ee0d 463d 0edb 4d3e a0fd 1a3e
000000c0: 9d38 a23d 22e4 1e3e d1e9 163e 56d2 d33d
000000d0: 829e 0a3e 3f61 7c3d b817 883d d4f9 143e
000000e0: d468 693d 6184 5c3d 4187 5d3d 164d cf3d
000000f0: 1bf7 263e 871e 643e 84db 593e b739 ee3d
0.13340211 0.110158265 0.050747655 0.05058187 0.14056228 0.09458882 0.16459568 0.10933628
0.054355223 0.04055376 0.060912274 0.053981353 0.23905756 0.08391195 0.042057563 0.1403189
0.041879233 0.10239051 0.22378993 0.15427636 0.13040324 0.115507945 0.06375271 0.14279984
0.069823235 0.070915475 0.17581256 0.09878575 0.13383296 0.1275144 0.16012824 0.12234343
0.17873882 0.09286312 0.22769617 0.10015394 0.121532835 0.09120621 0.19177598 0.08071221
0.032817774 0.15737571 0.1682395 0.16654384 0.23684412 0.048353128 0.20103094 0.15135813
0.079209544 0.15516713 0.14737631 0.10342853 0.13537028 0.06161618 0.06645149 0.14548427
0.056984738 0.053837184 0.054084066 0.10122125 0.16305201 0.2227727 0.21275145 0.11632102

bn2.bias f4 [64]
00000000: e4d8 9f3c 5e23 80bc 629b c13d 6678 613c
00000010: 117b e83a c8d1 273c 626b 5abe 6bbc e33a
00000020: cb8f f2bc 5590 f03c 9fb8 253d 81bf 6e3d
00000030: 2e61 3bbc d6f3 18bc 5031 a43c 6c80 46be
00000040: 7fcf 6b3d b37a bf3d 8c50 afbe 1526 a4be
00000050: 002d 71be 9409 753b ed8f 0dbd d48d f6bc
00000060: e805 5b3a 5263 863d f7cc 72be 3a29 7ebd
00000070: 91eb e7bb 5d48 ae3b ffdc 8abe cb97 b33d
00000080: afa4 c6bd a327 7a3d 047f 0c3c eb4e c5bd
00000090: 3ad1 8dbd 86b0 5fbd 004a 06be 44e8 6a3d
000000a0: 34b3 8f3d fd01 bcbe 4149 4abe 592a c83d
000000b0: d664 24bd 3bf9 8c3d 62d1 8c3c 00c1 9d3e
000000c0: aed2 b93d 32be 35be 2d33 42be 0cdc a03d
000000d0: 1fec 0abe 282a 8a3b b0d0 a43d db24 6e3c
000000e0: 1a67 8c3d 77ac 803d 14cf 313d c13e 6abc
000000f0: b18e 3cbe e029 13bd 466a e9bd 7fdf 483c
0.019512601 -0.015641864 0.09453465 0.013761615 0.0017736872 0.010242887 -0.21330026 0.0017374879
-0.029609581 0.029365698 0.04045927 0.0582881 -0.011436744 -0.009335479 0.020043045 -0.19384927
0.05757093 0.09349575 -0.3424114 -0.32060304 -0.23552322 0.0037389742 -0.034561086 -0.030096926
0.0008355067 0.065619126 -0.23711 -0.062051035 -0.0070776423 0.005318685 -0.27121732 0.087691866
-0.0969938 0.061072957 0.008575205 -0.09634193 -0.069246724 -0.054611705 -0.13114166 0.057350412
0.07016602 -0.36720267 -0.19754507 0.09773702 -0.040135227 0.068834744 0.017189685 0.3081131
0.09073387 -0.17748335 -0.18964835 0.078544706 -0.13566636 0.004216451 0.080476165 0.014535154
0.068556026 0.06282895 0.043410376 -0.014297188 -0.18413807 -0.035928607 -0.11397223 0.012260317

bn2.running_mean f4 [64]
00000000: f9c0 43be f010 1cbe 4e01 36bd e245 d23e
00000010: 11eb 76bc 100d 08bf fec6 fb3e c4e7 04bf
00000020: 2be6 82be 0549 df3b e7e7 1f3e f2ea 92be
00000030: 228f c1bd 563e 8b3e 7767 233f 0448 983e
00000040: 07cd abbd cbb7 373c 7ae0 babc a197 443e
00000050: 1483 913e 32c7 433e f4c6 a03d 66bc 3ebe
00000060: d7c8 e1be b9f6 b7be b8d6 bc3c 4ab1 73be
00000070: ba3d a3bc 98bc 043e 1109 4a3e 5f06 02be
00000080: b0d5 b0bd 707a 0ebf c2b9 443e 6439 c13d
00000090: 6e73 b93e c88d 013e 6efb 95be 366b d13d
000000a0: 4e9b 60be 62b3 293f 9c3e 213f 5571 9d3d
000000b0: 1946 2cbe 0b85 0b3e 352e babe e412 02bf
000000c0: 4e82 423e e038 2c3d eeb4 003e 16d5 d2bd
000000d0: 203d e53d 4ad5 a23e dd75 e73d ab5d 503d
000000e0: d769 ae3d 1d95 ca3e f196 acbe 9f64 0bbe
000000f0: 4f0d a93e d966 943e 4903 f13c 1485 e0bd
-0.19116582 -0.15240836 -0.044434838 0.4106894 -0.015070693 -0.5314493 0.49175256 -0.51916146
-0.2556623 0.0068141245 0.15615807 -0.28694874 -0.094511285 0.27195996 0.6382975 0.29742444
-0.08388715 0.011213253 -0.022812117 0.19198467 0.28420317 0.19118956 0.07850447 -0.18626556
-0.4409854 -0.35930422 0.023051605 -0.23798099 -0.019926894 0.12962568 0.19730021 -0.12697743
-0.08634508 -0.55655575 0.19211486 0.094347745 0.36220878 0.12651742 -0.29293388 0.10225527
-0.21934244 0.6628934 0.6298616 0.07687632 -0.16823615 0.1362497 -0.36363378 -0.50810075
0.1899502 0.042046428 0.12569019 -0.10294549 0.11193299 0.31803352 0.113017775 0.05087058
0.08516281 0.3956689 -0.3370891 -0.13612603 0.33017966 0.28984717 0.029420512 -0.10962883

bn2.running_var f4 [64]
00000000: 7afe b33d a5a6 c33c 70b4 db3a d8bb 1e3c
00000010: 3e88 b43c 0002 283b 4786 4a3c 80a1 ab3e
00000020: a7bf e13c 6b95 893b c802 f53c 734f 173b
00000030: 254b 063e 9394 303d bae4 0b3b 1895 2c3d
00000040: 276c 6d3b 5f6b 793c 2549 153e f3b7 af3d
00000050: a538 003d 8e95 fd3c c0e6 523c 848b 6c3c
00000060: ef81 0a3d 4649 693a 8f83 2b3e 5a7f c73b
00000070: ac67 cf3c 01fa 863c 494a f13d f6ee 933c
00000080: 05a9 523e 92ad 033d 7c8f ed3d 118e bd3d
00000090: 7c27 5b3c 1030 793c 2b44 813e ca1a 0d3d
000000a0: 7938 cd3a 7258 7d3c e035 fb3d 6961 513e
000000b0: 204d f53d f184 d03b 4bc6 dc3d 7e93 c53d
000000c0: b8b0 8a3b 649a 103e ea6f 383c 47cf 8c3c
000000d0: 3159 df3b 751c 3d3c f3c6 bd3b 1ac0 bf3c
000000e0: 06f2 403c 9b00 9c3b 0070 353b 46e0 153d
000000f0: 138f 423c 4398 123e 213d 5f3e eada 883c
0.08788772 0.023883173 0.0016762149 0.00968834 0.022037622 0.0025635958 0.012361116 0.33521652
0.027557207 0.00419872 0.029908553 0.0023088127 0.13114603 0.04311044 0.0021346048 0.042134374
0.0036227794 0.015223353 0.14578684 0.085800074 0.03130402 0.030955102 0.012872398 0.01443756
0.03381532 0.0008899163 0.16749404 0.0060881795 0.02531799 0.016476633 0.11781747 0.018058281
0.20572288 0.03214795 0.11599633 0.09255613 0.013376113 0.015209213 0.2524732 0.034449376
0.0015657089 0.015462982 0.12266135 0.20447315 0.11977601 0.006363504 0.10780009 0.096472725
0.0042324923 0.14121395 0.011257151 0.017188681 0.0068160524 0.011542429 0.005791539 0.02340703
0.011776453 0.0047608144 0.0027685165 0.036590837 0.011874932 0.14315896 0.21800663 0.016705949

conv3.weight f4 [64, 64, 3, 3]
00000000: 7a85 493b 62a8 fb3b b863 8d3d 1cd8 123c
00000010: 16da 3ebc 5816 313d 17d0 18be 54d5 173d
00000020: ee90 823d b234 c83b c9b9 afbc 7e93 d8bd
00000030: fc10 183d f975 853c bcfd 18bf f05b 65bc
00000040: f1f4 b1bd c31b 56be 7047 393c ac8b 6dbd
00000050: 299c 61bd a966 ea3c 2b8b 64bc b325 2ebe
00000060: 7769 d6ba c28a b23d a82d 92bd b0c1 f03c
00000070: aaf0 eebd bbef 933d 4549 d73d b496 a13c
00000080: 493d 903d 3bbd 393e d612 123e 0c81 d23d
00000090: 1386 91bc 2ca8 a5bd 8672 1ebd f0be a5bd
000000a0: 598c dfbc d2c1 ddbd b25f b53c c482 ddbd
000000b0: 18fc 4fbd 5961 203d 76c0 a1bb ef74 89bc
000000c0: 1f48 f2bd 0fa4 13be aac7 84be 7e17 9dbb
000000d0: a02e c6bd c5f2 d33b 73e9 7a3d 7145 143e
000000e0: 48e6 1a3d b464 04bd 11f8 ebbd 7ad6 09be
000000f0: c67e 20bc 7ba4 13be 182a 04bd 258b 9c3a
00000100: 18e5 29bd 2319 bc3c f2c3 95bd 2121 dcbd
00000110: 52c7 3f3c 4410 c139 92a1 8f3d 5a5b e33d
00000120: dbc9 273d 87c6 913b ed0f 80be d4c3 45be
00000130: 70e9 96bd b768 97be 9930 273e 2a39 a23d
00000140: 647e 10be 8dc1 483c 2ee3 be3c 5f2b adbb
00000150: ecbf 05bc fa55 383e ca5f a936 f4b7 953c
00000160: da8e 123e c4e7 973c 7cad 6f3c ca86 99bd
00000170: 2f57 bfbc 09a5 e33d 10f8 95be 2e7c d1bd
00000180: c84e 00bd 8af5 a8bd edd0 d53d ba40 68bd
00000190: 6934 d43d 03c7 febc 9770 a73c 90df d63b
000001a0: d19a 943c e926 49bd 53f6 c8bd ee73 203d
000001b0: 84d9 403c 4ac7 843b 0095 603d 964b f6bd
000001c0: 512e 83bd 539b 823c 2b7b 44bc 273c 89bd
000001d0: 78f3 713d 0585 18bd 783a f1bd e06c d2bd
000001e0: fbe9 96bd 33d2 b2be 6f58 943d bacd 31bd
000001f0: ad7e 0bbe 19fa 8e3d 7673 d3bd 08e5 e8bd
00000200: ce60 993d 4fbc 1c3b 6398 a83d a3a8 b9bc
00000210: fe58 33bd 4431 e9bc 00cf debc 8260 de3b
00000220: 97a7 c83d 6090 643c 7472 143c 5510 d03c
00000230: fb1e c63c b94b aabd b0a8 353d b264 283d
00000240: 8e87 46bc 13b2 f2bd 17b3 ccbd 8092 95bd
00000250: 16ee 82bc 189e e03c 9cee cd3d 2c45 99bc
00000260: 27de cebd 06c9 163e 875c f7bd e405 e43c
00000270: a216 373c e4d7 98bc a439 b83d 59f2 1fbd
00000280: 4c96 85bd ee41 073d 26a9 11bd e5f0 ddbd
00000290: 91ad f2bb 64aa 82be a281 0ebd 6ae5 f4bb
000002a0: 5f64 0fbe fceb 3abe ec59 023c c515 17bd
000002b0: 3e86 e9bd ee93 8dbd bcc3 b2bd 77af 0f3e
000002c0: 042d 953e cbf6 0fbd 6ba3 64bd eddb 143e
000002d0: 9bd2 ce3c 68c5 7abd 839f 4cbd fc84 08be
000002e0: c6b6 86be 35c2 e6bd 93db 7dbd 270b 33be
000002f0: 02b6 b6bd 0611 33bd d45c ebbc aed9 79bc
00000300: bd9a ecbd 0021 2cbe f7d4 79be 11d6 673b
00000310: a733 523d a32e 4fbe 2fd7 ccbd 5cd6 a93c
00000320: f2f1 5cbd c181 4f3e 6f50 9b3d 3330 a73c
00000330: 2e68 71bd 84af af3d e381 b53d b675 353d
00000340: e576 8a3d 6805 d93d 13af 733c 9f86 28be
00000350: 5e14 b53c 3f44 c7bd bde5 2bbd dcfd ddbd
00000360: e662 c2bd 19ed 01be a747 08be 7259 21bd
00000370: d1c7 efbc 1126 adbd a070 933d 0de6 2fbd
00000380: dc3c dcbd 96c5 a0bd 1b86 703d eb70 82bd
00000390: 0cb2 d03c 12a8 053d 1207 1cbe bb75 ebbc
000003a0: f0d5 6dbd d0fa 64bb ae93 a83d c73d 703d
000003b0: 88d4 623d a62e c23d 4884 033e 6c89 ac3d
000003c0: 13dd 0e3e 36a3 2a3e 5085 ef3d acdc 7fb9
000003d0: 04f3 363d 3f7e f43a 1602 bfbd 78fc e8bd
000003e0: 66fc c6bc 2360 043e 82e1 6cbd 6025 ec3d
000003f0: 7b91 2cbd d4bf fabd 390f 3ebd de67 a0bb
0.0030749724 0.007679985 0.069037855 0.008962657 -0.011648675 0.0432342 -0.1492313 0.03706868
0.063752994 0.0061097974 -0.021450894 -0.10575007 0.037125573 0.016291605 -0.5976217 -0.01399897
-0.08689297 -0.20909028 0.011308536 -0.05799453 -0.055080567 0.028613405 -0.013949196 -0.17006569
-0.0016358335 0.08717872 -0.071376145 0.029389232 -0.11666997 0.07223459 0.10512022 0.019725181
0.07042939 0.18138592 0.14264998 0.1027852 -0.017764127 -0.08088717 -0.038683437 -0.08093059
-0.027288603 -0.10827984 0.022140358 -0.10815957 -0.050777525 0.039155338 -0.004936273 -0.016779391
-0.11830162 -0.14418052 -0.25933582 -0.0047940603 -0.09676862 0.0064681494 0.06125779 0.14479615
0.03781727 -0.0323226 -0.11521924 -0.13460723 -0.00979585 -0.14418213 -0.032266706 0.0011943324
-0.041478246 0.022961205 -0.07312764 -0.10748506 0.0117052365 0.00036823947 0.07013239 0.11101408
0.04096399 0.004448715 -0.2501215 -0.19312984 -0.073687434 -0.2957208 0.16327132 0.079210594
-0.14110714 0.012253177 0.023301687 -0.0052847113 -0.0081634335 0.18001547 5.047744e-06 0.018276192
0.14312306 0.018543132 0.014628764 -0.07496412 -0.023357002 0.11115462 -0.2929082 -0.102287635
-0.03132513 -0.08249958 0.1044024 -0.056702353 0.10361559 -0.031100756 0.02043943 0.0065574124
0.018140228 -0.049109373 -0.098126076 0.03917306 0.01177061 0.0040520774 0.054829597 -0.120261356
-0.064053185 0.015943205 -0.011992256 -0.06700926 0.05907008 -0.037236232 -0.1177873 -0.102746725
-0.07368847 -0.34925994 0.0724343 -0.043409087 -0.13622542 0.06981296 -0.10324757 -0.11371809
0.07489167 0.0023915952 0.082321905 -0.02266342 -0.04378604 -0.028465874 -0.027198315 0.006786407
0.0979759 0.013950437 0.009060491 0.025398413 0.024184695 -0.08315224 0.044350326 0.041111656
-0.01211728 -0.11850371 -0.09995096 -0.07303333 -0.015982669 0.027419135 0.10055277 -0.018709742
-0.10100966 0.14725122 -0.12078195 0.02783484 0.01117483 -0.018657632 0.08995369 -0.03904948
-0.065228075 0.03302186 -0.035561703 -0.108369626 -0.0074059446 -0.25520623 -0.034791596 -0.0074736373
-0.14003132 -0.18254083 0.007956009 -0.036885995 -0.11402558 -0.06912981 -0.087287396 0.14031778
0.29135907 -0.03514747 -0.05581991 0.1453702 0.025246909 -0.061223418 -0.04995681 -0.1333198
-0.2631132 -0.11267511 -0.06197698 -0.17484723 -0.08921434 -0.043717407 -0.028730787 -0.015249653
-0.115529515 -0.16809464 -0.24397646 0.0035375396 0.05131879 -0.20232634 -0.100019805 0.020732097
-0.053941675 0.20264341 0.07583701 0.020408725 -0.058937244 0.08578399 0.088626646 0.04430171
0.067609586 0.10596734 0.014873284 -0.16457604 0.022104438 -0.09729814 -0.041967142 -0.108394355
-0.0949152 -0.12688102 -0.13308583 -0.039391942 -0.029270085 -0.08454526 0.07199216 -0.042944003
-0.107537955 -0.078501865 0.058721643 -0.06369194 0.025475524 0.032630987 -0.15237072 -0.028742662
-0.058065355 -0.0034939535 0.08231293 0.058652665 0.055378467 0.09481554 0.1284343 0.08424649
0.1395152 0.16663823 0.11695349 -0.00024400902 0.04466535 0.0018653347 -0.0932657 -0.113762796
-0.024290275 0.12927298 -0.05783225 0.11530566 -0.04213093 -0.122436196 -0.046401236 -0.0048951944

bn3.weight f4 [64]
00000000: d484 b13d da33 413e cffb 423e 6773 6c3e
00000010: 1b3a 423e fd5f c63d 9de7 443e 4d72 7b3d
00000020: 5a06 353e 376a 603e 49b3 943d b9d3 b83d
00000030: e88b 1e3e 2201 483e 409a 6c3e 2cb6 143e
00000040: d681 303e b779 3d3d 9976 0e3e 47d8 2e3e
00000050: ec56 d63d 0a6c f53d 052f 483e 439c b53d
00000060: 01f2 903d c100 233e babd 9c3e 7474 1d3e
00000070: 3d1e 6f3e f434 c83d ea01 ca3d 5098 793e
00000080: 8174 623d 22c1 283e 3fa9 323e f111 a23d
00000090: 5751 f63d 70f8 153e bdbb 3a3e 2364 4b3e
000000a0: 0cdc bb3d be54 8d3d 0321 2c3e f240 713e
000000b0: c7b9 183e 9d54 633e a30f 4c3e f914 543e
000000c0: 467c 1f3e c4bb 263d 9425 0d3e c9ee 223e
000000d0: 3521 a13d f3f1 3e3e b80a df3d 4fbc 283e
000000e0: f82a 943d 9db9 7c3e 462e 4d3d ee68 163e
000000f0: 9479 9c3d 89f2 6d3e 1aca 2f3e 1722 123e
0.08667913 0.18867436 0.1904137 0.23090898 0.18967478 0.09686277 0.19228978 0.061388303
0.17678204 0.21915518 0.072607584 0.09024758 0.15483057 0.19531682 0.23105717 0.14522618
0.17237028 0.046258654 0.13912429 0.17074691 0.10465798 0.119834974 0.19549187 0.08867695
0.070774086 0.15918256 0.306135 0.15376455 0.23351379 0.09775725 0.09863646 0.24374509
0.055286888 0.16479924 0.17447375 0.07913578 0.12027233 0.14645553 0.18235679 0.19862418
0.0917283 0.06900929 0.16809468 0.23559931 0.14914618 0.22200246 0.1992784 0.20711125
0.1557475 0.04070641 0.13783866 0.15911402 0.07867662 0.18646984 0.10890716 0.16478084
0.07234758 0.24680181 0.050092958 0.14688465 0.07640377 0.23237051 0.1716694 0.14270817

bn3.bias f4 [64]
00000000: 609b 2e3d 6a63 09bb e8f2 77bd 9277 cd3c
00000010: f4b7 5ebd 4274 b93d 90e6 4ebd 812e 2d3e
00000020: 0490 973d 7cdd f7bd 0544 663e cbb7 753e
00000030: d680 483d 8167 e03c 0b42 89bd 6f8d f7bd
00000040: 5550 debd a034 833d 75a6 ea3d d136 173d
00000050: 6bf7 163d a09e d13d f000 873d aa1a 5e3d
00000060: f6ea a83d a002 bdbe 13cd cdbe a6a5 03be
00000070: b0b7 03bd fff6 a83d 493d 6b3d 917d 2bbe
00000080: 0198 913d 1ec4 cd3d 5b74 3cbe 230a 333d
00000090: ae9b c23d 9753 c7bc 6073 9e3c 97d4 123e
000000a0: 773c d23c 02a2 093e aeaa 6c3d bf6d afbe
000000b0: 5cbd 9b3d 2596 a0bd ff36 97bc 7b05 fa3c
000000c0: d325 b4be d644 e63d bfe5 25be aed2 90bd
000000d0: af76 da3c 4465 9f3d 70c2 7f3d b0ca 70be
000000e0: 2475 463e 09ab a6bc 8021 c93d fc9f 013e
000000f0: 066d 083e b5e7 a3be 9c35 eb3c e4e4 f9bd
0.042628646 -0.0020963796 -0.060534388 0.02508143 -0.05437465 0.090553775 -0.05051285 0.16912271
0.07400516 -0.12102792 0.22486885 0.23995893 0.048950993 0.027393105 -0.0670205 -0.12087523
-0.10855166 0.06406522 0.114575304 0.03691751 0.03685705 0.102353334 0.06591976 0.054224648
0.0824794 -0.36916065 -0.40195522 -0.12856159 -0.0321576 0.08250236 0.057431493 -0.16747119
0.071090706 0.10047172 -0.18403761 0.04371084 0.0950235 -0.02433185 0.019342124 0.14338909
0.025663598 0.13440707 0.05777996 -0.34263417 0.07604477 -0.07841138 -0.018458841 0.030520191
-0.35185108 0.11243598 -0.16200922 -0.07071434 0.02666792 0.07782987 0.06244129 -0.23514819
0.19380623 -0.020345228 0.09820843 0.12658685 0.13322839 -0.32012716 0.028712086 -0.122018605

bn3.running_mean f4 [64]
00000000: 7ce6 45be 775e 9cbe 05ba ecbd fa41 63be
00000010: 10c6 c5be f3c4 aabe a4ac db3b f4f1 443c
00000020: fac1 a0be 384a 323c 3735 efbd 9a68 67be
00000030: f9af f2bd 6635 aabc 90a0 303e b964 b2be
00000040: 97ef 5bbe 37fc a0be 4c3c bebd cee4 043e
00000050: cb6e 03bb 5700 1bbd 6dde b7bc 931e bbbc
00000060: 211f 873d 14dd 9ebe e863 03be 2821 84be
00000070: 265f a03e 33ba 073f 7d38 99bd cdfe 1c3e
00000080: 90f4 1ebe 9830 32bd ec2f 4fbe d24e a9be
00000090: e75a 15bd e81c 24be 3d8d af3e b755 eabc
000000a0: 0c75 08be 2ff9 6f3c 1ae8 12be 6ec2 8ebe
000000b0: fe4c c6bd 08a2 cc3c b67b 4abd 7149 6d3c
000000c0: c286 08bf 9406 84be fe04 9dbd 5ce6 3dbe
000000d0: f497 92be e8ba 023f b23c 78be b2fe c3be
000000e0: 85b0 adbe 60be 23bc 5856 67bd 2ab6 d4bd
000000f0: ec7f cabe 85b1 6fbe 67f8 a9bd 5ddf 8bbe
-0.19326204 -0.3054082 -0.11558918 -0.22193137 -0.38627672 -0.33353385 0.00670393 0.012020577
-0.31397992 0.010881953 -0.11680072 -0.22598496 -0.1184997 -0.020777415 0.1724875 -0.3484247
-0.21478115 -0.31442425 -0.092888445 0.12977907 -0.0020055051 -0.03784212 -0.022444928 -0.022841727
0.06597734 -0.31028044 -0.1283108 -0.25806546 0.31322592 0.5301849 -0.074814774 0.15331574
-0.1552298 -0.043503374 -0.20233124 -0.33067948 -0.036463644 -0.16026652 0.34287444 -0.028605325
-0.133259 0.014646812 -0.14346352 -0.27882713 -0.09682654 0.024979606 -0.049434386 0.014482842
-0.53330624 -0.2578627 -0.07666968 -0.18544906 -0.28631556 0.51066446 -0.24241903 -0.38280255
-0.33923736 -0.009994119 -0.05647883 -0.103863075 -0.39550722 -0.23407562 -0.08299332 -0.2731885

bn3.running_var f4 [64]
00000000: bb9c 153d aa79 603e 1a15 af3d 258c f23e
00000010: b1b0 193e de64 8a3c 95bf 103f d944 8d3c
00000020: 3ccc aa3d 28ad b93e ad7c a13c 2cbb 033d
00000030: 8039 d33d e383 df3e d872 383f af68 2a3d
00000040: 43bd 413e 5cc9 833c 0aef 9e3d a471 073f
00000050: a28a 1a3d e197 823d f33a b33d d13f 803d
00000060: 51d9 8b3c 22f6 713c 548e 693c b743 233e
00000070: 81ea 0d3f 182a f73d 7058 ff3c 64e8 fa3e
00000080: 2406 7f3c dbf7 8f3d ab84 4f3d 8fc3 a13c
00000090: d9f6 833d 480b 793e c849 843e 840e 9b3d
000000a0: 1ceb ad3c a003 783c 573e a13d 1a16 c23c
000000b0: b2b1 9b3d 81ab 133f 49ad 473e 9b8d 5a3e
000000c0: 50bb 0f3f 9507 283c b89b ff3d 14f5 713e
000000d0: 4cf2 433d dfcb e93e 0780 613d 1da6 633d
000000e0: 4b14 723c 8bcb 183f d7d8 193c a430 783d
000000f0: f070 a23c 9cac 1b3d 9455 043f d127 db3c
0.036526423 0.21921411 0.08548947 0.47372547 0.15008809 0.0168938 0.5654233 0.017244743
0.08339736 0.3626492 0.01971277 0.032160923 0.10313702 0.4365531 0.7205024 0.04160374
0.18919854 0.016087227 0.07760437 0.52907777 0.037729867 0.06376625 0.08751478 0.06262172
0.017071398 0.014768155 0.014255125 0.159438 0.5543595 0.120685756 0.0311701 0.49005425
0.015565429 0.070296966 0.05066363 0.01974657 0.06443567 0.2432071 0.2583754 0.07571128
0.021230273 0.015137583 0.078732185 0.02369218 0.07602252 0.5768357 0.19499697 0.2134308
0.5614519 0.010255714 0.12480873 0.23628646 0.047838494 0.45663354 0.055053737 0.05557834
0.014775346 0.5968558 0.009390078 0.060593262 0.019829243 0.03800641 0.5169308 0.026752384

conv4.weight f4 [64, 64, 3, 3]
00000000: d452 323d 7a0b 33bd 3156 523c 3b0a 5d3e
00000010: 5a94 bebd 8313 1a3c ef60 d0bc f993 efbb
00000020: effd 71bc 4b35 e23d 8c18 763b 1774 3dbc
00000030: 7fbf 8c3d f21a 5ebd 79a4 56bd 70e6 4dbc
00000040: bf10 b0bc a67c 74bc 4979 423e c498 7ebe
00000050: 019c c8bc f6e6 123e c93a 3dbd 9f2f f539
00000060: dde7 5abc e591 0e3d f605 ae3b 26b8 803e
00000070: ca33 9ebc c441 08bc 5049 003e c3d2 e6bd
00000080: 4c8d eebc 8807 323d c9b5 9abc 4388 6cbc
00000090: a3fe 803e a53d 6ebd 8ab4 97bb 3822 21bd
000000a0: 537f 1abe 79f4 a63c 952b fb3c e342 43bd
000000b0: d739 cfba 1088 d93c 7234 2ebe a817 a8bc
000000c0: 0aec 263e 100f 213e 95bb 18bd 84b3 8ebc
000000d0: 0d57 613c 840f 83bc 0db6 a3bd b2bf 52bd
000000e0: 87c8 1abd 1603 58bd 7cac a1bd 4eb6 4ebd
000000f0: 3f24 31bc ab26 3639 ab34 c2bc ae6c f33d
00000100: 298b ce3d 0082 573c 4c38 31be b9c7 9cbd
00000110: 4506 263d 3f29 54bc 4239 6fbc aea5 fa3b
00000120: d0a2 153e 11d2 05bd 4553 e3bb 0015 95be
00000130: 056b 37be db18 b13c bbb5 363c af5c b03b
00000140: d5e0 28b8 1c49 223e 18bb 2cbc 79b0 4abc
00000150: e26e 463e 302c 17be 8750 adbc 20e1 043c
00000160: 5b87 133b e0ea 0fbc 68d7 133e 3397 ff39
00000170: b200 9bbb 8c2d 733d af91 1fbd 4918 bd3c
00000180: 63b9 24bd 1969 26bd 138e 49bb ca43 a03c
00000190: ee95 a2bc c2fe 0e3b 6491 3aba 43e9 7cbd
000001a0: 75c3 3dbc eb88 11bc a613 b1bc 7696 593c
000001b0: 33ac 1ebe 5d76 343e f20a af3c d0e0 063e
000001c0: b504 4abd b88e c5bc 15d9 ee3c 2a05 b5bb
000001d0: 7444 af3c bf72 6dbd ad79 c2bd e565 8ebb
000001e0: 1141 a63c 06e0 973d df05 06bb b0c3 da3b
000001f0: b957 edbb 912d 783c 3335 74be 406b 15be
00000200: a985 89bc 81dc 72be 1300 6cbd 7960 a6bc
00000210: 4999 7abc a0f9 7dbb 0043 b9bc 2e20 513d
00000220: 6298 08bc 80be 2a3d dcd9 0fbd 4f58 40bd
00000230: 9b02 e83c ddd8 9839 689c 1dbb 8f6a 96bc
00000240: 984c ecbc e1ec 8f3c 1e53 adbb b476 bbbd
00000250: ef8a 75be ba32 c3bd 63c3 433c 322a b33c
00000260: d43f b93c 25fa c43d 61f9 e83c 7250 083d
00000270: a894 ccbb dbd7 cfbd 0219 dd3c 7ac6 00bc
00000280: adf8 27bc 33b8 cf3c 0ffa fa3d ed44 83be
00000290: f96c 87bc 3f8a 36be 55d6 203b e784 6a3c
000002a0: 6235 fbbc 364a 7a3c 703d cf3b 0ecc bf3c
000002b0: 91fb 1ebc 8a6f b03c da63 2abd d92b 8fbe
000002c0: 3ff1 4cbd 2223 8dbc 8954 47bd cf37 f7bb
000002d0: c969 0cba 8ef5 023d 94ec 43bc 2fd4 44be
000002e0: 258c 36be 23a6 823d 828d d63c 3521 ea3b
000002f0: 7bbf a1bb 59c1 113e 9244 56be 258a fa3a
00000300: 1a47 08bd 268f 2a3d c8ca 0bbc 7d5c cf3c
00000310: 44a7 893b ea9b 6e3c 8072 d53c ea09 4f3e
00000320: 46ca a33b 6ce2 743e dc77 79be 18b2 f73c
00000330: 7ba2 25bd 974a 053c 27f2 43bb 2b3b 8cbe
00000340: d70c 603d 3a51 3dbd 7979 9abd 5a77 68bd
00000350: d1d1 19bd 0c5b c63c 6752 ad3b d900 2a3c
00000360: 512d 0bbd 57b7 143e 3a5a 663b 143a e2bd
00000370: 302b 42be a473 103c 8818 d33b d920 1cbb
00000380: 935d e4bc bd35 9d3c b58b c8bc aafb 683a
00000390: 39b4 933a 165e 4c3c 6114 33bb da32 46bd
000003a0: 78ae dbbb bb8a c8bc c020 32bc d6d7 843c
000003b0: 62f6 2f3b ac86 873c 73ae 76bc 595c fbbb
000003c0: eb52 d83b cff8 75bc 5a11 9dbb c989 35bc
000003d0: ab5d bdbd 35f1 5fbd c988 993d 732d 97bd
000003e0: 7dde 83bb 28d6 383b d37d b03b 2b75 d4bc
000003f0: 8b0c 76be c8f6 33be ebf3 7abc 39a6 3ebe
0.043536022 -0.043712117 0.012837932 0.21585934 -0.093056396 0.009404066 -0.025436847 -0.007311341
-0.014770015 0.11045321 0.0037551252 -0.0115633225 0.068724625 -0.054224916 -0.052402947 -0.012567148
-0.02149236 -0.014922297 0.18991579 -0.24862963 -0.024488451 0.14345917 -0.04619864 0.00046765522
-0.013360945 0.034807105 0.005310769 0.25140494 -0.019311804 -0.008316461 0.12527966 -0.11270668
-0.02912011 0.043464214 -0.01888551 -0.014436784 0.25194272 -0.058164258 -0.004629676 -0.039339274
-0.15087633 0.020380246 0.03066043 -0.04767121 -0.0015810084 0.026554137 -0.17012194 -0.020519093
0.1630098 0.15728402 -0.037288267 -0.017419584 0.013753665 -0.01599861 -0.07993708 -0.051452346
-0.037788894 -0.052737318 -0.07894227 -0.050466828 -0.010811864 0.00017371277 -0.023706755 0.118859634
0.100851364 0.013153553 -0.17306632 -0.076552816 0.040533323 -0.012949287 -0.014601054 0.007649145
0.1461289 -0.032671038 -0.0069374167 -0.29117584 -0.17911918 0.021618297 0.011151726 0.0053821425
-4.0263712e-05 0.15848202 -0.0105426535 -0.012371176 0.19378236 -0.1476295 -0.021156562 0.008110315
0.0022511098 -0.008784026 0.1443764 0.00048750042 -0.0047303075 0.05936961 -0.038957294 0.02308287
-0.04021586 -0.040627573 -0.003075485 0.019563574 -0.019846883 0.0021819328 -0.0007117002 -0.061745893
-0.011582245 -0.008882741 -0.021615814 0.013280502 -0.15495376 0.17623277 0.021367524 0.13171697
-0.049320895 -0.024115905 0.029156247 -0.0055242972 0.021394946 -0.05797076 -0.09495864 -0.004345643
0.020294698 0.07415776 -0.0020450277 0.00667616 -0.0072431234 0.015147583 -0.23848419 -0.14591694
-0.016787367 -0.23716928 -0.05761726 -0.020309674 -0.015295335 -0.0038753524 -0.022614956 0.05105608
-0.008337112 0.04168558 -0.035119876 -0.046959218 0.028321555 0.00029153275 -0.0024049524 -0.018361358
-0.028845116 0.017569007 -0.0052894494 -0.091535 -0.2397878 -0.0953116 0.011948439 0.021870706
0.022613443 0.09618024 0.028439226 0.033279844 -0.006243307 -0.10148593 0.026989464 -0.0078598205
-0.01025216 0.025356388 0.12254726 -0.25638524 -0.016531454 -0.17826174 0.0024541814 0.014313913
-0.030665103 0.015276482 0.0063244626 0.02341273 -0.009703533 0.021537561 -0.041599132 -0.2796314
-0.050034758 -0.017228667 -0.048664603 -0.0075444947 -0.00053563394 0.03197246 -0.01195826 -0.19221567
-0.17826898 0.06379344 0.026190523 0.007145072 -0.0049361563 0.14233913 -0.20924595 0.0019114657
-0.033270933 0.041640423 -0.008532234 0.025312657 0.004200848 0.01456354 0.026055574 0.20218626
0.004998478 0.23914498 -0.24362129 0.030236289 -0.040438157 0.008135459 -0.0029898973 -0.27388892
0.054699745 -0.04622004 -0.075427 -0.056754448 -0.037553612 0.024213336 0.005289364 0.010376179
-0.033978764 0.14523064 0.0035148994 -0.11046234 -0.18961787 0.008816633 0.0064421333 -0.002382329
-0.02787665 0.019190663 -0.02448068 0.00088875985 0.001126892 0.012473604 -0.002732538 -0.04838834
-0.006704148 -0.024480214 -0.010872066 0.0162162 0.0026849736 0.016543709 -0.01505624 -0.007670921
0.0066016815 -0.015012934 -0.0047933282 -0.011080214 -0.09246381 -0.054673392 0.07496793 -0.073817156
-0.0040243254 0.002820382 0.005386093 -0.025934776 -0.24028222 -0.17574608 -0.015316944 -0.18618096

bn4.weight f4 [64]
00000000: 054d ec3e 8430 dd3d 5fce ba3e 364b 183d
00000010: 6f22 433e ec55 a83d 14a2 993e 2bdb 053e
00000020: 9fbe b43e 8039 e43d 9890 4a3f 34c8 0d3e
00000030: 6a26 963e 989b cf3d 0800 2b3d fbe2 843d
00000040: 6ac9 593d b03f be3e d289 9a3d ae2b 203e
00000050: c70f bf3e 733e d43e c38d 353d 2224 253e
00000060: 4cd0 0e3e 5d57 c43d 1631 333e 6d35 e83d
00000070: 3294 163e 1e5c 9a3d c629 723d 37d5 213d
00000080: 095c 9a3d 34db b33e 71db 703e 9c14 6a3d
00000090: 088a e33d 9e88 303e f5c3 513d 1086 d33d
000000a0: f91e a63e 8b30 f93e 1923 453d 8b33 443d
000000b0: ff45 a93d 0a54 2b3e ac66 1e3d 8954 253e
000000c0: 51ff e33e 6029 e63d eba1 a23d 3c2c 053e
000000d0: b7b1 c03e 1bb0 023e f2a1 d63d 8034 863e
000000e0: da26 d93d 4f30 883d 2f7d 393d 1ad5 103d
000000f0: 37c8 ae3e 9adb 233d 6c57 143d e67e 103d
0.4615251 0.10800269 0.36485574 0.0371811 0.19056104 0.08219513 0.30006468 0.13071887
0.35301682 0.1114378 0.7912688 0.13845903 0.29326183 0.10137099 0.041748077 0.064886056
0.0531706 0.37157965 0.075458184 0.15641662 0.37316725 0.41453895 0.044324648 0.16127065
0.13946646 0.09586976 0.17499194 0.11338315 0.1470497 0.07537101 0.05912187 0.03950998
0.075370856 0.35128176 0.2352121 0.05714856 0.11110312 0.17239615 0.05121227 0.10328305
0.32445505 0.48669848 0.048129175 0.047900718 0.08265304 0.16731277 0.038672134 0.16145529
0.44530728 0.112383604 0.0794104 0.13005155 0.37635586 0.12762491 0.10480107 0.2621193
0.106031135 0.06649839 0.0452854 0.03535948 0.34137127 0.04000435 0.036216184 0.03527727

bn4.bias f4 [64]
00000000: 963f 3f3d 8757 9dbc 92c8 c1bd a0bd 363c
00000010: ce85 80bd 4cb9 913e bc34 aebd 50e6 a5bd
00000020: 1395 98bd 4ff2 cbbe a61a 2cbd 61e7 14be
00000030: ca63 06bd 88a8 253d 6397 a03c 3bc7 0dbc
00000040: 74e4 74bb c815 15bc ac10 5ebd 350a febd
00000050: de92 94bb 6b01 dbbc 4b85 023d d300 09be
00000060: b6dd abbd 8f6e 0cbd d235 19be 0d82 073d
00000070: 49e7 e1bd 22e7 e3bd ab43 c93c 2f39 f63d
00000080: 47dc 00bd a110 aebd d143 99bc 9405 da3d
00000090: fe72 a0bd 389c 32bd 1be5 0dbc 4d8a b0bd
000000a0: bf9c e3bc e528 c6bd 3757 873c d7d2 083d
000000b0: 7cbb 55bc 960e 3b3c 1985 9f3d 0d0c 70bd
000000c0: 2476 523d 702c 6bbd 5502 e5bc 8b0e e23d
000000d0: 7178 1c3d b6bf 18bd 43b4 52bb b927 1bbd
000000e0: 1490 debc ab36 62bd 3146 e7bb b338 cb3d
000000f0: 1aeb d8bc 1f86 3f3d 5407 263d f0ac 77bc
0.0466915 -0.019206775 -0.09462084 0.011153609 -0.06275521 0.28461683 -0.08506152 -0.08100569
-0.07450309 -0.39833304 -0.0420176 -0.14541389 -0.03281001 0.040443927 0.019603437 -0.008653457
-0.0037367614 -0.009099431 -0.05421512 -0.124042906 -0.0045341095 -0.026734075 0.0318654 -0.1337922
-0.083918974 -0.034285124 -0.14961937 0.03308301 -0.11030442 -0.111280695 0.0245684 0.12022626
-0.031460073 -0.084992655 -0.018709095 0.10645595 -0.07834433 -0.043606013 -0.00866058 -0.08620129
-0.027784703 -0.09675769 0.01652108 0.033404198 -0.013045188 0.011417052 0.07789058 -0.058605243
0.0513822 -0.057415426 -0.027955214 0.1103793 0.0382008 -0.037292205 -0.0032150901 -0.03787968
-0.027168311 -0.055227917 -0.007057928 0.09922924 -0.026479293 0.046758767 0.040534332 -0.015116915

bn4.running_mean f4 [64]
00000000: 9410 48be 7b6f 77be 0d91 c93d 9fcd 3fbf
00000010: 19fa 9abe 07ab 74be b57c c93e d152 953b
00000020: 3172 af3e 1350 87be 12d9 d03e b403 29bf
00000030: 6acf 7c3e af1f 383d 9c2d 40bd 8fbb 8cbe
00000040: 5581 ecbe ee65 f63d 2b70 d63b f5de 633e
00000050: d314 833e 708a 1f3e 5d39 4f3e 8fde 46be
00000060: c425 89be 2a30 91be e541 e1be 5f5f 10be
00000070: 22ba 9e3d 8cd9 163c 60b3 92be 9393 16be
00000080: a522 46bd 6b23 3b3e d88f 91be 49c6 9bbd
00000090: c4f5 1bbf dc89 7fbe 0ed8 c4be 7d63 cbbe
000000a0: adac a23e 63e4 9b3c a5b4 a9bc 5f9e ddbe
000000b0: 756a 01bf bfa0 78be 9e88 fabc 8edb 4abf
000000c0: 096e c9bd c440 91be 607e 94bb 9a72 033d
000000d0: 28f6 51be 6db6 a6be 1e01 bebe 8487 17be
000000e0: 58b3 9fbe d029 01be c2c3 073d 3193 18be
000000f0: 810f 17be fea0 17bf 72f8 babe 81ed 243d
-0.19537574 -0.2416362 0.09842119 -0.7492313 -0.30268934 -0.23893367 0.39352956 0.0045569916
0.3426681 -0.2642828 0.40790612 -0.66021276 0.24688497 0.04495209 -0.046918496 -0.27486846
-0.46192423 0.1203116 0.006544133 0.2225302 0.25601825 0.15580153 0.20236726 -0.19420837
-0.26786625 -0.2835706 -0.43995586 -0.14098881 0.07750346 0.009207141 -0.28652477 -0.14704733
-0.048372883 0.1827523 -0.28430057 -0.07606179 -0.60921884 -0.24954933 -0.38446087 -0.3972434
0.31772366 0.019029802 -0.02071602 -0.4328489 -0.50553066 -0.2428007 -0.030582722 -0.79241264
-0.09835441 -0.28369725 -0.0045316666 0.032091714 -0.20504057 -0.32561055 -0.37110227 -0.14797789
-0.31191516 -0.12613606 0.033145674 -0.14899899 -0.14752008 -0.5923003 -0.36517674 0.040265564

bn4.running_var f4 [64]
00000000: 6e15 6b3e 2123 8d3e cebe b03e f45a 003d
00000010: 2ece 043f 1950 4d3d 46c1 593e da10 de3d
00000020: df33 463e c668 d23e 254c 4d3f 2374 8f3d
00000030: ded6 923e 2880 6e3e 2724 da3c 4d3b a43d
00000040: 210a 793e cff9 063f b4d7 403d 32f7 3c3e
00000050: d032 d83e 287a 113f a065 193d df7a b33e
00000060: 2474 d93e 537e ff3d f57a 663e 6b61 b13e
00000070: c906 e93d f452 ab3c 217b 793d 7c5e ae3c
00000080: 986e a83e e1e8 373e 7c15 533e c3c1 f73c
00000090: 5c82 1a3e 5ab6 2b3f 3cf6 143d 7e29 243e
000000a0: 16f2 113f 3e34 c83e 8b11 253d af5e 1b3d
000000b0: 9d03 1e3e 9053 163e c162 e53c 7e18 dd3e
000000c0: 19d7 0d3e 55db cf3c 2584 d13d a032 2b3e
000000d0: 960a 9d3e 4927 533e 331d 853e 8014 963e
000000e0: 3dcb 643e ca9d ff3c fd5b 553d b149 763c
000000f0: 4f0c d83e c690 c03c 2b91 853c a733 ea3c
0.22957394 0.27565864 0.34520572 0.03133674 0.51877105 0.050125215 0.21265134 0.10843058
0.19355725 0.4109556 0.8019431 0.07004573 0.28679556 0.23291075 0.026628567 0.08019123
0.2432027 0.5272493 0.04708071 0.18453673 0.42226267 0.5682702 0.037450433 0.3505468
0.4247142 0.12475266 0.22507842 0.34644637 0.11378247 0.020913579 0.06090844 0.021285288
0.32896876 0.1795993 0.20613664 0.03024376 0.1508879 0.6707512 0.03636764 0.16031453
0.5701002 0.39102358 0.040299933 0.037932094 0.15431066 0.14680314 0.028001191 0.4318275
0.13851584 0.02537314 0.10230283 0.1671853 0.3067214 0.20620455 0.2599884 0.29312515
0.22343154 0.03120317 0.05208968 0.015032218 0.4219689 0.023506533 0.016304573 0.028589083
