ckpt_response/ckpt-t-cr3-deepsc-t6db-awgn.pth (torch, 766247 bytes, 46 tensors)

conv1.weight f4 [16, 3, 3, 3]
0.078645185 0.11489235 0.17301849 -0.1062328 0.21394634 -0.10529438 -0.0677694 -0.03418548
-0.051060844 0.0061566727 -0.08092299 0.02937076 -0.048772797 0.17880125 -0.091299966 -0.018693157
-0.048977327 -0.01260587 -0.027309207 -0.1717738 -0.089213 0.06231347 0.2421327 -0.060046494
0.052969236 0.05642308 0.033415515 -0.05613742 -0.1578459 -0.12740406 -0.13731182 -0.165003
-0.16236804 -0.005233655 0.09695062 -0.032858647 -0.025463386 -0.094955094 -0.10703286 -0.1293749
-0.07546487 -0.07678179 0.0060878997 0.053009156 -0.014785307 0.082704924 0.039344247 0.04815333
0.021041403 -0.06950607 0.07013942 0.041180104 0.105657704 0.026503472 -0.020310417 0.018591793
0.05418164 -0.042600762 0.06747859 0.05679266 -0.05970188 0.102169305 -0.014470948 -0.006986027
0.043042716 0.026735423 -0.050653417 0.19869927 0.1519266 -0.044596013 0.10494496 0.01255618
-0.05672631 -0.007529962 0.060743306 -0.05072024 0.36984855 0.39119595 -0.113181174 0.123962216
0.055344455 0.054533783 0.13019751 0.15815006 0.21086611 0.18133144 0.21949299 -0.016176077
-0.10370016 0.026995922 0.026327785 0.15328696 0.11626689 0.12870982 0.12297835 0.07496418
-0.01651884 -0.05795179 0.013024434 -0.11523783 -0.026726179 -0.09337663 -0.0039291685 0.03991964
-0.06456413 -0.04782331 -0.11090698 -0.0435825 0.06742366 0.042247303 -0.051137745 0.15702699
0.05903138 -0.030344266 0.010661037 -0.04097335 -0.020768829 0.06765642 0.070488565 0.0076197246
0.22709034 0.09094233 -0.021815468 0.028782867 -0.0061801244 -0.05639895 0.09789546 0.2024772
-0.019174663 0.42342 0.22248097 0.025251998 0.016502786 -0.033706583 0.0034439564 0.02809201
-0.060959782 0.021368926 -0.057202343 -0.2389819 -0.08802675 0.09653991 0.20137993 0.14967816
0.012892083 -0.0564428 0.06375574 -0.08661294 -0.14669982 -0.100959755 0.0585924 0.15355487
0.11322584 -0.009549898 -0.05986235 -0.05872237 -0.08636899 0.0023422888 -0.08395029 0.0047777626
0.25447434 0.003152285 -0.0704467 0.08053277 -0.19149706 0.14024597 0.13666612 -0.07774686
-0.0025109039 0.032257084 -0.0031574753 -0.18432295 -0.016442718 -0.25046515 -0.04512951 0.0532198
-0.07704638 -0.022167102 -0.02069012 -0.013993598 -0.36359918 -0.08854905 -0.20958541 -0.062498946
0.0025429905 -0.037626006 0.023279004 -0.01701686 0.03569322 -0.03861756 -0.0025733847 -0.017244702
0.09175393 0.06349026 0.0936828 0.09861717 -0.19956797 -0.081798226 -0.019357894 0.07356886
-0.0072818114 0.09889777 -0.0169215 0.051985495 0.14915428 -0.15404361 -0.15738139 0.03993203
0.08875592 -0.04315982 -0.024068441 -0.060268413 -0.19399828 0.020926537 -0.22354938 -0.34000367
-0.049812883 0.036735285 0.024756905 -0.11965588 0.033744443 0.027276833 -0.031571 0.03879114
0.04070441 -0.11649507 0.017391449 0.01632751 -0.27512616 -0.03705345 0.011247716 -0.12352735
-0.02531338 -0.009418751 0.012543811 -0.063446246 -0.0027694316 -0.5415124 -0.15863334 -0.0805557
-0.09506888 -0.09794681 0.018783318 -0.033802666 -0.019005938 0.01811043 -0.15312782 -0.061839182
0.024915854 -0.022102302 0.026967231 0.024470873 -0.067028984 -0.077599 0.040630512 -0.19762655
00000000: ba10 a13d ae4c eb3d c22b 313e 9590 d9bd
00000010: c014 5b3e 94a4 d7bd afca 8abd 1306 0cbd
00000020: 2d25 51bd eabd c93b f4ba a5bd f39a f03c
00000030: fcc5 47bd ad17 373e 7afb babd 6422 99bc
00000040: 739c 48bd da88 4ebc 8fb7 dfbc 79e5 2fbe
00000050: 4eb5 b6bd 693c 7f3d a2f1 773e 50f3 75bd
00000060: 45f6 583d e31b 673d b5de 083d 5af0 65bd
00000070: 5ba2 21be 3676 02be 789b 0cbe 8cf6 28be
00000080: cf43 26be 157f abbb 0c8e c63d ca96 06bd
00000090: 9798 d0bc d177 c2bd 0b34 dbbd db7a 04be
000000a0: 538d 9abd c53f 9dbd 017d c73b 2120 593d
000000b0: 133e 72bc 3361 a93d 6f27 213d 6d3c 453d
000000c0: 055f ac3c 3359 8ebd 42a5 8f3d 78ac 283d
000000d0: 1163 d83d cf1d d93c 0862 a6bc d14d 983c
000000e0: 91ed 5d3d 237e 2ebd 3732 8a3d 6c9f 683d
000000f0: f589 74bd 243e d13d 8e17 6dbc 0beb e4bb
00000100: 8f4d 303d 3f04 db3c f579 4fbd d277 4b3e
00000110: a692 1b3e 4faa 36bd 62ed d63d 70b8 4d3c
00000120: d959 68bd e6bd f6bb f9cd 783d 07c0 4fbd
00000130: ca5c bd3e d64a c83e 88cb e7bd e7df fd3d
00000140: deb0 623d d15e 5f3d 7f52 053e 17f2 213e
00000150: 49ed 573e f3ae 393e c5c2 603e b183 84bc
00000160: c060 d4bd 8d26 dd3c 5ead d73c 42f7 1c3e
00000170: 561d ee3d 82cc 033e 13dc fb3d d286 993d
00000180: 8552 87bc db5e 6dbd 7064 553c d001 ecbd
00000190: dcf0 dabc 3f3c bfbd 41c0 80bb c782 233d
000001a0: 333a 84bd 60e2 43bd 3323 e3bd 9083 32bd
000001b0: 6a15 8a3d 820b 2d3d d075 51bd afcb 203e
000001c0: e3ca 713d 8a94 f8bc a1ab 2e3c acd3 27bd
000001d0: 6423 aabc 738f 8a3d 4f5c 903d e2ae f93b
000001e0: 5f8a 683e f93f ba3d 5ab6 b2bc 0cca eb3c
000001f0: a482 cabb 9602 67bd 6a7d c83d 2f56 4f3e
00000200: 2f14 9dbc 82ca d83e 0dd2 633e 47dd ce3c
00000210: da30 873c ea0f 0abd 00b4 613b 3721 e63c
00000220: f7b0 79bd e30d af3c 014d 6abd acb7 74be
00000230: 5e47 b4bd b7b6 c53d 8a36 4e3e 3b45 193e
00000240: 5139 533c 9130 67bd 5f92 823d 2062 b1bd
00000250: 7a38 16be fdc3 cebd 96fe 6f3d 7d3d 1d3e
00000260: f3e2 e73d 2d77 1cbc 3932 75bd de86 70bd
00000270: 3ae2 b0bd 1681 193b 21ee abbd c78e 9c3b
00000280: 764a 823e 9196 4e3b 5c46 90bd 5dee a43d
00000290: ce17 44be a49c 0f3e 34f2 0b3e bf39 9fbd
000002a0: fa8d 24bb 0120 043d a5ed 4ebb 28bf 3cbe
000002b0: e1b2 86bc f83c 80be b9d9 38bd 01fd 593d
000002c0: 7eca 9dbd c897 b5bc 547e a9bc 6745 65bc
000002d0: ac29 babe 3459 b5bd 8f9d 56be e5fe 7fbd
000002e0: 4da8 263b ba1d 1abd 9cb3 be3c f166 8bbc
000002f0: 0e33 123d 722d 1ebd 3ba6 28bb c344 8dbc
00000300: 7ce9 bb3d 2e07 823d c5dc bf3d ccf7 c93d
00000310: 8c5b 4cbe d485 a7bd 7294 9ebc 45ab 963d
00000320: 439c eebb ea8a ca3d f59e 8abc beee 543d
00000330: e6bb 183e 9cbd 1dbe 9628 21be c58f 233d
00000340: aac5 b53d 5ac8 30bd 2e2b c5bc 03dc 76bd
00000350: 7ca7 46be 216e ab3c 21ea 64be f614 aebe
00000360: 9808 4cbd bd77 163d fece ca3c 240e f5bd
00000370: 9d37 0a3d aa73 df3c 9850 01bd 75e3 1e3d
00000380: abb9 263d f894 eebd 8378 8e3c 45c1 853c
00000390: 56dd 8cbe 5cc5 17bd 5748 383c e8fb fcbd
000003a0: 015e cfbc 1b51 1abc 8f84 4d3c 1bf0 81bd
000003b0: 5a7f 35bb 8fa0 0abf c770 22be 63fa a4bd
000003c0: 79b3 c2bd 5698 c8bd 79df 993c aa74 0abd
000003d0: 57b2 9bbc 535c 943c 8acd 1cbe 154b 7dbd
000003e0: 551c cc3c e30f b5bc 62ea dc3c 2477 c83c
000003f0: 7e46 89bd 39ec 9ebd 2e6c 263d 9d5e 4abe

bn1.weight f4 [16]
0.10335458 0.1910185 0.17187616 0.18682277 0.21374792 0.13054025 0.15651594 0.14712074
0.23691685 0.19733776 0.1606718 0.17885421 0.14215602 0.19809435 0.049759928 0.21958916
00000000: 91ab d33d 5b9a 433e 4e00 303e 784e 3f3e
00000010: bce0 5a3e 58ac 053e b745 203e d2a6 163e
00000020: 559a 723e e912 4a3e 2687 243e 8f25 373e
00000030: 5991 113e 3fd9 4a3e 11d1 4b3d fbdb 603e

bn1.bias f4 [16]
0.27970216 0.030151902 0.04792143 -0.029861493 -0.16536608 0.072536826 0.29464552 -0.07862545
-0.07130732 0.15192743 0.048273887 0.092316456 0.06452097 -0.102334 0.06290745 -0.06560639
00000000: 1f35 8f3e 1f01 f73c 4349 443d 17a0 f4bc
00000010: ba55 29be 308e 943d c7db 963e 6106 a1bd
00000020: 9209 92bd dd92 1b3e d7ba 453d 6910 bd3d
00000030: 9223 843d 7d94 d1bd 9fd5 803d a55c 86bd

bn1.running_mean f4 [16]
0.11365294 -0.41771904 0.62950414 0.47635302 0.69778335 0.0014450947 -0.54201776 -0.30061266
-0.69215345 -0.6052147 0.48060846 0.26196563 0.0122556 -0.26617408 0.0018039613 -0.45567155
00000000: dfc2 e83d 45df d5be 2f27 213f 8be4 f33e
00000010: eea1 323f 5569 bd3a adc1 0abf e7e9 99be
00000020: f830 31bf 5aef 1abf 5012 f63e 5c20 863e
00000030: b6cb 483c f847 88be e672 ec3a c84d e9be

bn1.running_var f4 [16]
0.005166869 0.044923555 0.11597907 0.05914842 0.14261296 0.017513819 0.09955357 0.049264897
0.14874005 0.106788725 0.0767366 0.022850327 0.012931647 0.023471348 0.0033901557 0.06736239
00000000: d74e a93b c301 383d 6f86 ed3d 9d45 723d
00000010: 2209 123e 2479 8f3c bee2 cb3d fdc9 493d
00000020: 504f 183e 0cb4 da3d 1428 9d3d 9c30 bb3c
00000030: 42df 533c fc46 c03c 602d 5e3b 4bf5 893d

conv2.weight f4 [64, 16, 3, 3]
-0.05484895 -0.020432001 -0.015163103 -0.11698392 0.041717306 0.040043615 -0.06805867 0.09383135
-0.061250795 -0.045908514 0.0061429194 -0.054476827 -0.012608783 0.09133694 0.03107187 -0.022993067
0.037798807 -0.031835083 -0.040673483 -0.009853364 -0.018363556 -0.015788984 0.18739809 -0.03555718
-0.08601786 0.14682262 -0.020750854 0.12610619 0.015236078 0.0706189 -0.013618432 -0.09365633
-0.04659518 -0.039354257 -0.10810781 -0.13408849 -0.024308793 -0.042123083 -0.0678288 -0.08405031
-0.051471706 0.054762032 -0.07503218 0.0733744 0.16511472 -0.012400195 -0.046776038 -0.043411274
-0.043659143 0.054347567 -0.059838828 -0.005251321 0.072844684 -0.057238255 -0.0218515 0.067292795
0.051657647 -0.003716681 0.08473916 0.04754247 0.040008232 -0.036247626 -0.06441654 0.15082459
0.09073811 -0.010631695 0.13841519 -0.20326702 -0.0050543295 -0.01639192 -0.094178446 0.009699219
-0.12716515 0.0002087368 -0.06423506 -0.049491756 -0.08145714 -0.16689362 -0.162584 -0.12173368
-0.960987 0.058129277 0.028900627 0.021959277 0.05486023 -0.013419769 -0.34236684 0.17395158
-0.15340701 -0.5711739 -0.022366483 -0.0091397455 -0.1027701 -0.019759396 -0.05756012 -0.10355234
-0.07915575 0.0006784769 -0.085404456 -0.020839633 -0.03641432 0.05702325 0.04915585 -0.015223606
0.0081711225 0.0009103815 0.053203 0.0006619708 0.036726955 -0.041120917 -0.0017132546 -0.12203392
-0.20649308 0.034562416 -0.11359988 -0.04050703 0.09031416 0.038356412 0.11582554 -0.06933598
0.0037939444 0.057781514 0.02158351 0.10080558 0.039350957 0.016418166 0.05091166 -0.05434753
-0.07850974 0.032232758 -0.11957456 -0.07519861 -0.14844297 -0.03834605 -0.0477741 0.059074383
-0.0017077823 0.019984856 0.0030661705 -0.04087704 -0.06182294 0.006401003 -0.04090814 -0.12025338
-0.08388095 -0.03155725 0.039500084 -0.016238313 -0.077048846 0.051481266 -0.045854308 0.034448627
0.07957082 0.06945613 0.010158769 -0.13727236 0.12954056 -0.031704325 -0.101268634 0.11298796
-0.040047925 -0.2739309 -0.088664 -0.05810306 0.020688461 -0.103078246 0.108846225 0.016620014
-0.023366626 -0.027167223 -0.015580239 0.034464076 0.0322 0.05334614 -0.12463226 0.060291607
0.07841579 -0.18747419 0.044465084 0.2278109 0.046986625 -0.06704892 -0.1759152 -0.0068492857
-0.14323543 -0.120872065 0.0139131835 -0.07562284 -0.0059915325 0.038967993 -0.11564702 -0.084215485
0.012930967 -0.1962947 0.10231931 -0.124790415 -0.16897918 -0.11727189 -0.055028725 -0.042930517
-0.025102358 0.13268885 -0.19056049 -0.032234125 -0.022296445 -0.3335107 -0.046939887 -0.051823385
0.17450683 -0.16414408 -0.2211803 0.07196316 -0.0819092 -0.2216712 -0.07045425 -0.0451486
0.0243137 -0.06782117 -0.04408739 -0.0105424365 -0.038921796 0.1122997 -0.09263106 -0.05964354
0.041715074 0.07729417 0.039623953 -0.022290932 0.1117166 0.03151229 0.04049006 0.09002527
0.021616748 0.017831707 -0.01904704 -0.03570167 0.11877132 -0.084430896 -0.20096436 0.14855023
0.044364054 -0.08119267 -0.02136464 -0.05658787 0.053896405 0.013606424 -0.17045611 -0.05610878
0.20307717 -0.06885803 -0.0945153 0.099802986 -6.7257715e-05 -0.0799884 -0.12604028 0.2734567
00000000: 4ba9 60bd 0361 a7bc aa6e 78bc 4495 efbd
00000010: c4df 2a3d c604 243d 5862 8bbd a72a c03d
00000020: 1de2 7abd 910a 3cbd 8b4a c93b 1823 5fbd
00000030: 1295 4ebc dd0e bb3d 6f8a fe3c f55b bcbc
00000040: ecd2 1a3d 8165 02bd 3d99 26bd 0170 21bc
00000050: 2b6f 96bc e657 81bc 49e5 3f3e 68a4 11bd
00000060: 222a b0bd ab58 163e b2fd a9bc fb21 013e
00000070: bea0 793c a4a0 903d d81f 5fbc e4ce bfbd
00000080: 96da 3ebd ee31 21bd a167 ddbd 7e4e 09be
00000090: 3c23 c7bc 4189 2cbd d3e9 8abd 9222 acbd
000000a0: ffd3 52bd 274e 603d 79aa 99bd 5145 963d
000000b0: d513 293e 302a 4bbc 3b98 3fbd 05d0 31bd
000000c0: eed3 32bd 8e9b 5e3d 8f19 75bd 4613 acbb
000000d0: 982f 953d a972 6abd eb01 b3bc ced0 893d
000000e0: f896 533d 8f93 73bb ba8b ad3d e5bb 423d
000000f0: acdf 233d 6478 14bd d2ec 83bd c371 1a3e
00000100: e7d4 b93d 9030 2ebc b6bc 0d3e 3b25 50be
00000110: ca9e a5bb 5948 86bc a1e0 c0bd 79e9 1e3c
00000120: 9537 02be 5ce0 5a39 ac8d 83bd deb7 4abd
00000130: 00d3 a6bd 29e6 2abe 6c7c 26be 824f f9bd
00000140: 3e03 76bf f718 6e3d 02c1 ec3c f1e3 b33c
00000150: 1fb5 603d 97de 5bbc b54a afbe 5d20 323e
00000160: ba16 1dbe 7438 12bf ea39 b7bc dfbe 15bc
00000170: 2179 d2bd 75de a1bc 29c4 6bbd 4013 d4bd
00000180: 691c a2bd d0db 313a 88e8 aebd e1b7 aabc
00000190: 2f27 15bd 3691 693d a557 493d 6e6c 79bc
000001a0: 2ce0 053c aba6 6e3a 64eb 593d 1c88 2d3a
000001b0: 016f 163d 686e 28bd 498f e0ba ebec f9bd
000001c0: ec72 53be 5291 0d3d 0ea7 e8bd b3ea 25bd
000001d0: a1f6 b83d 9d1b 1d3d f135 ed3d 0600 8ebd
000001e0: d3a3 783b 4fac 6c3d e7cf b03c 2873 ce3d
000001f0: 782e 213d 647f 863c bf88 503d 849b 5ebd
00000200: b7c9 a0bd 7f06 043d 82e3 f4bd bb01 9abd
00000210: 6f01 18be bf10 1dbd c6ae 43bd fbf7 713d
00000220: aad7 dfba 48b7 a33c cef1 483b af6e 27bd
00000230: 0d3a 7dbd 81bf d13b 4b8f 27bd 6747 f6bd
00000240: c7c9 abbd 2d42 01bd d7ca 213d 3606 85bc
00000250: c9cb 9dbd 05de 523d bad1 3bbd 011a 0d3d
00000260: 07f6 a23d 043f 8e3d f770 263c 2091 0cbe
00000270: 48a6 043e 65dc 01bd ee65 cfbd 3b66 e73d
00000280: 4b09 24bd ac40 8cbe 7995 b5bd 79fd 6dbd
00000290: d97a a93c b01a d3bd c5ea de3d b226 883c
000002a0: 5e6b bfbc cc8d debc 4244 7fbc 342a 0d3d
000002b0: 26e4 033d 7b81 5a3d 333f ffbd 55f4 763d
000002c0: 7598 a03d 3cf9 3fbe 0521 363d 4347 693e
000002d0: 0c75 403d f250 89bd 1d23 34be f96f e0bb
000002e0: 4fac 12be c68b f7bd 1ff4 633c 26e0 9abd
000002f0: 9e54 c4bb e79c 1f3d 58d8 ecbd 2b79 acbd
00000300: 68dc 533c 7a01 49be c98c d13d 1e92 ffbd
00000310: e108 2dbe 3f2c f0bd cd65 61bd e9d7 2fbd
00000320: 76a3 cdbc 96df 073e 4a22 43be ee07 04bd
00000330: 09a7 b6bc eac1 aabe 0a44 40bd c244 54bd
00000340: ebb1 323e 6315 28be 177d 62be 6c61 933d
00000350: 03c0 a7bd c6fd 62be 514a 90bd bded 38bd
00000360: 862d c73c d3e5 8abd fb94 34bd 2fba 2cbc
00000370: 766c 1fbd 63fd e53d 5ab5 bdbd c94c 74bd
00000380: 6ddd 2a3d 684c 9e3d ba4c 223d 799b b6bc
00000390: accb e43d 0813 013d e8d8 253d 2b5f b83d
000003a0: 9b15 b13c cd13 923c 8a08 9cbc ea3b 12bd
000003b0: 613e f33d 1bea acbd 9ac9 4dbe 8d1d 183e
000003c0: 15b7 353d 5848 a6bd e604 afbc afc8 67bd
000003d0: 7ac2 5c3d 7bed 5e3c 0c8c 2ebe 52d2 65bd
000003e0: 76f3 4f3e 7005 8dbd 3d91 c1bd 8265 cc3d
000003f0: b60c 8db8 f5d0 a3bd b410 01be 8402 8c3e

bn2.weight f4 [64]
0.08529642 0.11617391 0.07224205 0.054998185 0.1423486 0.11012014 0.17924117 0.13836825
0.072296605 0.060463563 0.07729779 0.07224285 0.18786576 0.13429166 0.059667733 0.19334786
0.05537435 0.13602938 0.2221685 0.1580649 0.14315736 0.13076067 0.073984735 0.12856112
0.1384929 0.15568244 0.18502213 0.09718015 0.114626534 0.1432187 0.16659345 0.14522605
0.15903449 0.11258217 0.24372353 0.11602854 0.1702064 0.10371638 0.1781254 0.093220316
0.05711767 0.14634925 0.15192463 0.13681091 0.21383238 0.0818498 0.20704581 0.13891986
0.07405562 0.132708 0.16196007 0.12523106 0.13494553 0.05989681 0.0785328 0.12038456
0.07263366 0.06799433 0.09009658 0.08822516 0.17796849 0.21633585 0.20416018 0.13016607
00000000: e4af ae3d 96ec ed3d a4f3 933d c745 613d
00000010: d5c3 113e ab86 e13d ff8a 373e 68b0 0d3e
00000020: 3e10 943d a4a8 773d 4e4e 9e3d 0ff4 933d
00000030: e25f 403e c183 093e 2766 743d fbfc 453e
00000040: 37d0 623d 494b 0b3e 2480 633e c4db 213e
00000050: d897 123e 20e6 053e 4f85 973d 87a5 033e
00000060: 15d1 0d3e 386b 1f3e 7176 3d3e 6306 c73d
00000070: 51c1 ea3d eca7 123e 7997 2a3e 23b6 143e
00000080: f0d9 223e 7b91 e63d a992 793e 5fa0 ed3d
00000090: 964a 2e3e 4169 d43d 8166 363e 4bea be3d
000000a0: 38f4 693d 94dc 153e 2192 1b3e 2918 0c3e
000000b0: e0f6 5a3e dea0 a73d d103 543e 0241 0e3e
000000c0: 79aa 973d 9be4 073e dcd8 253e 923c 003e
000000d0: 292f 0a3e 5c56 753d ced5 a03d 2e8c f63d
000000e0: f5c0 943d 9c40 8b3d 8e84 b83d 65af b43d
000000f0: 5f3d 363e 2587 5d3e 5e0f 513e 414a 053e

bn2.bias f4 [64]
-0.0048732753 0.012683314 0.099420555 0.016019441 -0.024037333 0.02558766 -0.20055988 0.021763325
-0.03270791 0.0258948 0.06827415 0.06990352 0.011237207 -0.057960104 0.0044722534 -0.15117407
0.10791881 0.0485775 -0.35907388 -0.33431563 -0.24398018 0.037373584 -0.027996616 -0.0065068547
0.09893855 0.045163672 -0.23923929 -0.035312314 -0.02689661 -0.0005313357 -0.24920364 0.05556301
-0.079111785 0.039993737 -0.010444621 -0.10762567 -0.06756561 -0.072907075 -0.12591344 0.04743819
0.0973508 -0.40551642 -0.23745906 0.08541849 -0.013662392 0.071139075 0.021571655 0.30365926
0.06627666 -0.18366988 -0.1641349 -0.049186837 -0.16662197 0.034361966 0.109720446 0.02746982
0.042571343 0.055495467 0.07904455 -0.062413324 -0.19592229 -0.039288986 -0.11453124 0.0023832486
00000000: ffaf 9fbb adcd 4f3c 019d cb3d 343b 833c
00000010: f1e9 c4bc 369d d13c 925f 4dbe 0049 b23c
00000020: bbf8 05bd 5521 d43c 51d3 8b3d 9429 8f3d
00000030: 431c 383c 9367 6dbd fb8b 923b 60cd 1abe
00000040: 8904 dd3d 33f9 463d 88d8 b7be 6b2b abbe
00000050: f1d5 79be 0b15 193d 2959 e5bc 7437 d5bb
00000060: 4ba0 ca3d 8bfd 383d 25fb 74be a5a3 10bd
00000070: 4856 dcbc 5649 0bba 3d2f 7fbe 0a96 633d
00000080: 5c05 a2bd 79d0 233d ea1f 2bbc d96a dcbd
00000090: d75f 8abd 4e50 95bd 74ef 00be 8c4e 423d
000000a0: db5f c73d d99f cfbe 7828 73be e4ef ae3d
000000b0: 3ad8 5fbc 5db1 913d 0ab7 b03c 3a79 9b3e
000000c0: 0fbc 873d f513 3cbe fb12 28be 2378 49bd
000000d0: f39e 2abe 22bf 0c3d 1db5 e03d 6308 e13c
000000e0: 4a5f 2e3d 374f 633d 1ce2 a13d 1da5 7fbd
000000f0: da9f 48be 7ded 20bd 5b8f eabd 4730 1c3b

bn2.running_mean f4 [64]
-0.27309698 -0.17313118 0.043961838 0.45330974 0.054272838 -0.44128802 0.48486146 -0.6725402
-0.121762805 0.034179475 0.19626588 -0.30808923 -0.013245961 0.16823865 0.69612855 0.036763504
0.033394806 -0.017263155 0.02878375 0.24064006 0.17722337 0.30420482 0.18413131 -0.088753395
-0.5107269 -0.36554125 -0.29841632 -0.3231831 0.002788762 0.16854447 -0.04126729 -0.24433501
-0.03975423 -0.64678836 0.29613948 -0.15948516 0.39808363 0.14636019 -0.20943697 -0.11077236
-0.2367033 0.4901005 0.6307764 0.083363906 -0.32932606 0.16581571 -0.45375392 -0.52163506
0.08474929 -0.019718276 0.08882801 -0.0052324957 0.105565384 0.45294994 0.1774743 0.06285337
0.12674767 0.23782952 -0.37527052 0.014231354 0.26911724 0.38930792 0.04508296 -0.15386613
00000000: 5ed3 8bbe 4d49 31be 5411 343d 3718 e83e
00000010: 324d 5e3d 81f0 e1be c33f f83e 982b 2cbf
00000020: c75e f9bd c7ff 0b3d ecf9 483e dfbd 9dbe
00000030: 9605 59bc c146 2c3e 7b35 323f 5495 163d
00000040: fec8 083d 766b 8dbc e6cb eb3c 596a 763e
00000050: 0b7a 353e bcc0 9b3e eb8c 3c3e 57c4 b5bd
00000060: 00bf 02bf 3928 bbbe 06ca 98be 4178 a5be
00000070: aac3 363b ec96 2c3e e407 29bd f532 7abe
00000080: 55d5 22bd ec93 25bf 989f 973e 1450 23be
00000090: 9ed1 cb3e 72df 153e a576 56be 9edc e2bd
000000a0: 5a62 72be 74ee fa3e 907a 213f b2ba aa3d
000000b0: 6d9d a8be 98cb 293e 6f52 e8be e089 05bf
000000c0: 0991 ad3d 3988 a1bc 76eb b53d 5b75 abbb
000000d0: aa32 d83d 0ee9 e73e d3bb 353e 45b9 803d
000000e0: 24ca 013e 9589 733e 7523 c0be a02a 693c
000000f0: bcc9 893e 5e53 c73e e9a8 383d 158f 1dbe

bn2.running_var f4 [64]
0.055484556 0.031504508 0.0015447708 0.009244664 0.021605484 0.0014669483 0.013436418 0.19701888
0.022594724 0.004582532 0.027871748 0.0034441932 0.083160676 0.045208395 0.002818724 0.048315126
0.003301384 0.018503172 0.15798211 0.08468355 0.029918771 0.029808955 0.023110852 0.015152916
0.04462745 0.0009553314 0.21537809 0.005447755 0.026238754 0.023149105 0.12507309 0.021149779
0.15089813 0.027147347 0.13618305 0.07177588 0.01927583 0.015765192 0.17769875 0.034900736
0.0016843656 0.0048455503 0.065476455 0.1479573 0.13357897 0.013844331 0.0872526 0.09054071
0.0075569954 0.11697662 0.016705997 0.01892143 0.012865122 0.00969698 0.00948197 0.01926994
0.008670447 0.0052631632 0.0060677035 0.01728411 0.010198144 0.118104644 0.20024396 0.022955852
00000000: c643 633d df0a 013d e879 ca3a ee76 173c
00000010: fcfd b03c 9e46 c03a 6c24 5c3c 51bf 493e
00000020: 9218 b93c 1129 963b 4b53 e43c f9b7 613b
00000030: 2550 aa3d 702c 393d 57ba 383b 15e6 453d
00000040: 085c 583b f793 973c 10c6 213e 926e ad3d
00000050: 3618 f53c e931 f43c f852 bd3c f043 783c
00000060: 46cb 363d 346f 7a3a 138c 5c3e 1583 b23b
00000070: a8f2 d63c 31a3 bd3c 2913 003e 4d42 ad3c
00000080: 0a85 1a3e 1d64 de3c 9273 0b3e 3cff 923d
00000090: 58e8 9d3c 0126 813c a9f6 353e 13f4 0e3d
000000a0: eec5 dc3a 6cc7 9e3b 8518 863d 1e82 173e
000000b0: edc8 083e 55d3 623c 7eb1 b23d 686d b93d
000000c0: aca0 f73b 7091 ef3d 04db 883c 1d01 9b3c
000000d0: 3cc8 523c 15e0 1e3c 445a 1b3c fedb 9d3c
000000e0: 7e0e 0e3c 9d76 ac3b 96d3 c63b 6897 8d3c
000000f0: 1e16 273c d9e0 f13d c10c 4d3e e90d bc3c

conv3.weight f4 [64, 64, 3, 3]
-0.0522881 -0.029707665 0.09897495 -0.043710694 0.0055060405 0.061885722 -0.22996546 0.033300288
0.11884569 0.061064694 -0.00924445 -0.1492689 0.0100082485 -0.1150475 -0.29845282 0.08031613
-0.12075538 -0.2948166 -0.013900521 0.020016888 0.015973832 0.054766517 -0.011084579 -0.014935171
0.04668932 0.02846727 0.0059611555 0.13437647 -0.09468185 0.11928859 0.027979571 0.12761107
0.0626696 0.27070713 0.15089943 0.15426193 -0.0031210955 -0.12172065 -0.09050429 -0.020845301
0.054544 -0.08428328 0.056803357 -0.04141013 -0.061123613 0.04893647 0.009824769 0.061166786
-0.13742906 -0.23067945 -0.2064391 -0.011449992 -0.06248531 -0.008451235 0.060067676 0.053992666
-0.0353677 0.100437626 -0.1350398 -0.17717116 0.009303141 -0.23540013 -0.057839263 -0.03213133
-0.12697038 0.026289532 -0.067200944 -0.18749546 -0.013025943 -0.020718824 -0.0066353576 0.22373912
-0.08563651 0.06785258 -0.2929713 -0.22535437 0.051877517 -0.21098362 -0.058248322 0.19000468
-0.14123636 -0.067794025 -0.024116041 0.021413205 -0.009164759 0.21317281 0.021132693 0.015279458
0.070254914 -0.0054121814 0.0701868 -0.03133943 0.008151216 0.088152155 -0.109251864 0.04535371
-0.039195936 0.08609168 0.17020406 -0.11098069 0.019008629 -0.02820867 -0.07009565 0.013645963
0.06876555 -0.020829534 -0.13300014 -0.009788623 0.059228 0.03668356 0.100387804 -0.046836577
-0.10856128 0.03662975 0.01041134 -0.047588736 0.06879254 -0.031875413 -0.067495406 -0.07249234
-0.016247058 -0.19028305 -0.039089352 -0.040847823 -0.1164509 0.032945313 0.07499777 -0.072378024
0.098848425 -0.12311353 0.03924982 -0.023628764 -0.109496646 -0.105880305 -0.04559916 0.027710326
0.052829158 -0.03861245 0.004019288 0.08764491 -0.08748657 0.0320091 0.10098325 0.0569253
0.016107671 -0.07301665 -0.09526728 -0.1408594 0.11160345 -0.017678546 0.10332701 -0.085621335
-0.021248301 0.106761575 0.0023816868 -0.012298873 -0.0634578 0.10271963 -0.13625918 -0.11187839
-0.06499544 0.0054464857 0.019013932 -0.049474332 0.10764645 -0.13322657 -0.1045934 0.090463564
-0.14121467 -0.17481966 0.00732719 -0.029870657 -0.14550444 -0.030875305 -0.010158001 0.052869532
0.45388785 -0.03623487 -0.032123286 0.15126838 0.06900153 0.089967124 0.10841738 -0.05914309
-0.22802506 -0.017829392 -0.09211061 -0.14887607 -0.059977297 0.029805101 -0.0960602 0.0060189473
-0.21220364 -0.15135993 0.012643971 0.020495793 0.011136139 -0.07164193 -0.103590555 0.04601859
-0.10070778 0.17288956 0.15884042 -0.01036782 -0.101465024 0.08438445 -0.0162925 -0.024414178
0.07368451 0.040261295 0.03858343 0.0738477 0.021510959 -0.15698926 -0.043498956 -0.07733715
-0.07386605 -0.1173242 -0.07928862 -0.03484181 0.005124855 -0.0946221 0.045840945 0.096662715
0.0008484143 -0.062222704 -0.11263962 -0.034626056 0.011793675 -0.032719877 -0.11724541 0.040313326
-0.053486757 0.06845401 0.026347453 0.03899812 0.06641438 0.034272335 0.13534935 0.116336
0.03903938 0.12345533 0.076407336 -0.060926527 0.1590622 -0.07273248 -0.04783156 0.036711477
0.13510765 -0.07578699 -0.10533627 0.13348955 -0.01820011 -0.16304038 -0.09191497 -0.15545733
00000000: 0c2c 56bd 7d5d f3bc 61b3 ca3d fc09 33bd
00000010: 046c b43b e27b 7d3d 117c 6bbe e265 083d
00000020: 5e65 f33d f91e 7a3d 0976 17bc f2d9 18be
00000030: a3f9 233c 069e ebbd cfce 98be c87c a43d
00000040: 994e f7bd 34f2 96be 03bf 63bc 75fa a33c
00000050: 8edb 823c db52 603d 189c 35bc a6b2 74bc
00000060: 4d3d 3f3d 3134 e93c cc55 c33b fc99 093e
00000070: 8fe8 c1bd 944d f43d 6a35 e53c 7aac 023e
00000080: eb58 803d 209a 8a3e 6185 1a3e d7f6 1d3e
00000090: 4b8b 4cbb ad48 f9bd 505a b9bd c4c3 aabc
000000a0: 8869 5f3d b69c acbd a3aa 683d ab9d 29bd
000000b0: c15c 7abd 9c71 483d 11f8 203c 068a 7a3d
000000c0: 34ba 0cbe 3c37 6cbe c564 53be bf98 3bbc
000000d0: 99f0 7fbd 0c77 0abc 8609 763d 6a27 5d3d
000000e0: b9dd 10bd 3eb2 cd3d e047 0abe 5b6c 35be
000000f0: 346c 183c bb0c 71be dde8 6cbd 249c 03bd
00000100: 8604 02be 255d d73c a6a0 89bd cffe 3fbe
00000110: c46a 55bc 86ba a9bc 6a6d d9bb de1b 653e
00000120: 3262 afbd 4bf6 8a3d 5600 96be 4cc3 66be
00000130: 857d 543d 170c 58be cb95 6ebd 9690 423e
00000140: 44a0 10be 98d7 8abd 018f c5bc bf6a af3c
00000150: c927 16bc f949 5a3e 781e ad3c b156 7a3c
00000160: cfe1 8f3d ab58 b1bb 19be 8f3d c65d 00bd
00000170: ae8c 053c 1e89 b43d 71bf dfbd d0c4 393d
00000180: eb8b 20bd d650 b03d f949 2e3e d849 e3bd
00000190: fcb7 9b3c de15 e7bc 4f8e 8fbd 5193 5f3c
000001a0: f4d4 8c3d b3a2 aabc 3031 08be 7660 20bc
000001b0: 0f99 723d 8041 163d 1f98 cd3d b6d7 3fbd
000001c0: 6055 debd 1409 163d 5394 2a3c 68ec 42bd
000001d0: 1ae3 8c3d cb8f 02bd 083b 8abd dd76 94bd
000001e0: 8d18 85bc 8fd9 42be 281c 20bd 0c50 27bd
000001f0: cf7d eebd aaf1 063d 6e98 993d ee3a 94bd
00000200: 0b71 ca3d f222 fcbd 6bc4 203d 1c91 c1bc
00000210: c73f e0bd c6d7 d8bd 2fc6 3abd c400 e33c
00000220: 6363 583d 1728 1ebd 3bb4 833b 2d7f b33d
00000230: 292c b3bd f91b 033d 4ed0 ce3d 812a 693d
00000240: 3cf4 833c c189 95bd 7e1b c3bd 723d 10be
00000250: 5990 e43d 99d2 90bc 1d9d d33d 3d5a afbd
00000260: eb10 aebc d0a5 da3d 1316 1c3b 3681 49bc
00000270: 2af6 81bd ab5e d23d 8787 0bbe 7f20 e5bd
00000280: 541c 85bd 6f78 b23b 1bc3 9b3c 99a5 4abd
00000290: be75 dc3d 8c6c 08be 1135 d6bd f644 b93d
000002a0: 949a 10be ed03 33be ed18 f03b 4fb3 f4bc
000002b0: 1eff 14be 35ee fcbc bf6d 26bc b98d 583d
000002c0: fd63 e83e 046b 14bd b593 03bd 19e6 1a3e
000002d0: ad50 8d3d af40 b83d ee09 de3d 0640 72bd
000002e0: 677f 69be f20e 92bc 7da4 bcbd f872 18be
000002f0: c1aa 75bd d429 f43c 36bb c4bd 973a c53b
00000300: e94b 59be 19fe 1abe a828 4f3c cbe6 a73c
00000310: 5a74 363c 01b9 92bd 4927 d4bd fd7d 3c3d
00000320: e13f cebd f609 313e 10a7 223e cadd 29bc
00000330: e5cc cfbd c1d1 ac3d d977 85bc 3e00 c8bc
00000340: e8e7 963d 07e9 243d a909 1e3d 773d 973d
00000350: c037 b03c cbc1 20be f62b 32bd f162 9ebd
00000360: 1547 97bd ac47 f0bd 1262 a2bd 49b6 0ebd
00000370: 66ee a73b 3bc9 c1bd b7c3 3b3d 1af7 c53d
00000380: 1f68 5e3a 3cdd 7ebd 9aaf e6bd 0dd4 0dbd
00000390: 423a 413c 4705 06bd 5d1e f0bd 961f 253d
000003a0: ee14 5bbd 9e31 8c3d 9dd6 d73c 7ebc 1f3d
000003b0: 4304 883d 2661 0c3d 0599 0a3e 9241 ee3d
000003c0: c2e7 1f3d 26d6 fc3d 737b 9c3d 188e 79bd
000003d0: 34e1 223e c4f4 94bd 07eb 43bd c65e 163d
000003e0: a959 0a3e 3636 9bbd 8bba d7bd 7cb1 083e
000003f0: 6618 95bc 0ff4 26be ea3d bcbd 3530 1fbe

bn3.weight f4 [64]
0.071973816 0.12026761 0.14336275 0.16735958 0.13175574 0.08719629 0.2553698 0.063399725
0.10985104 0.15618524 0.063406855 0.067891724 0.08135853 0.13516377 0.18046623 0.23110484
0.13202225 0.111141935 0.1049757 0.25782168 0.15625262 0.097924456 0.1434771 0.31145212
0.06748226 0.16290282 0.3002297 0.1332964 0.21145473 0.08106937 0.11082886 0.21324664
0.055937286 0.10432784 0.18826495 0.06977085 0.07734657 0.23748149 0.14470933 0.13177887
0.0931592 0.068754524 0.14762497 0.28561226 0.09864707 0.244252 0.2314217 0.19119371
0.13737635 0.05461685 0.13808145 0.17217945 0.09050937 0.11630599 0.09136377 0.17026442
0.07550989 0.26697513 0.05665459 0.107586525 0.07006733 0.21552587 0.24868195 0.16278295
00000000: 0267 933d dd4e f63d afcd 123e 4f60 2b3e
00000010: faea 063e f893 b23d d5bf 823e b7d7 813d
00000020: 95f9 e03d 06ef 1f3e 74db 813d d10a 8b3d
00000030: 4d9f a63d 5f68 0a3e 24cc 383e bfa6 6c3e
00000040: d730 073e 629e e33d 80fd d63d 3401 843e
00000050: b000 203e 9e8c c83d a9eb 123e a776 9f3e
00000060: 2434 8a3d ffcf 263e b5b7 993e da7e 083e
00000070: 9787 583e b307 a63d 3efa e23d 545d 5a3e
00000080: 7f1e 653d d6a9 d53d 87c8 403e 05e4 8e3d
00000090: e167 9e3d 592e 733e af2e 143e 0af1 063e
000000a0: 40ca be3d 2ccf 8c3d 002b 173e c53b 923e
000000b0: 7a07 ca3d 321d 7a3e cff9 6c3e 49c8 433e
000000c0: 63ac 0c3e ebb5 5f3d 3965 0d3e cf4f 303e
000000d0: fa5c b93d d631 ee3d ee1c bb3d cc59 2e3e
000000e0: eea4 9a3d f7b0 883e a50e 683d 5356 dc3d
000000f0: 767f 8f3d d0b2 5c3e 7ba6 7e3e 93b0 263e

bn3.bias f4 [64]
0.027804658 0.03557706 -0.0942413 0.048955616 -0.049248353 0.09769356 -0.057036906 0.14208573
0.025261197 -0.07842048 0.17567761 0.21352421 -0.023973782 0.037924487 -0.1006823 -0.18658108
-0.093094684 0.049392115 0.12709565 0.07306887 0.026745943 0.059361 0.055787995 -0.006967416
0.14545216 -0.45334765 -0.5171126 -0.09686605 -0.08710847 0.06988336 0.040034506 -0.15469849
0.07824189 0.061131954 -0.20896251 0.0725705 0.100404814 0.055797104 0.0597207 0.14315464
-0.000372817 0.12086641 -0.04610605 -0.39683142 0.020292802 -0.1319098 -0.021960596 0.0049989554
-0.371981 0.14417866 -0.11989303 -0.14723815 0.016303051 0.11300704 0.04350817 -0.25105762
0.17502065 -0.04963499 0.089388154 0.08859046 0.13785736 -0.24080794 0.0065067923 -0.19160374
00000000: 98c6 e33c 40b9 113d 9501 c1bd af85 483d
00000010: a4b8 49bd 9013 c83d 889f 69bd ec7e 113e
00000020: 92f0 ce3c eb9a a0bd d5e4 333e 17a6 5a3e
00000030: aa64 c4bc b556 1b3d 8632 cebd 1c0f 3fbe
00000040: 6da8 bebd 634f 4a3d 5d25 023e 22a5 953d
00000050: 4f1a db3c 8524 733d f481 643d ec4e e4bb
00000060: 69f1 143e 2f1d e8be 7e61 04bf b561 c6bd
00000070: ed65 b2bd 021f 8f3d 39fb 233d 4869 1ebe
00000080: 493d a03d 8065 7a3d 45fa 55be d89f 943d
00000090: 0aa1 cd3d 818b 643d b19d 743d 2197 123e
000000a0: a776 c3b9 cf88 f73d b3d9 3cbd 7d2d cbbe
000000b0: 173d a63c 5d13 07be b5e6 b3bc 47ce a33b
000000c0: 4b74 bebe 92a3 133e 7a8a f5bd 99c5 16be
000000d0: fa8d 853c 3c70 e73d 9f35 323d a08a 80be
000000e0: 9d38 333e 0f4e 4bbd 2311 b73d ea6e b53d
000000f0: 7b2a 0d3e 5b96 76be ee36 d53b c533 44be

bn3.running_mean f4 [64]
-0.15427563 -0.19398437 -0.08870504 -0.1521834 -0.21138825 -0.57625663 0.0051440364 0.028908823
-0.30196628 -0.13778359 -0.15153451 -0.13786176 -0.20066193 0.0113153625 0.057955083 -0.13160655
-0.22707511 -0.1749735 0.19573636 0.13993093 0.022871085 0.038359877 -0.06245754 0.05266699
0.02265781 -0.16488832 -0.14430383 -0.3456151 0.25552866 0.56033033 0.008376255 -0.008348896
-0.20604354 -0.011419751 -0.39120078 -0.36512774 -0.1674352 -0.060996234 0.3708971 0.068522334
-0.16950631 -0.26400587 -0.087561674 -0.12714382 -0.035663757 -0.11059994 -0.10963504 -0.11692798
-0.3206183 -0.30346343 0.013938142 -0.09432028 -0.41783243 0.46293858 -0.18137908 -0.35784665
-0.19675308 0.032420486 -0.23186557 -0.28397053 -0.2833026 -0.5666613 -0.062160738 -0.26373252
00000000: 6efa 1dbe d7a3 46be fdaa b5bd f7d5 1bbe
00000010: 2976 58be 8e85 13bf 4e8f a83b 32d2 ec3c
00000020: 539b 9abe 2417 0dbe dd2b 1bbe a22b 0dbe
00000030: 527a 4dbe 1264 393c 4f62 6d3d dec3 06be
00000040: 6186 68be 412c 33be 1d6f 483e 0e4a 0f3e
00000050: 245c bb3c 3f1f 1d3d 7ad3 7fbd 57b9 573d
00000060: df9c b93c 7cd8 28be 62c4 13be 76f4 b0be
00000070: a7d4 823e cf71 0f3f 8f3c 093c cfc9 08bc
00000080: 14fd 52be e819 3bbc 784b c8be 06f2 babe
00000090: 2274 2bbe 30d7 79bd 3ae6 bd3e 7055 8c3d
000000a0: 1093 2dbe c72b 87be 8953 b3bd fd31 02be
000000b0: 2914 12bd 3982 e2bd 5688 e0bd f077 efbd
000000c0: 1528 a4be 8f5f 9bbe ce5c 643c fe2a c1bd
000000d0: 22ee d5be 4906 ed3e 70bb 39be ad37 b7be
000000e0: a479 49be 58cb 043d 2b6e 6dbe 9664 91be
000000f0: 0a0d 91be b710 11bf 429c 7ebd f307 87be

bn3.running_var f4 [64]
0.02450336 0.07624485 0.054657742 0.33945394 0.061767217 0.034007832 0.27545577 0.025374327
0.055414494 0.20156483 0.018061021 0.028251426 0.046069916 0.1570889 0.285413 0.099203005
0.09414446 0.07730003 0.04837785 0.4234515 0.08347472 0.033032726 0.06818922 0.2622298
0.025226139 0.0060308482 0.019423576 0.055535417 0.36047915 0.06857049 0.046312638 0.29671654
0.025966601 0.050440717 0.039851855 0.02638122 0.04479847 0.18942147 0.087930985 0.058744922
0.028853724 0.018260062 0.064047486 0.03847269 0.052710697 0.29865703 0.31293175 0.20968165
0.15206867 0.013046207 0.06572555 0.112026624 0.038856816 0.23863538 0.036109302 0.05075801
0.0237608 0.41320276 0.011295278 0.06210587 0.01862651 0.04642359 0.4017375 0.01926546
00000000: 45bb c83c 4326 9c3d cce0 5f3d e8cc ad3e
00000010: 9fff 7c3d cc4b 0b3d 8a08 8d3e d2dd cf3c
00000020: 4ffa 623d 0367 4e3e b5f4 933c 896f e73c
00000030: cfb3 3c3d eadb 203e a721 923e f22a cb3d
00000040: d0ce c03d 7a4f 9e3d da27 463d a3ce d83e
00000050: cbf4 aa3d 534d 073d caa6 8b3d fc42 863e
00000060: 0ca7 ce3c 6c9e c53b 311e 9f3c 1b79 633d
00000070: b990 b83e af6e 8c3d 52b2 3d3d 3beb 973e
00000080: e9b7 d43c ed9a 4e3d b33b 233d 6e1d d83c
00000090: 9a7e 373d b4f7 413e 2915 b43d 849e 703d
000000a0: a55e ec3c 2096 953c 542b 833d 8a95 1d3d
000000b0: 2ce7 573d 93e9 983e 9738 a03e c9b6 563e
000000c0: e4b7 1b3e c2bf 553c 1e9b 863d 376e e53d
000000d0: 5328 1f3d d55c 743e 59e7 133d a2e7 4f3d
000000e0: 02a6 c23c 508f d33e d40f 393c ba62 7e3d
000000f0: 9f96 983c aa26 3e3d 8ab0 cd3e 99d2 9d3c

conv4.weight f4 [64, 64, 3, 3]
0.033003617 -0.092497766 -0.0033795475 0.2520949 -0.08815582 0.010296867 0.03393729 -0.0004056042
-0.01588488 0.04469 0.0044404 -0.01633801 0.17860062 -0.047827236 -0.029598176 -0.029606353
-0.004780843 -0.02132095 0.22580028 -0.07532053 -0.008744877 0.105008215 0.049498353 -0.022434548
-0.0033345742 0.04430619 0.03463522 0.16049169 -0.019419897 0.0005465916 0.024725782 -0.21600349
-0.018741703 0.029990843 0.014136852 0.0008892614 0.12358159 -0.15889168 0.013602821 -0.11688929
-0.1135876 0.018439354 0.019990576 -0.051523 0.0048619877 -0.037542358 -0.101931594 0.0057062055
0.11723068 0.18068966 -0.026338825 0.027907597 0.008500567 -0.020211387 0.025947308 -0.008719584
-0.0076572425 -0.060086917 -0.30150217 -0.031552386 0.017796144 -0.00435703 -0.020869019 0.095708124
0.025444968 0.010238457 -0.17786501 -0.069826975 0.124690644 -0.016654255 0.013102872 -0.012646336
0.1370651 0.06497171 -0.030088123 -0.20028311 -0.13605215 0.014514907 -0.0054854164 0.04995129
-0.0011218872 0.068197586 -0.044208016 -0.002958618 0.090756245 -0.16932389 -0.008753121 0.02279261
0.043779366 0.034407243 0.15336563 0.08296321 -0.020026835 0.15484466 0.032531373 -0.00039351374
-0.039288785 -0.0010851601 -0.01957826 0.026081529 -0.052285254 -0.022233857 0.10095534 -0.018814195
-0.044853 0.017652612 -0.007688835 0.027686397 -0.14439239 0.18093511 0.012758406 0.08256879
-0.00050623657 -0.055315774 0.025720032 -0.025016837 -0.0035653843 -0.059369735 -0.05866324 -0.0071927323
-0.038816325 -0.015721636 -0.008781857 -0.011196305 -0.0057005766 -0.010318602 -0.16719335 -0.20596513
-0.026683202 -0.16899471 -0.037959337 -0.031159868 0.020516822 -0.00021520519 -0.03399802 -0.0142572755
0.020274932 0.0400975 0.05309588 0.22644502 0.005546475 0.005476426 0.024740007 0.01055203
-0.11060616 -0.057246394 -0.012994907 -0.08665804 -0.24259463 -0.095454015 -0.0059831166 0.007528313
0.023064531 0.06495186 -0.0528711 0.037485134 -0.056750655 -0.069532126 0.016629152 0.013149392
0.03637075 0.037254363 0.1596296 -0.21028817 0.021831622 -0.14355475 0.017017463 0.06833851
-0.0099199945 0.046817657 0.004403134 -0.07724519 -0.030140143 -0.001860463 -0.110048264 -0.43863153
-0.033977076 -0.05513588 -0.055579297 -0.030441036 -0.034398567 0.073879644 0.015548705 -0.3038999
-0.13904834 0.10878344 -0.00019074173 -0.004653816 0.031097164 0.07605065 -0.20208918 -0.00024090927
-0.044163167 0.039853312 -0.023746934 0.027891872 0.018342208 0.023992993 0.046232536 0.17926836
0.048010726 0.18672645 -0.18267275 0.033805896 -0.016231129 -0.0069836406 0.016834132 -0.3724741
-0.019871017 -0.0040314747 -0.042322215 -0.07608702 -0.021269789 0.029447561 0.018898305 0.0024060372
-0.1451942 0.14480214 -0.022490019 -0.13427325 -0.16422208 0.029589182 0.04179855 0.03808465
-0.0055299886 0.010829778 0.00022577382 -0.0045532947 0.018174792 0.053229693 -0.037349753 -0.03969568
0.022373235 -0.019557191 0.00011972197 0.056639872 0.0080702705 -0.0042065564 0.0670647 0.005861947
-0.006214648 -0.01934951 -0.013795067 -0.08451489 -0.04025219 -0.012228529 0.0042284024 -0.048329704
-0.033267975 -0.041688554 -0.014112277 -0.017453335 -0.1672484 -0.18315801 0.0028972516 -0.2311701
00000000: cd2e 073d 786f bdbd 667b 5dbb 9512 813e
00000010: 0a8b b4bd 31b4 283c d401 0b3d 46a7 d4b9
00000020: 0221 82bc dd0c 373d c680 913b 4ad7 85bc
00000030: 15e3 363e 7ee6 43bd e077 f2bc 0689 f2bc
00000040: 9ea8 9cbb 46a9 aebc 3038 673e a641 9abd
00000050: ac46 0fbc 8c0e d73d c9be 4a3d a8c8 b7bc
00000060: df88 5abb 687a 353d a9dd 0d3d ef57 243e
00000070: 7a16 9fbc 2449 0f3a b98d ca3c 0530 5dbe
00000080: 3388 99bc 5baf f53c 419e 673c 531d 693a
00000090: 5818 fd3d 80b4 22be 5ede 5e3c a763 efbd
000000a0: 9ea0 e8bd 210e 973c 47c3 a33c c809 53bd
000000b0: 4f51 9f3b 04c6 19bd 83c1 d0bd 1ffb ba3b
000000c0: a416 f03d b606 393e 85c4 d7bc 799e e43c
000000d0: f645 0b3c 5a92 a5bc 738f d43c 96dc 0ebc
000000e0: 9be9 fabb b31d 76bd 7e5e 9abe 133d 01bd
000000f0: 38c9 913c 6bc5 8ebb 81f5 aabc 9f02 c43d
00000100: f771 d03c 33bf 273c 3f22 36be 7201 8fbd
00000110: cf5d ff3d 816e 88bc 6ead 563c 9432 4fbc
00000120: cb5a 0c3e e30f 853d 5e7b f6bc 0417 4dbe
00000130: 4151 0bbe efcf 6d3c 02bf b3bb b999 4c3d
00000140: 4a0c 93ba 2dab 8b3d 7713 35bd 60e5 41bb
00000150: 69de b93d 3e63 2dbe 4069 0fbc 91b7 ba3c
00000160: fe51 333d 9cee 0c3d e10b 1d3e 9ee8 a93d
00000170: 510f a4bc 998f 1e3e 9e3f 053d 8550 ceb9
00000180: 47ed 20bd ee3b 8eba 9662 a0bc eea8 d53c
00000190: 1029 56bd c723 b6bc acc1 ce3d 3a20 9abc
000001a0: c8b7 37bd 369c 903c 9ff2 fbbb 95ce e23c
000001b0: 99db 13be 0e47 393e a208 513c d319 a93d
000001c0: f6b4 04ba cb92 62bd d1b2 d23c 1cf0 ccbc
000001d0: 39a9 69bb ae2d 73bd de48 70bd 03b1 ebbb
000001e0: defd 1ebd a9ca 80bc c7e1 0fbc b570 37bc
000001f0: e7cb babb 5b0f 29bc bc34 2bbe 86e8 52be
00000200: bb96 dabc f30c 2dbe 407b 1bbd fb42 ffbc
00000210: e512 a83c b4a8 61b9 8241 0bbd 5997 69bc
00000220: 9d17 a63c 473d 243d 117b 593d 34e1 673e
00000230: 34bf b53b 9773 b33b 8eab ca3c 6ce2 2c3c
00000240: 7b85 e2bd 327b 6abd 97e8 54bc c579 b1bd
00000250: ba6a 78be 657d c3bd 050e c4bb 11b0 f63b
00000260: d4f1 bc3c 7b05 853d 5e8f 58bd 038a 193d
00000270: 6073 68bd dc66 8ebd dc39 883c 8c70 573c
00000280: 7ff9 143d 0898 183d f175 233e c855 57be
00000290: 3bd8 b23c 0400 13be 3568 8b3c 10f5 8b3d
000002a0: 7987 22bc dfc3 3f3d 2a48 903b ba32 9ebd
000002b0: 76e8 f6bc c7da f3ba fc60 e1bd 5094 e0be
000002c0: 8c2b 0bbd 29d6 61bd 1ea7 63bd 7b5f f9bc
000002d0: 83e5 0cbd 364e 973d ffbf 7e3c c598 9bbe
000002e0: b062 0ebe dac9 de3d d801 48b9 0a7f 98bb
000002f0: 7bbf fe3c 71c0 9b3d 77f0 4ebe 979c 7cb9
00000300: 70e4 34bd 3a3d 233d ee88 c2bc 7f7d e43c
00000310: 6642 963c f48c c43c 545e 3d3d 2092 373e
00000320: e5a6 443d 3835 3f3e 910e 3bbe 0d78 0a3d
00000330: 25f7 84bc 06d7 e4bb bce7 893c edb4 bebe
00000340: 8bc8 a2bc 761a 84bb 0f5a 2dbd 83d3 9bbd
00000350: fb3d aebc 033c f13c 9ed0 9a3c 9bae 1d3b
00000360: caad 14be 0347 143e fd3c b8bc ed7e 09be
00000370: d529 28be 0365 f23c f534 2b3d a6fe 1b3d
00000380: e834 b5bb 626f 313c b3bd 6c39 ce33 95bb
00000390: 4de3 943c 6107 5a3d 0efc 18bd f097 22bd
000003a0: 1348 b73c 6736 a0bc 3e13 fb38 36ff 673d
000003b0: 2b39 043c 27d7 89bb 3859 893d 9315 c03b
000003c0: 3fa4 cbbb dd82 9ebc b404 62bc 2516 adbd
000003d0: 7bdf 24bd 2b5a 48bc 698e 8a3b 5ef5 45bd
000003e0: 0044 08bd 9ec1 2abd 2e37 67bc 4cfa 8ebc
000003f0: 2a43 2bbe c68d 3bbe d1df 3d3b dbb7 6cbe

bn4.weight f4 [64]
0.51159036 0.12069918 0.32875806 0.07251915 0.22299005 0.0875542 0.29706362 0.1614192
0.36563534 0.08802501 0.72276926 0.14356504 0.25291026 0.10964508 0.045838375 0.05337815
0.045239694 0.24365495 0.090864785 0.17224088 0.33056712 0.38437974 0.045283373 0.18255523
0.14947958 0.1192623 0.18109407 0.1605334 0.15236132 0.09218819 0.03909773 0.05043916
0.13228732 0.34195888 0.22396259 0.059104953 0.11224966 0.14892937 0.07669154 0.11998213
0.33272228 0.44931832 0.06882047 0.09061309 0.07945641 0.1853315 0.03796971 0.24353753
0.49261385 0.13945152 0.13139625 0.13068241 0.40581787 0.09332794 0.12867238 0.24982916
0.1790883 0.12347691 0.0808641 0.03714596 0.31829068 0.057541948 0.06558437 0.051287264
00000000: 96f7 023f 2231 f73d fa52 a83e ec84 943d
00000010: 8157 643e 9e4f b33d b918 983e 134b 253e
00000020: 8e34 bb3e 7546 b43d 6807 393f b702 133e
00000030: 747d 813e 9a8d e03d 05c1 3b3d 0ca3 5a3d
00000040: 424d 393d af80 793e 5117 ba3d ea5f 303e
00000050: 1840 a93e 6ccd c43e 0f7b 393d c2ef 3a3e
00000060: 2d11 193e cb3f f43d b970 393e de62 243e
00000070: 9b04 1c3e 29cd bc3d f124 203d 4b99 4e3d
00000080: 5476 073e 3c15 af3e 7356 653e 0918 723d
00000090: 26e3 e53d f180 183e 7410 9d3d 31b9 f53d
000000a0: 935a aa3e 0d0d e63e bff1 8c3d 5b93 b93d
000000b0: 0bba a23d 8ac7 3d3e 2086 1b3d e761 793e
000000c0: e237 fc3e 61cc 0e3e bd8c 063e 9cd1 053e
000000d0: 5cc7 cf3e b822 bf3d b1c2 033e 37d3 7f3e
000000e0: ec62 373e 76e1 fc3d 149c a53d 5d26 183d
000000f0: fff6 a23e 1bb1 6b3d 1951 863d 9812 523d

bn4.bias f4 [64]
-0.009818855 0.038936313 -0.13274528 -0.027628995 -0.05542236 0.2985916 -0.06996913 -0.061851762
-0.024632689 -0.48406777 -0.11614105 -0.17046414 -0.017053507 0.07076764 0.049233984 0.021196852
-0.011151738 -0.052150745 -0.07224732 -0.16106449 -0.004225664 0.007563896 0.03265557 -0.1649467
-0.061578605 -0.068607956 -0.14750919 -0.031580538 -0.127961 -0.14940494 0.03510094 0.1079062
-0.023304245 -0.036783945 -0.03471342 0.108693264 -0.082863495 -0.082923494 -0.040368967 -0.08610339
-0.025559397 -0.03633698 0.008312762 -0.029656148 -0.03619899 -0.013892184 0.08539206 -0.056688268
0.037197284 -0.071133666 -0.027986335 0.10007282 -0.0061918097 -0.02247113 -0.0056843255 0.0020764938
-0.033575296 -0.112500094 0.014767096 0.10567084 0.005499751 0.054524727 0.01704133 -0.014969054
00000000: 43df 20bc af7b 1f3d 61ee 07be 3456 e2bc
00000010: 8e02 63bd 00e1 983e fa4b 8fbd 4658 7dbd
00000020: 7eca c9bc bbd7 f7be 5cdb edbd 278e 2ebe
00000030: ccb3 8bbc a0ee 903d 93a9 493d 05a5 ad3c
00000040: c8b5 36bc 059c 55bd 67f6 93bd 17ee 24be
00000050: 7077 8abb 8fda f73b d9c1 053d cae7 28be
00000060: d939 7cbd 5482 8cbd a60c 17be 985a 01bd
00000070: 3508 03be 9cfd 18be 01c6 0f3d edfd dc3d
00000080: 8be8 bebc c3aa 16bd a92f 0ebd 939a de3d
00000090: 56b4 a9bd cbd3 a9bd ee59 25bd f956 b0bd
000000a0: f161 d1bc 16d6 14bd 4032 083c 73f1 f2bc
000000b0: 6445 14bd 0b9c 63bc 08e2 ae3d f531 68bd
000000c0: 2e5c 183d 87ae 91bd 9943 e5bc fbf2 cc3d
000000d0: aae4 cabb 6015 b8bc 9443 babb c915 083b
000000e0: 4086 09bd 7366 e6bd b1f1 713c f469 d83d
000000f0: 4137 b43b 5255 5f3d 429a 8b3c c340 75bc

bn4.running_mean f4 [64]
-0.16209102 -0.22926225 0.07479883 -0.6811107 0.05574818 -0.13981703 0.47118473 0.15820779
0.3047991 -0.08216082 0.21008389 -0.5121054 0.17391226 0.014819093 -0.06029236 -0.0005078826
-0.61158484 -0.20961106 0.19075322 0.40639627 0.16882233 0.20117286 0.08088544 -0.22693081
-0.10875482 0.08157237 -0.2480291 0.45605192 0.17068532 -0.088548124 0.10048753 -0.11596965
-0.05430839 0.14974049 -0.21776602 0.20544647 -0.23494564 -0.052447792 -0.13476022 0.033304032
0.04998197 0.13339782 -0.20605953 -0.27578515 -0.23568162 -0.17497012 -0.099634044 -0.9336607
-0.25860924 -0.17441769 0.11609429 0.50309294 -0.15734461 -0.012329647 -0.34012675 -0.18752904
-0.36602753 0.3330076 -0.26878154 0.050033182 0.042155694 -0.43927264 -0.4159631 0.20434469
00000000: 30fb 25be b9c3 6abe 2130 993d 455d 2ebf
00000010: 3458 643d 322c 0fbe 203f f13e 3901 223e
00000020: a10e 9c3e ef43 a8bd 3b20 573e 5719 03bf
00000030: 0e16 323e c8cb 723c 1ff5 76bd 6d23 05ba
00000040: d390 1cbf 48a4 56be d054 433e 2c13 d03e
00000050: c3df 2c3e 4200 4e3e 44a7 a53d 8d60 68be
00000060: d9ba debd 6a0f a73d 57fb 7dbe a37f e93e
00000070: 22c8 2e3e b858 b5bd 68cc cd3d 7f81 edbd
00000080: 7972 5ebd 9255 193e 0efe 5ebe 8f60 523e
00000090: 9795 70be 7fd3 56bd 95fe 09be cf69 083d
000000a0: e5b9 4c3d 7099 083e 4501 53be b633 8dbe
000000b0: 8656 71be 5e2b 33be ef0c ccbd 6304 6fbf
000000c0: 6e68 84be 8d9a 32be d8c2 ed3d b3ca 003f
000000d0: f21e 21be 4a02 4abc 1825 aebe 9d07 40be
000000e0: f667 bbbe f97f aa3e bc9d 89be 98ef 4c3d
000000f0: 73ab 2c3d 58e8 e0be 1ef9 d4be bc3f 513e

bn4.running_var f4 [64]
0.06345948 0.14715008 0.12994307 0.07388926 0.11532931 0.04485212 0.0730105 0.079262584
0.07814211 0.07547398 0.13760874 0.029860778 0.06741298 0.1189701 0.01607174 0.06486811
0.081582226 0.08626576 0.023063445 0.13858299 0.07629511 0.13244301 0.025097348 0.1747042
0.25515395 0.04684678 0.12937015 0.14865525 0.062173873 0.018704683 0.018741313 0.030095361
0.21158135 0.093595386 0.09114253 0.024095321 0.08984195 0.15077376 0.03476514 0.11618792
0.07641576 0.0899987 0.042790428 0.04538752 0.05286082 0.049370844 0.01835785 0.16070919
0.06182034 0.024626981 0.09753283 0.12220627 0.08558713 0.1036142 0.107496195 0.08590893
0.1444898 0.056527574 0.060866565 0.016358137 0.09854734 0.05310057 0.060027197 0.03169686
00000000: 0bf7 813d 83ae 163e cc0f 053e 4153 973d
00000010: c631 ec3d dbb6 373d 8786 953d 6c54 a23d
00000020: f808 a03d 1a92 9a3d 4ee9 0c3e 979e f43c
00000030: d10f 8a3d 99a6 f33d e2a8 833c 92d9 843d
00000040: 9514 a73d 1aac b03d 8def bc3c b3e8 0d3e
00000050: 9c40 9c3d 249f 073e f498 cd3c a8e5 323e
00000060: 8aa3 823e 69e2 3f3d 9c79 043e 1539 183e
00000070: 08aa 7e3d 903a 993c 6287 993c 8c8a f63c
00000080: c8a8 583e f0ae bf3d efa8 ba3d 8d63 c53c
00000090: 0eff b73d 7064 1a3e e465 0e3d eff3 ed3d
000000a0: de7f 9c3d 3d51 b83d 0445 2f3d 44e8 393d
000000b0: 9684 583d 1539 4a3d 3463 963c f390 243e
000000c0: 5337 7d3d 86be c93c 4bbf c73d 4847 fa3d
000000d0: 4e48 af3d af33 d43d f726 dc3d 05f1 af3d
000000e0: 22f5 133e 7589 673d 384f 793d 8001 863c
000000f0: 30d3 c93d fc7f 593d 14df 753d 91d4 013d
