ckpt_response/ckpt-t-cr3-deepsc-t2db-rt-awgn.pth (torch, 766247 bytes, 46 tensors)

conv1.weight f4 [16, 3, 3, 3]
0.08081764 0.12954739 0.16706996 -0.08186715 0.1956923 -0.08726741 -0.06452899 -0.004986259
-0.062239807 0.0062716263 -0.05042179 0.032706745 -0.052476868 0.16711274 -0.08026593 -0.04419234
-0.02114207 -0.040088426 -0.03353038 -0.16047424 -0.10530635 0.07582711 0.22220829 -0.047793835
0.05115601 0.08026442 0.02256915 -0.06115887 -0.15064025 -0.10732777 -0.13359599 -0.1426119
-0.15198162 0.01036036 0.088516645 -0.0062758764 -0.03398434 -0.11109793 -0.10374757 -0.13440542
-0.087166846 -0.09361081 0.021442527 0.048258316 0.0146911135 0.06581386 0.013876323 0.04747885
0.002359588 -0.090294294 0.046816416 0.045182068 0.0896447 0.060245715 -0.03865392 0.024947556
0.053681597 -0.018569859 0.1295805 0.12852648 -0.055305365 0.09991345 -0.011421825 -0.038040813
0.019073045 -0.005374257 -0.03311477 0.2301941 0.19934583 -0.03953364 0.09802169 0.004868083
-0.061943933 -0.0044055306 0.03494931 -0.031240936 0.33821183 0.35418856 -0.099271625 0.0967407
0.030287484 0.052061412 0.10873828 0.120109916 0.19504629 0.15796524 0.20810054 -0.034255397
-0.10304258 0.0040062303 0.043801878 0.1815899 0.1081417 0.13819447 0.13305129 0.08898006
-0.030719064 -0.049745653 -0.0060943356 -0.09864666 0.018891362 -0.0808965 0.007327769 0.060517408
-0.04798856 -0.059700698 -0.09524486 -0.058814608 0.07816716 0.078145884 -0.0369492 0.15701066
0.08683561 -0.007293212 -0.012009575 -0.032183405 -0.023406968 0.083726116 0.07800969 -0.0129126515
0.22370122 0.10031202 -0.014773046 0.01369205 -0.002411734 -0.06744654 0.13062909 0.18570794
-0.0291678 0.37992406 0.17402929 0.02018799 0.0042872806 -0.04767754 -0.01582085 0.017802766
-0.04518817 0.021472055 -0.056676243 -0.2287742 -0.0690587 0.10799265 0.16934875 0.12317203
-0.009625487 -0.048438046 0.048096776 -0.105834514 -0.14318232 -0.08855161 0.08387355 0.16768564
0.11419284 -0.008984349 -0.040921558 -0.08153618 -0.083208874 0.011058233 -0.073640086 0.02110836
0.24963382 -0.019194964 -0.10338253 0.051368054 -0.20825262 0.087771095 0.112941906 -0.07556896
-0.012192555 0.023990555 -0.0007161217 -0.17680845 -0.019455003 -0.244795 -0.029627722 0.046874918
-0.07079769 -0.017943373 -0.017382724 -0.008740954 -0.33764693 -0.08408204 -0.23175575 -0.02942982
0.010659819 -0.041002896 0.027399398 -0.0015517516 0.026495589 -0.01152294 -0.006238931 -0.021132058
0.078781545 0.033832226 0.03374418 0.081996284 -0.20774081 -0.14752679 -0.0057433695 0.06390097
0.015773214 0.08121638 -0.03312404 0.03849004 0.14954375 -0.13819027 -0.15718858 0.066805266
0.08704293 -0.0035292325 -0.02353879 -0.07747139 -0.20683385 0.049486406 -0.20020072 -0.35491142
-0.04139804 0.02181525 0.02365291 -0.12388197 0.007934366 0.015666854 -0.033866607 0.025920158
0.04810601 -0.0990778 0.009145642 0.0105087 -0.26819494 -0.0500364 -0.0013986757 -0.120755106
-0.02981016 -0.0051292 0.039521288 -0.059419837 -0.0010478739 -0.54143906 -0.1547434 -0.07976223
-0.071725816 -0.0876974 0.02887975 -0.052531738 -0.041724246 0.011299853 -0.15569314 -0.07085971
0.023442158 -0.00084288436 0.023637459 0.03889599 -0.07212392 -0.08507415 0.037078094 -0.1893905
00000000: b883 a53d 12a8 043e 6314 2b3e f7a9 a7bd
00000010: 9063 483e 41b9 b2bd c627 84bd c663 a3bb
00000020: 2bef 7ebd 3782 cd3b 1487 4ebd 82f7 053d
00000030: fcf1 56bd 9a1f 2b3e 7762 a4bd 0703 35bd
00000040: 2232 adbc c333 24bd 2757 09bd 5c53 24be
00000050: dbaa d7bd 3e4b 9b3d 928a 633e 78c3 43bd
00000060: f788 513d ac61 a43d f0e2 b83c b981 7abd
00000070: 7041 1abe a9ce dbbd 63cd 08be db08 12be
00000080: 12a1 1bbe 80be 293c 3748 b53d dea5 cdbb
00000090: 2a33 0bbd 5087 e3bd 9b79 d4bd 93a1 09be
000000a0: 8884 b2bd 06b7 bfbd 3da8 af3c 83aa 453d
000000b0: ffb2 703c 6bc9 863d 8459 633c 2f79 423d
000000c0: 51a3 1a3b 37ec b8bd 92c2 3f3d d510 393d
000000d0: a497 b73d 36c4 763d 9353 1ebd d15e cc3c
000000e0: 3ce1 5b3d d11f 98bc c0b0 043e 729c 033e
000000f0: e187 62bd 6c9f cc3d 9b22 3bbc afd0 1bbd
00000100: 133f 9c3c 891a b0bb 5aa3 07bd 01b8 6b3e
00000110: 5021 4c3e 07ee 21bd 99bf c83d 7184 9f3b
00000120: ecb8 7dbd 455c 90bb 0227 0f3d feec ffbc
00000130: 1a2a ad3e 3458 b53e ec4e cbbd fd1f c63d
00000140: 751d f83c 593e 553d 2db2 de3d 30fc f53d
00000150: 37ba 473e a4c1 213e 4f18 553e 634f 0cbd
00000160: fd07 d3bd b246 833b 9969 333d b4f2 393e
00000170: 6579 dd3d da82 0d3e 993e 083e 2d3b b63d
00000180: 8ca6 fbbc 19c2 4bbd feb2 c7bb 4307 cabd
00000190: 0fc2 9a3c 10ad a5bd c81d f03b 1ae1 773d
000001a0: a78f 44bd b888 74bd bd0f c3bd 96e7 70bd
000001b0: 1b16 a03d f30a a03d 0b58 17bd 67c7 203e
000001c0: ded6 b13d e6fb eebb cfc3 44bc bfd2 03bd
000001d0: f8bf bfbc 9978 ab3d 8bc3 9f3d 968f 53bc
000001e0: ef11 653e 6370 cd3d a50a 72bc 9f54 603c
000001f0: 2f0e 1ebb 6921 8abd a2c3 053e 392a 3e3e
00000200: 4ff1 eebc 6885 c23e bc34 323e 4961 a53c
00000210: 517c 8c3b 8649 43bd ba9a 81bc 1bd7 913c
00000220: 3b17 39bd 2ae6 af3c 5925 68bd c943 6abe
00000230: a66e 8dbd 402b dd3d c269 2d3e 9e41 fc3d
00000240: 38b4 1dbc f966 46bd 2001 453d c4bf d8bd
00000250: 639e 12be 8c5a b5bd e5c5 ab3d c9b5 2b3e
00000260: f0dd e93d 1733 13bc 5d9d 27bd 71fc a6bd
00000270: 6a69 aabd 972d 353c 9dd0 96bd 70eb ac3c
00000280: 02a0 7f3e c23e 9dbc 38ba d3bd 4f67 523d
00000290: 2d40 55be 55c1 b33d 164e e73d e6c3 9abd
000002a0: 48c3 47bc d787 c43c 1dba 3bba 460d 35be
000002b0: 1960 9fbc 8aab 7abe d6b5 f2bc eaff 3f3d
000002c0: 61fe 90bd fbfd 92bc 3766 8ebc 3836 0fbc
000002d0: 0fe0 acbe 3433 acbd 6151 6dbe ce16 f1bc
000002e0: 85a6 2e3c a7f2 27bd b474 e03c 2564 cbba
000002f0: 470d d93c b7ca 3cbc f26f ccbb 231d adbc
00000300: 3858 a13d a993 0a3d 5637 0a3d abed a73d
00000310: 02ba 54be 4311 17be e032 bcbb 83de 823d
00000320: d436 813c c654 a63d 13ad 07bd bba7 1d3d
00000330: ff21 193e c081 0dbe 0bf6 20be 33d1 883d
00000340: 9043 b23d b24a 67bb 6cd4 c0bc 52a9 9ebd
00000350: 41cc 53be 42b2 4a3d 6b01 4dbe f3b6 b5be
00000360: fe90 29bd e5b5 b23c bfc3 c13c d5b5 fdbd
00000370: 25ff 013c c657 803c b6b7 0abd 8356 d43c
00000380: cf0a 453d 4de9 cabd 9ad7 153c af2c 2c3c
00000390: d950 89be f8f2 4cbd c553 b7ba 744e f7bd
000003a0: 7034 f4bc d912 a8bb 13e1 213d 3762 73bd
000003b0: d058 89ba c09b 0abf 0e75 1ebe 615a a3bd
000003c0: fce4 92bd b29a b3bd 3a95 ec3c 852b 57bd
000003d0: 0be7 2abd 0523 393c 066e 1fbe e51e 91bd
000003e0: c509 c03c 03f5 5cba 58a3 c13c 6751 1f3d
000003f0: b5b5 93bd 5b3b aebd 33df 173d 95ef 41be

bn1.weight f4 [16]
0.08997142 0.18268688 0.17751065 0.16972087 0.20683095 0.12921576 0.15905124 0.16213357
0.2308449 0.19755594 0.14929835 0.17025939 0.14052586 0.19253097 0.050503485 0.20797579
00000000: f042 b83d 4512 3b3e 5ac5 353e 4fcb 2d3e
00000010: 7ecb 533e 2351 043e 54de 223e 5806 263e
00000020: 9b62 6c3e 1b4c 4a3e abe1 183e 7a58 2e3e
00000030: 03e6 0f3e d726 453e bedc 4e3d 9bf7 543e

bn1.bias f4 [16]
0.2630608 0.017980063 0.023133757 -0.016371824 -0.13507217 0.03426577 0.27754506 -0.0803674
-0.03291182 0.13408019 0.04760408 0.08605729 0.023532007 -0.08609231 0.050673187 -0.06027879
00000000: e8af 863e ed4a 933c 0183 bd3c 341e 86bc
00000010: 5c50 0abe 445a 0c3d 631a 8e3e aa97 a4bd
00000020: 8bce 06bd 514c 093e 7ffc 423d ce3e b03d
00000030: 32c6 c03c 2a51 b0bd b08e 4f3d e4e6 76bd

bn1.running_mean f4 [16]
0.14232771 -0.4146639 0.6323362 0.46968243 0.6558205 0.003903376 -0.55716574 -0.34204605
-0.6636961 -0.5717841 0.47261328 0.32229382 0.020286752 -0.34415776 0.029657125 -0.48110384
00000000: 5bbe 113e d44e d4be c9e0 213f 377a f03e
00000010: dae3 273f c8cf 7f3b 6aa2 0ebf a920 afbe
00000020: fde7 29bf 7160 12bf 5efa f13e b203 a53e
00000030: 6730 a63c 7235 b0be 80f3 f23c 3e53 f6be

bn1.running_var f4 [16]
0.006262276 0.043550573 0.11306791 0.055545066 0.12684472 0.014446969 0.10153863 0.053924333
0.1343566 0.096932404 0.0713358 0.030713882 0.009834032 0.034192786 0.0033619395 0.07035194
00000000: c733 cd3b 1662 323d 2690 e73d 3983 633d
00000010: 95e3 013e fbb2 6c3c 7cf3 cf3d c3df 5c3d
00000020: c794 093e 7f84 c63d 8118 923d ae9b fb3c
00000030: eb1e 213c bc0d 0c3d fc53 5c3b ae14 903d

conv2.weight f4 [64, 16, 3, 3]
-0.03794581 -0.033603996 -0.026879117 -0.06755383 0.031133376 0.056789592 0.017427752 0.10973447
0.032177173 -0.03192656 0.048500024 -0.055950116 0.005752979 0.084347844 0.013846164 -0.019726057
0.025753945 -0.078056544 -0.032401077 -0.010268033 0.019249547 -0.011137465 0.16485001 -0.03170508
-0.06943566 0.1430889 -0.0059946696 0.13324168 0.02419646 0.04267016 -0.0029202686 -0.09071077
-0.06978432 -0.03977504 -0.09888994 -0.14774117 -0.028042585 -0.0292027 -0.06121474 -0.06466583
-0.056876007 0.0642539 -0.034882843 0.055699117 0.14651342 -0.064247176 -0.11370255 -0.05910641
-0.0786905 -0.0011526952 -0.020535331 -0.0049891258 0.14104894 -0.06959828 -0.0027321854 0.10163877
0.050505303 0.0058602686 0.097778454 0.07017745 0.0029502572 -0.095584415 -0.059327412 0.075554624
-0.021522436 -0.023242103 0.14283621 -0.20225336 0.0023478433 -0.042699493 -0.116366304 -0.028884847
-0.033532705 0.021960909 -0.0072605563 0.045579683 -0.04075233 -0.10452763 -0.026611157 -0.08320164
-0.8547987 0.057600312 0.013331996 0.047561634 0.03952777 -0.058032207 -0.29621145 0.11420797
-0.23045403 -0.6262787 -0.041738532 0.0056985267 -0.087447815 -0.043112434 -0.03207544 -0.064139515
-0.108465426 -0.016760604 -0.07749133 0.0307201 0.010257694 0.06932124 0.070677616 -0.020360313
0.022473145 0.003989939 0.038259014 0.007330082 -0.0007996098 -0.028686976 -0.05733992 -0.17734735
-0.07604707 0.07823031 -0.23467211 0.028199527 0.100036055 0.10461833 0.056722593 -0.066785105
0.011065515 -0.057608046 -0.024749992 0.1781925 0.0972627 -0.024850976 0.1127419 -0.019182999
-0.047974158 0.09893168 -0.04165794 -0.041981883 -0.13430141 -0.06689652 -0.0728506 0.04451542
-0.022664309 -0.0094778035 -0.0016908037 -0.035593435 -0.04827257 0.027373925 -0.015052374 -0.082355104
-0.0985178 0.0018194539 0.08476716 -0.008164785 -0.03584195 0.04832848 -0.017744372 0.03694132
0.10894253 0.11031873 0.10346805 -0.08714168 0.19455382 0.01134629 -0.085529044 0.06368142
-0.11626085 -0.36950028 -0.015405321 -0.055318274 -0.045943342 -0.05158244 0.115297504 -0.045417283
0.02236664 -0.029249787 -0.054836985 -0.04286517 -0.012575661 0.015170207 -0.10135398 0.02681411
0.047688164 -0.17859823 0.044001408 0.20200369 0.038002312 -0.042872418 -0.12679057 0.049714178
-0.09312907 -0.084803514 0.025864536 -0.09935242 -0.029127514 0.066188335 -0.21275172 -0.15549196
0.044672806 -0.06731751 0.026468731 -0.16504017 -0.1207594 0.05874731 0.0034798237 0.048288066
0.07153679 0.0927391 -0.17891258 0.00029911497 -0.059513383 -0.3467645 -0.061212335 -0.19471851
0.11003288 -0.2708743 -0.27332887 0.03211294 -0.09936325 -0.17059916 -0.041919537 -0.025406701
0.05540209 -0.01770937 -0.0054027434 -0.055752214 -0.06805477 0.09034903 -0.08144452 -0.083040096
-0.03237847 0.072743416 0.060352374 0.059442617 0.057510994 0.019520408 0.05319713 0.041720297
-0.0722075 -0.05630436 0.05779685 0.031130102 0.14467113 -0.037388183 -0.12864655 0.16641884
-0.029621838 -0.07760717 0.013446098 -0.011439229 0.096900575 0.039648112 -0.12957977 -0.022456365
0.2131411 -0.08320736 -0.028368222 0.13224335 -0.04885611 -0.034174066 -0.11411125 -0.033671487
00000000: 116d 1bbd 58a4 09bd 9831 dcbc aa59 8abd
00000010: 6c0b ff3c 349c 683d a5c4 8e3c 77bc e03d
00000020: 36cc 033d 6dc5 02bd f6a7 463d f32b 65bd
00000030: 7c83 bc3b 90be ac3d 05db 623c 8a98 a1bc
00000040: f0f9 d23c 1cdc 9fbd feb6 04bd 403b 28bc
00000050: 3ab1 9d3c ea79 36bc 71ce 283e 30dd 01bd
00000060: 4934 8ebd e685 123e ef6e c4bb 8270 083e
00000070: a837 c63c e8c6 2e3d fa61 3fbb 91c6 b9bd
00000080: 15eb 8ebd 27eb 22bd cf86 cabd 7649 17be
00000090: 90b9 e5bc 803a efbc 4fbc 7abd 856f 84bd
000000a0: d1f6 68bd 8c97 833d 50e1 0ebd c224 643d
000000b0: 9d07 163e 0694 83bd e2dc e8bd 9019 72bd
000000c0: 7c28 a1bd 0816 97ba b639 a8bc d27b a3bb
000000d0: 226f 103e 8b89 8ebd 770e 33bb fd27 d03d
000000e0: a6de 4e3d 7f07 c03b 1240 c83d 32b9 8f3d
000000f0: 1a59 413b c3c1 c3bd 4d01 73bd 62bc 9a3d
00000100: d24f b0bc 3966 bebc a843 123e 811b 4fbe
00000110: 46de 193b aae5 2ebd 7551 eebd ea9f ecbc
00000120: 9759 09bd 5de7 b33c f6e9 edbb c3b1 3a3d
00000130: eaeb 26bd 9512 d6bd a4ff d9bc 9f65 aabd
00000140: 16d4 5abf 4eee 6b3d 726e 5a3c fdcf 423d
00000150: dfe7 213d 2eb3 6dbd 07a9 97be dee5 e93d
00000160: 24fc 6bbe cd53 20bf 06f6 2abd b5ba ba3b
00000170: d717 b3bd aa96 30bd 8961 03bd 945b 83bd
00000180: 1f23 debd 894d 89bc c6b3 9ebd b8a8 fb3c
00000190: e30f 283c 4bf8 8d3d 6dbf 903d acca a6bc
000001a0: 9a19 b83c 09be 823b 7cb5 1c3d 2f31 f03b
000001b0: e89c 51ba f300 ebbc 44dd 6abd 8b9a 35be
000001c0: 91be 9bbd 3637 a03d e34d 70be b202 e73c
000001d0: b4df cc3d 2342 d63d f355 683d a1c6 88bd
000001e0: 224c 353c 6af6 6bbd 7fc0 cabc 1878 363e
000001f0: ab31 c73d 4694 cbbc 3ae5 e63d aa25 9dbc
00000200: 8d80 44bd b19c ca3d 84a1 2abd 32f5 2bbd
00000210: 4f86 09be 0b01 89bd b232 95bd cd55 363d
00000220: 80aa b9bc ca48 1bbc f59d ddba 6cca 11bd
00000230: 75b9 45bd 483f e03c 3c9e 76bc cba9 a8bd
00000240: b3c3 c9bd be7a ee3a 689a ad3d 97c5 05bc
00000250: 02cf 12bd 16f4 453d a55c 91bc c84f 173d
00000260: 431d df3d c9ee e13d 0fe7 d33d 5677 b2bd
00000270: 1e39 473e cae5 393c da29 afbd 686b 823d
00000280: 2b1a eebd 242f bdbe 9966 7cbc 6a95 62bd
00000290: 162f 3cbd 1c48 53bd 1921 ec3d 7907 3abd
000002a0: 3e3a b73c 409d efbc bf9c 60bd 6393 2fbd
000002b0: 250a 4ebc 768c 783c ad92 cfbd 44a9 db3c
000002c0: aa54 433d 74e2 36be d23a 343d 0eda 4e3e
000002d0: 50a8 1b3d fd9a 2fbd 63d5 01be 18a1 4b3d
000002e0: 74ba bebd 77ad adbd dde1 d33c 4879 cbbd
000002f0: d39c eebc c08d 873d 96db 59be 4939 1fbe
00000300: d5fa 363d c3dd 89bd f4d4 d83c 4a00 29be
00000310: b450 f7bd 05a1 703d c10d 643b b5c9 453d
00000320: e181 923d ffed bd3d dc34 37be 88d2 9c39
00000330: 4ec4 73bd 1e8b b1be c9b9 7abd 4a64 47be
00000340: eb58 e13d 09b0 8abe c3f1 8bbe dc88 033d
00000350: f67e cbbd 8cb1 2ebe d2b3 2bbd b721 d0bc
00000360: 4ded 623d 3e13 91bc 7f09 b1bb 6f5c 64bd
00000370: 4d60 8bbd ea08 b93d 62cc a6bd ed10 aabd
00000380: 499f 04bd 80fa 943d 0d34 773d 1a7a 733d
00000390: a690 6b3d 43e9 9f3c 3ce5 593d e7e2 2a3d
000003a0: 87e1 93bd 679f 66bd 64bc 6c3d 8e04 ff3c
000003b0: ab24 143e 5a24 19bd ecbb 03be b369 2a3e
000003c0: 7fa9 f2bc 82f0 9ebd 064d 5c3c 9b6b 3bbc
000003d0: cf73 c63d 0f66 223d 8fb0 04be 69f6 b7bc
000003e0: a941 5a3e 9f68 aabd 7964 e8bc cd6a 073e
000003f0: 581d 48bd 1bfa 0bbd 29b3 e9bd 1deb 09bd

bn2.weight f4 [64]
0.09573077 0.1289247 0.065157354 0.037512287 0.1009317 0.111706376 0.1818575 0.11835326
0.06499762 0.048484243 0.07832256 0.056139212 0.17461413 0.12557483 0.09740257 0.20848341
0.04264084 0.11352046 0.20472303 0.13937196 0.13860424 0.12707932 0.06602882 0.09019543
0.12066557 0.1372837 0.18386978 0.14060786 0.0852712 0.07475183 0.16766 0.13568267
0.16432138 0.100686945 0.24667925 0.15810993 0.13778417 0.086427316 0.17866102 0.06785825
0.05072761 0.13787256 0.14144582 0.13497439 0.21578719 0.07635598 0.15504852 0.123762734
0.052441377 0.11429617 0.18724649 0.082140505 0.16600595 0.042014845 0.05842494 0.06838889
0.05733898 0.06668154 0.07828199 0.081067495 0.17334403 0.17020863 0.19525817 0.08399784
00000000: 7e0e c43d d604 043e 3871 853d 7ca6 193d
00000010: 47b5 ce3d 50c6 e43d da38 3a3e 3263 f23d
00000020: 791d 853d 6a97 463d 9467 a03d 3bf2 653d
00000030: 0cce 323e b096 003e 007b c73d ad7c 553e
00000040: 29a8 2e3d 6a7d e83d eaa2 513e 86b7 0e3e
00000050: 45ee 0d3e 1521 023e 1e3a 873d 62b8 b83d
00000060: 831f f73d 1994 0c3e 5c48 3c3e 82fb 0f3e
00000070: aba2 ae3d 7d17 993d 10af 2b3e 66f0 0a3e
00000080: dd43 283e f534 ce3d 7c99 7c3e 92e7 213e
00000090: 4b17 0d3e ce00 b13d eaf2 363e 44f9 8a3d
000000a0: c1c7 4f3d 772e 0d3e 2cd7 103e ba36 0a3e
000000b0: 51f7 5c3e 8660 9c3d 0ac5 1e3e 5177 fd3d
000000c0: c5cc 563d 1c14 ea3d 8bbd 3f3e 4839 a83d
000000d0: 77fd 293e c217 2c3d fd4e 6f3d 790f 8c3d
000000e0: 47dc 6a3d 5590 883d 4f52 a03d b706 a63d
000000f0: 1981 313e 2c4b 2e3e c2f1 473e 0f07 ac3d

bn2.bias f4 [64]
-0.0019604599 0.011401562 0.105355695 0.029938567 -0.083435126 0.068915546 -0.18469888 0.021531632
-0.022484194 0.0070966263 0.06281451 0.042465918 0.00697506 -0.060929175 -0.012248192 -0.13843055
0.08254848 0.05251988 -0.3511179 -0.33122534 -0.22796744 0.030696327 -0.04862149 -0.05116481
0.093783684 0.02251069 -0.2162347 -0.038603973 -0.06852242 0.038198307 -0.23787242 0.013624992
-0.07785617 0.021718994 0.01047198 -0.095642656 -0.09124261 -0.08158833 -0.1019047 0.032359004
0.10416813 -0.39631194 -0.23742898 0.06684068 0.01687423 0.07451815 0.012081641 0.23425157
0.06200186 -0.20037022 -0.12972724 -0.09609488 -0.13919647 0.035439413 0.08611329 -0.013230632
0.054764256 0.04291449 0.09192523 -0.026568461 -0.16878128 -0.03705898 -0.111020856 -0.049057953
00000000: 0f7b 00bb 9ecd 3a3c bac4 d73d ba41 f53c
00000010: 09e0 aabd 9823 8d3d b421 3dbe 1b63 b03c
00000020: c630 b8bc d18a e83b e5a4 803d bef0 2d3d
00000030: 0b8f e43b df90 79bd a4ac 48bc bdc0 0dbe
00000040: 2d0f a93d 161f 573d bac5 b3be 5e96 a9be
00000050: 4c70 69be dd76 fb3c 5427 47bd 3192 51bd
00000060: a911 c03d 5768 b83c a16c 5dbe 331f 1ebd
00000070: 7c55 8cbd d475 1c3d d494 73be 5c3b 5f3c
00000080: 0e73 9fbd 08ec b13c ab92 2b3c 4ce0 c3bd
00000090: 68dd babd c817 a7bd 69b3 d0bd e08a 043d
000000a0: 1a56 d53d 66e9 cabe 9520 73be c4e3 883d
000000b0: d33b 8a3c f99c 983d 13f2 453c a5df 6f3e
000000c0: aaf5 7d3d da2d 4dbe 38d7 04be 64cd c4bd
000000d0: 8589 0ebe eb28 113d 2a5c b03d 4bc5 58bc
000000e0: 7c50 603d 1bc7 2f3d 4c43 bc3d 1aa6 d9bc
000000f0: 00d5 2cbe 28cb 17bd e75e e3bd fef0 48bd

bn2.running_mean f4 [64]
-0.19629794 -0.11029376 0.031373218 0.4181626 -0.109398775 -0.34559226 0.46757856 -0.4413341
0.004029398 -0.0052308426 0.10583049 -0.31505767 -0.0025747372 0.16749366 0.51169574 -0.036352202
0.08970931 -0.092825815 0.13619296 0.30618462 0.17658877 0.1673723 0.23044576 -0.0980654
-0.325858 -0.35269108 -0.3814817 -0.10106293 -0.1251046 0.15756561 0.0062913755 -0.15719046
-0.16077152 -0.4986366 0.12022163 -0.0018487967 0.219197 0.09203975 -0.23508486 -0.04678902
-0.24568334 0.46140411 0.5829881 0.11483081 -0.21052574 0.010426524 -0.22055747 -0.5260304
0.034340292 0.022935245 0.21934657 0.008374086 0.19707586 0.33036056 0.03986967 0.12441254
0.0023646532 0.1810268 -0.3987791 0.019282555 0.22849321 0.23474707 0.13866667 -0.10414977
00000000: 5402 49be b2e1 e1bd 3481 003d 6919 d63e
00000010: 770c e0bd 78f1 b0be 7566 ef3e 8bf6 e1be
00000020: 0a09 843b 7d67 abbb a8bd d83d 3d4f a1be
00000030: ecbc 28bb 7583 2b3e 7efe 023f 0ce6 14bd
00000040: 84b9 b73d 761b bebd 2b76 0b3e 3bc4 9c3e
00000050: b0d3 343e a563 2b3e f9f9 6b3e 83d6 c8bd
00000060: dcd6 a6be ed93 b4be 9251 c3be 15fa cebd
00000070: 6c1b 00be e158 213e e227 ce3b 89f6 20be
00000080: 4aa1 24be 4c4d ffbe c236 f63d 5353 f2ba
00000090: 2e75 603e 567f bc3d 16ba 70be d8a5 3fbd
000000a0: 6a94 7bbe 293d ec3e b53e 153f 6a2c eb3d
000000b0: 0f94 57be 03d4 2a3c d1d9 61be eea9 06bf
000000c0: 68a8 0c3d b2e2 bb3c 639c 603e 7633 093c
000000d0: 41ce 493e 0525 a93e 614e 233d 00cc fe3d
000000e0: 4cf8 1a3b 175f 393e c62c ccbe 73f6 9d3c
000000f0: 20fa 693e 8961 703e a3fe 0d3e 7a4c d5bd

bn2.running_var f4 [64]
0.053537074 0.0578254 0.002070951 0.005102377 0.01063558 0.003582586 0.01441362 0.1721849
0.011326279 0.002534366 0.031647395 0.003135608 0.05806254 0.030431798 0.017415306 0.100365
0.00354253 0.013954556 0.13601194 0.050168455 0.024921626 0.021631038 0.010312 0.0075036623
0.07024226 0.0006656505 0.23900054 0.010487241 0.012886171 0.02542584 0.071226515 0.018257357
0.1425437 0.020850914 0.16189052 0.11523508 0.012846168 0.016485075 0.1399578 0.02389476
0.0026304806 0.006471651 0.05731964 0.106173374 0.13864423 0.01112201 0.043883182 0.07134949
0.0057563744 0.08176368 0.02327651 0.0035165253 0.015977379 0.0075845146 0.0149611235 0.00829523
0.0057547027 0.012074242 0.01033415 0.025468625 0.011210459 0.06964425 0.13853562 0.012126354
00000000: b149 5b3d 54da 6c3d cbb8 073b d731 a73b
00000010: db40 2e3c d2c9 6a3b 1b27 6c3c 3d51 303e
00000020: db91 393c 9b17 263b b3a0 013d c67e 4d3b
00000030: fcd2 6d3d 1b4c f93c 8baa 8e3c 2a8c cd3d
00000040: ca29 683b a6a1 643c b746 0b3e 707d 4d3d
00000050: 7028 cc3c 9333 b13c aaf3 283c 48e1 f53b
00000060: 2ddb 8f3d 0d7f 2e3a 8fbc 743e add2 2b3c
00000070: 8520 533c da49 d03c 35df 913d 7490 953c
00000080: faf6 113e 89cf aa3c a1c6 253e 5f00 ec3d
00000090: bc78 523c b50b 873c 1951 0f3e f2be c33c
000000a0: 2464 2c3b 2510 d43b 00c8 6a3d 6d71 d93d
000000b0: c1f8 0d3e 1739 363c dabe 333d ae1f 923d
000000c0: f89f bc3b b773 a73d 61ae be3c 8175 663b
000000d0: fee2 823c 8587 f83b 801f 753c b7e8 073c
000000e0: f291 bc3b 0bd3 453c 9150 293c 94a3 d03c
000000f0: 13ac 373c a5a1 8e3d 48dc 0d3e 9dad 463c

conv3.weight f4 [64, 64, 3, 3]
-0.018084753 0.0009311887 0.07469884 -0.032381892 0.0059631215 0.056530688 -0.19743247 0.013942637
0.0033476157 0.06749521 0.06884407 -0.08724156 -0.03587687 -0.08470389 -0.22902708 0.042957217
-0.09444835 -0.16789027 0.016247377 0.031086836 0.027126897 0.1509535 0.061349057 -0.10897519
0.024251973 -0.0551285 0.030000355 0.102323085 0.023962863 -0.026557503 -0.025408715 0.25025383
0.18541504 0.048858345 0.038955715 -0.10526021 -0.020661017 -0.14993194 -0.079562224 -0.037506443
0.0885533 -0.0018546967 0.04815776 -0.036115054 0.06298883 0.027670803 0.0022619017 0.11903515
-0.18699788 -0.34910923 -0.27908245 -0.03495695 -0.04357643 0.0769155 -0.017204506 0.0666321
0.06734539 0.07140238 -0.1298932 -0.16784701 -0.00017627007 -0.12755747 0.018425442 -0.028317215
-0.068276815 0.04153912 -0.08071678 -0.18812543 -0.036986623 -0.031031532 0.040810067 0.091604255
0.030079832 0.1427817 -0.12772824 -0.16365184 0.06287951 -0.14030138 0.10710288 0.23024577
0.056460526 0.039394148 -0.114331916 -0.03778042 0.08572338 0.17478952 0.07425094 0.052062023
0.05286569 0.055491064 -0.04919714 -0.099923156 0.011603584 0.08461332 -0.044271357 -0.027161451
0.039417207 0.04727278 0.17324923 -0.120225765 0.058895916 -0.04868878 0.014166741 0.1776964
0.028118424 -0.02996804 -0.003413649 -0.08386081 0.059164945 0.027537934 0.082064554 -0.010430619
-0.109218314 0.034031015 -0.008528599 -0.013473202 0.08985776 0.025357423 -0.05900473 -0.028978199
-0.064416096 -0.12643793 -0.018066026 -0.01425118 -0.12529165 0.044565782 0.027483823 -0.10684411
0.11185341 -0.1393358 -0.19499372 0.036286294 -0.04618028 0.08914929 0.10628982 0.022752684
0.07518024 -0.0010140619 0.036782954 -0.010171064 -0.03417868 0.085027374 0.1317474 0.09273352
0.036436204 0.046607353 -0.02239435 -0.085703745 0.13657545 0.05785695 0.012411615 -0.18824396
-0.030766144 0.05307071 -0.004971452 0.0024976297 -0.0903384 0.036650807 -0.15677108 -0.03422599
0.016123941 0.08838112 0.008136541 -0.04188976 -0.023109207 -0.14675272 -0.048463784 0.11455502
-0.071434066 -0.07973424 0.05062186 -0.032293975 -0.08991426 -0.059164256 -0.018756209 0.04822846
0.4000666 -0.037962213 0.033988036 0.1390257 0.05136768 0.006306052 0.05862645 -0.04822868
-0.35905728 -0.16885085 -0.027606193 -0.11514205 -0.05091522 -0.022216314 0.017867858 -0.028778099
-0.18659347 -0.038188398 0.11863424 0.013351494 -0.053543523 -0.022214865 -0.09709253 -0.006492404
-0.1571956 0.153738 0.14430015 -0.034281064 -0.14153036 0.07699881 0.029254999 0.01967773
0.1053338 0.051034406 -0.021945976 0.2551386 -0.0012624236 -0.056178197 -0.020727562 -0.08855967
-0.03323674 -0.06363652 -0.071347006 0.03200305 0.123391554 -0.020334609 0.04846945 0.051479276
-0.07829305 0.0048684296 0.06953091 0.06437021 -0.032068513 -0.016286174 -0.10175479 -0.029209843
-0.076464064 0.009017921 0.07171597 0.0693022 0.07246877 0.043714255 0.26604667 0.1993974
0.11182683 0.2687264 0.15762168 -0.0141822845 0.09291089 -0.017667158 -0.088559724 -0.15390305
0.020584743 0.06793118 -0.18306074 0.049420364 -0.05360185 -0.07585779 0.06740408 -0.09730023
00000000: 7a26 94bc 041b 743a b5fb 983d e0a2 04bd
00000010: 4a66 c33b b98c 673d bd2b 4abe a86f 643c
00000020: ac63 5b3b ee3a 8a3d 1ffe 8c3d b4ab b2bd
00000030: a0f3 12bd 3c79 adbd 1386 6abe e8f3 2f3d
00000040: 236e c1bd 6deb 2bbe 3819 853c d2a9 fe3c
00000050: 3a39 de3c 8e93 1a3e 2649 7b3d 622e dfbd
00000060: 13ac c63c 6cce 61bd 4ec3 f53c c48e d13d
00000070: c44d c43c 1f8f d9bc f025 d0bc 4521 803e
00000080: 71dd 3d3e b01f 483d 0790 1f3d aa92 d7bd
00000090: 4b41 a9bc c287 19be 85f1 a2bd 5ba0 19bd
000000a0: 6f5b b53d 4b19 f3ba 1241 453d 61ed 13bd
000000b0: 4a00 813d e1ad e23c 6a3c 143b b3c8 f33d
000000c0: 5f7c 3fbe 72be b2be e5e3 8ebe 052f 0fbd
000000d0: 337d 32bd e085 9d3d 77f0 8cbc 6976 883d
000000e0: 61ec 893d 693b 923d b902 05be 16e0 2bbe
000000f0: 23d5 38b9 6d9e 02be f4f0 963c 81f9 e7bc
00000100: b7d4 8bbd ed24 2a3d d74e a5bd f4a3 40be
00000110: 497f 17bd d735 febc 7528 273d 039b bb3d
00000120: fb69 f63c 5e35 123e 31cb 02be 5994 27be
00000130: f9c6 803d 2aab 0fbe c158 db3d 8cc5 6b3e
00000140: 2743 673d c25b 213d da26 eabd a4bf 1abd
00000150: bd8f af3d 06fc 323e e010 983d fd3e 553d
00000160: b289 583d 994a 633d f182 49bd 83a4 ccbd
00000170: f51c 3e3c c049 ad3d e255 35bd b181 debc
00000180: f073 213d 1aa1 413d 3f68 313e ed38 f6bd
00000190: d83c 713d e36d 47bd 9e1b 683c 0cf6 353e
000001a0: 9c58 e63c 897f f5bc 87b7 5fbb 37bf abbd
000001b0: f156 723d 3c97 e13c 7611 a83d 30e5 2abc
000001c0: daad dfbd 1b64 0b3d 89bb 0bbc b4be 5cbc
000001d0: 5807 b83d 5fba cf3c f2ae 71bd b063 edbc
000001e0: 96ec 83bd f278 01be 34ff 93bc c87d 69bc
000001f0: 744c 00be 9c8a 363d c125 e13c 16d1 dabd
00000200: 6713 e53d 0bae 0ebe 6fac 47be f0a0 143d
00000210: 8927 3dbd e793 b63d 7aae d93d d663 ba3c
00000220: 19f8 993d 45ea 84ba b9a9 163d 89a4 26bc
00000230: f2fe 0bbd d522 ae3d cae8 063e 12eb bd3d
00000240: 213e 153d 5ae7 3e3d 5b74 b7bc 7285 afbd
00000250: 6fda 0b3e 69fb 6c3d 165a 4b3c 06c3 40be
00000260: 4809 fcbc ac60 593d 90e7 a2bb 46af 233b
00000270: 5703 b9bd 281f 163d 9988 20be 8d30 0cbd
00000280: 5b16 843c 2901 b53d 204f 053c 9994 2bbd
00000290: 854f bdbc 5846 16be f681 46bd d39b ea3d
000002a0: 064c 92bd b54b a3bd de58 4f3d b046 04bd
000002b0: f824 b8bd 3856 72bd 9fa6 99bc 358b 453d
000002c0: 88d5 cc3e 447e 1bbd 0a37 0b3d c15c 0e3e
000002d0: eb66 523d 00a3 ce3b 4a22 703d 708b 45bd
000002e0: 5bd6 b7be 3de7 2cbe 6226 e2bc 98cf ebbd
000002f0: 7a8c 50bd fdfe b5bc 9d5f 923c 0cc0 ebbc
00000300: 5c12 3fbe 706b 1cbd 82f6 f23d 3ac0 5a3c
00000310: 7450 5bbd f3fb b5bc 73d8 c6bd 3bbe d4bb
00000320: e2f7 20be 7f6d 1d3e 6bc3 133e 4d6a 0cbd
00000330: 56ed 10be 8db1 9d3d 2ea8 ef3c 3133 a13c
00000340: 3fb9 d73d 7409 513d 0cc8 b3bc 87a1 823e
00000350: e877 a5ba 1c1b 66bd d9cc a9bc c65e b5bd
00000360: 3f23 08bd dd53 82bd 611e 92bd a115 033d
00000370: b6b4 fc3d c494 a6bc e787 463d efdb 523d
00000380: 1b58 a0bd 5987 9f3b 3966 8e3d 87d4 833d
00000390: 465a 03bd 956a 85bc d164 d0bd 7b49 efbc
000003a0: 3199 9cbd e7bf 133c d3df 923d 50ee 8d3d
000003b0: 826a 943d b80d 333d 4537 883e d52e 4c3e
000003c0: 7705 e53d 8296 893e 9467 213e d05c 68bc
000003d0: 1148 be3d b7ba 90bc cd5e b5bd c398 1dbe
000003e0: 56a1 a83c 811f 8b3d 4674 3bbe 026d 4a3d
000003f0: 9d8d 5bbd 545b 9bbd 260b 8a3d 5845 c7bd

bn3.weight f4 [64]
0.13581273 0.13064687 0.14763123 0.15706699 0.123043634 0.117666714 0.18389402 0.040618062
0.19679666 0.14688087 0.06256951 0.07190279 0.14075004 0.19054784 0.17072159 0.190516
0.12019159 0.11840706 0.14084187 0.15701109 0.15713271 0.080592476 0.15025009 0.1855496
0.074761465 0.15756169 0.29279283 0.12948126 0.21013382 0.06117617 0.13548362 0.20201702
0.053404834 0.1774067 0.19420667 0.0794361 0.08037168 0.16774109 0.1685105 0.12623647
0.08291136 0.06452613 0.15080012 0.29611227 0.1346926 0.2823791 0.13604586 0.24652322
0.12373781 0.050514687 0.14887862 0.16066574 0.07073571 0.13091482 0.10375727 0.17745802
0.068869494 0.25721186 0.06835369 0.08633312 0.07341126 0.20719148 0.18320848 0.16007346
00000000: 7e12 0b3e 4bc8 053e a42c 173e 2bd6 203e
00000010: 4dfe fb3d 3ffb f03d b74e 3c3e 205f 263d
00000020: 1085 493e f067 163e 7124 803d c541 933d
00000030: c720 103e f91e 433e a4d1 2e3e a016 433e
00000040: 0227 f63d 677f f23d da38 103e 84c7 203e
00000050: 66e7 203e ab0d a53d 29db 193e b700 3e3e
00000060: 8a1c 993d da57 213e f1e8 953e bc96 043e
00000070: 522d 573e dd93 7a3d 38bc 0a3e 8ddd 4e3e
00000080: 07bf 5a3d 1aaa 353e 1dde 463e 65af a23d
00000090: e899 a43d 52c4 2b3e 048e 2c3e 2244 013e
000000a0: 6ecd a93d 4726 843d 596b 1a3e 079c 973e
000000b0: dbec 093e fe93 903e 9b4f 0b3e 9570 7c3e
000000c0: 406a fd3d 7de8 4e3d a373 183e 8f85 243e
000000d0: e2dd 903d 890e 063e b17e d43d 8eb7 353e
000000e0: 730b 8d3d 46b1 833e 05fd 8b3d 6bcf b03d
000000f0: a558 963d 012a 543e 019b 3b3e 4cea 233e

bn3.bias f4 [64]
0.026856517 0.039374754 -0.11085304 0.047349337 -0.026083339 0.12222806 -0.06594474 0.09788159
0.024597088 -0.047327064 0.18940425 0.23306714 0.013650735 0.042129356 -0.09020875 -0.18300365
-0.079876795 0.044642895 0.037228137 0.073848836 -0.007851275 0.14737721 -0.035390895 0.0016231342
0.15781431 -0.43598554 -0.4767828 -0.109127946 -0.096880235 0.056538068 0.004557468 -0.13119785
0.095027365 0.054652087 -0.22575258 0.07993535 0.16834523 0.026175037 0.060880817 0.049132932
0.039455287 0.11551157 -0.05697632 -0.3301429 0.05275228 -0.07494535 0.005848686 -0.012744181
-0.3925727 0.15028247 -0.100527264 -0.10935103 0.11744411 0.10966316 0.08632063 -0.22253102
0.19806361 -0.010525154 0.09555089 0.08014019 0.13010636 -0.23879853 0.05374267 -0.21085331
00000000: 3302 dc3c 6c47 213d eb06 e3bd 61f1 413d
00000010: baac d5bc b552 fa3d 090e 87bd 2576 c83d
00000020: d57f c93c 06da 41bd 30f3 413e 27a9 6e3e
00000030: 55a7 5f3c d58f 2c3d 5dbf b8bd 4f65 3bbe
00000040: 7296 a3bd 78db 363d 887c 183d 0f3e 973d
00000050: a2a2 00bc 0dea 163e 0bf6 10bd 59bf d43a
00000060: 139a 213e 7f39 dfbe e01c f4be 797e dfbd
00000070: 2569 c6bd 7694 673d d056 953b bb58 06be
00000080: b59d c23d deda 5f3d af2b 67be 25b5 a33d
00000090: b162 2c3e 086d d63c 2a5e 793d 9d3f 493d
000000a0: de9b 213d 5491 ec3d 0060 69bd 7d08 a9be
000000b0: c612 583d f37c 99bd 56a6 bf3b f8cc 50bc
000000c0: 4aff c8be a6e3 193e 3de1 cdbd 6ff3 dfbd
000000d0: 8a86 f03d 1497 e03d dfc8 b03d 2cdf 63be
000000e0: 30d1 4a3e b271 2cbc 2fb0 c33d 8a20 a43d
000000f0: 9a3a 053e 9a87 74be 4621 5c3d eee9 57be

bn3.running_mean f4 [64]
-0.21270461 -0.30216962 -0.21737188 -0.21714763 -0.23466003 -0.3486545 -0.18922816 -0.04315783
-0.3029577 -0.117454335 -0.12977557 -0.03301574 -0.22838823 0.04024681 -0.042126738 -0.10367485
-0.23554417 -0.0092790825 -0.08360533 0.0023881258 0.06526581 -0.11689892 -0.08694409 -0.022118445
0.044782728 -0.10623053 -0.104539886 -0.63968253 0.15314174 0.42928255 0.1059527 -0.0941615
-0.09946326 -0.0736836 -0.3897052 -0.28414965 -0.126016 -0.19064486 0.12227998 0.072142474
-0.1807694 -0.14653344 -0.16624716 -0.008159234 -0.057833906 -0.04040275 -0.061375484 0.0030688976
-0.07022269 -0.23741023 -0.058880176 0.031614676 -0.38297254 0.16917695 -0.23949969 -0.28721306
-0.28625846 0.039583832 -0.2584568 -0.1287089 -0.19471902 -0.39330828 -0.19456713 -0.1740213
00000000: 3dcf 59be fab5 9abe bc96 5ebe f35b 5ebe
00000010: b84a 70be d882 b2be 07c5 41be 44c6 30bd
00000020: 461d 9bbe e68b f0bd e3e3 04be 833b 07bd
00000030: 9bde 69be d7d9 243d 168d 2cbd 7b53 d4bd
00000040: 7e32 71be 4b07 18bc 4539 abbd 1a82 1c3b
00000050: 15aa 853d b368 efbd be0f b2bd be31 b5bc
00000060: 186e 373d 648f d9bd 0219 d6bd 3cc2 23bf
00000070: 30d1 1c3e ecca db3e bbfd d83d bfd7 c0bd
00000080: 65b3 cbbd 6de7 96bd 7187 c7be 107c 91be
00000090: 570a 01be 6838 43be ed6d fa3d 6fbf 933d
000000a0: 9d1b 39be dd0c 16be b23c 2abe 4fae 05bc
000000b0: 3fe3 6cbd 5b7d 25bd dc64 7bbd 8f1f 493b
000000c0: ead0 8fbd ab1b 73be 572c 71bd 647e 013d
000000d0: fa14 c4be b93c 2d3e 683f 75be 970d 93be
000000e0: 7890 92be a822 223d 7354 84be 44cc 03be
000000f0: 6c64 47be b45f c9be 9b3c 47be a432 32be

bn3.running_var f4 [64]
0.05357297 0.06910758 0.016452452 0.13447961 0.04418318 0.04511037 0.2154445 0.014153956
0.11886979 0.1151169 0.014719879 0.026550865 0.048466578 0.112868674 0.23227979 0.07050475
0.05574015 0.06498027 0.036034524 0.2682946 0.03316775 0.01840475 0.029824235 0.071943834
0.03463593 0.006909332 0.01326906 0.026613649 0.19091122 0.033595275 0.053598404 0.22103308
0.016089937 0.0856463 0.016519714 0.032278776 0.031932957 0.122116365 0.10718911 0.04681648
0.026949916 0.021030907 0.028805453 0.042694204 0.090514496 0.1921021 0.096606076 0.1223852
0.13692366 0.009216621 0.06674015 0.09904143 0.023441082 0.18792483 0.024135148 0.03457706
0.028668735 0.21067722 0.018793685 0.034677316 0.02279051 0.026550079 0.22811215 0.009690511
00000000: 556f 5b3d 4688 8d3d 4bc7 863c 06b5 093e
00000010: 6cf9 343d a7c5 383d 7c9d 5c3e ffe5 673c
00000020: 0172 f33d 69c2 eb3d a62b 713c 3381 d93c
00000030: e484 463d b127 e73d c1da 6d3e cb64 903d
00000040: c94f 643d 6014 853d f098 133d e95d 893e
00000050: e8da 073d 8fc5 963c f451 f43c 4a57 933d
00000060: 68de 0d3d ad67 e23b 7966 593c de04 da3c
00000070: 3b7e 433e 339b 093d 008a 5b3d 7f56 623e
00000080: 0bcf 833c 5467 af3d 5a54 873c c036 043d
00000090: 22cc 023d 2518 fa3d f785 db3d a3c2 3f3d
000000a0: 12c6 dc3c 0249 ac3c 6af9 eb3c 1ee0 2e3d
000000b0: aa5f b93d 6ab6 443e 68d9 c53d 17a5 fa3d
000000c0: b735 0c3e 4f01 173c 0faf 883d 3cd6 ca3d
000000d0: 8307 c03c 5e6f 403e 13b7 c53c ada0 0d3d
000000e0: b2da ea3c c5bb 573e 37f5 993c cd09 0e3d
000000f0: 2ab3 ba3c 8d7f d93c 3b96 693e f3c4 1e3c

conv4.weight f4 [64, 64, 3, 3]
0.14478284 -0.07710416 -0.050767247 0.16024943 -0.041065056 0.02152771 -0.041649155 0.0053303353
-0.0058979043 0.19151378 -0.021019848 0.008275045 0.12808608 -0.07486258 -0.11608885 0.009797825
0.005219824 0.0039691348 0.14341247 -0.061122138 0.0087094745 0.20879315 -0.03196866 -0.042841025
-0.015422737 0.05640603 -0.00685378 0.22923101 0.037659075 0.0014644235 0.012964603 -0.30292144
-0.017501406 0.030486701 -0.018052945 0.010162089 0.1377528 0.02190632 -0.028590927 -0.1064134
-0.2082131 0.03623036 -0.0067736846 -0.036951944 0.02833268 -0.04261693 -0.0727782 0.015539802
0.098556675 0.15346031 -0.014479385 0.020612445 -0.008753532 -0.027963674 0.07024483 0.059979077
0.017830502 -0.118681 -0.2674641 -0.062033217 0.002136774 -0.011935488 -0.022810237 0.10586834
-0.028526412 0.024269635 -0.14843112 -0.07530611 0.115937054 -0.035769355 0.019314393 -0.02152334
0.077885285 0.03158685 0.008960726 -0.2739856 -0.18237342 0.074436106 -0.0051003336 0.051668607
0.029859936 0.061030556 -0.0029093383 -0.0067001088 0.0144573245 -0.30850795 -0.018523928 0.006128689
0.004452657 -0.020740764 0.035608035 0.015399417 0.0105420025 0.13070345 -0.05189826 -0.022976246
-0.04317632 -0.0787027 -0.002125762 0.16053987 0.0020524848 -0.014775803 0.05999516 -0.035858404
-0.0016181951 -0.017751472 -0.057646427 0.0068306443 -0.04636164 0.22223979 0.031501554 0.1580145
0.14104988 -0.033387017 0.07079782 0.00922256 0.004494115 -0.105206415 -0.031466108 0.017112426
-0.06019805 0.018412158 0.052540388 -0.0075839832 -0.014791101 0.011013812 -0.117427535 -0.1279147
-0.0014020334 -0.16271922 -0.116375856 -0.038281944 0.025153615 0.012187633 -0.011867677 -0.03056891
0.011445511 -0.02797084 0.1387096 0.16635537 -0.041948944 0.060714666 0.10167529 -0.010393461
-0.042136353 -0.026518 0.05265225 -0.098462924 -0.20798296 -0.047490362 0.0278174 0.041261088
0.033493455 0.04749064 -0.10238629 -0.0002912307 -0.0014000515 -0.15457045 0.04322156 0.01725293
-0.0071992804 0.024345838 -0.014415667 -0.24320334 -0.044305578 -0.21316932 -0.054591168 0.018622352
-0.06863297 0.020964485 0.010397308 -0.013254119 -0.048281755 -0.0012670058 -0.061442398 -0.3411667
-0.081868015 -0.022942398 -0.06067756 -0.03254762 -0.0338858 0.08439418 0.013063849 -0.19951317
-0.18270516 0.07857773 0.030828489 0.021737013 0.009814603 0.037773192 -0.102470815 -0.008926388
-0.025077322 -0.055437267 -0.010312137 0.009764979 0.0013408096 0.0140189575 0.12615132 0.19441624
0.027221547 0.18421294 -0.14907686 0.06812194 -0.02770862 0.013647677 0.00095444074 -0.21445644
0.1010033 -0.007822759 -0.10777723 -0.07045476 0.012626419 0.03828586 0.04313977 -0.025962496
-0.15020764 0.06676979 -0.030994365 -0.11029775 -0.10158589 0.03914108 0.05517742 0.039802786
-0.017608615 0.01902331 -0.018149555 0.027413895 -0.0051106736 -0.015270136 -0.044535406 -0.0089213215
-0.0126513885 0.008844921 0.0027069978 -0.013359869 -0.022726402 0.025007686 0.020401405 -0.00051632733
0.03747545 0.0023510866 0.025114015 -0.02154604 -0.044322338 -0.021976348 -0.008004669 -0.12503245
-0.0005400557 -0.0050331354 -0.025987584 -0.024832465 -0.080772154 -0.093538254 0.008928833 -0.24902238
00000000: f441 143e c9e8 9dbd 51f1 4fbd 6d18 243e
00000010: d533 28bd e15a b03c 4e98 2abd 18aa ae3b
00000020: 3543 c1bb 301c 443e d131 acbc 0e94 073c
00000030: ff28 033e 8d51 99bd febf edbd 0e87 203c
00000040: 0f0b ab3b 840f 823b b8da 123e 355b 7abd
00000050: 2fb2 0e3c dfcd 553e 92f1 02bd 127a 2fbd
00000060: a6af 7cbc 020a 673d ac95 e0bb 89bb 6a3e
00000070: 6740 1a3d e6f1 bf3a 7c69 543c 8518 9bbe
00000080: 1c5f 8fbc 3fbf f93c c5e3 93bc e47e 263c
00000090: 120f 0d3e e274 b33c 8537 eabc 45ef d9bd
000000a0: d135 55be 4966 143d c9f5 ddbb ec5a 17bd
000000b0: f019 e83c 178f 2ebd bd0c 95bd a79a 7e3c
000000c0: 15d8 c93d b324 1d3e f13a 6dbc 6edb a83c
000000d0: f96a 0fbc 1314 e5bc 85dc 8f3d 9fac 753d
000000e0: 4611 923c 060f f3bd 0ef1 88be 8b16 7ebd
000000f0: 1e09 0c3b 118d 43bc 89dc babc 80d1 d83d
00000100: 39b0 e9bc 1dd1 c63c 54fe 17be 173a 9abd
00000110: 6870 ed3d e382 12bd 3839 9e3c b751 b0bc
00000120: 5282 9f3d 3661 013d 02d0 123c d747 8cbe
00000130: 19c0 3abe f571 983d b320 a7bb 76a2 533d
00000140: d39c f43c 2dfb 793d 99aa 3ebb 968c dbbb
00000150: 6ade 6c3c c1f4 9dbe 7ebf 97bc 2bd3 c83b
00000160: 98e7 913b 89e8 a9bc bbd9 113d d64d 7c3c
00000170: 5db8 2c3c 20d7 053e 4593 54bd ae38 bcbc
00000180: a7d9 30bd e22e a1bd 5e50 0bbb 9064 243e
00000190: fb82 063b 3616 72bc 7cbd 753d 43e0 12bd
000001a0: 9e19 d4ba 896b 91bc a91e 6cbd 99d3 df3b
000001b0: b4e5 3dbd d492 633e c607 013d 8ece 213e
000001c0: 616f 103e d3c0 08bd 73fe 903d 381a 173c
000001d0: 5e43 933b 7676 d7bd 9be2 00bd 5c2f 8c3c
000001e0: 3b92 76bd 18d5 963c 9734 573d 1083 f8bb
000001f0: 6056 72bc 4773 343c d97d f0bd 12fc 02be
00000200: 6fc4 b7ba de9f 26be 7756 eebd 87cd 1cbd
00000210: f40e ce3c a3ae 473c a570 42bc a76b fabc
00000220: f485 3b3c 1a23 e5bc e409 0e3e 1059 2a3e
00000230: a8d2 2bbd f1af 783d 223b d03d 5649 2abc
00000240: 2b97 2cbd 473c d9bc e3a9 573d eea6 c9bd
00000250: 7cf9 54be 4185 42bd 51e1 e33c 6301 293d
00000260: 6f30 093d 8c85 423d e7af d1bd 53b0 98b9
00000270: ef81 b7ba b747 1ebe 1709 313d 0456 8d3c
00000280: f1e7 ebbb ec70 c73c b12f 6cbc 4c0a 79be
00000290: c479 35bd 0f49 5abe fd9a 5fbd e78d 983c
000002a0: 718f 8cbd b6bd ab3c 7859 2a3c ce27 59bc
000002b0: 17c3 45bd a911 a6ba 06ab 7bbd 67ad aebe
000002c0: 6baa a7bd b2f1 bbbc 0889 78bd a750 05bd
000002d0: d6cb 0abd dbd6 ac3d c109 563c 2e4d 4cbe
000002e0: 1017 3bbe 5ced a03d 078c fc3c d211 b23c
000002f0: 6ecd 203c 10b8 1a3d 38dc d1bd fc3f 12bc
00000300: f56e cdbc 3012 63bd 3df4 28bc 4afd 1f3c
00000310: 1bbe af3a c5af 653c d02d 013e 0d15 473e
00000320: b9ff de3c 51a2 3c3e 9ba7 18be 8483 8b3d
00000330: 30fd e2bc 829a 5f3c 6f33 7a3a 789a 5bbe
00000340: d1da ce3d 082b 00bc 4fba dcbd 964a 90bd
00000350: 0adf 4e3c a2d1 1c3d 54b3 303d 4daf d4bc
00000360: 08d0 19be 9abe 883d e5e7 fdbc c9e3 e1bd
00000370: 430c d0bd 6652 203d b801 623d 3f08 233d
00000380: f13f 90bc c6d6 9b3c 60ae 94bc 1b93 e03c
00000390: 7077 a7bb 982f 7abc c26a 36bd bc2a 12bc
000003a0: c547 4fbc 4aea 103c e367 313b 5ae3 5abc
000003b0: b82c babc ebdc cc3c d920 a73c 245a 07ba
000003c0: dc7f 193d b014 1a3b e8bb cd3c 5281 b0bc
000003d0: 578b 35bd be07 b4bc 0426 03bc 8208 00be
000003e0: 8692 0dba 00ed a4bb eae3 d4bc 746d cbbc
000003f0: df6b a5bd fc90 bfbd 3d4a 123c b9ff 7ebe

bn4.weight f4 [64]
0.5353856 0.07798352 0.40695775 0.05483591 0.18348719 0.07709491 0.3231167 0.12036131
0.3485971 0.0531144 0.736928 0.1330093 0.27067512 0.09444181 0.043250807 0.07321822
0.040461373 0.35065824 0.084517546 0.18245725 0.28393507 0.3276376 0.062646955 0.1646266
0.15204014 0.1204157 0.16246468 0.14137414 0.13863266 0.07586517 0.03469588 0.050324284
0.13690327 0.35036224 0.21675679 0.050239526 0.10279468 0.11320692 0.06260407 0.09590531
0.29028803 0.4706718 0.044884227 0.09884835 0.09955042 0.21983612 0.041884292 0.15731129
0.4727515 0.13185917 0.08362318 0.12696241 0.4075305 0.09959504 0.098224364 0.24947879
0.11437942 0.10531813 0.057200555 0.03293505 0.33378214 0.05013083 0.09085866 0.045580093
00000000: 080f 093f d3b5 9f3d c45c d03e 9f9b 603d
00000010: 11e4 3b3e f0e3 9d3d 8d6f a53e fe7f f63d
00000020: 527b b23e 7c8e 593d 50a7 3c3f 9733 083e
00000030: ee95 8a3e b56a c13d c227 313d 6ff3 953d
00000040: d3ba 253d 7a89 b33e 8917 ad3d 13d6 3a3e
00000050: f05f 913e 1ec0 a73e 0c4d 803d e093 283e
00000060: 69b0 1b3e 829c f63d 245d 263e 62c4 103e
00000070: b8f5 0d3e 335f 9b3d 441d 0e3d d620 4e3d
00000080: 5f30 0c3e ae62 b33e 7ef5 5d3e f6c7 4d3d
00000090: 0486 d23d 08d9 e73d 9036 803d 016a c43d
000000a0: a2a0 943e e5fb f03e 86d8 373d 0171 ca3d
000000b0: 17e1 cb3d b81c 613e dd8e 2b3d 3616 213e
000000c0: 7c0c f23e 1706 073e a142 ab3d 6f02 023e
000000d0: d6a7 d03e 7cf8 cb3d db29 c93d 5e77 7f3e
000000e0: c23f ea3d 08b1 d73d 214b 6a3d e7e6 063d
000000f0: 7ee5 aa3e fc55 4d3d 1b14 ba3d 31b2 3a3d

bn4.bias f4 [64]
0.011161718 0.046124697 -0.122629784 -0.009620032 -0.10437261 0.26234394 -0.0945652 -0.07789105
-0.016984554 -0.39850953 -0.030078486 -0.15781105 -0.012852439 0.09283688 0.07385309 -0.025365181
0.019609874 -0.024022162 -0.08749395 -0.14748695 -0.000708913 -0.011221914 0.060075957 -0.15733194
-0.091479816 -0.07010434 -0.1503943 -0.03322519 -0.13602646 -0.16081852 0.07141532 0.1166433
-0.013763249 -0.03318628 -0.037326466 0.105147235 -0.08659506 -0.0875012 -0.03993797 -0.10743886
-0.028940713 -0.13551347 0.0014816094 0.026860487 -0.041337945 -0.009376163 0.070968956 -0.065872714
0.04473815 -0.07291698 -0.0017247399 0.084876634 0.01950706 0.013788892 0.05282721 0.0085352855
-0.04545945 -0.04606475 0.009027525 0.0760291 0.0020970034 0.050863862 0.026485348 0.0024815036
00000000: a3df 363c 40ed 3c3d 5325 fbbd 579d 1dbc
00000010: 4fc1 d5bd f251 863e 66ab c1bd 5885 9fbd
00000020: 3123 8bbc 7109 ccbe 2867 f6bc 3899 21be
00000030: 0993 52bc 4321 be3d 4a40 973d a4ca cfbc
00000040: e3a4 a03c 20ca c4bc 0730 b3bd d206 17be
00000050: 59d6 39ba 1edc 37bc 3512 763d a01b 21be
00000060: c559 bbbd dd92 8fbd f700 1abe 2317 08bd
00000070: 854a 0bbe 9cad 24be 3242 923d afe2 ee3d
00000080: 407f 61bc 56ee 07bd a3e3 18bd 6f57 d73d
00000090: c058 b1bd d433 b3bd ff95 23bd e808 dcbd
000000a0: 1315 edbc 0bc4 0abe 9032 c23a 860a dc3c
000000b0: fa51 29bd 7a9e 19bc 2c58 913d 46e8 86bd
000000c0: 5a3f 373d 7f55 95bd ab10 e2ba cdd3 ad3d
000000d0: 45cd 9f3c ceea 613c 5861 583d 95d7 0b3c
000000e0: b033 3abd 64ae 3cbd 2fe8 133c 25b5 9b3d
000000f0: e16d 093b a056 503d cdf7 d83c b9a0 223b

bn4.running_mean f4 [64]
-0.13389148 -0.34394795 0.12477658 -0.3115286 0.16518733 -0.11404267 0.694178 0.0024833358
0.13765337 0.14924139 0.2539037 -0.29573053 0.22558951 -0.3293512 -0.06610313 -0.1141892
-0.32135418 0.04130924 0.01005758 0.11184296 0.0407914 0.033044253 -0.45386016 -0.14551653
-0.27273148 0.030666966 -0.5434283 0.1422879 -0.01894839 0.15826839 0.17442214 -0.3033516
-0.28409275 -0.016452571 -0.17910016 -0.1862319 -0.3717383 -0.35140744 -0.18272844 -0.196285
0.30989927 0.024042346 -0.27099496 -0.41735134 -0.38770172 -0.03346932 -0.26186976 -0.7037386
-0.23035455 -0.025953554 -0.31864247 0.3074084 -0.17695555 -0.21838515 -0.25612658 -0.14448129
-0.53231734 0.10531532 -0.59629536 0.047318533 -0.13012555 -0.50189525 -0.59072506 0.38080677
00000000: d91a 09be f219 b0be dd8a ff3d ad80 9fbe
00000010: de26 293e 348f e9bd a6b5 313f 76bf 223b
00000020: 01f5 0c3e bcd2 183e aaff 813e fe69 97be
00000030: f000 673e b8a0 a8be 1461 87bd 07dc e9bd
00000040: 8988 a4be e133 293d 8cc8 243c ec0d e53d
00000050: e214 273d 6959 073d 5c60 e8be 4902 15be
00000060: 76a3 8bbe 4a39 fb3c 1e1e 0bbf ebb3 113e
00000070: a739 9bbc 1c11 223e b89b 323e e750 9bbe
00000080: 9b74 91be 8bc7 86bc 0866 37be 93b3 3ebe
00000090: 7c54 bebe adeb b3be 2a1d 3bbe effe 48be
000000a0: 1eab 9e3e 74f4 c43c dabf 8abe 13af d5be
000000b0: d780 c6be 2017 09bd cb13 86be 3628 34bf
000000c0: 10e2 6bbe 8c9c d4bc 1b25 a3be a264 9d3e
000000d0: d633 35be 5ba0 5fbe 0623 83be e7f2 13be
000000e0: f345 08bf 8faf d73d d0a6 18bf 14d1 413d
000000f0: a23f 05be 357c 00bf c239 17bf 1bf9 c23e

bn4.running_var f4 [64]
0.048829388 0.13243183 0.114480615 0.05243661 0.16901192 0.043411087 0.10299074 0.10625744
0.046776354 0.14583619 0.09411728 0.03555258 0.052313883 0.14941277 0.0072491574 0.047287285
0.09573655 0.083389014 0.023103913 0.28001124 0.05812797 0.079691514 0.07828617 0.089609735
0.26899207 0.099367924 0.10206368 0.14655404 0.04844192 0.012627167 0.01666032 0.0394137
0.30225036 0.047436953 0.066819064 0.020820012 0.073996976 0.09679281 0.03188021 0.14662254
0.097299956 0.1348885 0.03538222 0.080270976 0.045386348 0.050247155 0.023256648 0.13878539
0.039620914 0.044515643 0.12821366 0.13078552 0.05781261 0.12795232 0.12235507 0.048408847
0.10464143 0.039997295 0.054898083 0.015635557 0.06146998 0.027726972 0.045799583 0.052313708
00000000: 5301 483d 369c 073e d074 ea3d c5c7 563d
00000010: 7611 2d3e d3cf 313d cfec d23d 809d d93d
00000020: 9098 3f3d 1556 153e 8fc0 c03d 959f 113d
00000030: 1547 563d a9ff 183e 578a ed3b 50b0 413d
00000040: 8611 c43d dcc7 aa3d 6b44 bd3c a25d 8f3e
00000050: 9817 6e3d 4e35 a33d 8054 a03d 4f85 b73d
00000060: 54b9 893e 6981 cb3d c306 d13d 4312 163e
00000070: 096b 463d 2de2 4e3c 397b 883c 4370 213d
00000080: 8fc0 9a3e 404d 423d 6fd8 883d bb8e aa3c
00000090: ba8b 973d 4f3b c63d d394 023d 3824 163e
000000a0: 3345 c73d 3620 0a3e f2ec 103d 1c65 a43d
000000b0: 09e7 393d f6cf 4d3d ba84 be3c c21d 0e3e
000000c0: 8a49 223d 0956 363d 714a 033e a4ec 053e
000000d0: eacc 6c3d ef05 033e 4c95 fa3d 5b48 463d
000000e0: 3f4e d63d 34d4 233d d0dc 603d 2416 803c
000000f0: f2c7 7b3d ad23 e33c 5898 3b3d e646 563d
