ckpt_response/ckpt-t-cr3-deepsc-t10db-rt-awgn.pth (torch, 766247 bytes, 46 tensors)

conv1.weight f4 [16, 3, 3, 3]
00000000: 998c 9a3d f009 d43d e46c 2a3e ec91 e0bd
00000010: 8665 583e e052 f7bd 6083 44bd 5535 41bd
00000020: 64d3 38bd 9892 bb3b 8e83 b4bd fc56 013d
00000030: 2249 70bd 2bbd 323e 53d3 c5bd fa8d 52bc
00000040: 0615 5abd b7cc 8d3b e00a aebc 7a08 33be
00000050: 067f 9fbd 6b9f 613d 3fed 783e 057f 63bd
00000060: 7627 203d 828e 273d 736d 063d 9290 78bd
00000070: d949 23be 8dd5 f3bd 1b7c 08be 5588 2dbe
00000080: b0fe 10be 61d2 bbbb cd39 e33d ebe1 b0bc
00000090: d9e9 f3bc 528d b1bd 62f6 d1bd 3793 05be
000000a0: b763 a0bd 6492 8dbd 7d66 a4bb f1bf 613d
000000b0: 45fc cabc 10b0 973d 3c96 2d3d 235b 2b3d
000000c0: c4f4 9c3c bc5d 99bd f183 803d f2b9 133d
000000d0: 13c5 de3d 0563 323c 6bd1 41bc 6897 e6bb
000000e0: f6af bd3c 0e6c 42bd dd07 c53c be39 e23b
000000f0: d6b5 5cbd eb86 b23d 28ca 10bd ac93 abbb
00000100: 09e0 773c 65d6 d53b 7671 5bbd 9409 303e
00000110: a8b3 083e 4f99 1bbd 8920 cb3d fef6 f53b
00000120: b500 75bd 1b37 e6bc cc14 4a3d 81d1 62bd
00000130: 7245 c73e ffcb d43e dd2b e2bd 7747 083e
00000140: 2545 633d c1ba 763d 0462 183e 4b5e 1a3e
00000150: 6a2a 493e 94f7 3b3e a604 423e ed12 63bc
00000160: 30f0 dcbd d0b9 8d3c 414d 1e3d 9430 1d3e
00000170: ee21 003e 82b4 073e eb0b 013e cb9e 983d
00000180: c80c 02bc 2ef4 7abd a80c c13c 83da d5bd
00000190: 7cee 19bd 2730 a6bd 2ed2 153b adb4 213d
000001a0: be4b 68bd 0c64 29bd 175e f0bd 8018 12bd
000001b0: 6196 0a3d ffed 5b3c 3584 3fbd f95c ff3d
000001c0: 26e2 053d 9137 f0bc 2b88 c8bb abf2 55bd
000001d0: 8355 24bc a00b 403d a531 4e3d f58f 843b
000001e0: f0d1 503e 2695 933d 720e dabc 48d0 9f3c
000001f0: a2fd 8fbc 870a 68bd 488b cf3d 98be 5d3e
00000200: e5d8 c4bb 5f3a e53e 8207 6e3e 638a b03c
00000210: 1f9a a43c 0c65 fabc 7a2f 9e3b e32a f83c
00000220: 970b 34bd 9961 ad3c 05b8 60bd 5cf6 81be
00000230: 87cb a9bd 10e1 c43d 2976 313e 2624 103e
00000240: 281a 5f3c cf05 efbc 0917 a03d 7475 bcbd
00000250: 62ab 23be 6a70 c3bd 5f0e 503d 6311 0b3e
00000260: 76e7 dc3d 77fe 593b beb2 19bd 77bc 80bd
00000270: 5d5b 96bd 7a26 173c 2050 babd 8ffc 153b
00000280: e300 863e aab8 b9bb cae5 b1bd f386 b43d
00000290: a064 45be c564 0f3e baff 0d3e 6e85 9fbd
000002a0: aa7a 013c 805a ee3c 5426 953b 9da6 43be
000002b0: a3d0 93bb b53b 76be 7c3a 56bd ce69 5e3d
000002c0: 51d9 a1bd d176 13bd be5b e2bc b2c3 6cbc
000002d0: 5001 b5be b29a a7bd 024a 40be 663c 41bd
000002e0: 07e5 9e3b 4f5f 05bd ac33 173d e29c 91bc
000002f0: 7a5c 2e3d 93f9 63bd e34c a73b 01dd 3fbc
00000300: 6a4e a13d 7795 bf3d 4c5c fe3d 0bc9 d53d
00000310: 8b13 53be a5d0 9dbd b6d4 1cbd 5064 8d3d
00000320: 718a a2bb 1bdf 903d 1bc8 7dbb 8e9e ab3d
00000330: 3644 1d3e 3c8a 2bbe 65c0 dcbd 2471 1e3d
00000340: 4bb5 a63d e0f1 45bd 96c8 47bd 9ca0 55bd
00000350: dfdc 31be 2f47 f73c 6a1e 61be 0744 83be
00000360: a211 01bd a9d3 383d 8dbc 273c fef1 d3bd
00000370: ce05 413d 05e3 733c 8a8c 97bc b119 4a3d
00000380: 6cf3 ca3c 7bc6 d3bd 9a8c c53c ab25 d53b
00000390: d68f 89be ec8d c7bc bc2c b23b 38b7 e1bd
000003a0: d72c 24bc 6444 46bc a07b 473d 129c 75bd
000003b0: 894d d5bb e0e0 18bf 0902 1fbe 694b abbd
000003c0: b487 a6bd ad58 bbbd 0a25 8d3c c17e 6fbc
000003d0: 145d 283c 6e64 9c3c 30a1 dcbd 2dc5 05bd
000003e0: 2985 0a3d 0d9f 31bc 0974 1c3d 8293 263c
000003f0: 95e9 70bd 1dfc 81bd fd69 023d fbfa 2fbe
0.07546348 0.10353458 0.16643101 -0.109653324 0.21132478 -0.12076354 -0.04797685 -0.047170002
-0.045123473 0.0057242624 -0.088141546 0.031577095 -0.058663495 0.17454974 -0.096594475 -0.012851233
-0.053242706 0.0043273824 -0.02124542 -0.17483702 -0.077879 0.055083673 0.24309252 -0.055541057
0.039100133 0.04090739 0.032819223 -0.060684748 -0.1594614 -0.11905966 -0.13328592 -0.16946538
-0.14159656 -0.005731866 0.11095009 -0.021592101 -0.029774593 -0.08669533 -0.10252072 -0.1304444
-0.07831519 -0.069126874 -0.0050171004 0.05511469 -0.024778495 0.07406628 0.042379603 0.04183496
0.019159682 -0.074885815 0.06275166 0.036066003 0.10877433 0.010887866 -0.011829714 -0.007037092
0.023155194 -0.04746633 0.024051601 0.006903856 -0.05388435 0.0871714 -0.03534904 -0.0052361097
0.015129098 0.006525802 -0.053575 0.17191154 0.13349783 -0.037988003 0.09918315 0.0075062504
-0.059815127 -0.028102448 0.04933624 -0.05537558 0.3892017 0.41561887 -0.110435225 0.13308512
0.055485863 0.060236696 0.1488114 0.15075032 0.19645086 0.18356162 0.18947086 -0.013859493
-0.10788 0.017300516 0.038647894 0.15350562 0.12512943 0.13252452 0.12602203 0.07452162
-0.007937618 -0.061268024 0.023565605 -0.104420684 -0.037580952 -0.08114653 0.0022860873 0.039478946
-0.05671286 -0.041355178 -0.11736696 -0.035667896 0.03383482 0.013423442 -0.04675694 0.12468905
0.032686375 -0.029323371 -0.006119748 -0.05223338 -0.010030153 0.046886086 0.050340313 0.0040454813
0.20392585 0.07206182 -0.026618216 0.019508496 -0.017576996 -0.056650665 0.10133988 0.21654737
-0.006007301 0.44771096 0.23245052 0.021550363 0.020093022 -0.030565761 0.004827437 0.030293887
-0.043956365 0.021164702 -0.054862995 -0.2538327 -0.08290773 0.0961324 0.17330231 0.1407629
0.013617076 -0.029177574 0.078168936 -0.0920209 -0.15983346 -0.09542926 0.050794955 0.13580851
0.10786335 0.0033263245 -0.037523977 -0.06285947 -0.07341645 0.009225482 -0.09097314 0.0022886132
0.26172552 -0.0056677656 -0.08686407 0.08814802 -0.19276667 0.14003284 0.13867083 -0.077891216
0.007902781 0.029095888 0.004551688 -0.19106527 -0.0045109554 -0.24046214 -0.05230187 0.054300122
-0.07902778 -0.036001984 -0.027631637 -0.014450954 -0.35352564 -0.08183803 -0.18778232 -0.04717674
0.0048490795 -0.032561596 0.036914513 -0.017775003 0.04256866 -0.055657934 0.005105601 -0.011710406
0.078762844 0.0935468 0.12419948 0.104387365 -0.20612924 -0.077058114 -0.038288794 0.06903899
-0.004960351 0.07073804 -0.0038724008 0.08379851 0.15358052 -0.16751951 -0.10778884 0.038682118
0.08140048 -0.048326373 -0.048775278 -0.052155122 -0.17369412 0.03018531 -0.21984258 -0.25637838
-0.031510957 0.04512373 0.010237825 -0.10348891 0.047124676 0.014885669 -0.018499631 0.049340907
0.024774276 -0.103405915 0.024114896 0.0065047345 -0.2686755 -0.024359666 0.0054374617 -0.11021274
-0.010020456 -0.0121012665 0.048701882 -0.059963293 -0.006509487 -0.5971813 -0.1552812 -0.08363993
-0.08131352 -0.09147773 0.017229576 -0.014617623 0.010276098 0.019090857 -0.107729316 -0.032658745
0.033818398 -0.010841143 0.038196597 0.010167005 -0.05881651 -0.06346915 0.03183936 -0.17185585

bn1.weight f4 [16]
00000000: 4920 c53d ed1f 453e 17e0 263e 7159 3e3e
00000010: 4c4d 533e f56e f63d f58d 1d3e ce3d 0b3e
00000020: 8557 683e b030 493e 1a4e 2b3e 66be 373e
00000030: 34bf 103e daaa 453e f69a 453d add2 5d3e
0.096252985 0.1925046 0.16296421 0.18588807 0.20634955 0.12032882 0.15386184 0.13597795
0.22689636 0.19647479 0.16729012 0.17943725 0.14135438 0.19303456 0.048243485 0.21662398

bn1.bias f4 [16]
00000000: 1bbb 8f3e 14f3 2e3d a0ab 4a3d 0f87 23bd
00000010: 7a9d 1fbe b1a1 a03d e5f3 983e 3f85 a6bd
00000020: a90f 8dbd 7c39 193e d0c6 183d 6540 ba3d
00000030: e8fa a33d e438 c7bd b119 783d db5e 2dbd
0.28072438 0.042712286 0.04948008 -0.039923724 -0.15587416 0.0784334 0.29873577 -0.081308834
-0.068877526 0.14963335 0.037298977 0.090943135 0.08006841 -0.09727648 0.060571376 -0.04232679

bn1.running_mean f4 [16]
00000000: be9f b23d 8ffd d2be df2b 013f 82dc f83e
00000010: dac1 1b3f d133 8a3b d9fe 01bf be36 66be
00000020: 3cb2 25bf d520 06bf dc49 e73e a8da 673e
00000030: 7d5c 9f3a 54c1 6bbe 4eb0 ef3c 78fd cbbe
0.08721875 -0.41209075 0.50457567 0.48605734 0.6084267 0.004217603 -0.5077949 -0.2248182
-0.6472509 -0.5239385 0.45173538 0.22642004 0.0012158301 -0.23022968 0.029258873 -0.3984182

bn1.running_var f4 [16]
00000000: a3df 563b 2ee8 313d 9990 aa3d 8cc1 7a3d
00000010: 7df3 ee3d 5c19 593c 54a8 b23d 8b15 fc3c
00000020: 2237 083e a461 b03d 6e2f 873d 9842 8e3c
00000030: 731a 3b3c e5fe 933c 22d7 1e3b 023c 533d
0.0032787106 0.043434314 0.08328361 0.061219737 0.116675355 0.013250675 0.08723512 0.030771991
0.13302281 0.086123735 0.06600843 0.017365739 0.01141988 0.01806588 0.0024237116 0.0515709

conv2.weight f4 [64, 16, 3, 3]
00000000: c939 6cbd 4f18 9cbb 7e87 6dbc 6f87 f2bd
00000010: 9d23 2f3d 6ca0 f73c 0a9d 54bd 900e ca3d
00000020: 36b1 b4bd 12b0 61bd 6c96 633c 2f38 6bbd
00000030: ad6c 27bd 0a36 793d 0dd6 b43b 93c3 37bd
00000040: 30d1 713c 719f 80bd 586b 7cbd 0329 1bbc
00000050: d634 9bbc c946 54bc 1a10 483e bd58 86bc
00000060: e8f7 b6bd e463 243e ccc4 d0ba 3760 e23d
00000070: bb66 863c 8dbf a73d c799 a7bc 2f09 c2bd
00000080: de07 9abc 4b24 3ebd df7d cdbd 8d01 cebd
00000090: 32c4 0bbd 9e65 88bd bc4c a8bd 3cac a6bd
000000a0: cfc8 9bbd 7857 8d3d e5eb aabd 5c9c 473d
000000b0: b1e7 353e 0e6c 87bd 5a8f 96bc 6d1f e5ba
000000c0: d25b 49bd 6328 a03d e06c e93c f669 0b3d
000000d0: 4a2f bb3d c273 30bc 2e7e 8abb f58d a33d
000000e0: ace7 773d 5dd4 2fbb 4566 ae3d ff64 033d
000000f0: 48c8 fc3c d527 08bd ca0d a4bd 1639 103e
00000100: f195 743d 9a47 7d3d 742f fe3d f8ce 43be
00000110: fb9b 233c a6d9 8ebb 1cf4 bcbd be1b c9bb
00000120: 1b91 d5bd ade4 4a3c 10a6 99bd 0a0c 563b
00000130: 0015 b2bd dd7d 26be e3e3 b1bd 206c ddbd
00000140: 4165 73bf 9645 193d 8f8e 053d 16e0 843d
00000150: 69e2 313c 6c55 68bd 5e40 9cbe a5bb 133e
00000160: 3572 55be 1fe2 05bf c51a d3bc d582 12bc
00000170: 51b1 d0bd ae3c a03c 19b0 1bbd c78b d8bd
00000180: 67aa 2ebd 5a09 813c 885d a5bd 198b 0abd
00000190: 81cf 16bd adc9 823d e127 9e3d 3771 64bb
000001a0: 3a77 c13c 6e45 8f3b b2a4 963d 9b99 663b
000001b0: 4088 57bc 8c63 d1bc 5ad8 883b 2c91 edbd
000001c0: a28f 00be 80ca 9a3c f797 87bd 0a2a 9f3c
000001d0: 1332 dd3d f1e8 463d 3da6 c73d bada 97bc
000001e0: 55ea 803c ecce 9d3d c4d6 8c3c 6ee6 cd3d
000001f0: 34a7 ed3c 4e02 42bc 78cf d83d fb53 4fbd
00000200: 93ec eabd 3519 f03c 911f f3bd c40a 4ebd
00000210: 539f 1fbe b44f 6ebd 6384 50bd 7cff 543d
00000220: 8487 f73a 78f8 7c3c e617 3c3c 73b5 21bd
00000230: 6c2f 95bd dfa4 99bb 1a06 7cbd aec4 edbd
00000240: c2ae 97bd a138 5f3c c9bb dcbc 8475 a6bc
00000250: 5b13 e8bb 6e7a 7ebc 9396 d9bd 2c1d 913d
00000260: f10e cd3d 64f4 163d e490 a33d 5b31 8cbd
00000270: f338 143e 0b83 acbc d253 71bd e0e2 313e
00000280: ccc2 67bc c412 89be 952f bdbd 1144 71bd
00000290: b723 813d 61d7 ccbd 0e9e e03d fbdd 193d
000002a0: 1231 4dbc 1678 dabc e0bf 34bc f6e5 383c
000002b0: 940a 91bc a569 e3bb ffb2 bbbd 4799 3c3d
000002c0: 8e57 8d3d 39b1 3ebe 2d2d 223d 2269 683e
000002d0: 073d 6b3d bc08 5fbd 2825 3fbe bb53 bd3c
000002e0: 7288 02be f012 d8bd 0822 1c3d a416 97bd
000002f0: 21c3 383c ab73 bc3a 085f ab3b c874 1cbd
00000300: 2d92 96bc 6085 18be 675c 083e 5a24 f8bc
00000310: 411c cdbd e5c0 8abd 2620 9ebd d5d3 e1bc
00000320: 7e08 3dbc 82f9 c73d 0111 3ebe 8886 5cbd
00000330: 4197 29bd b515 abbe 71b2 63bd c4c0 20bd
00000340: 05cb 193e 838d febd 29a1 5abe de12 3f3c
00000350: b5c3 abbd efbe 11be 8c70 4dbc 0a35 753c
00000360: 325f 4bbc dfd1 3fbd 3bf4 ee3c ffc6 ea39
00000370: 04fa 933c 1bbb 163e c116 02be f142 7ebc
00000380: 30ff 953d f11a b53c 16e1 4d3d 30f1 293d
00000390: 49f8 8f3d d08a 073d a72a 9a3d 494a 983d
000003a0: fa53 5e3c 2ddd 223d 2783 e73c 37c5 dcbc
000003b0: 0043 de3d b656 f8bc 69d8 52be 9bd8 213e
000003c0: e69a 823d ab01 bbbd e23c c13b 5805 d2bc
000003d0: c4a3 af3d 3f5a 4ebc 0a5c 2bbe c114 19bd
000003e0: d239 323e cba8 81bd 92c8 a4bd e50f ba3d
000003f0: 008a ecbd 4c3a fabd 2ae7 dabd 60d1 993e
-0.057672296 -0.00476364 -0.014497636 -0.11842238 0.042758573 0.030227862 -0.051907577 0.09866059
-0.08822863 -0.055099554 0.013890844 -0.057426628 -0.040875126 0.06084255 0.005518681 -0.04486425
0.014759347 -0.06280411 -0.06162581 -0.009470227 -0.018946093 -0.01295633 0.19537392 -0.016399736
-0.08934003 0.1605373 -0.0015927791 0.11053508 0.016406408 0.08190832 -0.020459069 -0.09474408
-0.01880258 -0.04642133 -0.10033774 -0.100588895 -0.034122653 -0.06660007 -0.08217761 -0.0813832
-0.076066606 0.06901449 -0.083457746 0.0487331 0.17764165 -0.06612407 -0.018378902 -0.0017480679
-0.049159832 0.07820203 0.028494298 0.0340366 0.09139879 -0.010769786 -0.0042264676 0.079860605
0.060523674 -0.002682946 0.085156 0.03207874 0.03085722 -0.03324111 -0.080104426 0.14084277
0.059713308 0.061835863 0.12411395 -0.19121921 0.009985919 -0.004359442 -0.09226248 -0.0061373403
-0.10428067 0.012383622 -0.07502377 0.0032660984 -0.08695412 -0.1625895 -0.08686044 -0.10811639
-0.95076376 0.037419878 0.032606658 0.064880535 0.010857203 -0.05672209 -0.30517858 0.1442705
-0.20844348 -0.5229816 -0.0257696 -0.008942326 -0.101900704 0.019560184 -0.038009737 -0.105735354
-0.042642977 0.01575153 -0.0807448 -0.03382406 -0.036818985 0.06386123 0.0772245 -0.003485752
0.023616422 0.0043722903 0.07355632 0.003518677 -0.013155043 -0.025560163 0.0041761817 -0.11599955
-0.12554792 0.018895388 -0.06620782 0.019429225 0.108005665 0.048561994 0.09748504 -0.018536914
0.015736738 0.07705483 0.017192252 0.100537166 0.029010393 -0.01184137 0.105864465 -0.0506172
-0.11470904 0.029308895 -0.11871255 -0.050303236 -0.15588121 -0.05818148 -0.050907504 0.05200146
0.0018884991 0.015440099 0.011480307 -0.039479684 -0.07284436 -0.0046888436 -0.061529256 -0.11609779
-0.07406379 0.013624341 -0.026945012 -0.020319708 -0.0070823855 -0.015532119 -0.10624423 0.07085642
0.100126155 0.036854163 0.0798662 -0.06845351 0.1447485 -0.02105858 -0.058917828 0.17371702
-0.014145564 -0.2677213 -0.09237591 -0.058902804 0.0630564 -0.10002018 0.109676465 0.037565213
-0.012523906 -0.02666859 -0.011032075 0.011285296 -0.01770524 -0.006940084 -0.09165 0.046044614
0.06901465 -0.18622293 0.039593864 0.22696355 0.057431247 -0.05445169 -0.18666518 0.023111215
-0.12747362 -0.10550487 0.038118392 -0.07377365 0.011276991 0.0014377733 0.0052298345 -0.03819731
-0.018380249 -0.14894629 0.13316499 -0.030290771 -0.10015155 -0.06775073 -0.077209756 -0.02756683
-0.011537669 0.09764387 -0.18561174 -0.053839236 -0.041404013 -0.33415 -0.055590097 -0.039246336
0.15018852 -0.12429335 -0.2135054 0.011662213 -0.083869375 -0.14232992 -0.01253904 0.014966259
-0.012412833 -0.046831008 0.029169193 0.00044780222 0.018063553 0.14719813 -0.12703992 -0.01551889
0.07324064 0.022107573 0.050263487 0.04148978 0.070297785 0.033091366 0.075276665 0.07436044
0.013569826 0.03976171 0.02826078 -0.026949508 0.10852623 -0.030314784 -0.20590366 0.15805285
0.06377201 -0.091311775 0.0058971504 -0.025637314 0.08576158 -0.0125947585 -0.16734329 -0.037373308
0.17404869 -0.06331023 -0.08046068 0.09085063 -0.11549759 -0.122181505 -0.10688622 0.30042553

bn2.weight f4 [64]
00000000: f208 c93d a1ec bf3d 61f1 703d 37b2 803d
00000010: 043a 243e 26ef ca3d 520f 353e d7ca 0f3e
00000020: 1430 903d 65b1 683d bccd 973d ea2e 7d3d
00000030: cc0b 563e 2031 e33d c24a 563d 216c 393e
00000040: 83ed 4f3d 5da1 f83d 72c9 5f3e c525 1c3e
00000050: f343 0d3e 9495 013e 069d 853d a50a 183e
00000060: 5d56 bb3d dedb 0a3e a1e8 393e a9b9 cc3d
00000070: 27e1 053e 2e6b 103e 281f 263e 3f2e df3d
00000080: 42d1 263e a3bb c63d a350 6b3e ee51 e33d
00000090: 6f8d 193e b84f e43d 73c4 3e3e 8150 d13d
000000a0: 2aee 413d 8ed5 1d3e 27f1 273e 0a65 273e
000000b0: 3d0a 5b3e 70a6 643d 6759 4d3e 9fda 143e
000000c0: b571 9e3d addc 0f3e cb03 1d3e defd b63d
000000d0: 1b33 0a3e 7ba7 8a3d 4e54 8b3d 4a2c 123e
000000e0: 9135 923d 35c2 713d 1908 a53d 810b c23d
000000f0: 463b 343e 3354 523e 2348 4b3e 19ea f33d
0.09816159 0.09371305 0.058823947 0.06283992 0.16037756 0.09908895 0.17681625 0.14042221
0.0704042 0.0568098 0.074122876 0.06181232 0.20902938 0.11093354 0.05231739 0.18107654
0.05076362 0.121401526 0.21854189 0.15248783 0.13795452 0.12654716 0.065240905 0.1484781
0.09147332 0.13560435 0.18155147 0.09996349 0.1307417 0.14103386 0.16222823 0.108974926
0.16290763 0.097037576 0.22979979 0.11099611 0.14995359 0.11148018 0.18629627 0.10220433
0.04734627 0.15413496 0.16400586 0.16347137 0.21390624 0.05582279 0.20053636 0.14536522
0.07736532 0.14049025 0.15333478 0.0893514 0.13496058 0.067702256 0.06803189 0.14274707
0.07139123 0.0590231 0.08058185 0.094748504 0.17600736 0.20539932 0.19851737 0.11909885

bn2.bias f4 [64]
00000000: 2c1d 153b 9be7 373d 3ff5 c63d f025 343c
00000010: 268d 1bbd 0097 023d 8929 49be 2088 99bb
00000020: 2519 00bd 99c3 f13c d5f3 3d3d 2f4d 843d
00000030: c1b3 2f3b 7a2b 82bd fb70 dc3c dbdc 28be
00000040: 8591 e13d 8da2 983d 1596 b1be 7306 a9be
00000050: f088 7abe 1810 e4bb a558 dbbc c31a 24bd
00000060: 1840 593d 7ea6 233d 8688 69be 9193 13bd
00000070: 994e 7e3b 2a66 7e3b f2ef 82be 6cd7 893d
00000080: 8afa a3bd 2fec 013d b96f 65bc 6648 e3bd
00000090: 377f b6bd d2cf 93bd 8459 eebd 70a2 4b3d
000000a0: ff90 b13d 2c94 c0be 236a 57be 3488 b33d
000000b0: ce66 86ba d643 da3d e9a7 593c 056b a73e
000000c0: ae29 953d b9fd 34be 2fba 2dbe 3e66 8b3d
000000d0: 4434 19be 9d62 ad3c b7e7 cf3d 38ea c1bc
000000e0: 6be4 5d3d 5b71 403d c753 983d c4b2 22bd
000000f0: f8a1 48be d8a4 ecbc 4200 e9bd 9e93 9bba
0.0022752983 0.04489861 0.09714746 0.010995373 -0.037976407 0.031882286 -0.1964475 -0.004685417
-0.03127398 0.029512214 0.046375114 0.06460034 0.0026810023 -0.06355949 0.026909342 -0.164905
0.11014084 0.07452879 -0.34684816 -0.33012733 -0.244663 -0.0069599263 -0.026775667 -0.040064584
0.05303964 0.0399537 -0.22805986 -0.036029402 0.0038804172 0.0038818219 -0.2557369 0.067305416
-0.08006771 0.031719383 -0.014003688 -0.11097793 -0.08910983 -0.07217373 -0.116381675 0.04971546
0.08670234 -0.37613046 -0.21036582 0.08766213 -0.0010254027 0.1065747 0.013284662 0.32698837
0.072833404 -0.17674913 -0.16965555 0.068066105 -0.14961344 0.021165187 0.10151618 -0.023671255
0.054172914 0.046983104 0.07437854 -0.039721265 -0.19593036 -0.028887197 -0.11377002 -0.0011869555

bn2.running_mean f4 [64]
00000000: 2a7a 63be 757e fcbd 2637 f83b 8bca e63e
00000010: d765 433c 7631 f9be 17dc f33e b9f8 2dbf
00000020: 19ae 5cbe 5492 eb3c 5e0d 213e a3fd 98be
00000030: 9daa aabd 4bda 333e 2ba6 2f3f e07d 373e
00000040: bc8a 5b3d 4a24 b83c 0811 0f3d 48db 703e
00000050: 7b98 733e 2677 8b3e 3efd 013e 8eae 08be
00000060: 01cd 05bf 0ec5 c6be 5444 58be 5125 9fbe
00000070: da72 bdbc 593d 323e b362 b83d 53ad 25be
00000080: 67e2 72bd 51b1 0abf 6fbb a13e 0f95 97bd
00000090: cfec b73e e4db d83d 714a 86be 5981 383c
000000a0: d969 8ebe 11b5 093f 2482 103f 88e4 133e
000000b0: 2715 99be b3c7 3b3e 65d9 dfbe bb7f 06bf
000000c0: c59a 033e 91e1 d6bc 1ffd bd3d 7900 0d3b
000000d0: 458c ab3d da9a d43e 60ad fd3d 42bb c83d
000000e0: 6aec 0a3e 2487 843e b78a c1be 811c abbd
000000f0: 469c 9f3e 7fdd c63e b611 373d 2f76 f6bd
-0.2221457 -0.12328807 0.0075749336 0.45076403 0.011926136 -0.48670548 0.47628853 -0.67957646
-0.21550788 0.028756298 0.15727755 -0.2988101 -0.08333323 0.17563741 0.6861293 0.17919111
0.053599104 0.022478241 0.03492835 0.23521149 0.23788635 0.2723934 0.1269426 -0.13347837
-0.52265936 -0.38822216 -0.21119815 -0.31083158 -0.023126055 0.17406215 0.090032004 -0.16179399
-0.059297945 -0.54176813 0.31588313 -0.074014775 0.35922858 0.10588816 -0.2622867 0.011261308
-0.2781513 0.5379191 0.5644858 0.14442647 -0.2989895 0.18337898 -0.43720546 -0.5253865
0.12852009 -0.026230605 0.09276795 0.0021515174 0.08376364 0.41524392 0.12386584 0.098013416
0.13566747 0.25884354 -0.37801144 -0.08355046 0.31173915 0.38840863 0.044694625 -0.120342605

bn2.running_var f4 [64]
00000000: 915e 853d 1f89 be3c 100e d33a 2f62 3d3c
00000010: 8999 a63c edcb 813a 1b89 4c3c 2c8e 7c3e
00000020: da61 db3c bf51 8b3b 888e 003d 6eef 123b
00000030: 0e47 c43d 6ae4 373d 83dd a83a 79f2 303d
00000040: d1c8 023b 127f 843c ce66 093e 5ce8 bf3d
00000050: 4869 e33c 2af9 ee3c e6db ac3c 8c0e 893c
00000060: e178 eb3c 3437 363a f1c9 5e3e 3e69 8a3b
00000070: 049d bf3c ee9d 9a3c 1925 183e 2c99 793c
00000080: 3a0e 1a3e 64d7 c13c 1028 113e 898e a03d
00000090: 9f66 883c b907 5c3c b549 4e3e 4061 483d
000000a0: 485b a33a 35fa 203c 7340 a93d e2a4 1d3e
000000b0: 49ce 073e 4102 9e3b 7e7d bb3d 411d ad3d
000000c0: cf12 b53b aeee fa3d 8a70 633c b7b4 483c
000000d0: ea5f 063c 59b0 2f3c 2b45 9d3b 66ab 9c3c
000000e0: 9b10 573c 6e27 9c3b 8abd 983b 550e b13c
000000f0: eae1 483c 1a30 f53d 236b 2f3e 7425 9f3c
0.06512178 0.023258744 0.0016102213 0.011559053 0.020336883 0.0009902694 0.01248386 0.2466361
0.026780058 0.0042516883 0.03138593 0.0022420543 0.09583865 0.044895567 0.0012883398 0.04319999
0.0019956122 0.016173873 0.13418123 0.09370491 0.027760163 0.029171545 0.02110095 0.01673057
0.028744163 0.0006950975 0.21756722 0.0042239716 0.0233903 0.018874135 0.14857902 0.015234273
0.1504449 0.023662277 0.14175439 0.078396864 0.016650496 0.013429576 0.20145305 0.04892087
0.0012463117 0.009825279 0.08264246 0.15394929 0.13262285 0.004822046 0.09154795 0.08452845
0.005525924 0.12252556 0.013881812 0.012250117 0.008201579 0.010723197 0.004799505 0.019124698
0.013126518 0.0047654426 0.0046612667 0.02161328 0.012260893 0.11972065 0.17130713 0.019427039

conv3.weight f4 [64, 64, 3, 3]
00000000: 7557 36bd 6582 dbbc 7279 533d 5936 a239
00000010: a3d6 82bc 7f9b d73d 4aab 5ebe 1e31 8b3d
00000020: 55e1 4a3d 1d01 0a3c a27c a9bd 7bac 42be
00000030: ccae 433d 7dc6 abbb 19b4 b3be d256 713d
00000040: 7959 f3bd 1d33 aebe 1856 20bb 842e d2bc
00000050: ee85 8bbd 5776 1c3d d67e 5fbb 78f0 22be
00000060: 9eb5 ee3c 4605 9c3c 9958 85bd 58cc 093e
00000070: 7519 b5bd 6c3d 1a3e ec98 9f3d 6e29 a93d
00000080: 42d4 0f3e 23a5 a43e fd03 4b3e 6644 1d3e
00000090: 6608 0e3b 7dab 05be d982 bbbc 60c2 10bd
000000a0: 9364 993d e6e0 abbd 3480 7c3d ad6f babd
000000b0: 93c6 54bc 8c79 a03d 971a c53c e54d c53b
000000c0: 2ee8 92bd 29f4 55be aa6b 66be 9a07 9fbc
000000d0: 8091 eebb bca2 5e3d 6f19 02ba 5558 853d
000000e0: 6622 e1bc ca46 3e3d 3ce3 bfbd 231e 12be
000000f0: 95a1 d6bb 10f7 4ebe 0bbc 42bd ce22 20bd
00000100: 0f9c 97bd 4d6c d73a 1d7d c1bd e23e c3bd
00000110: 09e5 6a3d 651f debb a8f6 6c3a cfe3 543e
00000120: 6eb8 c9bc 1abb 983d dc97 54be e558 7dbe
00000130: 8837 d63c 9e66 80be 32f9 c63c 279d 7f3e
00000140: c070 ebbd d83b 43bd 5ee8 f6bc da85 0cbd
00000150: 2e84 003d 68f9 853e 1c4a 02bd c08d d3bb
00000160: 9ea5 a73d a7a3 663c df61 323d b363 4abd
00000170: 7c92 793d 7e89 ce3d 7115 42be 4cd3 0dbd
00000180: 29dd afbc fc2c bc3d 3e5e ed3d 0565 4fbd
00000190: 2c58 b73d 23d7 f6bb 3675 743c 1085 e03c
000001a0: c197 703d 7a4f e83b c004 babd 8a1f afbb
000001b0: 2a9a 3e3d 9772 b43c dba8 9b3d 6c57 58bd
000001c0: 5e3b 7bbd 7d72 773d 70f6 3ebc bcaf 19bd
000001d0: 096e 903d d8b4 f4bc ac92 7bbd a3e1 b2bd
000001e0: f5d6 85bd 4fc1 54be 5076 a23b 630c 26bd
000001f0: d460 f8bd 585b 913c f9c9 e73c 25ec 0ebe
00000200: 26ab b63d 59dc 82bd 5ba2 a33d dce9 ed3c
00000210: 43ca f4bb 08e7 7abc 2107 e3ba 3619 3a3d
00000220: bff1 f43d c495 0f3b 7232 833d a1f5 583e
00000230: a2b0 6f3c 043e 01bc 0894 de3d 790d b23d
00000240: 0b53 d93c 9162 0abe 4bd6 4ebd b6d4 77be
00000250: bb96 673b 0488 84bd 25f4 943d 995e 41be
00000260: 26ff 983c 6351 123e 8364 a9bd ea3f 2d3d
00000270: 1b44 5cbd 78d4 9abc 7bba 7dbd 5216 97bd
00000280: 33ae 95bd 5f51 a4bc c9b9 8a3b 5f84 a7bd
00000290: 06d6 663c 84ad 4bbe 9e44 93bd 5f5b bd3c
000002a0: 1b2a 00be 590d 0bbe 13d6 523d d4f1 c4bc
000002b0: 3fa4 b4bd 8c47 9cbd 57c1 05bd 33aa 0d3e
000002c0: 1925 c43e 133f 45bd 39bb b6bc e256 3c3e
000002d0: 148e 423d f629 363d 94e4 dc3c 9f70 ccbd
000002e0: 7e8c a0be cf2b 01be bd12 73bd 6ae4 12be
000002f0: 371e 91bd 9151 04bd 47bc 5bbd 0129 9cbd
00000300: 5e67 28be 9018 ddbd 9fff e2bd cde5 793d
00000310: 50cc 62bc 8a8d e7bd 3e63 f5bd ec98 cdbc
00000320: dd3c a8bd 62fa 403e 935a e63d baf0 89bb
00000330: 4d4f 75bd e933 153e 9d27 923d 5e6c b7bc
00000340: a05a ab3d 7f01 1b3d eef9 c5bc feb5 d9bd
00000350: 05bd 9bbd 1bcf 10be 1a39 37bd 15bf 28be
00000360: ab54 c1bd e614 bcbd 946e 83bd f37f 67bd
00000370: 99c2 2f3d a766 f53d 4a28 843c 78e3 763d
00000380: f7cd 3e3d 2c74 3bbd 1fc3 81bc f7f4 b73c
00000390: 1401 163d 339e 103d 3803 d8bd a012 803d
000003a0: f50d 44bd 9217 1d3d 364c b53d 3760 553d
000003b0: 77fe 853d f6af 9d3d 4988 3a3e c9fc d03d
000003c0: 79e9 b83d c05c 2c3e d477 f73d f07c bbba
000003d0: db79 063e 2654 d3bb 6389 54ba 1634 da3c
000003e0: a3c5 e03c 1116 abbb b5f0 f6bd 65b5 dc3d
000003f0: 5964 0abd 873c fcbd 5089 e1bd b4c3 23bd
-0.044517 -0.026795575 0.05162949 0.0003093954 -0.015971487 0.105277054 -0.21745029 0.06796478
0.0495313 0.008423117 -0.08275725 -0.19011109 0.04777412 -0.0052421675 -0.3509834 0.05892069
-0.118823 -0.3402337 -0.0024465378 -0.025656946 -0.068126544 0.038198795 -0.00341027 -0.15912044
0.029139336 0.019045483 -0.06511039 0.13456857 -0.08842746 0.15062493 0.077928394 0.08259855
0.14045814 0.3215724 0.1982574 0.15358123 0.0021672486 -0.13053699 -0.022889541 -0.03534162
0.07489886 -0.08392505 0.0616457 -0.09103332 -0.012986797 0.07835683 0.02406053 0.0060212486
-0.07173191 -0.20893921 -0.22502008 -0.019412804 -0.0072805285 0.054354414 -0.00049628963 0.065109886
-0.027482223 0.04645423 -0.093695134 -0.14269309 -0.006550024 -0.20211434 -0.047542613 -0.039095692
-0.07402813 0.0016435474 -0.094476916 -0.09533478 0.05734733 -0.006778645 0.000903944 0.20790027
-0.024624076 0.07457562 -0.20761055 -0.24740942 0.026149526 -0.2507829 0.024288747 0.24962293
-0.11496115 -0.047664493 -0.030140098 -0.03430734 0.031376056 0.26166844 -0.031808957 -0.006456107
0.08185886 0.014077104 0.04355037 -0.049411487 0.060930714 0.10084818 -0.18953492 -0.034625337
-0.021467762 0.091882676 0.11590241 -0.05063345 0.08952364 -0.0075329705 0.014920523 0.0274072
0.058738474 0.0070895525 -0.09082937 -0.005344336 0.04653374 0.022027297 0.07600566 -0.052817747
-0.061335914 0.06041192 -0.011655435 -0.03752111 0.070522375 -0.02987139 -0.061419174 -0.08734443
-0.065351404 -0.20776866 0.0049579516 -0.040539157 -0.121278435 0.017743751 0.02829455 -0.1395727
0.08919363 -0.06389684 0.07989951 0.029042177 -0.0074704005 -0.015313871 -0.001732085 0.0454342
0.11960172 0.0021909336 0.06406106 0.2118745 0.014629515 -0.007888321 0.108680785 0.08693976
0.026528856 -0.13514163 -0.050497334 -0.24202237 0.0035337645 -0.064712554 0.072731294 -0.18883742
0.018676352 0.14288859 -0.08271124 0.04229728 -0.053775888 -0.018900141 -0.06194542 -0.07377304
-0.073086165 -0.020058332 0.004233573 -0.08179545 0.014089113 -0.1989041 -0.07190822 0.023114858
-0.12516062 -0.1357931 0.05147369 -0.024041094 -0.0882039 -0.07630834 -0.032655086 0.13834457
0.38309553 -0.048155855 -0.022306072 0.18392518 0.047498778 0.04447361 0.026964463 -0.09982418
-0.31357187 -0.12614368 -0.059344042 -0.14344946 -0.07085841 -0.03230435 -0.053646352 -0.076250084
-0.16445681 -0.107957006 -0.11083912 0.06101017 -0.013842657 -0.11306293 -0.119818196 -0.025097333
-0.08214734 0.18845513 0.112477444 -0.004209605 -0.05989008 0.14570583 0.07136462 -0.02239054
0.08366895 0.037843224 -0.024167027 -0.106304154 -0.07604412 -0.14141504 -0.04473219 -0.16479142
-0.09439977 -0.091836736 -0.064175755 -0.056518506 0.042910192 0.1198247 0.016132493 0.060275525
0.046583142 -0.045765087 -0.015840111 0.022455676 0.036622122 0.03530712 -0.10547489 0.062535524
-0.047864873 0.038352557 0.08852427 0.05209371 0.06542676 0.076995775 0.18216051 0.10204465
0.090289064 0.16832256 0.12083402 -0.0014304202 0.13132422 -0.0064492403 -0.00081076304 0.026636165
0.02743799 -0.0052211364 -0.1205763 0.10776786 -0.033787105 -0.12316232 -0.110125184 -0.03998156

bn3.weight f4 [64]
00000000: 9939 a73d 0d65 f13d fa98 213e 77d9 403e
00000010: c4da 153e b13c db3d 78f1 833e da79 8b3d
00000020: ceaa 0c3e b316 353e a2f7 833d 1a76 bd3d
00000030: f4d5 bf3d 20fe 263e c61e 523e a4ad 473e
00000040: f587 0a3e 6c79 643d 68b0 fa3d f82c 483e
00000050: 735f f23d 69b2 b13d 8d01 293e fa20 6f3e
00000060: 4d27 9b3d f459 243e 45e6 9b3e 8c57 1d3e
00000070: d5eb 613e dee5 bd3d 9fc7 cd3d 5e3c 683e
00000080: 6af4 6f3d 33db ee3d 5339 513e da26 9f3d
00000090: 131f ca3d deaf 273e a19f 073e 15fe 213e
000000a0: 3a13 b83d 56bb 9c3d 2ae9 1d3e 4690 833e
000000b0: 0830 de3d b431 523e acee 4f3e deae 3d3e
000000c0: cd72 153e 5e1b 563d 28ab 023e 6b53 323e
000000d0: 6d25 a13d f76e 143e 3c9c c53d 987c 353e
000000e0: f475 943d 5fe0 813e 9af2 643d 5664 103e
000000f0: 4e11 aa3d 7ff8 613e 8305 6b3e 01fd 1d3e
0.08165283 0.11786852 0.15781012 0.18832956 0.14634234 0.10704935 0.25770164 0.06810351
0.13737032 0.1768444 0.064437166 0.09251042 0.0936698 0.16307878 0.20519552 0.19499832
0.13528426 0.05577986 0.12240678 0.19548404 0.11834612 0.08676607 0.16504498 0.23352423
0.075758554 0.1604994 0.3044912 0.15365428 0.22062619 0.09272359 0.1004784 0.22679278
0.0585827 0.11662903 0.20432024 0.07771082 0.09869208 0.16375682 0.13244487 0.15819581
0.08988042 0.07652919 0.15420976 0.2569601 0.10849005 0.20526773 0.2030589 0.18523738
0.14594574 0.052272193 0.12760603 0.17414634 0.078684665 0.14495455 0.0964894 0.1772331
0.0724906 0.25366494 0.055895425 0.14100775 0.08304082 0.2206745 0.22951321 0.15428545

bn3.bias f4 [64]
00000000: 0a5d 3c3d 49d0 083c 1a6a a8bd ec18 433d
00000010: ff13 40bd 4c78 053e 5624 3abd 7f41 3d3e
00000020: e6bb 763d 1661 dbbd ef3d 603e bc4f 883e
00000030: 9b3a 7d3d eb24 163d de6b b1bd c881 1ebe
00000040: 947a b9bd a864 863d e4c6 ef3d 82de 8c3d
00000050: 3752 523d 221c 7f3d 0e11 743d 9853 973c
00000060: 43c1 df3d 752b dbbe 6064 fdbe 820b 01be
00000070: 5df5 9dbd 9228 953d 3a71 773d bddf 1cbe
00000080: 7d7f d83d 87f7 723d c59a 30be f0d3 633d
00000090: 8142 e33d a15a 7b3c 3099 e83c ea6e 163e
000000a0: f683 953c d2f2 053e 4fb2 51ba cf41 dbbe
000000b0: f214 503d 6bea adbd fbf6 5fbc 34ef 8b3c
000000c0: 6675 bbbe 4e9a 003e 813c 07be 5ad6 f2bd
000000d0: b71b af3c 485a ab3d 70b6 693d 6b2f 7cbe
000000e0: 3e08 4c3e 685a a5bc c368 cf3d bf6f e93d
000000f0: 9bc8 093e 213b 61be b32f d83c 86f3 23be
0.045987166 0.00835044 -0.08223362 0.04763119 -0.04689407 0.13034171 -0.04544481 0.18482016
0.060237788 -0.10711877 0.21898626 0.26623333 0.06182347 0.0366563 -0.08663152 -0.15479195
-0.09056583 0.065621674 0.11707857 0.068783775 0.051347937 0.06228269 0.059586577 0.018472478
0.109255336 -0.42806593 -0.49490643 -0.12602046 -0.07712815 0.07283129 0.060410716 -0.15319724
0.105711915 0.05931809 -0.1724654 0.05562204 0.11096669 0.015341432 0.028393358 0.14690748
0.0182514 0.1308091 -0.00079992873 -0.42823645 0.050801225 -0.08491977 -0.013669725 0.017081834
-0.36613005 0.12558863 -0.13206674 -0.118572906 0.02137552 0.08366829 0.05705875 -0.24627464
0.19925019 -0.02018471 0.101274036 0.11398267 0.13455431 -0.21995212 0.026389932 -0.16010866

bn3.running_mean f4 [64]
00000000: 00ea 6dbe 75e0 a6be 4edb 9cbd a9a0 2cbe
00000010: 8abf b5be bb2a 0ebf 66f8 99bc f5d1 153e
00000020: a28f afbe a8b8 c4bd 9a5a 22bd cbc2 51be
00000030: 99c1 0dbe 0e32 9c3d da75 bb3d c2bf 8bbe
00000040: a162 5dbe fc83 7bbe 6db8 bb3d 409e 663e
00000050: 4f3d 6cbd 5694 a9bd 3eb9 11bd d741 283d
00000060: 4afa e9bd 88ed 35be 94fa 0cbe cf95 91be
00000070: 3abd 813e 23d5 e43e ada2 51be 4f9d 2f3e
00000080: 0f44 54be 2e59 943d e710 a4be 3d1d bfbe
00000090: f8d5 96bd ffd4 b0bd 9fe8 de3e d9f5 25bc
000000a0: d071 17be 8d2b 67be 582e 6ebd 677d 0dbe
000000b0: 0958 513c b5a4 5e3d 231b 81bd 4e49 52bd
000000c0: 7c3b a6be 7bcc 64be e960 653c c127 2fbe
000000d0: 8761 bcbe 9951 073f 33db aabe bf4a cbbe
000000e0: e8ea 94be e8f2 273d b905 83be c667 8dbe
000000f0: 9793 08bf f02b 00bf bfe8 2cbd ffae c1be
-0.23233795 -0.32593122 -0.076590165 -0.16858162 -0.35497695 -0.5553395 -0.018795203 0.14630874
-0.3428927 -0.09605533 -0.039637186 -0.20484464 -0.13843383 0.07626735 0.09153338 -0.27294737
-0.21619655 -0.24562067 0.09166036 0.22521305 -0.057675656 -0.08280246 -0.03557705 0.041078415
-0.11424692 -0.17766392 -0.13767463 -0.28434607 0.2533968 0.4469386 -0.20472212 0.17149852
-0.20729087 0.07243572 -0.32044145 -0.37326995 -0.0736503 -0.08634376 0.4353685 -0.010129415
-0.1478951 -0.22575207 -0.058149666 -0.13817368 0.012777337 0.054356296 -0.06304004 -0.05133944
-0.32467258 -0.22343628 0.014000156 -0.17105009 -0.36793157 0.52858883 -0.3337036 -0.39705464
-0.2908547 0.041003138 -0.25590304 -0.27618235 -0.53350204 -0.50067043 -0.04221415 -0.37828824

bn3.running_var f4 [64]
00000000: 4e37 c03c 37bc bd3d a797 613d 98bb a73e
00000010: 7c52 a43d c0f9 ed3c 64b9 d13e 2361 923c
00000020: 14a9 603d f676 643e 0622 743c b32f 033d
00000030: 0d2b 7d3d 3cf8 863e 20c4 c33e 0da7 a53d
00000040: a2c2 d73d 19bb 593c 81a3 6b3d e406 bc3e
00000050: bef5 563d 0fa7 fd3c 0e5a 783d 8c89 4d3e
00000060: 4405 ba3c 6695 9b3b 1143 8e3c 24c3 b03d
00000070: 1258 b43e c56a 8c3d b274 da3c 2eb7 913e
00000080: 5a49 883c aaa3 303d 1f37 403d 44e4 953c
00000090: bef8 4c3d b854 0f3e cf2c bd3d 7ebd 503d
000000a0: ed38 c03c 0dcf a63c ccad 733d 1f13 593c
000000b0: 6e37 673d b05c 9b3e 26ee 273e 7bba 193e
000000c0: 26b2 623e b205 5a3c b00b 433d cd35 153e
000000d0: 5add ee3c 37e1 833e c672 173d 890a 443d
000000e0: 3dbb 983c 1bb1 c23e 7308 4d3c e2ef 5f3d
000000f0: 98b8 b63c 69ad 1b3d 5ee7 ca3e 6051 ae3c
0.023463871 0.09264415 0.055076268 0.3276031 0.08023545 0.029049754 0.40961754 0.017868584
0.054848745 0.22311005 0.01490069 0.03202791 0.061808635 0.26361263 0.3823557 0.08088503
0.1053517 0.013289236 0.057528976 0.36724007 0.05248045 0.030963449 0.060632758 0.20072001
0.022707589 0.0047480343 0.017365964 0.0863097 0.35223442 0.06856302 0.026666973 0.28460068
0.01663654 0.043124832 0.046927568 0.018297322 0.050041907 0.13997161 0.09237062 0.050961964
0.023464644 0.020362401 0.059491917 0.013249188 0.056449346 0.30344152 0.1639944 0.15012543
0.2213827 0.013307022 0.047618568 0.14571305 0.029158283 0.25757763 0.03697469 0.04786161
0.01864397 0.38025746 0.0125142215 0.05467213 0.022304818 0.038007174 0.39629644 0.021279037

conv4.weight f4 [64, 64, 3, 3]
00000000: 0a45 123d 8af1 c2bd 6f71 a83c ee10 5d3e
00000010: 363d c6bd 9368 7f3c 7b18 7bba 2a20 5d3c
00000020: 9e63 02bc cc2e cd3c d916 89bb 3c8b 0dbd
00000030: 88f1 973d dbef afbd 6111 a6bd 63c3 6a3a
00000040: c178 8b3c 0b6d f5bb a6f3 703e be57 43be
00000050: f9ca 75bc d510 193e a558 d1ba 509b 8fbc
00000060: 7cf4 333c 5645 283d 09f0 143d 596d 6b3e
00000070: 7704 31bc b5c9 71bb d1a7 ba3d e15b dfbd
00000080: 6abf bebc 5b9a 6c3d bfd4 6bbc 1b34 5c3c
00000090: 3d62 1b3e fdc0 c2bd 7e3f 0cbc f9a2 86bd
000000a0: 9562 e8bd 617f 7d3c 9311 f33c 2b9e 88bd
000000b0: 6eef 3d3b 402a f4bc aad5 0ebe e9f3 ddbb
000000c0: 5087 2a3e b27d 7b3e 4164 2fbd 8795 483b
000000d0: 25d6 893b 7209 56bc 3df8 e6bc 406a 5cbd
000000e0: 7c21 e7bc 3c00 53bd d509 6cbe 4873 b8bd
000000f0: b455 62bb c9d0 ddbb 1168 76bc b0fe c43d
00000100: 6611 823d b981 533b 59d6 4fbe 5948 92bd
00000110: f25e b03d 7641 d0bb bd0d 07bc 3f00 9f3b
00000120: 3764 1d3e 65cf 36bc a0f4 47bb dd6b 6abe
00000130: f616 37be e8c8 c83b 2c8a 8b3c 8aeb 483d
00000140: 65e9 51bc d3eb a53d 03e4 d1bc 710f a2bc
00000150: 2ac1 ee3d 16b4 f3bd 7973 e4bc 0472 133c
00000160: 1ea3 6b3c 71d4 ef3c b85e 2f3e 8d0e 0e3d
00000170: d894 a5b8 045a 643d 020d 64bc f443 443c
00000180: 4ec1 6fbd 5489 40bc 4ffc 0f3c 519f 903d
00000190: 18ab 11bd aab4 a0bc 1388 31bc 56c7 aabd
000001a0: 7fa3 fbbc 54bd 403c 5ec7 cabc f023 ae3c
000001b0: 5ab6 d9bd 00b5 f73d 9d56 183d cc13 473d
000001c0: bd11 32bd 0e90 ffbc 4aec 463d 252a 1f3c
000001d0: 8127 de3c 4f68 10bd 043e 8dbd 7f43 203a
000001e0: 152d 6a39 5cd9 a4bb 5cbb 18bc ef3e 48bc
000001f0: 4f7c 9f3b 7f74 11bc 71cd 66be 0ed0 74be
00000200: 46c0 04bd 7a1c 54be 3164 b4bd abdb 20bd
00000210: 5068 cfbc b9cf bfbc f8a6 0abd 6f7b 0cbc
00000220: 83ea c9bc a346 6e3d 65f8 95bc 5dd2 9d3c
00000230: 383e d23c 1c3d f83b 5bff e8bc 86f4 8dbb
00000240: ddcf acbd 5867 b1bd 3741 98bc bca6 b2bd
00000250: 8814 6fbe 2ad8 d9bd c8af b4bb 8034 8e3c
00000260: 7cd2 d03c b1cf 493d 9ec2 0a3c 56e2 8c3c
00000270: d217 24bd 9250 eabd f87a f83b 68fe 063c
00000280: bace 2b3d 8284 d43c 32d8 df3d 675d 4bbe
00000290: 9bd4 b2bc 78e9 1cbe 4a84 683c a819 653d
000002a0: 64d5 14bd 4eb1 c63c 2fb8 36bc 762f 0bbd
000002b0: 0e6e 68bd a083 a2ba 5ebd adbd 5ec5 afbe
000002c0: 095b 95bd d884 bfbc 0a83 91bd 5fab bfbc
000002d0: a190 80bd 6de7 283d 9cb7 453c de3c 75be
000002e0: 67d4 f4bd 4446 cc3d bcc3 c03c 5dba 3bbb
000002f0: 13cf 983b d570 103d 3586 3bbe e6b1 133d
00000300: 4297 b8bd edc9 3d3d 8e0d bf3c 57b1 7a3c
00000310: 0756 b53c c961 ac3c a343 2b3d f3ae 363e
00000320: 142e 873c cddc 633e 69cb 54be 5460 3d3d
00000330: b10f 1ebd 140d 0cbb 7ad2 833c be27 c2be
00000340: 38e5 0c3a 49ce a9bc 3e1b 83bd eac6 8abd
00000350: a697 8abc 611d 533d 5216 3b3c 7866 6a3c
00000360: 3656 94bd cbbd fa3d ed48 bcbc aedd eebd
00000370: cffe 9cbe 19e4 c43c 269a 503d f647 443c
00000380: 752e 23bc 3a68 d03c 9e40 993c 4106 a73c
00000390: de39 403d df80 9e3d ff73 80bc b0b0 28bd
000003a0: 20ed 893c 8efd a2bc 5cee 82bc 034b e43c
000003b0: f7df c3ba b6ca 0e3d 6d72 e23c abc2 803c
000003c0: 5905 18bb 4e1f 2f3c 2d23 713c 4b80 b5bd
000003d0: 89e6 a9bd 44aa c93b 996d 07bc fe74 19bd
000003e0: 1cbe 05bd 7312 50bc 99c3 5eb8 76d5 1ebd
000003f0: f8c4 74be 036f 5bbe c792 b3ba cb3b 51be
0.035710372 -0.09518726 0.020561902 0.2158849 -0.09679644 0.015588897 -0.0009578538 0.013496438
-0.007958321 0.025046729 -0.004183632 -0.034556612 0.07419115 -0.08590671 -0.081087835 0.00089555065
0.017025353 -0.0074898056 0.23530445 -0.1907644 -0.015002006 0.14947827 -0.0015971853 -0.017530113
0.010983583 0.04108175 0.036361728 0.22990932 -0.010804287 -0.0036893908 0.0911404 -0.109061964
-0.023284633 0.057764392 -0.014393984 0.013440157 0.15174194 -0.09509466 -0.00856006 -0.06574053
-0.11346928 0.015472264 0.029671466 -0.06670793 0.0028981823 -0.029805303 -0.13948694 -0.006773461
0.1665318 0.24559668 -0.04282022 0.0030606703 0.004206436 -0.013063775 -0.028194541 -0.053812265
-0.028214209 -0.051513895 -0.23050626 -0.09006363 -0.0034535946 -0.006769274 -0.01503946 0.0961889
0.06350975 0.0032273366 -0.20296611 -0.071427055 0.086118594 -0.00635546 -0.008243022 0.0048523243
0.1537026 -0.011157845 -0.0030510798 -0.22892709 -0.17879853 0.0061274655 0.017033659 0.049052753
-0.012811993 0.081016205 -0.02562142 -0.019782754 0.11657937 -0.11899583 -0.027887093 0.008999351
0.014382152 0.029276105 0.17125976 0.034681845 -7.8955374e-05 0.055749908 -0.013919117 0.011979092
-0.05853396 -0.011751492 0.008788182 0.07061637 -0.03556356 -0.019617397 -0.010835665 -0.083388016
-0.03071761 0.011763889 -0.024753269 0.02125737 -0.10630484 0.1209507 0.037191976 0.048602864
-0.043473948 -0.03119662 0.048565187 0.009714638 0.027118446 -0.035255726 -0.06896594 0.00061135733
0.00022332773 -0.005030794 -0.009322014 -0.012222036 0.0048671137 -0.0088778725 -0.22539307 -0.23907492
-0.03240993 -0.20713988 -0.088081725 -0.03927199 -0.025318295 -0.02341448 -0.03385064 -0.008574351
-0.024647957 0.058172833 -0.01830692 0.019265348 0.025664434 0.007575644 -0.028442075 -0.004332128
-0.08438084 -0.086622894 -0.018585784 -0.08723208 -0.23347676 -0.10636933 -0.005514119 0.017359018
0.025490992 0.049270336 0.008469252 0.01719777 -0.04006178 -0.11441149 0.0075830184 0.008239366
0.041945197 0.02594209 0.10929908 -0.19859849 -0.021829894 -0.15323436 0.014191696 0.05593267
-0.036336318 0.024254467 -0.011152311 -0.03398081 -0.05674558 -0.0012398846 -0.084833845 -0.34330267
-0.07292754 -0.023378775 -0.07105072 -0.023397146 -0.06277586 0.04123633 0.012067702 -0.23949
-0.11954575 0.099743396 0.023530833 -0.0028645017 0.004663357 0.035263855 -0.18312915 0.03605833
-0.09013225 0.04633515 0.023321893 0.01530107 0.022135748 0.021042721 0.04181255 0.17840175
0.016501464 0.22252198 -0.2078072 0.046234444 -0.038589183 -0.00213701 0.016091574 -0.37920946
0.00053747324 -0.020728247 -0.064016804 -0.06776221 -0.016918015 0.05154169 0.011418896 0.014306657
-0.07243006 0.122432314 -0.022983992 -0.11663376 -0.30663154 0.024034547 0.050928257 0.011980047
-0.009959807 0.025440324 0.01870757 0.020388724 0.046930186 0.07739424 -0.015680311 -0.041184127
0.016836703 -0.019896295 -0.0159828 0.0278678 -0.0014944066 0.03486129 0.027642453 0.015717825
-0.0023196547 0.010688616 0.014717859 -0.088623606 -0.08295924 0.0061543304 -0.008265876 -0.037465088
-0.032652006 -0.012699711 -5.311109e-05 -0.03877779 -0.23903263 -0.21429066 -0.0013700359 -0.20432965

bn4.weight f4 [64]
00000000: 2d69 0a3f 41a0 cd3d f39f a03e f31f 413d
00000010: 5152 663e 2360 ab3d f99e 933e ba01 1b3e
00000020: 2186 b33e b5be cc3d a00c 3e3f bdff 103e
00000030: 922a 8a3e e78f db3d aad1 303d d8b5 2d3d
00000040: ef75 6e3d 4b20 943e 407d ac3d 30b1 213e
00000050: 60e1 a73e fc58 c53e a001 403d 790b 343e
00000060: 301b 0a3e 7f2f cf3d 60db 413e 517c 1d3e
00000070: 2558 183e 9982 b53d 39cd 333d cc9d 4a3d
00000080: 98ed 003e a4ce a83e 34a7 573e 9b79 513d
00000090: 7259 ed3d ba9a 2b3e 87fa 8e3d 6a2c f03d
000000a0: 35fd 8b3e 5847 d43e 32cf 773d c521 973d
000000b0: d167 b13d a57e 253e c1fb 1e3d 63c6 743e
000000c0: 7650 003f 6cd6 033e da52 d73d 94b3 023e
000000d0: b061 cf3e 8a2d dd3d 9693 e03d a5f4 7e3e
000000e0: df9a 223e e2b1 c13d 2adf 9a3d adb2 343d
000000f0: 1601 a43e d3b6 2d3d d62d 2f3d 4914 353d
0.54066736 0.10040332 0.31372032 0.04714961 0.22492339 0.08367946 0.28832224 0.15137377
0.3506327 0.09997312 0.74238014 0.14160056 0.26985604 0.107208066 0.0431687 0.042409748
0.05821794 0.28930888 0.08422327 0.15790248 0.32789135 0.38544452 0.04687655 0.17582501
0.13486934 0.10116481 0.18931341 0.15379454 0.14877374 0.088628 0.043896887 0.049466893
0.12590635 0.32970154 0.21059877 0.051141363 0.11589326 0.16758242 0.06981378 0.11727221
0.2734162 0.4146068 0.06050033 0.07379488 0.086623795 0.16161592 0.03881431 0.23903804
0.50122774 0.12874764 0.105138496 0.12763816 0.40504217 0.107997015 0.1096565 0.24898012
0.15879391 0.094577566 0.075620964 0.04411571 0.32032079 0.042410683 0.042768322 0.0442088

bn4.bias f4 [64]
00000000: 442b 303b 0b18 2f3c f66e 64bd 388c ef3b
00000010: 86f2 81bd b25a 9a3e 247e 6fbd 7346 8cbd
00000020: d6ed 13bd ddf1 e7be a7df 90bd e49d 26be
00000030: da7e f8bc 5960 2e3d 016a fc3c 7084 9c3c
00000040: 765d 47bc 1792 9bbc 1787 8cbd 1051 1bbe
00000050: 1aab b3bb 9040 2bbc 4804 e53c 73da 10be
00000060: c036 88bd cdbf 4bbd 98c4 0dbe 3fb8 62bd
00000070: f152 efbd c03d 0bbe 8b2c 043d d739 033e
00000080: e1eb 59bd 0082 5bbd cd1d ecbc 7aec e13d
00000090: f735 aebd fd17 a1bd bfa4 f0bc d252 f5bd
000000a0: 01aa 42bc 3861 0dbd 6d1f 4c3c c26b aa3c
000000b0: fc9e d3bc 349d 3a3b eb2c ac3d da3d c3bd
000000c0: b4f7 523d 7c7c a3bd 6394 8fbc c1e6 ce3d
000000d0: d5cd df3c 227b 57bd 6978 2bbc 025a 84bc
000000e0: 36be 89bd 739c 92bd 6222 76bc e3d7 ce3d
000000f0: 7b10 26bc f01d fb3c b4ae 233d e5ef cbbb
0.0026881257 0.010686885 -0.055769883 0.0073104165 -0.06345086 0.3014732 -0.058469906 -0.068493746
-0.03611549 -0.45301715 -0.07073908 -0.16271168 -0.030333925 0.042572353 0.030812265 0.01910612
-0.012168279 -0.01899056 -0.06861704 -0.15167642 -0.0054830434 -0.010452405 0.027956143 -0.14145832
-0.06651068 -0.049743462 -0.13844526 -0.055351492 -0.11685742 -0.13597775 0.032269042 0.12815033
-0.053203467 -0.053590775 -0.028822804 0.110314324 -0.08506387 -0.078659035 -0.029375432 -0.11978687
-0.011881352 -0.034516543 0.012458664 0.020803336 -0.025832646 0.0028475048 0.08407005 -0.095332816
0.05150576 -0.07982728 -0.017526811 0.101026066 0.027319828 -0.052607663 -0.01046572 -0.0161562
-0.06725733 -0.071587466 -0.015022846 0.10099771 -0.010135765 0.030653924 0.03996153 -0.006223666

bn4.running_mean f4 [64]
00000000: 5fed 7bbe 84ca 70be 2d46 393e 6fbf 37bf
00000010: c019 ec3d 85f0 24be 282c d23e 1420 dd3d
00000020: 5485 cf3e d77b cdbc 0c8d a13e 9cf1 00bf
00000030: e048 ca3e 9cd0 80bc e189 823b 1fe9 7abe
00000040: cc6a 13bf 0007 36bd c2aa 8f3e 98e3 063f
00000050: c2d7 8e3e a6cc 803e ba89 233e aa69 3fbe
00000060: eda2 d1bd c9d4 f53b a47f babe cc83 bc3e
00000070: c768 923e b6c4 2bbe ff77 e9bd c66a ffbd
00000080: 02df c0bd aa10 5a3e 15c1 93be 55aa 6b3d
00000090: eb9b afbe 8b70 0fbe 1fd8 4a3c ceee 23bc
000000a0: 9e6f 073e ae28 51bc 5e8a 3f3d 230e 87be
000000b0: 9048 debe af0b 6bbe 9a11 e73b ca04 5bbf
000000c0: c98b 81be 702b 82be 3a61 383d 2b50 d53e
000000d0: d4cd a3be be4d d4bd cb88 95be e681 cebd
000000e0: 2382 b4be b31f b73e 0a56 2cbe d598 e8bc
000000f0: e21f 7cbb f4aa 04bf d84e d2be d6b6 193d
-0.24602269 -0.23514754 0.18093176 -0.7177648 0.11528349 -0.16107376 0.41049314 0.10797134
0.4053141 -0.025083466 0.31552923 -0.50368667 0.39508724 -0.015724473 0.0039837216 -0.24502991
-0.57584834 -0.04444027 0.28059965 0.5269103 0.27898985 0.25156134 0.15970507 -0.18692651
-0.10236154 0.0075021726 -0.36425507 0.36819303 0.28595564 -0.16774258 -0.113998406 -0.12471537
-0.09417535 0.2129542 -0.28858247 0.05753549 -0.34298643 -0.14007775 0.012380629 -0.010005666
0.13226172 -0.012766046 0.046762817 -0.26377973 -0.43414736 -0.22953676 0.007051659 -0.8555418
-0.2530196 -0.25423765 0.045014597 0.41662726 -0.31992972 -0.10366391 -0.29205927 -0.1008337
-0.35255536 0.35766372 -0.16829696 -0.028393188 -0.0038471152 -0.51823354 -0.41075778 0.03752788

bn4.running_var f4 [64]
00000000: 534e 133e 966b 0d3e ed03 133e 9eae 4a3d
00000010: e367 593e 0e99 473d 4356 e33d 66e5 ce3d
00000020: 88fa 013e ca63 193e 393d 9e3e 4e23 253d
00000030: 76ab 163e 75b1 9e3d 30c9 853c 25ba 243d
00000040: 4e25 1f3e 9602 693e 8d72 0e3d 5083 103e
00000050: 61d2 273e 21db 7f3e 9b23 fd3c 0ff4 413e
00000060: 894a 753e 1d75 503d 57f2 213e 316e 343e
00000070: 506b d83d ab8a 823c e731 e93c 894c 1e3d
00000080: 34ac a13e 8a95 053e 56ce 0a3e 39c0 c33c
00000090: dbeb c73d 2718 913e 20b2 2c3d 9ff1 cf3d
000000a0: 4800 3d3e e469 113e 90bc 103d 1add 4a3d
000000b0: faa1 8d3d f8d7 973d 91d7 c43c 0eb3 b63e
000000c0: 7aad d03d ccb8 013d f0fc 973d af0d 073e
000000d0: bf13 333e cc9d dc3d 3563 263e a4eb 353e
000000e0: f8dd 5d3e 32db 2b3d 3666 803d 0e6b b23c
000000f0: 4586 393e 09a0 f23c 9c61 bc3c 286d fd3c
0.14385347 0.13810572 0.14356966 0.049482934 0.21231036 0.04872995 0.111004375 0.10102348
0.12693226 0.14979473 0.30906084 0.040316872 0.14713845 0.07748691 0.016331285 0.040216584
0.15541574 0.22754893 0.034777213 0.14112592 0.16388847 0.24985935 0.030900767 0.18940757
0.23954214 0.050892938 0.15815102 0.1762016 0.10567343 0.015935263 0.028466178 0.03864721
0.31576693 0.13045326 0.13555273 0.02389537 0.09761783 0.2833874 0.04216206 0.101535074
0.18457139 0.1420055 0.035336077 0.049527265 0.0691566 0.0741424 0.024028571 0.35683483
0.10189338 0.031670377 0.07421291 0.13188814 0.17488001 0.10772285 0.16248782 0.17765671
0.21666706 0.041957088 0.06269495 0.021779563 0.18117626 0.029617326 0.022995763 0.030935839
