ckpt_response/ckpt-t-cr3-deepsc-t18db-rt-awgn.pth (torch, 766247 bytes, 46 tensors)

conv1.weight f4 [16, 3, 3, 3]
0	0x3d81e50d	0.06342516
1	0x3c89fbce	0.016843703
2	0x3e07cab2	0.13260916
3	0xbdfbe0dd	-0.12298749
4	0x3e741a91	0.2383826
5	0xbe07b7cb	-0.13253705
6	0xbaad645d	-0.0013228763
7	0xbdd8090e	-0.10548602
8	0xbaca2ad0	-0.0015424136
9	0x3ce89202	0.028389934
10	0xbdf0de31	-0.1176113
11	0x3d584388	0.052798778
12	0xbdc7d7c1	-0.09757949
13	0x3e359d41	0.17735769
14	0xbdff61c7	-0.124698214
15	0x3cc1f04a	0.023674149
16	0xbdaccb8a	-0.084372595
17	0x3d4aa042	0.04946924
18	0x3bbcf1c0	0.0057661235
19	0xbe253a96	-0.1613563
20	0xbd06f3dc	-0.032947406
21	0x3c240b9c	0.0100125335
22	0x3e5ecf83	0.21758847
23	0xbd751fb6	-0.059844695
24	0x3d2c1381	0.042010788
25	0xbb5cb38c	-0.0033676354
26	0x3d3d0509	0.04614738
27	0xbd3621e7	-0.044465926
28	0xbe219537	-0.15779577
29	0xbde331fb	-0.110935174
30	0xbdfa47f4	-0.12220755
31	0xbe491aee	-0.19639179
32	0xbe148c81	-0.14506723
33	0x3b7c62ec	0.003851111
34	0x3dfb4eb0	0.12270868
35	0xbc6a7862	-0.014310928
36	0xbcd75b46	-0.02628864
37	0xbd88fac7	-0.06688457
38	0xbdb90d21	-0.09035707
39	0xbe0dc022	-0.13842824
40	0xbdb0c741	-0.08631755
41	0xbd97934a	-0.0740114
42	0xbc1f5c3b	-0.009726579
43	0x3d79d5a9	0.060994778
44	0xbcd6a7eb	-0.026203116
45	0x3d68f7ee	0.05687707
46	0x3d473c57	0.04864153
47	0x3cd0abc1	0.025472524
48	0x3c082273	0.008308995
49	0xbd822a9f	-0.063557856
50	0x3d6e5f9b	0.058196645
51	0x3cda2f90	0.026634008
52	0x3df76103	0.120790504
53	0x3c58b764	0.0132273175
54	0x3b0a5c51	0.0021112154
55	0xbcec777f	-0.028865574
56	0x3ac3cb6c	0.0014937944
57	0xbd11556a	-0.035481848
58	0x3a6ae384	0.0008960294
59	0xbcb02170	-0.02150032
60	0xbd2fd983	-0.042932045
61	0x3d83de34	0.06438866
62	0xbd700e64	-0.058607474
63	0x3bb9bc45	0.0056681954
64	0x3ae8b464	0.0017753956
65	0xbc2b542f	-0.010457083
66	0xbd453187	-0.048142936
67	0x3e1dc836	0.15408406
68	0x3dd35b48	0.10320145
69	0xbcd4d8c2	-0.025982264
70	0x3db3c67d	0.08778093
71	0xbc01b799	-0.007917308
72	0xbd599295	-0.053118307
73	0xbbf701ac	-0.007538041
74	0x3d834b6d	0.06410871
75	0xbd7241f0	-0.059144914
76	0x3ed59e0a	0.41722137
77	0x3ee37333	0.44423828
78	0xbdcd2d66	-0.10018425
79	0x3e22eb24	0.15910012
80	0x3dcf2c79	0.10115904
81	0x3d525b7f	0.05135679
82	0x3e147b5a	0.1450018
83	0x3e18cf8b	0.14922921
84	0x3e297a4a	0.16550556
85	0x3e5a4241	0.21314336
86	0x3e37ae69	0.17937626
87	0xbcabd5fb	-0.020976057
88	0xbe028223	-0.12744956
89	0x3c2d12cc	0.010563564
90	0x3d15b516	0.03654965
91	0x3de60d14	0.11232963
92	0x3dbd3791	0.09239114
93	0x3e0c8afc	0.13724893
94	0x3e0d34bc	0.13789648
95	0x3d88e999	0.0668518
96	0x3c312001	0.010810853
97	0xbd8d65cc	-0.06904182
98	0x3cef48f1	0.029209586
99	0xbdb0e693	-0.086377285
100	0xbd373757	-0.04473051
101	0xbd5e66db	-0.05429731
102	0x3c94b92f	0.018154709
103	0x3d388c08	0.04505542
104	0xbd2491b1	-0.040178005
105	0xbd0d5dea	-0.03451339
106	0xbe084fa1	-0.13311626
107	0xbcf7d3bf	-0.030252336
108	0x3c0a0af5	0.008425464
109	0xbc2f1f86	-0.010688668
110	0xbd12fbff	-0.035884853
111	0x3dceeeb1	0.101041205
112	0x3cb1de84	0.021712549
113	0xbcacd994	-0.021099843
114	0xbd054c61	-0.032543544
115	0xbd84ea1f	-0.064899676
116	0xbbc496be	-0.005999415
117	0x3cc84835	0.024448493
118	0x3ce866be	0.028369304
119	0x3c5dfde1	0.013549299
120	0x3e291f7d	0.16515918
121	0x3d5bf017	0.053695764
122	0xbd22641c	-0.039646253
123	0xbc460d2e	-0.012088103
124	0xbd0375bc	-0.032094702
125	0xbd87dc6d	-0.0663384
126	0x3de5128a	0.11185177
127	0x3e727185	0.23676117
128	0x3bad3a8a	0.0052865194
129	0x3ee1f38a	0.44131118
130	0x3e82dc46	0.2555868
131	0x3cae3ebf	0.021270154
132	0x3c2b4576	0.0104535725
133	0xbca90d7b	-0.02063631
134	0x3c25bfdd	0.010116545
135	0x3c7beb91	0.015375988
136	0xbc3a5ff3	-0.011375415
137	0x3ce77384	0.028253324
138	0xbc6f4a1f	-0.014605074
139	0xbe948f1c	-0.29015434
140	0xbd1b804f	-0.03796416
141	0x3d19fbe2	0.03759373
142	0x3e2d7e06	0.16942605
143	0x3dee4daa	0.11635907
144	0x3abf871a	0.0014612407
145	0x3b37af9c	0.0028028255
146	0x3da63af2	0.08116712
147	0xbd46813c	-0.04846309
148	0xbe3bd176	-0.18341622
149	0xbd4fe074	-0.050751165
150	0x3a933d1b	0.0011233421
151	0x3e0e3e4a	0.13890949
152	0x3d9cca2a	0.07655747
153	0x3c926b77	0.017873509
154	0xbc50fc17	-0.012755415
155	0xbd9c7f62	-0.07641484
156	0xbcb44b57	-0.022008581
157	0xbc2fe722	-0.010736259
158	0xbdd4b60a	-0.10386284
159	0xbbb312fa	-0.0054649087
160	0x3e8cc5de	0.2749471
161	0xbd6f8c0c	-0.05848317
162	0xbdbab004	-0.091156036
163	0x3de09635	0.1096615
164	0xbe44af58	-0.19207513
165	0x3e1156be	0.14193246
166	0x3e16b895	0.1471885
167	0xbdac1b0a	-0.08403595
168	0xb9caf33a	-0.0003870966
169	0x3cf81c9a	0.030287076
170	0x3c4267eb	0.011865596
171	0xbe28f39f	-0.16499184
172	0x3d1404c6	0.036137365
173	0xbe54aaff	-0.20768355
174	0xbc8981cb	-0.016785523
175	0x3d891576	0.066935465
176	0xbd96dc3f	-0.07366227
177	0xbcd206a8	-0.02563794
178	0xbccef0b1	-0.025261255
179	0xbb879795	-0.004137943
180	0xbeb4822b	-0.3525556
181	0xbd9abd31	-0.07555617
182	0xbe403747	-0.18771087
183	0xbd80a8de	-0.06282209
184	0x3a33b189	0.0006854763
185	0xbd1b4868	-0.03791085
186	0x3ccfa807	0.025348676
187	0xbcbfa5fc	-0.023394577
188	0x3d2f4ebb	0.042799693
189	0xbd4d1687	-0.050070312
190	0xbc25c6f9	-0.01011824
191	0x3ba973b2	0.0051712627
192	0x3d5f8d12	0.054577895
193	0x3de74d8c	0.11294088
194	0x3e076963	0.13223796
195	0x3d88e780	0.0668478
196	0xbe3c57df	-0.18392895
197	0xbd934d2c	-0.07192454
198	0xbd681063	-0.056656253
199	0x3d041049	0.032242093
200	0xbb1b7992	-0.0023723585
201	0x3d4ddffe	0.050262444
202	0x3be87840	0.007094413
203	0x3dbd1fd1	0.09234584
204	0x3e08b7ca	0.1335136
205	0xbe16f4ce	-0.14741823
206	0xbdcc85cc	-0.09986457
207	0x3d50422c	0.050844356
208	0x3d6afa85	0.05736782
209	0xbcf7f330	-0.030267328
210	0xbc82f84a	-0.015987534
211	0xbd3d9966	-0.04628887
212	0xbe2fe080	-0.17175484
213	0x3d8dda99	0.0692646
214	0xbe6cbc34	-0.23118669
215	0xbeb111f1	-0.34584
216	0xbc0bfb53	-0.008543807
217	0x3d9193a7	0.071082406
218	0x3c05169e	0.008123068
219	0xbd8d5789	-0.06901462
220	0x3d90d8c7	0.07072597
221	0x3c9e59f1	0.019329997
222	0x3c518ac1	0.012789429
223	0x3d7b5e10	0.061369002
224	0x3ca37677	0.01995395
225	0xbd94d497	-0.07267111
226	0x3d0a3180	0.033738613
227	0xba01a277	-0.00049451686
228	0xbe6735e3	-0.2257915
229	0xbca235d3	-0.019801056
230	0x3b90302c	0.004400274
231	0xbd8e860c	-0.06959161
232	0xbc265b76	-0.010153642
233	0xbcafc2a3	-0.021455115
234	0x3d916d1a	0.071008876
235	0xbd6107d7	-0.054939117
236	0x3bab14c3	0.005220981
237	0xbf30e491	-0.69098765
238	0xbe2b629d	-0.16736837
239	0xbda627d5	-0.08113066
240	0xbd838609	-0.064220496
241	0xbdccb857	-0.099960975
242	0x3c565f8b	0.013084303
243	0xbb984dca	-0.004647945
244	0x3cf88f62	0.030341808
245	0x3c48a995	0.012247463
246	0xbda82a8c	-0.0821124
247	0xbc9ed789	-0.019389885
248	0x3cc588ae	0.024113026
249	0x3c6006e4	0.013673518
250	0x3d4bbc03	0.04973985
251	0x3c419d23	0.0118172495
252	0xbd14fb70	-0.036372602
253	0xbd4b20b2	-0.049591728
254	0x3d0acb10	0.03388506
255	0xbe0094a5	-0.12556703

bn1.weight f4 [16]
0	0x3dc10e0e	0.09426509
1	0x3e36e365	0.17860182
2	0x3e1e0b5a	0.15434018
3	0x3e3a034d	0.18165322
4	0x3e4d30dd	0.20038171
5	0x3dbccea2	0.092190996
6	0x3e1a00b6	0.15039334
7	0x3e049926	0.12949046
8	0x3e68e8c7	0.22745048
9	0x3e42c6cf	0.19021152
10	0x3e2f532e	0.17121574
11	0x3e3f1ffc	0.18664545
12	0x3e1bdae4	0.15220219
13	0x3e515b08	0.20444882
14	0x3d44dee7	0.04806414
15	0x3e5ea84f	0.21743892

bn1.bias f4 [16]
0	0x3e980359	0.29690054
1	0x3d5c80b4	0.05383368
2	0x3d6cf952	0.057854958
3	0xbd5b7e7d	-0.053587426
4	0xbe1bd849	-0.15219225
5	0x3d7cf86d	0.061760355
6	0x3e9d4b1c	0.30721366
7	0xbdaf9524	-0.08573368
8	0xbda772bc	-0.08176181
9	0x3e1546d7	0.14577805
10	0x3c423716	0.011853954
11	0x3db68442	0.08911945
12	0x3d7f9102	0.06239415
13	0xbdc9c61a	-0.09852238
14	0x3dcf0b0f	0.10109531
15	0xbc7cbb34	-0.015425492

bn1.running_mean f4 [16]
0	0x3ce3f008	0.027824417
1	0xbec799ec	-0.3898462
2	0x3eedefdb	0.46472058
3	0x3ee856fc	0.45378864
4	0x3ef7bf7c	0.48388278
5	0x3b95e58d	0.0045744837
6	0xbecfc844	-0.40582478
7	0xbe700e00	-0.2344284
8	0xbf0591e3	-0.5217573
9	0xbed3da6f	-0.4137759
10	0x3ed10079	0.40820673
11	0x3e68d76d	0.22738428
12	0xbbd5a684	-0.0065200943
13	0xbe677423	-0.22602896
14	0x3d03becc	0.03216438
15	0xbeb70459	-0.35745504

bn1.running_var f4 [16]
0	0x3a6093cb	0.0008566945
1	0x3d29746f	0.041370805
2	0x3da2d671	0.07951058
3	0x3d65dcbc	0.05611871
4	0x3db11703	0.08646967
5	0x3c108c32	0.008822488
6	0x3d850a32	0.06496085
7	0x3d029a1c	0.03188525
8	0x3dcf6b12	0.10127844
9	0x3d827691	0.06370271
10	0x3d5a4848	0.05329159
11	0x3c88ba93	0.016690528
12	0x3bd1557a	0.0063883634
13	0x3c871df7	0.01649378
14	0x3accfa43	0.0015638549
15	0x3d269f9e	0.040679567

conv2.weight f4 [64, 16, 3, 3]
0	0xbd798f83	-0.06092788
1	0x3d101221	0.03517354
2	0xbd76937e	-0.060199253
3	0xbd6e9e64	-0.05825652
4	0x3d0698a0	0.0328604
5	0x3b0db2ff	0.0021621583
6	0xbd089336	-0.033343516
7	0x3da2b3b3	0.07944431
8	0xbdc756d5	-0.09733359
9	0xbdd3a042	-0.10333301
10	0x3cbf2461	0.023332777
11	0xbda457d8	-0.08024567
12	0xbc2195c4	-0.009862367
13	0x3de2630e	0.110540494
14	0x3cb938d2	0.022610102
15	0xbca7eeb2	-0.020499561
16	0x3d3edfc2	0.04660011
17	0xbd445721	-0.047934655
18	0xbd682e0e	-0.056684546
19	0xbc38e199	-0.011284255
20	0xbc8fdd33	-0.01756153
21	0x3ade8157	0.0016975802
22	0x3e457ee6	0.19286689
23	0x3b9e1613	0.004824409
24	0xbd943a3d	-0.072376706
25	0x3e220f33	0.1582611
26	0x3cdf9b94	0.027295865
27	0x3dadede7	0.08492642
28	0x3cdd5ce6	0.027021836
29	0x3d5a7b84	0.05334045
30	0xbbe48207	-0.0069735083
31	0xbd629ee0	-0.055327296
32	0xbc1ab24c	-0.009441923
33	0xbcac2a98	-0.021016404
34	0xbd681fc5	-0.056670923
35	0xbd87c97a	-0.066302255
36	0xbd3d124a	-0.04616002
37	0xbd9e0286	-0.07715325
38	0xbdafa263	-0.08575895
39	0xbd563853	-0.05229981
40	0xbd07cea1	-0.03315604
41	0x3dd5a626	0.10432081
42	0xbda18132	-0.0788597
43	0x3d81524d	0.06314526
44	0x3e406fca	0.18792644
45	0xbddd4db0	-0.10805833
46	0xbcbf2ada	-0.023335863
47	0xbcec0a2e	-0.028813448
48	0xbcb8872f	-0.022525398
49	0x3daa6448	0.083199084
50	0x3d85e27d	0.0653734
51	0x3d09714b	0.03355531
52	0x3db6efaa	0.08932431
53	0x3d21e92d	0.039529014
54	0xbcafc506	-0.021456253
55	0x3da3f920	0.08006501
56	0x3d84f4ca	0.06492002
57	0xbc580c60	-0.013186544
58	0x3d9e4f01	0.077299125
59	0x3c85df91	0.016341956
60	0x3d5c5f0d	0.053801585
61	0xbd3e9b3f	-0.046534773
62	0xbdb60dbf	-0.088893406
63	0x3e4ee9e4	0.2020641
64	0x3b747fd9	0.0037307648
65	0x3dd31645	0.10306982
66	0x3df7bb01	0.12096215
67	0xbe487bdc	-0.19578499
68	0x3bd6bfda	0.006553632
69	0x3bf79f0f	0.007556803
70	0xbdee58b4	-0.116380125
71	0xbd38579e	-0.045005433
72	0xbdd211cb	-0.102573
73	0x3d063509	0.032765422
74	0xbd2c3899	-0.042046163
75	0x3c989098	0.018623635
76	0xbdc5d44b	-0.09659632
77	0xbe451f42	-0.19250205
78	0xbe062a30	-0.13102031
79	0xbe184571	-0.1487024
80	0xbf87e210	-1.0615864
81	0x3c8180df	0.01580852
82	0x3d33eec1	0.043928865
83	0x3db39dfd	0.08770368
84	0x3d5ff179	0.054673646
85	0xbd14ed61	-0.036359195
86	0xbe89ad62	-0.26890093
87	0x3e022f22	0.12713292
88	0xbe595641	-0.2122431
89	0xbf021948	-0.50819826
90	0xbc846dc2	-0.016165618
91	0x3d099a7f	0.033594605
92	0xbd7db2b4	-0.061938003
93	0x3c616850	0.01375778
94	0xbc3b07e9	-0.01141546
95	0xbdb1ca66	-0.086811826
96	0xbcaba043	-0.020950442
97	0x3ce16075	0.027511815
98	0xbd48a9f2	-0.048990197
99	0xbd32b7d4	-0.043632343
100	0xbd4800cb	-0.04882888
101	0x3d3698c3	0.04457928
102	0x3d521729	0.05129162
103	0xbc81bf50	-0.015838295
104	0x3c999512	0.01874784
105	0xbc55501d	-0.013019589
106	0x3d9c19f1	0.076221354
107	0x3d10a5fe	0.035314552
108	0xbd088ff8	-0.033340424
109	0x3b1a5440	0.0023548752
110	0xbc54afb9	-0.012981349
111	0xbd8e8ab9	-0.06960053
112	0xbd881c6b	-0.06646045
113	0xbb060b8b	-0.0020453657
114	0xbdcb6ef6	-0.099332735
115	0xb927d004	-0.00016003853
116	0x3d8ca36e	0.06867109
117	0x3d1cd028	0.03828445
118	0x3d5ebcba	0.054379202
119	0x3c48f3e6	0.012265181
120	0xbc30813d	-0.010773
121	0x3c9b664f	0.018969683
122	0x3d221cef	0.039578374
123	0x3d8e934d	0.06961689
124	0xbbf17e28	-0.0073697753
125	0xbd37371b	-0.044730287
126	0x3dc574e2	0.09641434
127	0xbd0017ca	-0.031272687
128	0xbdba3b87	-0.09093385
129	0xbacc7f9d	-0.0015601997
130	0xbe2e2297	-0.17005382
131	0xbdac276f	-0.08405959
132	0xbe361861	-0.17782737
133	0xbd4c2c79	-0.0498471
134	0xbdc02513	-0.09382071
135	0x3c866f40	0.01641047
136	0x3c95c0cb	0.018280407
137	0x3c854cea	0.016272027
138	0x3b8b7368	0.004255701
139	0xbcb195d6	-0.021677893
140	0xbd8c0761	-0.06837345
141	0x3c24a99e	0.0100502055
142	0xbce20773	-0.027591443
143	0xbdd2c874	-0.1029214
144	0xbc5fceb9	-0.013660126
145	0x3d691cb5	0.056912143
146	0xbc8fd323	-0.017556733
147	0xbcc04322	-0.023469511
148	0xbb8dc73c	-0.004326729
149	0xbd4b0ebc	-0.0495746
150	0xbe3719df	-0.17880963
151	0x3de09669	0.109661885
152	0x3b9d3b83	0.004798354
153	0x3bc7f442	0.006102116
154	0x3d99c5eb	0.07508453
155	0xbcf88575	-0.030337075
156	0x3df147e4	0.1178129
157	0x38ab4aa0	8.1678154e-05
158	0xbdb00c5f	-0.085961096
159	0x3e44ca31	0.19217755
160	0xbb362d7c	-0.0027798107
161	0xbe95dc76	-0.2926976
162	0xbd782324	-0.060580388
163	0xbd9041cd	-0.070438005
164	0x3d38adba	0.045087554
165	0xbd91cc0b	-0.07118996
166	0x3dc3e597	0.09565275
167	0x3cefae55	0.029257933
168	0x3c0e14ef	0.008671983
169	0xbc5100fe	-0.012756584
170	0x3c1a6cf9	0.009425395
171	0xbb2a90c9	-0.002602624
172	0xbc8ff2e4	-0.017571874
173	0xbc466d16	-0.012110969
174	0xbd93bd04	-0.07213786
175	0x3d33be00	0.04388237
176	0x3cacd8b4	0.021099426
177	0xbe5cd807	-0.21566783
178	0x3cef9ec5	0.029250512
179	0x3e657aba	0.22410098
180	0x3cbf52b6	0.02335487
181	0xbcda443c	-0.026643865
182	0xbde8df67	-0.113707356
183	0xbc82fb29	-0.015988903
184	0xbda81c31	-0.08208502
185	0xbd572642	-0.05252672
186	0xbd93aa6d	-0.072102405
187	0xbdb8d595	-0.090251125
188	0x3d300df0	0.04298204
189	0xbd392780	-0.045203686
190	0xbcfee115	-0.031113187
191	0xbd5acda6	-0.053418778
192	0xbcebca6d	-0.028783048
193	0xbd8319fd	-0.06401441
194	0x3dc2ef58	0.095183074
195	0xbcf9eda1	-0.030508818
196	0xbd99b720	-0.075056314
197	0xbd28539a	-0.041095354
198	0xbd04122f	-0.032243904
199	0xbd444928	-0.04792133
200	0xbcaec0c0	-0.021332145
201	0x3d8fcbb4	0.07021275
202	0xbe610c7b	-0.21977417
203	0xbd6c65b7	-0.05771419
204	0xbc6719bd	-0.014105258
205	0xbeaa6ff1	-0.3328853
206	0xbd34f8cf	-0.044182595
207	0xbd8d6bf2	-0.069053546
208	0x3d408571	0.04700226
209	0xbd9f1e8b	-0.077694975
210	0xbe32155b	-0.17390959
211	0xbd2a436c	-0.041568205
212	0xbd88d846	-0.06681876
213	0xbe26193c	-0.16220564
214	0xbc787e82	-0.015166881
215	0xbcb7640f	-0.022386579
216	0xbd1815cf	-0.037130173
217	0xbd3726c1	-0.044714693
218	0x3d11bf5b	0.03558288
219	0xbd64d2be	-0.055865042
220	0x3d36cfd8	0.04463181
221	0x3deb45aa	0.11487897
222	0xbdfe1062	-0.124054685
223	0x3cdad6fb	0.026713839
224	0x3dace73c	0.08442542
225	0x3d18b108	0.037278205
226	0x3d4834b3	0.048878383
227	0x3da9ca9d	0.082905985
228	0x3d227f93	0.039672446
229	0x3d13db5e	0.036097877
230	0x3d8edb7c	0.06975457
231	0x3d944343	0.07239392
232	0x3c9f11a3	0.01941759
233	0x3cfa8b4f	0.030584006
234	0x3d80edc5	0.06295351
235	0xbcd13980	-0.025540113
236	0x3d61c595	0.05512007
237	0xbd7353bd	-0.05940603
238	0xbe354707	-0.17702876
239	0x3e358194	0.17725211
240	0x3d3831a4	0.044969216
241	0xbe03c9d2	-0.12869957
242	0x3d18bbd0	0.037288487
243	0xba8429ac	-0.001008322
244	0x3d983720	0.07432389
245	0xbd87618c	-0.066104025
246	0xbe372fb3	-0.1788929
247	0xbb7c3d41	-0.0038488659
248	0x3e18fc41	0.14939977
249	0xbe1abb21	-0.15110447
250	0xbd5b5037	-0.053543296
251	0x3da74448	0.081673205
252	0xbcf927b3	-0.030414438
253	0xbddb2169	-0.10699732
254	0xbd3732eb	-0.044726294
255	0x3ea2d66b	0.31804213

bn2.weight f4 [64]
0	0x3e0ae271	0.13562943
1	0x3dd31187	0.103060775
2	0x3d6cdb12	0.05782611
3	0x3d68766d	0.056753565
4	0x3e1d2501	0.15346147
5	0x3dc2f4ca	0.09519346
6	0x3e272d37	0.16325842
7	0x3ddb92fd	0.10721395
8	0x3d7ea4af	0.062168773
9	0x3d305b3c	0.043055758
10	0x3d7ecc1e	0.06220638
11	0x3d529e34	0.051420406
12	0x3e741f95	0.23840173
13	0x3dac1118	0.08401698
14	0x3d406a25	0.046976227
15	0x3e0e3ee4	0.13891178
16	0x3d5093c6	0.050922178
17	0x3dcba6c8	0.099439204
18	0x3e651470	0.22371078
19	0x3e1fdda0	0.15611887
20	0x3e05c916	0.1306499
21	0x3df189bd	0.117938496
22	0x3d906c44	0.070519
23	0x3e1c1a62	0.15244439
24	0x3d8c34ba	0.06845994
25	0x3db0311a	0.086031154
26	0x3e307762	0.17233041
27	0x3dc505a4	0.096202165
28	0x3e13e454	0.14442569
29	0x3e08036e	0.13282558
30	0x3e247192	0.16058949
31	0x3dfa7ef7	0.12231248
32	0x3e35fb37	0.17771612
33	0x3dbfc195	0.09363095
34	0x3e6311f9	0.22174825
35	0x3dca792e	0.098863944
36	0x3dfd6a52	0.123737946
37	0x3db6ad8e	0.08919822
38	0x3e46b858	0.19406259
39	0x3da51e71	0.08062447
40	0x3d0ddee9	0.03463641
41	0x3e2219b3	0.15830116
42	0x3e2b3d31	0.16722561
43	0x3e27b9a5	0.16379412
44	0x3e7369bc	0.23770803
45	0x3d48d0a3	0.049027096
46	0x3e523a8a	0.20530143
47	0x3e221ac8	0.15830529
48	0x3da119c6	0.07866244
49	0x3e1b2412	0.15150478
50	0x3e164be9	0.14677395
51	0x3df523b4	0.119697005
52	0x3e0fe531	0.14052273
53	0x3d7cea41	0.06174684
54	0x3d9c1ef8	0.07623094
55	0x3e26dbc8	0.16294777
56	0x3d712a10	0.058878005
57	0x3d66d968	0.05635968
58	0x3d6c235b	0.057650905
59	0x3dd6c794	0.10487285
60	0x3e254f95	0.1614364
61	0x3e6450c5	0.22296436
62	0x3e5949cb	0.21219556
63	0x3dfcc5b7	0.123423986

bn2.bias f4 [64]
0	0x3cb68887	0.022281898
1	0xbc11fbce	-0.008910133
2	0x3dc4677f	0.09590053
3	0x3c94db44	0.01817096
4	0x3c8562a5	0.016282389
5	0x3bda8fd1	0.0066699763
6	0xbe5df1b6	-0.21674237
7	0x3b1638f2	0.0022922126
8	0xbcd07520	-0.025446475
9	0x3d126a67	0.035746004
10	0x3d1e8f47	0.03871086
11	0x3d8151b1	0.063144095
12	0xbc47e603	-0.012200835
13	0xbc17f499	-0.009274625
14	0x3d168836	0.036750995
15	0xbe4fdd82	-0.20299342
16	0x3d793e5e	0.060850494
17	0x3daee5bf	0.08539914
18	0xbeb1494f	-0.34626243
19	0xbea43fb7	-0.3207986
20	0xbe725216	-0.23664126
21	0x3a9ee55d	0.0012122799
22	0xbd0b6ee8	-0.034041315
23	0xbc84dde3	-0.016219085
24	0x3b053802	0.0020327573
25	0x3d6c5fc0	0.0577085
26	0xbe7903a3	-0.24317794
27	0xbd7f91ac	-0.062394783
28	0x3b12e26f	0.0022412797
29	0x3bf83aee	0.0075753843
30	0xbe8c3c12	-0.2738958
31	0x3d7d9585	0.06191017
32	0xbdc3e047	-0.09564262
33	0x3d40154f	0.04689532
34	0x3bf6e77e	0.0075349202
35	0xbdd15add	-0.10222409
36	0xbd85b066	-0.06527786
37	0xbd6ba938	-0.057534426
38	0xbe04652b	-0.12929218
39	0x3d7cbe99	0.061705206
40	0x3d96a0e6	0.07354908
41	0xbebcfd82	-0.3691216
42	0xbe51c66d	-0.2048585
43	0x3dc64f4e	0.09683095
44	0xbd2381a0	-0.039918542
45	0x3d9a9ed6	0.07549827
46	0x3ca29ba1	0.0198496
47	0x3ea31bae	0.31857055
48	0x3ddb31c7	0.10702854
49	0xbe3f0f9b	-0.18658297
50	0xbe46ad35	-0.1940201
51	0x3d7435bb	0.059621554
52	0xbe0cbf1b	-0.13744776
53	0x3be78c61	0.007066295
54	0x3da9d3a3	0.082923196
55	0x3ca9989f	0.020702658
56	0x3d708173	0.058717202
57	0x3d8fb0a9	0.07016117
58	0x3d504d23	0.050854813
59	0xbca0f722	-0.019649092
60	0xbe446160	-0.1917777
61	0xbd12057b	-0.035649758
62	0xbdec0b82	-0.115256324
63	0x3ba33586	0.0049807457

bn2.running_mean f4 [64]
0	0xbe385fdf	-0.18005322
1	0xbe2ab99f	-0.16672371
2	0xbd059e30	-0.032621562
3	0x3ee1931d	0.4405755
4	0xbc3f8ffd	-0.011692044
5	0xbf09722a	-0.53689826
6	0x3ef989ab	0.48737845
7	0xbefc1baa	-0.49239856
8	0xbe5b8e66	-0.2144104
9	0xba827900	-0.0009954274
10	0x3e2f2082	0.17102244
11	0xbe8f9d8c	-0.28049886
12	0xbdb88901	-0.090105064
13	0x3e7515b3	0.23934059
14	0x3f254ce7	0.6457047
15	0x3e99841b	0.299836
16	0xbd992792	-0.074782506
17	0x3b976d5b	0.0046211905
18	0xbc62bb66	-0.013838625
19	0x3e52cb6d	0.20585413
20	0x3e8f5aae	0.2799887
21	0x3e3d7304	0.18500906
22	0x3dc20155	0.0947291
23	0xbe2e8bb3	-0.17045479
24	0xbed9b2b4	-0.42519152
25	0xbebfa368	-0.37429357
26	0x3da4a5ae	0.080394134
27	0xbe83874e	-0.25689167
28	0xbd2b8d2f	-0.04188269
29	0x3e08f170	0.13373351
30	0x3e71b02f	0.23602365
31	0xbdef0048	-0.116699755
32	0xbdad4a4d	-0.084614374
33	0xbf0c506a	-0.548102
34	0x3e3eccd4	0.18632823
35	0x3de4bfad	0.11169372
36	0x3eb9f787	0.3632166
37	0x3e100e79	0.14068021
38	0xbe8e8f5d	-0.27843753
39	0x3ddb27b7	0.107009344
40	0xbe4825e4	-0.19545704
41	0x3f2b5385	0.66924316
42	0x3f21d104	0.6320956
43	0x3d8aee83	0.06783774
44	0xbe1bf997	-0.1523193
45	0x3e0422a3	0.12903838
46	0xbeb92100	-0.3615799
47	0xbefcb1e3	-0.49354467
48	0x3e476490	0.19471955
49	0x3d81468d	0.063122846
50	0x3e0c0af2	0.1367605
51	0xbdbdcb45	-0.09267286
52	0x3de4c84e	0.111710176
53	0x3e9f0252	0.31056458
54	0x3dfaff76	0.122557566
55	0x3d98a635	0.074535765
56	0x3dc57775	0.09641925
57	0x3ec6e99e	0.3885011
58	0xbeb617d8	-0.35565066
59	0xbe04b9e3	-0.12961535
60	0x3ea93ace	0.33052677
61	0x3e955400	0.2916565
62	0x3d0c5ca1	0.034268025
63	0xbdd40a45	-0.10353521

bn2.running_var f4 [64]
0	0x3dbc5d73	0.091975115
1	0x3cd84a0f	0.026402501
2	0x3b0ba6a2	0.0021309038
3	0x3c19bcdf	0.009383409
4	0x3cd4e732	0.025989149
5	0x3b1e48f6	0.0024152375
6	0x3c405b5a	0.01174053
7	0x3eaa3460	0.33243084
8	0x3cf48df4	0.029852845
9	0x3b9dad76	0.004811938
10	0x3d102ae8	0.03519717
11	0x3af4927b	0.0018659377
12	0x3e10caf4	0.1413992
13	0x3d51d9ac	0.05123298
14	0x3b238b10	0.0024954714
15	0x3d3744e3	0.04474343
16	0x3b9f2e8b	0.0048578433
17	0x3c65b17e	0.014019368
18	0x3e162f43	0.14666466
19	0x3dcfb44d	0.101418115
20	0x3d0b22db	0.033968788
21	0x3ceff00e	0.029289272
22	0x3c86eb3c	0.01646959
23	0x3c8b6a5d	0.017018491
24	0x3cf0780f	0.029354123
25	0x3a8001b8	0.0009766137
26	0x3e2b3cb3	0.16722374
27	0x3bbaaa55	0.0056965747
28	0x3d04238f	0.032260474
29	0x3c9b0076	0.018921118
30	0x3e088b02	0.13334277
31	0x3c9a9878	0.01887153
32	0x3e6baeb9	0.2301587
33	0x3d0b6e49	0.034040723
34	0x3dfa8d11	0.122339375
35	0x3da8633b	0.08222052
36	0x3c656668	0.014001466
37	0x3c78288e	0.015146388
38	0x3e81caa6	0.2534992
39	0x3d25a35f	0.040439006
40	0x3add55d1	0.0016886537
41	0x3c994baa	0.018712837
42	0x3df5ef82	0.12008573
43	0x3e654d0d	0.22392674
44	0x3e01a893	0.12661962
45	0x3bde0b72	0.0067762667
46	0x3df38581	0.11890698
47	0x3df17916	0.117906734
48	0x3b8f8df1	0.0043809344
49	0x3e080f80	0.13287163
50	0x3c266e0a	0.010158071
51	0x3ca15d4e	0.019697811
52	0x3be08207	0.006851438
53	0x3c42d3d4	0.011891324
54	0x3bf454fc	0.00745642
55	0x3ce55b19	0.02799754
56	0x3c4d8ba1	0.012545497
57	0x3bb20cfc	0.0054336768
58	0x3b6bb6eb	0.0035967182
59	0x3d347de5	0.044065375
60	0x3c27ec9f	0.010249286
61	0x3e223226	0.15839443
62	0x3e6ae639	0.22939385
63	0x3c9c355f	0.019068418

conv3.weight f4 [64, 64, 3, 3]
0	0x3bc34134	0.0059587006
1	0x3c696cb5	0.014247109
2	0x3d9c7bca	0.076407984
3	0x3c174340	0.009232342
4	0xbc18f3a3	-0.009335431
5	0x3d48c76e	0.049018316
6	0xbe1b0b01	-0.15140916
7	0x3d3a0e97	0.04542407
8	0x3d8b7a93	0.068104886
9	0x3a71d3cf	0.00092249824
10	0xbc868db5	-0.016424993
11	0xbdf50b96	-0.119651005
12	0x3d0c3be1	0.034236792
13	0x3ccfcfa6	0.02536757
14	0xbf1caaa9	-0.61197907
15	0xbc08dc61	-0.008353324
16	0xbd87a2d9	-0.066228576
17	0xbe680bc7	-0.22660743
18	0x3c159e17	0.00913193
19	0xbd5c4a61	-0.05378187
20	0xbd187b75	-0.037227113
21	0x3c29d96e	0.010366781
22	0xbc794494	-0.015214104
23	0xbe24edfd	-0.1610641
24	0xbca9d0dc	-0.020729475
25	0x3daa1e96	0.08306615
26	0xbd9417f2	-0.0723113
27	0x3d465178	0.04841754
28	0xbdd20985	-0.10255722
29	0x3d9c4508	0.07630354
30	0x3df93166	0.12167625
31	0x3c910301	0.017701628
32	0x3d833032	0.06405677
33	0x3e469e6d	0.19396372
34	0x3e229d7c	0.15880388
35	0x3ddf2542	0.10895778
36	0xbcb84940	-0.022495866
37	0xbdb7551f	-0.089517824
38	0xbd5af0f9	-0.053452466
39	0xbdbbac1b	-0.09163686
40	0xbca84e9f	-0.020545302
41	0xbdf49a7a	-0.119435266
42	0x3cb448ef	0.022007434
43	0xbdae662d	-0.08515582
44	0xbd3e93e9	-0.046527777
45	0x3d23d066	0.039993666
46	0xbc2d3880	-0.010572553
47	0xbca5604b	-0.020187518
48	0xbdef2543	-0.11677029
49	0xbe1cf864	-0.15329129
50	0xbe885014	-0.26623595
51	0xbce1fa46	-0.02758516
52	0xbdcd27e4	-0.10017374
53	0xbb703fba	-0.0036659078
54	0x3d593fad	0.05303924
55	0x3e102c67	0.14079438
56	0x3c49ca3f	0.012316286
57	0xbd1aa265	-0.037752528
58	0xbde20a96	-0.11037175
59	0xbe0ec355	-0.13941701
60	0xbc5f9d5a	-0.013648355
61	0xbe09f3dd	-0.13471933
62	0xbcc774a1	-0.024347605
63	0x39bdc1da	0.0003619332
64	0xbd24d046	-0.040237688
65	0x3cf4a955	0.0298659
66	0xbd9bf80b	-0.0761567
67	0xbde65a49	-0.11247689
68	0x3c879942	0.016552571
69	0xbc3e4b5d	-0.011614648
70	0x3d6bb522	0.05754579
71	0x3ddc3010	0.10751355
72	0x3d2306c1	0.039801363
73	0x3c349456	0.011021694
74	0xbe792de7	-0.24333917
75	0xbe56ff96	-0.20995936
76	0xbda7887e	-0.08180331
77	0xbe9b0cc3	-0.30283174
78	0x3e2e3cb1	0.1701534
79	0x3da5aaf3	0.080892466
80	0xbe0cfd86	-0.13768587
81	0x3b8d7057	0.0043163705
82	0x3c96e855	0.018421331
83	0xbc5a0e3d	-0.013309059
84	0xbc266dd4	-0.010158021
85	0x3e381647	0.17977248
86	0x3b7571c6	0.0037451847
87	0x3c956fb5	0.018241743
88	0x3e1a1502	0.15047076
89	0x3ce0a31e	0.02742153
90	0x3c51c20e	0.012802614
91	0xbd86687f	-0.065629
92	0xbc849007	-0.016181959
93	0x3df7bc60	0.120964766
94	0xbe8e7a2c	-0.27827585
95	0xbdbb6400	-0.09149933
96	0xbcf39780	-0.029735327
97	0xbdc99550	-0.09842932
98	0x3dd89f6e	0.10577284
99	0xbd4a9d75	-0.04946657
100	0x3e00d4e1	0.12581207
101	0xbc5ca04a	-0.01346595
102	0x3cc71c6b	0.024305543
103	0x3bd11c2a	0.0063815312
104	0x3ceda853	0.029010927
105	0xbd4997a5	-0.049216885
106	0xbde3f9f3	-0.111316584
107	0x3d60adb8	0.05485317
108	0x3c5c7a58	0.013456903
109	0x3c195d4e	0.0093606245
110	0x3d63ffee	0.055663995
111	0xbdff35e6	-0.12461452
112	0xbd79fa3b	-0.061029654
113	0x3c72c6de	0.014817921
114	0xbc306719	-0.010766768
115	0xbd7656bd	-0.060141314
116	0x3d6d2cdf	0.05790412
117	0xbd19b8ce	-0.03752976
118	0xbdd6fdc9	-0.104976244
119	0xbdf12656	-0.1177489
120	0xbd90f812	-0.07078566
121	0xbead7524	-0.33878434
122	0x3d701f7b	0.058623772
123	0xbd39d65b	-0.04537044
124	0xbded5f48	-0.11590439
125	0x3d7ccd50	0.06171924
126	0xbdb03406	-0.08603673
127	0xbdcb0526	-0.09913091
128	0x3dc919cd	0.09819374
129	0xbac00943	-0.0014651198
130	0x3db51a7a	0.08842941
131	0xbc099259	-0.008396708
132	0xbd84b4db	-0.06479808
133	0xbcccdc9c	-0.025007538
134	0xbd28d302	-0.041216858
135	0x3b8148c0	0.00394544
136	0x3dc670c4	0.09689477
137	0xbb347d2c	-0.0027540429
138	0x3bca6a60	0.0061772317
139	0x3ccac3c6	0.024751555
140	0x3c255e6a	0.010093311
141	0xbdaf5acd	-0.08562241
142	0x3d4caa65	0.04996719
143	0x3d0362ab	0.03207652
144	0xbc9e17af	-0.019298403
145	0xbdfc5446	-0.123207614
146	0xbddb2e51	-0.107021935
147	0xbdc6d4a2	-0.09708525
148	0xbc6992d4	-0.014256198
149	0x3d04c583	0.032414924
150	0x3db3b666	0.08775024
151	0xbd0c5f06	-0.03427031
152	0xbdf7f8de	-0.121080145
153	0x3e0eb133	0.13934784
154	0xbe0164b4	-0.12636071
155	0x3d09c97f	0.033639427
156	0xbbb431a4	-0.0054990817
157	0xbd0ccf42	-0.034377344
158	0x3dbe6783	0.09297087
159	0xbd531d9b	-0.051541906
160	0xbd97c606	-0.07410817
161	0x3cdf8fd3	0.02729026
162	0xbd047504	-0.032338157
163	0xbdd7c461	-0.10535503
164	0xbb662176	-0.003511516
165	0xbe8118fa	-0.25214368
166	0xbcbf5236	-0.02335463
167	0xbb9df667	-0.004820633
168	0xbe0ec50c	-0.13942355
169	0xbe3cf09d	-0.18451162
170	0x3bb01608	0.00537372
171	0xbd0ae949	-0.033913884
172	0xbde3e3e6	-0.111274526
173	0xbd8fce4c	-0.0702177
174	0xbdaff6fd	-0.08592031
175	0x3e19243a	0.14955226
176	0x3e9684e6	0.29398268
177	0xbd164291	-0.036684576
178	0xbd5b2d8a	-0.053510226
179	0x3e134ba9	0.14384331
180	0x3d17d41d	0.03706752
181	0xbd33186d	-0.043724466
182	0xbd0c7afa	-0.034296967
183	0xbe0c268b	-0.13686578
184	0xbe85394d	-0.2602028
185	0xbdeac7fc	-0.11463925
186	0xbd95fd5f	-0.07323717
187	0xbe37e145	-0.17957027
188	0xbdc2fa68	-0.095204175
189	0xbd439586	-0.04775002
190	0xbd0f0610	-0.03491789
191	0xbcb7a99f	-0.022419749
192	0xbdf4967c	-0.11942765
193	0xbe2f1b88	-0.17100346
194	0xbe803946	-0.25043696
195	0x3bd98eac	0.0066393223
196	0x3d4f6853	0.0506366
197	0xbe4e79b7	-0.20163618
198	0xbdd269f3	-0.102741145
199	0x3cda26cb	0.026629826
200	0xbd72d882	-0.05928851
201	0x3e4ab447	0.19795333
202	0x3d9e806c	0.07739338
203	0x3c58557b	0.013203974
204	0xbd422e3d	-0.047407378
205	0x3dcfa1bf	0.101382725
206	0x3dbe57be	0.09294079
207	0x3d2cf236	0.042223178
208	0x3d868670	0.06568611
209	0x3dd14d26	0.10219793
210	0x3c3ce8ab	0.011530082
211	0xbe2cf34d	-0.16889687
212	0x3c39eb8a	0.011347661
213	0xbda7d81d	-0.08195517
214	0xbd367440	-0.04454446
215	0xbde90057	-0.11377018
216	0xbdad60ba	-0.08465715
217	0xbddeea8c	-0.1088458
218	0xbdf58611	-0.11988462
219	0xbcf73193	-0.030175006
220	0xbcb834b0	-0.02248606
221	0xbd9931e1	-0.07480217
222	0x3d93a950	0.07210028
223	0xbd38d500	-0.045125008
224	0xbdcdc8b8	-0.1004805
225	0xbdc185a3	-0.09449317
226	0x3c809cfe	0.01569986
227	0xbd89ad32	-0.067224875
228	0x3c1b762a	0.009488622
229	0x3bd857af	0.0066022496
230	0xbe16edbe	-0.14739129
231	0xbd60cbd3	-0.054881882
232	0xbdb412be	-0.08792637
233	0xbb6e2fbb	-0.0036344368
234	0x3dbb4b4a	0.091452196
235	0x3d8b4c76	0.06801693
236	0x3d859150	0.06521857
237	0x3dd80613	0.105480336
238	0x3e04782b	0.12936465
239	0x3daf022d	0.08545337
240	0x3e12c330	0.1433227
241	0x3e2b7e61	0.16747428
242	0x3de78c8b	0.11306103
243	0xbcf3dbac	-0.029767834
244	0x3b42f6be	0.002974912
245	0xbd00af12	-0.03141696
246	0xbdc64293	-0.09680667
247	0xbdf2b7bf	-0.11851453
248	0xbcc13bef	-0.023588149
249	0x3dec6275	0.11542217
250	0xbd811f72	-0.06304826
251	0x3df56058	0.11981267
252	0xbd49dfcf	-0.049285706
253	0xbe0a228f	-0.13489746
254	0xbd59c32e	-0.053164653
255	0xb9485f3c	-0.00019108964

bn3.weight f4 [64]
0	0x3db1a375	0.08673755
1	0x3e487c44	0.19578654
2	0x3e4ef975	0.20212348
3	0x3e6c8ebf	0.23101328
4	0x3e419208	0.18903363
5	0x3ddb5ef7	0.107114725
6	0x3e448dab	0.19194667
7	0x3d8ae317	0.06781595
8	0x3e41164d	0.18856163
9	0x3e606a53	0.2191556
10	0x3d92ae69	0.07162172
11	0x3dc0bd24	0.09411076
12	0x3e2f97a0	0.17147684
13	0x3e46eee7	0.19427072
14	0x3e701e60	0.23449087
15	0x3e193ddd	0.14965005
16	0x3e2c100d	0.16802998
17	0x3d677722	0.0565101
18	0x3e188403	0.14894108
19	0x3e2dadd3	0.1696084
20	0x3dd172d5	0.102269806
21	0x3e0510f5	0.1299475
22	0x3e5246c7	0.20534812
23	0x3dac95e6	0.08427028
24	0x3d9fe290	0.07806885
25	0x3e225b15	0.15855058
26	0x3e9d4399	0.30715635
27	0x3e1baba6	0.15202197
28	0x3e6f5e18	0.23375738
29	0x3dc94c0e	0.098289594
30	0x3deab078	0.1145944
31	0x3e7a83f3	0.24464397
32	0x3d55dffc	0.05221556
33	0x3e3ef6c6	0.18648824
34	0x3e326096	0.17419657
35	0x3dac8c30	0.08425176
36	0x3df48d76	0.11941044
37	0x3e1478e0	0.14499235
38	0x3e3c9a00	0.18418121
39	0x3e63fb8d	0.22263928
40	0x3dd5fb0e	0.104482755
41	0x3d98803d	0.074463345
42	0x3e3664e2	0.17811921
43	0x3e75ce07	0.24004374
44	0x3e186061	0.14880516
45	0x3e647676	0.22310814
46	0x3e4eb125	0.20184763
47	0x3e57a07f	0.21057318
48	0x3e1fa4ef	0.15590261
49	0x3d338cd2	0.04383547
50	0x3e0b66c9	0.13613428
51	0x3e252eec	0.1613118
52	0x3da24a6c	0.07924351
53	0x3e408068	0.18798983
54	0x3de4a4fc	0.11164281
55	0x3e2ac518	0.16676748
56	0x3da03ad0	0.078237176
57	0x3e7d0cf8	0.24711978
58	0x3d664a3a	0.05622313
59	0x3e1f0259	0.1552824
60	0x3da5d144	0.08096555
61	0x3e5ee8fa	0.21768561
62	0x3e3107b6	0.17288098
63	0x3e0f08b4	0.13968164

bn3.bias f4 [64]
0	0x3d0b7839	0.0340502
1	0xbbeea2e8	-0.0072826035
2	0xbd30dcee	-0.043179445
3	0x3cc29abf	0.02375543
4	0xbd813bf1	-0.06310261
5	0x3dc89ba2	0.097953096
6	0xbd611c85	-0.05495884
7	0x3e34cd58	0.17656457
8	0x3d7b1c22	0.061306126
9	0xbdfc1c88	-0.123101294
10	0x3e6a2f7a	0.22869673
11	0x3e8040c6	0.25049418
12	0x3d1fac80	0.03898287
13	0x3cdcbabe	0.026944514
14	0xbd81d601	-0.06339646
15	0xbdfbb40b	-0.122902
16	0xbded2422	-0.115791574
17	0x3d83656d	0.0641583
18	0x3da214d5	0.0791413
19	0x3d187362	0.037219413
20	0x3cf16a88	0.029469743
21	0x3da8d9d7	0.08244675
22	0x3d5cf27d	0.053942192
23	0x3d58c819	0.052925203
24	0x3dc4b469	0.09604723
25	0xbec057d0	-0.37566996
26	0xbed26a00	-0.41096497
27	0xbe081aa5	-0.13291414
28	0xbd075017	-0.033035364
29	0x3dba3a93	0.090932034
30	0x3d3375e2	0.043813594
31	0xbe2f3076	-0.1710833
32	0x3d95bd30	0.07311475
33	0x3d8dc291	0.06921876
34	0xbe40aab3	-0.18815117
35	0x3d489e00	0.048978806
36	0x3db9f786	0.090804145
37	0xbcd9d589	-0.02659108
38	0x3c946cff	0.01811838
39	0x3dfe0c98	0.12404746
40	0x3d03919d	0.03212129
41	0x3e0eb14d	0.13934822
42	0x3d1aa4eb	0.037754934
43	0xbeb30a46	-0.34968776
44	0x3d5e5bc3	0.05428673
45	0xbd9e3b89	-0.07726199
46	0xbcb8f5c3	-0.022578126
47	0x3d0071a5	0.03135838
48	0xbeb57916	-0.35443944
49	0x3defefea	0.11715682
50	0xbe2d079d	-0.16897435
51	0xbd90d549	-0.07071931
52	0x3cd694f1	0.026194068
53	0x3d9f070e	0.077650174
54	0x3d5246a9	0.051336918
55	0xbe752025	-0.23938043
56	0x3e4e5ce2	0.2015262
57	0xbcb3a859	-0.02193086
58	0x3dbf2efb	0.09335133
59	0x3e0e01d4	0.13867885
60	0x3e0f4af6	0.13993439
61	0xbea0ef8f	-0.3143277
62	0x3cec05d9	0.028811382
63	0xbe00e387	-0.12586795

bn3.running_mean f4 [64]
0	0xbe2de8d6	-0.16983351
1	0xbe800986	-0.25007266
2	0xbdac7811	-0.08421338
3	0xbe4e1bc2	-0.20127776
4	0xbeab0c4e	-0.33407825
5	0xbec5b838	-0.3861711
6	0x3d301667	0.042990115
7	0xbbf51849	-0.0074797017
8	0xbe85a8d6	-0.26105374
9	0x3d83fca7	0.06444674
10	0xbd8e125c	-0.069370955
11	0xbe943e2c	-0.28953683
12	0xbcbca44f	-0.023027567
13	0xbc6e9650	-0.0145622045
14	0x3e5771c5	0.21039493
15	0xbebfb860	-0.37445354
16	0xbe5dfaee	-0.21677753
17	0xbe87b7b4	-0.26507342
18	0xbd2aa474	-0.04166074
19	0x3e1ea93f	0.1549425
20	0x3d43fa88	0.047846347
21	0x3c8a3e76	0.016875487
22	0x3d154aa2	0.03644813
23	0xbcfc14f6	-0.030771714
24	0xbbbe4495	-0.0058065155
25	0xbec07f84	-0.37597287
26	0xbe1e91af	-0.15485261
27	0xbe773bef	-0.24143957
28	0x3eab3f39	0.33446673
29	0x3ee3bf6d	0.44481984
30	0xbd2ab339	-0.041674826
31	0x3e6f6654	0.23378879
32	0xbe73e380	-0.23817253
33	0xbb824241	-0.0039751832
34	0xbe620811	-0.2207339
35	0xbeb74077	-0.3579137
36	0xbc3f4f7a	-0.0116766635
37	0xbe08a760	-0.13345098
38	0x3ecb7a23	0.3974162
39	0x3c66ec8f	0.014094486
40	0xbe25cd30	-0.16191554
41	0xb9da64c9	-0.0004165529
42	0xbe196356	-0.149793
43	0xbeaa467d	-0.33256903
44	0xbdd59112	-0.104280606
45	0x3d712558	0.058873504
46	0xbdba4d4c	-0.090967745
47	0x3d8c4df6	0.06850807
48	0xbf218be9	-0.6310411
49	0xbe8c47fd	-0.27398673
50	0xbdb602f1	-0.0888728
51	0xbe6bcfb8	-0.23028457
52	0xbe8bf736	-0.27337044
53	0x3f222cce	0.63349617
54	0xbe877b84	-0.26461422
55	0xbeef7b0c	-0.46773565
56	0xbec66f11	-0.38756612
57	0x3ac18d17	0.001476678
58	0xbd877a3d	-0.06615112
59	0xbe02db80	-0.12779045
60	0xbec5c020	-0.38623142
61	0xbe83f568	-0.25773168
62	0xbd812a74	-0.063069254
63	0xbeb81803	-0.3595582

bn3.running_var f4 [64]
0	0x3d192aaa	0.037394203
1	0x3e5834da	0.21113911
2	0x3df59dcb	0.11992987
3	0x3eff8445	0.499056
4	0x3e1f0879	0.15530576
5	0x3ca07450	0.019586712
6	0x3f1af1c6	0.60525167
7	0x3c9de2a0	0.019273102
8	0x3dd3963d	0.1033139
9	0x3ebb7171	0.36609986
10	0x3caf1b19	0.021375226
11	0x3d159734	0.03652115
12	0x3dfdbf60	0.123900175
13	0x3f0548d1	0.52064234
14	0x3f4e3d89	0.80562645
15	0x3d3482e3	0.044070136
16	0x3e37457b	0.17897598
17	0x3c9ee1d2	0.019394789
18	0x3dbd5460	0.09244609
19	0x3f00c51d	0.5030077
20	0x3d27d9b8	0.040979117
21	0x3d9deb63	0.07710912
22	0x3dd665d6	0.104686424
23	0x3d8b3432	0.06797065
24	0x3ca70b29	0.020391064
25	0x3c4c5020	0.012470275
26	0x3c8211d6	0.015877645
27	0x3e2dfec0	0.1699171
28	0x3f1c2754	0.6099751
29	0x3def29c1	0.11677886
30	0x3d22f180	0.039781094
31	0x3f0af625	0.54281837
32	0x3c855318	0.016274974
33	0x3db99542	0.09061672
34	0x3d69fb9a	0.05712471
35	0x3cb1dbb1	0.021711202
36	0x3d93331d	0.071874835
37	0x3e6a8fc9	0.22906412
38	0x3e8d01c3	0.27540407
39	0x3dd8bdbb	0.10583063
40	0x3cebcaf9	0.028783308
41	0x3c99f349	0.018792765
42	0x3dc392ac	0.0954946
43	0x3cbf172a	0.023326475
44	0x3da7fc3a	0.08202405
45	0x3f28c96a	0.65932333
46	0x3e63929c	0.22223896
47	0x3e651741	0.22372152
48	0x3f154e82	0.5832292
49	0x3c38f3eb	0.011288623
50	0x3e061fe6	0.13098106
51	0x3e843fcf	0.25829932
52	0x3d51fa56	0.05126413
53	0x3efbc09c	0.49170387
54	0x3d77ccf1	0.06049818
55	0x3d6dc41c	0.058048353
56	0x3ca57317	0.02019648
57	0x3f224dd3	0.634
58	0x3c35ab99	0.011088275
59	0x3d8aec26	0.06783323
60	0x3cb71c1a	0.022352267
61	0x3cfbb9ef	0.030728308
62	0x3f09319a	0.5359131
63	0x3ce13e12	0.027495418

conv4.weight f4 [64, 64, 3, 3]
0	0x3d3fdfd6	0.046844326
1	0xbd17e686	-0.03708508
2	0x3c7f0378	0.015564792
3	0x3e63fa21	0.22263385
4	0xbdb36635	-0.08759729
5	0x3c7a6232	0.015282201
6	0xbc92605e	-0.017868217
7	0x3b369353	0.0027858808
8	0xbc22a91d	-0.009928015
9	0x3ddb258f	0.10700523
10	0x3a0290f9	0.0004980709
11	0xbc229db1	-0.009925292
12	0x3d847723	0.06468036
13	0xbd5c1fec	-0.05374138
14	0xbd5643b6	-0.052310668
15	0xbc803af8	-0.015653118
16	0xbcaf9aa6	-0.021436047
17	0xbc66b0c8	-0.014080234
18	0x3e46f197	0.19428097
19	0xbe8394d3	-0.2569948
20	0xbcd0feff	-0.025512217
21	0x3e140242	0.14453986
22	0xbd3ee1d4	-0.046602085
23	0x3af182a0	0.001842577
24	0xbc4716c6	-0.012151426
25	0x3cf54ce0	0.029943883
26	0x3b46090c	0.0030217795
27	0x3e8013f8	0.25015235
28	0xbcb30e38	-0.021857366
29	0xbc39664a	-0.0113158915
30	0x3e000a8d	0.12504025
31	0xbde9a897	-0.11409109
32	0xbd014db4	-0.031568244
33	0x3d234f4d	0.03987055
34	0xbc9f73a3	-0.01946432
35	0xbc47a8b6	-0.01218622
36	0x3e8236a7	0.2543232
37	0xbd797c2c	-0.060909435
38	0xbc0880f7	-0.008331529
39	0xbd15538b	-0.036456626
40	0xbe193403	-0.14961247
41	0x3c98fe22	0.018675867
42	0x3cf65e98	0.030074403
43	0xbd39d46a	-0.04536859
44	0xbad948d7	-0.0016577494
45	0x3cd215e4	0.025645204
46	0xbe3af5cd	-0.18257828
47	0xbcb74698	-0.022372529
48	0x3e2979bb	0.16550343
49	0x3e236572	0.15956667
50	0xbd1193ee	-0.035541467
51	0xbcd389fa	-0.025822628
52	0x3bd8520b	0.006601577
53	0xbcb20347	-0.021730078
54	0xbda2bdad	-0.07946334
55	0xbd4c74d4	-0.049916103
56	0xbd1823bc	-0.037143454
57	0xbd4b2dd4	-0.049604252
58	0xbd99d440	-0.075111866
59	0xbd46f825	-0.048576493
60	0xbbed8fb2	-0.007249796
61	0x3a810d93	0.0009845964
62	0xbcaec38e	-0.021333482
63	0x3e026e54	0.127374
64	0x3dd9a110	0.10626423
65	0x3c5255ac	0.012837809
66	0xbe35e95d	-0.17764802
67	0xbdaab7f1	-0.08335865
68	0x3d2133c8	0.039356023
69	0xbc71cd7d	-0.014758465
70	0xbc628430	-0.013825461
71	0x3c0b3590	0.008496657
72	0x3e19185b	0.14950697
73	0xbcdee23c	-0.027207486
74	0xbc23505b	-0.009967889
75	0xbe9695cd	-0.29411164
76	0xbe373a13	-0.17893247
77	0x3c950c6a	0.018194396
78	0x3bc5ad13	0.006032595
79	0x3bca5230	0.0061743483
80	0xbb32a60a	-0.0027259612
81	0x3e220af6	0.15824494
82	0xbc8979da	-0.016781736
83	0xbc77e0cc	-0.015129279
84	0x3e49571a	0.19662133
85	0xbe196e60	-0.14983511
86	0xbca2de57	-0.01988141
87	0x3bab4b22	0.0052274624
88	0x3b779c0e	0.0037782225
89	0xbbd32a39	-0.0064442423
90	0x3e197ea7	0.1498972
91	0x3b5d7562	0.003379189
92	0x3abcb531	0.0014397261
93	0x3d8db2e9	0.0691889
94	0xbcfea05b	-0.031082323
95	0x3ccccf84	0.025001295
96	0xbd1c9cd9	-0.03823552
97	0xbd1d6224	-0.038423672
98	0x3b2ff99c	0.002685166
99	0x3c8caa8d	0.017171169
100	0xbca4fb9a	-0.020139504
101	0xbc0507f6	-0.008119574
102	0xbb84c875	-0.0040522167
103	0xbd88ab97	-0.06673353
104	0xbca3f0b3	-0.020012235
105	0xbbfb8393	-0.007675597
106	0xbcc631d1	-0.024193676
107	0x3c27e2e5	0.010246967
108	0xbe1b8c36	-0.15190205
109	0x3e3ef5cd	0.18648453
110	0x3c980e16	0.018561404
111	0x3e092061	0.13391258
112	0xbd3180ad	-0.043335605
113	0xbcd6dd5c	-0.0262286
114	0x3cfe8203	0.031067854
115	0xbbf77871	-0.0075521995
116	0x3c8cf856	0.01720826
117	0xbd6dc209	-0.058046374
118	0xbdc25514	-0.094888836
119	0xbbbb3826	-0.0057134805
120	0x3ca76ff1	0.02043912
121	0x3d9d231c	0.07672712
122	0xbb97a2cd	-0.0046275617
123	0x3c045e9b	0.008079196
124	0xbbe1922d	-0.0068838806
125	0x3c630a58	0.013857447
126	0xbe7075aa	-0.23482385
127	0xbe116cec	-0.14201707
128	0xbc69cd30	-0.014270112
129	0xbe73526f	-0.23761915
130	0xbd617530	-0.0550434
131	0xbc98d528	-0.018656328
132	0xbc3428e2	-0.010996075
133	0xba83dca9	-0.0010060269
134	0xbcafa1d0	-0.021439463
135	0x3d46d1a4	0.048539773
136	0xbc4d3a83	-0.012526157
137	0x3d283551	0.04106647
138	0xbd1319fa	-0.035913445
139	0xbd438e53	-0.047743153
140	0x3cec90e8	0.02887769
141	0xbb0d2683	-0.0021537847
142	0xbbbcaea5	-0.005758124
143	0xbc743866	-0.014906025
144	0xbd0a2d9e	-0.03373491
145	0x3c79f701	0.015256644
146	0xbbf7d733	-0.0075634955
147	0xbdca4b89	-0.098776884
148	0xbe7aaf28	-0.2448088
149	0xbdca2d86	-0.09871964
150	0x3b38b4a0	0.0028183833
151	0x3c868faf	0.016425936
152	0x3c97f20b	0.018548032
153	0x3dc3e32e	0.095648155
154	0x3d1fdc06	0.03902819
155	0x3cd6cd5a	0.026220966
156	0xbc016a41	-0.007898868
157	0xbdb6edac	-0.08932051
158	0x3cb5579a	0.022136498
159	0xbb579abe	-0.003289863
160	0xbc464780	-0.012102008
161	0x3cbefccd	0.023313904
162	0x3dfd52b6	0.123692915
163	0xbe86ae25	-0.26304737
164	0xbc781fe3	-0.015144321
165	0xbe337ac6	-0.17527303
166	0x3c1393bb	0.00900739
167	0x3c7fd438	0.015614562
168	0xbd245838	-0.040123194
169	0x3c4ee714	0.0126283355
170	0x3b944e2c	0.0045259204
171	0x3cb4face	0.02209225
172	0xbc338dec	-0.01095913
173	0x3ca481ef	0.020081488
174	0xbd320429	-0.043461
175	0xbe908bf4	-0.28231776
176	0xbd59e8cf	-0.05320054
177	0xbcadd3f1	-0.021219226
178	0xbd55e9e7	-0.05222502
179	0xbc1f7bde	-0.009734122
180	0x3c147d71	0.009063111
181	0x3d22b86f	0.03972667
182	0xbc5839b8	-0.013197355
183	0xbe4244fe	-0.18971631
184	0xbe31cc3e	-0.17363068
185	0x3d6d5875	0.057945687
186	0x3cfc1d89	0.030775802
187	0x3c9f6fb7	0.01946245
188	0xbb262ba3	-0.00253556
189	0x3e17db7e	0.14829823
190	0xbe4fd5c8	-0.20296395
191	0x39f81521	0.00047317988
192	0xbce6f87c	-0.028194658
193	0x3d59d80a	0.053184547
194	0xbc48151a	-0.012212062
195	0x3cf1d840	0.029522061
196	0x3bb1124a	0.0054037916
197	0x3c7e2e85	0.015514021
198	0x3cc563d5	0.024095455
199	0x3e4ce9f2	0.20011118
200	0x3ad1ff2c	0.0016021482
201	0x3e7fc699	0.24978103
202	0xbe7532c7	-0.23945151
203	0x3d0e2654	0.03470452
204	0xbd203dcd	-0.039121438
205	0x3c52cc95	0.012866159
206	0xbb78db97	-0.0037972683
207	0xbe8da18c	-0.27662313
208	0x3d55cf30	0.052199543
209	0xbd446efa	-0.047957398
210	0xbd8f9cdf	-0.07012343
211	0xbd70a63f	-0.058752295
212	0xbd0d68d6	-0.034523807
213	0x3ccf5053	0.025306856
214	0x3bb8a0b0	0.00563439
215	0x3c009171	0.007847176
216	0xbcebcc84	-0.028784044
217	0x3e1cec9f	0.15324639
218	0x39130d4d	0.00014023967
219	0xbde21470	-0.110390544
220	0xbe3deefa	-0.18548194
221	0x3bbb9183	0.0057241335
222	0x3c5cecb8	0.0134841725
223	0x3ba48721	0.0050209914
224	0xbcda4b25	-0.02664716
225	0x3c9d86bc	0.019229285
226	0xbcd91445	-0.026498923
227	0x3ab33065	0.0013671039
228	0x3a8fb942	0.0010965245
229	0x3c3afb32	0.011412429
230	0xbbb103e9	-0.0054020775
231	0xbd4c0c94	-0.049816683
232	0xbc063865	-0.008192156
233	0xbcb01d9c	-0.021498494
234	0xbc22eb4f	-0.009943797
235	0x3c842d2f	0.016134826
236	0x3a6f9a8e	0.0009140157
237	0x3c93d850	0.018047482
238	0xbcbd5f6d	-0.023116792
239	0xbc0c34ff	-0.008557557
240	0x3c2c6e26	0.010524308
241	0xbc85b29e	-0.016320523
242	0xba1ac2eb	-0.0005903679
243	0xbc3f7704	-0.01168609
244	0xbdc0d1bb	-0.09415003
245	0xbd600f12	-0.054701872
246	0x3d9ff2e6	0.07810001
247	0xbd938209	-0.072025366
248	0xbaa5722b	-0.0012622526
249	0xbb1bef70	-0.002379384
250	0x3ba45915	0.005015502
251	0xbcba3d03	-0.02273417
252	0xbe725ca2	-0.23668149
253	0xbe30e9c8	-0.1727668
254	0xbc7c8a9a	-0.015413905
255	0xbe3ca200	-0.18421173

bn4.weight f4 [64]
0	0x3f007e01	0.50192267
1	0x3dec78aa	0.11546452
2	0x3eb7dac4	0.35909092
3	0x3d0c34e1	0.034230117
4	0x3e458ad9	0.19291247
5	0x3da40237	0.08008235
6	0x3e8fcb6e	0.28084892
7	0x3e06775b	0.13131468
8	0x3eaca25b	0.33717617
9	0x3de8d377	0.11368459
10	0x3f4a5280	0.79032135
11	0x3e0cbd38	0.13744056
12	0x3e9ae08f	0.3024945
13	0x3dec31bf	0.11532926
14	0x3d42e12b	0.04757802
15	0x3d8143a5	0.0631173
16	0x3d60b2e8	0.05485812
17	0x3ebf59c4	0.37373173
18	0x3da8d8cb	0.08244475
19	0x3e1816a7	0.14852391
20	0x3ebd3fd1	0.3696275
21	0x3ed3bec4	0.4135648
22	0x3d2f69d7	0.042825546
23	0x3e246b3f	0.16056536
24	0x3e0ed59b	0.13948672
25	0x3dc83f89	0.09777743
26	0x3e312a84	0.17301375
27	0x3de9354b	0.11387118
28	0x3e159eab	0.14611308
29	0x3da4359a	0.08018036
30	0x3d6502c2	0.055910833
31	0x3d197ef3	0.037474584
32	0x3d982813	0.074295186
33	0x3eaa1bc8	0.3322432
34	0x3e771856	0.24130377
35	0x3d5b2696	0.053503595
36	0x3ddfaf81	0.109221466
37	0x3e30f417	0.17280613
38	0x3d5a1d18	0.053250402
39	0x3dd61f7f	0.10455226
40	0x3ea4afb1	0.32165292
41	0x3ef4b055	0.4779078
42	0x3d50c02c	0.05096452
43	0x3d338427	0.043827202
44	0x3da0b1c4	0.07846406
45	0x3e3fc4c8	0.1872741
46	0x3d246552	0.04013569
47	0x3e25ada0	0.16179514
48	0x3ef125af	0.47099063
49	0x3dde7876	0.1086282
50	0x3da1aaf0	0.07893932
51	0x3e064164	0.13110882
52	0x3ecd9901	0.40155795
53	0x3e02a6ec	0.12758988
54	0x3ddff2ce	0.10934983
55	0x3e83ddda	0.25755197
56	0x3dd5ce01	0.10439683
57	0x3d81dc09	0.063407965
58	0x3d48162e	0.048849277
59	0x3d0e4bc8	0.03474024
60	0x3eaace29	0.33360413
61	0x3d111b84	0.03542663
62	0x3d2098a1	0.03920806
63	0x3d103163	0.03520335

bn4.bias f4 [64]
0	0x3d8c59d0	0.06853068
1	0xbca48d80	-0.020087004
2	0xbdd9d9d7	-0.10637253
3	0x3c61eb1c	0.013788965
4	0xbd905edf	-0.07049345
5	0x3e947609	0.28996304
6	0xbe03b51d	-0.12862058
7	0xbda3e0e8	-0.08001882
8	0xbdfa0d4c	-0.122095674
9	0xbec9375d	-0.3930005
10	0xbd62273b	-0.055213194
11	0xbe1c1855	-0.15243657
12	0xbd75f483	-0.060047638
13	0x3d13a17a	0.036042668
14	0x3d0115c2	0.03151489
15	0xb99904bd	-0.00029185964
16	0xbaedc16b	-0.0018139308
17	0xbc933325	-0.017968724
18	0xbd64b0c1	-0.05583263
19	0xbe09200a	-0.13391128
20	0xbc37b09b	-0.01121154
21	0xbd2a5645	-0.04158618
22	0x3d113d57	0.03545889
23	0xbe0b2508	-0.13588345
24	0xbdac0a4b	-0.08400401
25	0xbd10e9c7	-0.035379197
26	0xbe1de5b2	-0.15419653
27	0x3d0c3832	0.03423328
28	0xbde97f4f	-0.11401235
29	0xbdd5a5d0	-0.10432017
30	0x3ce5e000	0.028060913
31	0x3df47491	0.11936296
32	0xbced891d	-0.028996045
33	0xbe0a2a15	-0.13492616
34	0xbd0b2e22	-0.033979543
35	0x3dd65a19	0.104664035
36	0xbda8488b	-0.082169615
37	0xbd2e90d3	-0.042618584
38	0x3a83903a	0.001003749
39	0xbdab3036	-0.08358805
40	0xbd11ee71	-0.035627786
41	0xbde581c1	-0.11206389
42	0x3c93dd4e	0.018049862
43	0x3cdcb09e	0.026939686
44	0xbc44bc35	-0.012007763
45	0x3c701f2f	0.014655872
46	0x3da5d89e	0.08097957
47	0xbd534b4b	-0.051585477
48	0x3d1afe36	0.03784009
49	0xbd7c14cc	-0.06154327
50	0xbcbe8c8e	-0.023260381
51	0x3ddf9041	0.10916186
52	0x3d1cd91e	0.038292997
53	0xbd344c46	-0.044018053
54	0xbb7e2404	-0.0038778791
55	0xbd778a4d	-0.06043463
56	0xbcd4df87	-0.025985492
57	0xbd76ad36	-0.06022378
58	0x3a5e1890	0.0008472288
59	0x3dcd59dc	0.10026905
60	0xbd4ad48f	-0.049519118
61	0x3d3845fe	0.044988625
62	0x3d25d556	0.040486656
63	0xbc6e2349	-0.01453478

bn4.running_mean f4 [64]
0	0xbe225ae5	-0.15854986
1	0xbe79d73a	-0.24398509
2	0x3d55461a	0.052068807
3	0xbf32190a	-0.69569457
4	0xbe904e94	-0.2818495
5	0xbe86dd04	-0.26340497
6	0x3ea9a2c7	0.33132002
7	0xbc1cbc9b	-0.009566451
8	0x3e98692a	0.29767734
9	0xbeb4e7f3	-0.35333213
10	0x3ecc0bb3	0.39852676
11	0xbf30bc87	-0.6903767
12	0x3e70315e	0.23456332
13	0x3d65ce55	0.056104977
14	0xbd203046	-0.039108537
15	0xbe6ca7a9	-0.23110832
16	0xbee96693	-0.4558607
17	0x3d998ba5	0.07497338
18	0x3d6e91b1	0.05824441
19	0x3e862740	0.2620182
20	0x3e876ffc	0.26452625
21	0x3e1d86d2	0.15383461
22	0x3e8d275f	0.275691
23	0xbe3be2b5	-0.183482
24	0xbe23e7ac	-0.16006345
25	0xbe3d0841	-0.1846018
26	0xbeb991ac	-0.3624395
27	0xbe26537c	-0.16242784
28	0x3e264c9e	0.16240165
29	0x3de7d966	0.11320762
30	0xbe67878d	-0.22610302
31	0xbe24cb27	-0.16093121
32	0xbdb274c9	-0.08713681
33	0x3e10c7b8	0.14138687
34	0xbe82e67f	-0.2556648
35	0xbdb10c64	-0.086449414
36	0xbf292ae1	-0.66081053
37	0xbe2a7019	-0.16644324
38	0xbeab6348	-0.33474183
39	0xbeb4c33e	-0.35305208
40	0x3e8b7566	0.27238005
41	0xbd5469b7	-0.05185863
42	0x3c3b7553	0.0114415465
43	0xbec105bd	-0.3769969
44	0xbee97704	-0.45598614
45	0xbe52f63c	-0.20601743
46	0xbd018c52	-0.03162796
47	0xbf3b37f7	-0.7313227
48	0xbdca7d3e	-0.09887169
49	0xbebef88a	-0.37298995
50	0xbc1aa8dd	-0.009439674
51	0x3d43d389	0.047809158
52	0xbe4b2404	-0.19837958
53	0xbe3765b1	-0.17909886
54	0xbeb6eb72	-0.35726506
55	0xbe0bda31	-0.13657452
56	0xbe913424	-0.28360093
57	0xbe3f3c26	-0.18675289
58	0xbb8abffc	-0.004234312
59	0xbde7ff71	-0.113280185
60	0xbe327029	-0.17425598
61	0xbf1e4b91	-0.61834055
62	0xbea7aa3e	-0.32747072
63	0x3c559206	0.013035303

bn4.running_var f4 [64]
0	0x3e8a23f7	0.26980564
1	0x3e9e2e8f	0.30894896
2	0x3ec7a287	0.38991186
3	0x3d033d85	0.03204109
4	0x3f0b7404	0.544739
5	0x3d661ad5	0.056177933
6	0x3e5fea0b	0.21866624
7	0x3df24206	0.11828999
8	0x3e5d3470	0.21602035
9	0x3f075f6c	0.5287998
10	0x3f522483	0.8208696
11	0x3d4dbcd7	0.05022892
12	0x3eb0ab94	0.34505904
13	0x3e4f0a9e	0.20218894
14	0x3cba6cbf	0.022756932
15	0x3dad66bb	0.0846686
16	0x3e84dbb8	0.25948882
17	0x3f1016f5	0.5628503
18	0x3d401a45	0.046900053
19	0x3e212e9c	0.15740436
20	0x3ef557f5	0.47918668
21	0x3f200b4b	0.6251723
22	0x3d16240d	0.036655474
23	0x3eb8871a	0.36040574
24	0x3ed33dae	0.41257995
25	0x3deca57b	0.115550004
26	0x3e92c914	0.28669035
27	0x3e9f2d80	0.310894
28	0x3db14af8	0.08656877
29	0x3cc1666a	0.023608405
30	0x3d730b5a	0.059336998
31	0x3c9a7366	0.018853854
32	0x3eb1ca97	0.34724876
33	0x3e446aa2	0.19181302
34	0x3e849223	0.25892743
35	0x3ccd34c6	0.025049578
36	0x3e3a1d1e	0.1817517
37	0x3f2bb4a2	0.670725
38	0x3d32575f	0.043540355
39	0x3e654487	0.22389422
40	0x3f1819f7	0.5941462
41	0x3ed0c87f	0.40777966
42	0x3d3c2ea3	0.045942914
43	0x3d233c69	0.039852533
44	0x3e249af9	0.16074742
45	0x3e58067b	0.21096222
46	0x3cf4b15c	0.029869728
47	0x3eeb3ebd	0.45946303
48	0x3e342177	0.17590891
49	0x3d015f97	0.031585302
50	0x3d9c5e67	0.07635193
51	0x3e237237	0.15961538
52	0x3ead9d22	0.33908945
53	0x3e6ad9d9	0.22934665
54	0x3e8283b0	0.25491095
55	0x3ea93e5d	0.33055392
56	0x3e630bf9	0.22172536
57	0x3d13f05e	0.036117904
58	0x3d393420	0.045215726
59	0x3c70cd14	0.014697332
60	0x3ef67088	0.4813273
61	0x3cb06eb5	0.021537164
62	0x3c990153	0.01867739
63	0x3cd52221	0.02601725
