ckpt_response/ckpt-t-cr3-deepsc-t6db-rt-awgn.pth (torch, 766247 bytes, 46 tensors)

conv1.weight f4 [16, 3, 3, 3]
0.0748546 0.11091921 0.16823949 -0.10542693 0.20249352 -0.10269612 -0.06793386 -0.030954119
-0.051391535 0.005327989 -0.07725867 0.029706836 -0.050332066 0.17115039 -0.087154634 -0.021086356
-0.043976974 -0.013202958 -0.025763126 -0.16500755 -0.085311726 0.06194143 0.23740393 -0.05583711
0.05045016 0.05792054 0.030193513 -0.055514466 -0.15366407 -0.11695514 -0.13420136 -0.16251786
-0.15563142 -0.0026749796 0.09307891 -0.024689162 -0.025574422 -0.0955526 -0.103931054 -0.12431777
-0.07467613 -0.07560353 0.009497876 0.0520698 -0.008762365 0.07911649 0.03498386 0.042858306
0.021474564 -0.0672884 0.06439969 0.04359956 0.10383109 0.028539516 -0.020614803 0.015817935
0.04933308 -0.0399382 0.06550644 0.056986704 -0.05530772 0.10255032 -0.008944304 -0.009622531
0.038583238 0.021499993 -0.04824292 0.19200617 0.14797343 -0.041503612 0.10842977 0.019714002
-0.05739763 -0.009064546 0.053762626 -0.04765979 0.35795814 0.37597787 -0.107273124 0.12526359
0.057037227 0.061082773 0.13262324 0.1564646 0.20253351 0.17173494 0.20840357 -0.022601807
-0.102634825 0.022591451 0.031162571 0.15180504 0.11736468 0.12394649 0.117081866 0.07319633
-0.019580346 -0.05700811 0.011304639 -0.110067524 -0.024851872 -0.08675953 -0.0025687597 0.03903885
-0.058692843 -0.048977457 -0.10813496 -0.041865453 0.07798299 0.058551706 -0.037128363 0.15265386
0.060634587 -0.028370127 0.013215316 -0.0326981 -0.0152578065 0.07413254 0.07943927 0.011071926
0.21521273 0.087234765 -0.02461273 0.027853237 -0.0019744297 -0.051675625 0.10144386 0.20130362
-0.021436445 0.39560226 0.20639133 0.013141692 0.010561118 -0.033905577 1.5575943e-05 0.026921775
-0.05869811 0.022713806 -0.06220559 -0.23294055 -0.08763373 0.09697909 0.19453691 0.14129448
0.01406856 -0.053233974 0.06347963 -0.08850848 -0.1404973 -0.09776276 0.05623437 0.1452723
0.10261853 -0.003267558 -0.052814405 -0.05138252 -0.08499557 0.0042207516 -0.0796769 0.008539573
0.24666141 0.0006356965 -0.06836385 0.07275552 -0.18646297 0.13885307 0.13103047 -0.07322593
-0.0019923677 0.03115668 -0.0027712253 -0.17711757 -0.019671358 -0.24224487 -0.037798915 0.05095053
-0.07188799 -0.022663511 -0.020177664 -0.012790325 -0.3532268 -0.08844715 -0.20446587 -0.056328304
0.0037546542 -0.033360217 0.021259988 -0.015219251 0.036178395 -0.039586507 -0.004158629 -0.015142274
0.08393644 0.052348584 0.08314074 0.087699704 -0.20342591 -0.092264526 -0.018322352 0.0727342
0.0010361209 0.09402114 -0.020941924 0.049475405 0.13921525 -0.15490328 -0.15949543 0.041186217
0.08860606 -0.035015427 -0.019041698 -0.058972258 -0.18571949 0.029469378 -0.21188955 -0.3211292
-0.04740445 0.034286067 0.027566448 -0.11678166 0.029186651 0.026787953 -0.03203607 0.03419723
0.039996557 -0.11181355 0.015077224 0.018896382 -0.2664296 -0.038249645 0.01225624 -0.11872152
-0.026039284 -0.006478641 0.009511223 -0.062537275 -0.00023351605 -0.52168435 -0.15379553 -0.07527239
-0.09683357 -0.09478048 0.021279562 -0.039648887 -0.03100933 0.0088242935 -0.14636002 -0.060806822
0.024539046 -0.01885274 0.023371667 0.02264233 -0.07035952 -0.08531834 0.032767948 -0.18870753
00000000: 5e4d 993d 9c29 e33d f946 2c3e 13ea d7bd
00000010: 765a 4f3e 5852 d2bd e820 8bbd 7e93 fdbc
00000020: ee7f 52bd 6996 ae3b cb39 9ebd c05b f33c
00000030: ff28 4ebd 0c42 2f3e 217e b2bd 4bbd acbc
00000040: 3321 34bd 3851 58bc 310d d3bc bdf7 28be
00000050: eab7 aebd 4cb6 7d3d 041a 733e 74b5 64bd
00000060: d4a4 4e3d 173e 6d3d 6358 f73c 2363 63bd
00000070: 1d5a 1dbe 2d86 efbd 156c 09be 156b 26be
00000080: d85d 1fbe b64e 2fbb 28a0 be3d ed40 cabc
00000090: 7381 d1bc 15b1 c3bd ced9 d4bd 519a febd
000000a0: cdef 98bd 06d6 9abd fb9c 1b3c 2547 553d
000000b0: 0690 0fbc d407 a23d 3c4b 0f3d 318c 2f3d
000000c0: 6deb af3c 80ce 89bd fce3 833d 7495 323d
000000d0: 65a5 d43d b4cb e93c 60e0 a8bc 9d94 813c
000000e0: 7c11 4a3d 3d96 23bd 3e28 863d e46a 693d
000000f0: 598a 62bd e705 d23d 218b 12bc d2a7 1dbc
00000100: 7509 1e3d c120 b03c 5e9a 45bd 449d 443e
00000110: 5986 173e b1ff 29bd 6d10 de3d 427f a13c
00000120: c719 6bbd 7683 14bc 3336 5c3d e936 43bd
00000130: 4a46 b73e 2c80 c03e 03b2 dbbd 1945 003e
00000140: de9f 693d ee31 7a3d 63ce 073e 4238 203e
00000150: f264 4f3e 49db 2f3e bf67 553e 6d27 b9bc
00000160: 3532 d2bd b511 b93c a648 ff3c c872 1b3e
00000170: e55c f03d a8d7 fd3d 9ec8 ef3d f5e7 953d
00000180: f666 a0bc 5681 69bd 1837 393c 156b e1bd
00000190: 2796 cbbc fbae b1bd a358 28bb 34e7 1f3d
000001a0: e867 70bd 969c 48bd dd75 ddbd 1c7b 2bbd
000001b0: 8cb5 9f3d ead3 6f3d e913 18bd 4b51 1c3e
000001c0: f95b 783d 7868 e8bc 0e85 583c 71ee 05bd
000001d0: e1fb 79bc cdd2 973d 0eb1 a23d 0667 353c
000001e0: ba60 5c3e 24a8 b23d a3a0 c9bc 792c e43c
000001f0: 6f65 01bb d2a9 53bd ccc1 cf3d 8922 4e3e
00000200: 7c9b afbc 618c ca3e 4058 533e 4050 573c
00000210: 8a08 2d3c 93e0 0abd 15a9 8237 0e8b dc3c
00000220: 6e6d 70bd 4e12 ba3c 4acb 7ebd f887 6ebe
00000230: 5079 b3bd f99c c63d af34 473e 80af 103e
00000240: d17f 663c de0b 5abd 9c01 823d ef43 b5bd
00000250: 86de 0fbe d837 c8bd 0356 663d 43c2 143e
00000260: aa29 d23d 8724 56bb eb53 58bd 7a76 52bd
00000270: 2812 aebd 3b4e 8a3b a42d a3bd 91e9 0b3c
00000280: cf94 7c3e dfa4 263a 5902 8cbd d900 953d
00000290: 26f0 3ebe 802f 0e3e da2c 063e 7af7 95bd
000002a0: 6292 02bb 4b3c ff3c 729d 35bb 4f5e 35be
000002b0: d425 a1bc 0a0f 78be 09d3 1abd 81b1 503d
000002c0: 033a 93bd d4a8 b9bc a14b a5bc 838e 51bc
000002d0: 25da b4be c823 b5bd 805f 51be 82b8 66bd
000002e0: a510 763b b9a4 08bd 6d29 ae3c 2a5a 79bc
000002f0: cc2f 143d 7625 22bd 1c45 88bb 4d17 78bc
00000300: dee6 ab3d 786b 563d b145 aa3d e79b b33d
00000310: e24e 50be 2ff5 bcbd c218 96bc abf5 943d
00000320: 73ce 873a 288e c03d 668e abbc b9a6 4a3d
00000330: 718e 0e3e f79e 1ebe c552 23be e1b2 283d
00000340: 1877 b53d 566c 0fbd 56fd 9bbc e58c 71bd
00000350: 402d 3ebe c469 f13c 93f9 58be 0c6b a4be
00000360: 2b2b 42bd 8c6f 0c3d 08d3 e13c 392b efbd
00000370: d818 ef3c 6972 db3c 4138 03bd 6512 0c3d
00000380: 6ed3 233d 81fe e4bd 7606 773c 96cc 9a3c
00000390: 7669 88be a9ab 1cbd 65ce 483c 4524 f3bd
000003a0: 5650 d5bc c84a d4bb f6d4 1b3c 8b13 80bd
000003b0: fddb 74b9 1b8d 05bf 937c 1dbe 6928 9abd
000003c0: ae50 c6bd 451c c2bd 7a52 ae3c df66 22bd
000003d0: 4707 febc c593 103c 67df 15be 9310 79bd
000003e0: 1c06 c93c 1071 9abc f075 bf3c 687c b93c
000003f0: a718 90bd 62bb aebd af37 063d 8c3c 41be

bn1.weight f4 [16]
0.093421616 0.1831076 0.1677624 0.17467864 0.20684017 0.120137386 0.15184465 0.1445769
0.22750133 0.1951233 0.15571146 0.1763271 0.12685457 0.19069868 0.048327282 0.21041054
00000000: d553 bf3d 8f80 3b3e e8c9 2b3e f5de 323e
00000010: e9cd 533e 970a f63d 2a7d 1b3e f80b 143e
00000020: 1cf6 683e 67ce 473e d372 1f3e 178f 343e
00000030: 2ae6 013e 8446 433e d4f2 453d dc75 573e

bn1.bias f4 [16]
0.26927492 0.027574064 0.043737378 -0.025406826 -0.15813239 0.08989078 0.2809131 -0.071128644
-0.064628474 0.15089813 0.05079553 0.09301919 0.071210235 -0.09745259 0.057686392 -0.06388852
00000000: 67de 893e 01e3 e13c f725 333d fa21 d0bc
00000010: 75ed 21be a818 b83d d8d3 8f3e e5ab 91bd
00000020: ef5b 84bd 0a85 1a3e f90e 503d d880 be3d
00000030: acd6 913d 3995 c7bd 9148 6c3d fcd7 82bd

bn1.running_mean f4 [16]
0.107330345 -0.39592138 0.6150782 0.46087202 0.6952775 -4.752987e-05 -0.51930106 -0.3071506
-0.66594934 -0.5986095 0.46968108 0.26356968 0.015222564 -0.27354398 0.026772147 -0.44624606
00000000: 03d0 db3d 35b6 cabe c475 1d3f 6bf7 eb3e
00000010: b5fd 313f cf5a 47b8 eaf0 04bf d842 9dbe
00000020: a87b 2abf 793e 19bf 0a7a f03e 9bf2 863e
00000030: 1068 793c f50d 8cbe 4351 db3c 5d7a e4be

bn1.running_var f4 [16]
0.004076431 0.039640494 0.10583853 0.054131627 0.13367648 0.01369549 0.0883454 0.04570567
0.1339381 0.09952255 0.07139702 0.021264624 0.011608594 0.022780925 0.002983636 0.06287394
00000000: 9593 853b 125e 223d dfc1 d83d 20b9 5d3d
00000010: 7de2 083e 0c63 603c 6fee b43d de35 3b3d
00000020: 1227 093e 7bd2 cb3d 9a38 923d 2633 ae3c
00000030: f931 3e3c 109f ba3c 1b89 433b 0dc4 803d

conv2.weight f4 [64, 16, 3, 3]
-0.042324904 -0.015323858 -0.017356047 -0.1010921 0.042381465 0.039889384 -0.06316019 0.08109187
-0.060426224 -0.03810798 0.011166527 -0.04115526 0.0004697434 0.09376237 0.04136689 -0.014788062
0.040598813 -0.01977863 -0.030156745 -0.0139585 -0.024712497 -0.010533264 0.17745322 -0.036925033
-0.07740829 0.13820581 -0.01955008 0.121886194 0.008679005 0.06151645 -0.0061208005 -0.09172714
-0.04677628 -0.03915837 -0.10729325 -0.12709668 -0.01708764 -0.038089883 -0.06876581 -0.075381935
-0.047258504 0.0467341 -0.07002145 0.06973617 0.1539558 -0.015763205 -0.051556174 -0.041135494
-0.046647128 0.043695558 -0.06668107 -0.0010001174 0.048746545 -0.08080018 -0.032165393 0.058569595
0.04759866 -0.0100255115 0.07900511 0.046893593 0.03739566 -0.04100939 -0.064606525 0.110948324
0.09762454 0.015351708 0.10869105 -0.17272764 0.0028806624 -0.02837972 -0.06367396 0.022422438
-0.096503936 0.0068913954 -0.06001402 -0.026994871 -0.08879267 -0.17367624 -0.15343992 -0.13428222
-0.93089217 0.060249507 0.00922769 0.014207847 0.058186572 -0.025794482 -0.34087375 0.15960604
-0.16927809 -0.5633448 -0.018465158 0.0022741049 -0.097120434 -0.018317247 -0.05063794 -0.09986461
-0.066507235 0.0093684215 -0.08290712 -0.025515303 -0.036574524 0.038861897 0.04237493 -0.015156736
0.001529175 0.0037323076 0.04896959 -0.004567892 0.03587591 -0.05619057 -0.0042302953 -0.13011667
-0.19990131 0.049249455 -0.13363029 -0.042763244 0.11301171 0.07034723 0.12733327 -0.041531708
0.02126055 0.06877273 0.032399956 0.10621353 0.05328369 0.03337403 0.04451634 -0.058628406
-0.09141556 0.04377271 -0.0973573 -0.059402302 -0.14307852 -0.026296668 -0.040957075 0.06273326
0.00036010015 0.023314506 0.01313155 -0.03367237 -0.053585134 0.017747445 -0.029001992 -0.099814445
-0.084021784 -0.02810203 0.042127874 -0.0017825924 -0.0786354 0.047722343 -0.037891753 0.040283717
0.08223619 0.06245844 -0.017801411 -0.15445122 0.10772228 -0.044772435 -0.10238525 0.09008832
-0.05348081 -0.26274765 -0.08419409 -0.048199434 0.018889425 -0.098084114 0.10229143 0.009848814
-0.01894049 -0.0356948 -0.026295468 0.033313 0.031541407 0.050009537 -0.11804365 0.05861148
0.06864476 -0.17342111 0.035780285 0.1999512 0.041581705 -0.06685424 -0.17089465 -0.0048546083
-0.13078745 -0.11886105 0.024635335 -0.05559233 -0.009511781 0.05027321 -0.13016284 -0.10082267
0.031955726 -0.18903466 0.07583841 -0.1426637 -0.18872385 -0.14031364 -0.051180404 -0.05060798
-0.026241625 0.13186614 -0.19201846 -0.040132795 -0.019567944 -0.32639363 -0.04285743 -0.101803854
0.17196076 -0.17658386 -0.24407126 0.06478846 -0.09101 -0.22172432 -0.07298429 -0.031302117
0.019363763 -0.07141614 -0.065197706 -0.011209603 -0.039518088 0.10327544 -0.09781777 -0.059926588
0.015777819 0.084635094 0.032498524 -0.05144843 0.113311835 0.028666766 0.026852122 0.090040706
0.030022336 0.012992139 -0.018369205 -0.03342623 0.116999745 -0.07277485 -0.1797619 0.1343523
0.046023667 -0.06760806 -0.026916444 -0.053289488 0.05077076 0.026564827 -0.14641431 -0.062402323
0.18738207 -0.047534972 -0.07430448 0.099606425 0.01225753 -0.04741445 -0.14955254 0.24947853
00000000: e15c 2dbd eb10 7bbc 452e 8ebc 6009 cfbd
00000010: 3098 2d3d 0d63 233d 215a 81bd 7f13 a63d
00000020: 7d81 77bd 1d17 1cbd cff3 363c 6b92 28bd
00000030: e447 f639 7c06 c03d 5470 293d a149 72bc
00000040: f14a 263d cb06 a2bc 470b f7bc 31b2 64bc
00000050: dd71 cabc b693 2cbc 4cb6 353e b43e 17bd
00000060: 3d88 9ebd d385 0d3e 7d27 a0bc 789f f93d
00000070: 6332 0e3c acf8 7b3d ff90 c8bb 70db bbbd
00000080: 7c98 3fbd 8764 20bd 90bc dbbd a225 02be
00000090: 61fb 8bbc 2304 1cbd 17d5 8cbd d861 9abd
000000a0: 2292 41bd 416c 3f3d 6867 8fbd d6d1 8e3d
000000b0: 97a6 1d3e d621 81bc 912c 53bd b17d 28bd
000000c0: 0f11 3fbd 1dfa 323d 1690 88bd 5f16 83ba
000000d0: 75aa 473d 917a a5bd dcbf 03bd ace6 6f3d
000000e0: d0f6 423d 0b42 24bc 6ecd a13d 7f13 403d
000000f0: 312c 193d 76f9 27bd 6d50 84bd e038 e33d
00000100: 60ef c73d bb85 7b3c 6a99 de3d 84df 30be
00000110: 7fc9 3c3b 967c e8bc 7e67 82bd 43af b73c
00000120: dba3 c5bd 37d1 e13b 43d1 75bd 5924 ddbc
00000130: eed8 b5bd 2fd8 31be 5b1f 1dbe 4781 09be
00000140: f34e 6ebf 30c8 763d bd2f 173c 08c8 683c
00000150: 0b55 6e3d f34e d3bc 0187 aebe c46f 233e
00000160: 3c57 2dbe 5d37 10bf 3e44 97bc 2609 153b
00000170: 14e7 c6bd 0d0e 96bc bb69 4fbd d185 ccbd
00000180: f234 88bd 027e 193c 35cb a9bd 7805 d1bc
00000190: 2bcf 15bd a72d 1f3d 5691 2d3d f553 78bc
000001a0: 996e c83a bb99 743b 5694 483d 41ae 95bb
000001b0: 9ef2 123d 1528 66bd 4a9e 8abb 4e3d 05be
000001c0: eeb2 4cbe ccb9 493d 61d6 08be 8328 2fbd
000001d0: af72 e73d 3512 903d a763 023e 271d 2abd
000001e0: 9b2a ae3c b8d8 8c3d d1b5 043d 7b86 d93d
000001f0: 0040 5a3d 35b3 083d c456 363d 5724 70bd
00000200: 1538 bbbd 034b 333d 4463 c7bd d44f 73bd
00000210: 2d83 12be 1c6c d7bc 9bc2 27bd 4c7a 803d
00000220: d3cb bc39 10fe be3c b625 573c 0aec 09bd
00000230: 167c 5bbd 1763 913c 9695 edbc 846b ccbd
00000240: 9d13 acbd 3a36 e6bc 478e 2c3d e0a5 e9ba
00000250: 990b a1bd 8178 433d 6234 1bbd 8a00 253d
00000260: 736b a83d 6cd4 7f3d 44d4 91bc 7628 1ebe
00000270: 809d dc3d 4d63 37bd 5caf d1bd 3a80 b83d
00000280: b20e 5bbd dc86 86be f36d acbd c56c 45bd
00000290: ffbd 9a3c 53e0 c8bd 2b7e d13d ec5c 213c
000002a0: 1629 9bbc b634 12bd 9869 d7bc 3673 083d
000002b0: 9031 013d cdd6 4c3d dfc0 f1bd 9712 703d
000002c0: a095 8c3d 4e95 31be 598e 123d 02c0 4c3e
000002d0: 9451 2a3d e0ea 88bd 02ff 2ebe 6813 9fbb
000002e0: 25ed 05be 6c6d f3bd 0bd0 c93c c8b4 63bd
000002f0: 4dd7 1bbc 48eb 4d3d 6849 05be 1e7c cebd
00000300: 02e4 023d 4d92 41be 2b51 9b3d 6f16 12be
00000310: d340 41be 61ae 0fbe 8ba2 51bd 504a 4fbd
00000320: adf8 d6bc eb07 073e 7da0 44be 4962 24bd
00000330: f44c a0bc 111d a7be 468b 2fbd 8a7e d0bd
00000340: 7b16 303e 66d2 34be d1ed 79be d0af 843d
00000350: 7363 babd b30b 63be ca78 95bd a636 00bd
00000360: c1a0 9e3c a042 92bd 6086 85bd 7ca8 37bc
00000370: b8dd 21bd 1382 d33d af54 c8bd 9575 75bd
00000380: 7c40 813c 2a55 ad3d 2c1d 053d 97bb 52bd
00000390: 0910 e83d 91d6 ea3c fbf8 db3c 4367 b83d
000003a0: 67f1 f53c fbdc 543c 047b 96bc f1e9 08bd
000003b0: 909d ef3d fb0a 95bd 8113 38be a693 093e
000003c0: 5083 3c3d 1876 8abd e07f dcbc 1446 5abd
000003d0: 00f5 4f3d 7b9e d93c a2ed 15be 9499 7fbd
000003e0: 16e1 3f3e 08b4 42bd f22c 98bd 74fe cb3d
000003f0: cfd3 483c a835 42bd 4d24 19be 4d77 7f3e

bn2.weight f4 [64]
0.07774275 0.11157733 0.062361337 0.04687229 0.13475057 0.10590753 0.17582747 0.14214523
0.06317049 0.051522072 0.06677313 0.06541996 0.18215287 0.116673216 0.05386499 0.19250849
0.045407575 0.121117376 0.21476753 0.14915739 0.13896136 0.1273971 0.06222853 0.12634535
0.14026204 0.14686066 0.17942107 0.09103514 0.09563344 0.122252144 0.16549833 0.13311028
0.15414825 0.09877421 0.24589346 0.11155166 0.16831863 0.096407376 0.17158116 0.09702193
0.048899222 0.14293936 0.14481255 0.1402374 0.21484143 0.07098822 0.21261247 0.1398928
0.072094955 0.12746221 0.15588176 0.13063711 0.12932034 0.05435281 0.06701696 0.08541393
0.06264514 0.05750665 0.08678921 0.08057193 0.17055532 0.21389037 0.19949572 0.09984979
00000000: 9737 9f3d a882 e43d 9a6e 7f3d 29fd 3f3d
00000010: 0efc 093e 0ce6 d83d 1e0c 343e 858e 113e
00000020: 885f 813d cf08 533d 5ac0 883d e6fa 853d
00000030: 4886 3a3e 5ef2 ee3d 89a1 5c3d f220 453e
00000040: 4bfd 393d 630c f83d 05ec 5b3e b7bc 183e
00000050: e34b 0e3e 6374 023e 58e3 7e3d ad60 013e
00000060: daa0 0f3e a462 163e 28ba 373e a270 ba3d
00000070: 77db c33d 555f fa3d 6578 293e 104e 083e
00000080: 0ad9 1d3e 224a ca3d 7fcb 7b3e 3275 e43d
00000090: b85b 2c3e 3b71 c53d f9b2 2f3e 6fb3 c63d
000000a0: 8d4a 483d b25e 123e be49 143e 659a 0f3e
000000b0: 64ff 5b3e 4662 913d 15b7 593e 0f40 0f3e
000000c0: 85a6 933d 7485 023e 789f 1f3e bcc5 053e
000000d0: 8d6c 043e 0da1 5e3d 3040 893d 80ed ae3d
000000e0: 184c 803d 188c 6b3d 8bbe b13d e502 a53d
000000f0: 0ea6 2e3e 1406 5b3e 9b48 4c3e 0c7e cc3d

bn2.bias f4 [64]
0.00026696673 0.01835466 0.11198636 0.015215058 -0.06454668 0.036804635 -0.19166426 0.02351097
-0.03153469 0.029480178 0.064551726 0.078671545 0.015216176 -0.06357285 0.013707165 -0.13729711
0.0965614 0.054716088 -0.3438075 -0.32648972 -0.2330621 0.03910783 -0.024788754 -0.05191386
0.104524076 0.041581262 -0.23272385 -0.033119444 -0.027382182 -0.0011335001 -0.23554376 0.07294342
-0.0738645 0.046572335 -0.014997651 -0.09775832 -0.07946708 -0.065064766 -0.118490174 0.057323743
0.102541536 -0.3809906 -0.23145781 0.08534223 -0.006668583 0.06266666 0.02440878 0.28378415
0.067098044 -0.17283061 -0.15616556 -0.069734 -0.15346444 0.025124738 0.09330802 0.012922118
0.048614316 0.04683521 0.07940275 -0.05656002 -0.18620703 -0.04100141 -0.10855698 0.00292619
00000000: abf7 8b39 835c 963c 1b59 e53d 9448 793c
00000010: 0d31 84bd 75c0 163d a343 44be 149a c03c
00000020: 852a 01bd 6a80 f13c b233 843d 8c1e a13d
00000030: 454d 793c 7b32 82bd 0494 603c 9d97 0cbe
00000040: fcc1 c53d fa1d 603d 8907 b0be a929 a7be
00000050: d5a7 6ebe 882f 203d c911 cbbc a1a3 54bd
00000060: b810 d63d 1d51 2a3d 294f 6ebe 41a8 07bd
00000070: 9950 e0bc f491 94ba 6232 71be 5c63 953d
00000080: 4546 97bd a2c2 3e3d b5b8 75bc 8435 c8bd
00000090: a3bf a2bd ad40 85bd faaa f2bd 4dcc 6a3d
000000a0: 4c01 d23d 3311 c3be 4703 6dbe e8c7 ae3d
000000b0: 2184 dabb 6157 803d ecf4 c73c 284c 913e
000000c0: b36a 893d 82fa 30be dde9 1fbe b3d0 8ebd
000000d0: c825 1dbe 65d2 cd3c 4618 bf3d 4bb7 533c
000000e0: ce1f 473d 47d6 3f3d e99d a23d 7bab 67bd
000000f0: 0ead 3ebe 18f1 27bd 1f53 debd 52c5 3f3b

bn2.running_mean f4 [64]
-0.2868202 -0.20084816 0.052234422 0.42753324 0.0307868 -0.40262407 0.45419756 -0.6729113
-0.12996428 0.053735275 0.13484901 -0.268066 -0.0032867494 0.16656978 0.6617383 0.034392413
0.006063898 -0.0425582 0.02862962 0.22114636 0.14410435 0.2680093 0.16749418 -0.1387403
-0.47962886 -0.3487403 -0.298042 -0.28480735 0.012850338 0.16722222 -0.030258615 -0.20615734
-0.015475045 -0.61031115 0.2873091 -0.16171366 0.37372565 0.11838589 -0.17159928 -0.1103152
-0.23543519 0.47075576 0.56064874 0.08681696 -0.32994673 0.14286578 -0.4052285 -0.48262236
0.120698474 -0.036910195 0.10317062 0.00035905303 0.11661112 0.4758012 0.13869052 0.05211478
0.0944419 0.20705548 -0.3733679 0.019094814 0.23735894 0.37071317 0.0532832 -0.17121233
00000000: 19da 92be 24ab 4dbe c3f3 553d a3e5 da3e
00000010: 9934 fc3c be24 cebe 958c e83e ea43 2cbf
00000020: 5b15 05be 8519 5c3d dc15 0a3e f23f 89be
00000030: 8166 57bb 4591 2a3e ae67 293f 0fdf 0c3d
00000040: aab3 c63b 8251 2ebd aa88 ea3c 3174 623e
00000050: 1790 133e 8438 893e 9883 2b3e f011 0ebe
00000060: ea91 f5be 178e b2be f698 98be 45d2 91be
00000070: 398a 523c 4d3c 2b3e eae0 f7bc e91a 53be
00000080: 0b8b 7dbc 5a3d 1cbf 2e1a 933e 4498 25be
00000090: f858 bf3e 4d74 f23d b9b7 2fbe f0ec e1bd
000000a0: ec15 71be e606 f13e ad86 0f3f 17cd b13d
000000b0: c7ee a8be 684b 123e 1c7a cfbe 471a f7be
000000c0: c330 f73d 252f 17bd 1e4b d33d 483f bc39
000000d0: d0d1 ee3d 379c f33e e304 0e3e 4f76 553d
000000e0: c16a c13d 5a06 543e 142a bfbe ba6c 9c3c
000000f0: 390e 733e 1ece bd3e 7c3f 5a3d 4952 2fbe

bn2.running_var f4 [64]
0.042032555 0.036594745 0.0016683529 0.008550535 0.0137574915 0.001490511 0.01253594 0.17298852
0.018468814 0.0030203233 0.02118648 0.0037348338 0.070232846 0.04240939 0.0030064913 0.038247455
0.002274253 0.01726992 0.14491169 0.07808312 0.02721995 0.027148388 0.0167968 0.011952572
0.046295393 0.00082778314 0.18877038 0.004354711 0.014895858 0.017802697 0.10653666 0.02496482
0.13133568 0.02788685 0.12397893 0.06596904 0.014977361 0.017093647 0.15034764 0.03797594
0.0014764714 0.006234634 0.06487204 0.12079349 0.12577115 0.010137164 0.08463868 0.075610735
0.0063164 0.094552316 0.014825053 0.012789055 0.013713799 0.009108101 0.008325039 0.01099991
0.0078001735 0.00425102 0.00752667 0.015073562 0.0116203325 0.10562586 0.19156256 0.018317806
00000000: 542a 2c3d 5fe4 153d a2ac da3a 8b17 0c3c
00000010: 1a67 613c 405d c33a 8b63 4d3c e723 313e
00000020: e94b 973c 9ef0 453b 458f ad3c 1dc4 743b
00000030: 3dd6 8f3d 78b5 2d3d 8e08 453b 5da9 1c3d
00000040: a20b 153b a679 8d3c bb63 143e 0bea 9f3d
00000050: 5ffc de3c 4c66 de3c 7199 893c b8d4 433c
00000060: 3da0 3d3d 96ff 583a 064d 413e f7b1 8e3b
00000070: c20d 743c f6d6 913c e42f da3d 0683 cc3c
00000080: dc7c 063e f772 e43c aae8 fd3d c71a 873d
00000090: 9b63 753c fa07 8c3c bbf4 193e a98c 1b3d
000000a0: 2986 c13a e74b cc3b a2db 843d 9462 f73d
000000b0: 27ca 003e 5916 263c 0b57 ad3d cdd9 9a3d
000000c0: cef9 ce3b a5a4 c13d c7e4 723c 2f89 513c
000000d0: d8af 603c 253a 153c bf65 083c f738 343c
000000e0: 9998 ff3b 244c 8b3b 49a2 f63b 1af7 763c
000000f0: 3563 3e3c 5f52 d83d fa28 443e 390f 963c

conv3.weight f4 [64, 64, 3, 3]
-0.048665393 -0.027173106 0.097034074 -0.058692545 0.003350653 0.041495755 -0.23418811 0.023765687
0.101577826 0.051177546 -0.009038104 -0.14095277 0.010182576 -0.15359935 -0.2538629 0.09320213
-0.114595644 -0.27642235 -0.027462302 0.026937697 0.016531322 0.041401472 0.0030209578 -0.024520105
0.0462172 0.036964566 0.011212696 0.12642643 -0.08297924 0.11183407 0.014885417 0.13347341
0.060291983 0.23901324 0.14372413 0.13715877 -0.026267488 -0.1127249 -0.040086746 0.013155079
0.0764844 -0.07493115 0.0701582 -0.041908093 -0.03062544 0.037457753 0.017058205 0.06591418
-0.13117667 -0.2518799 -0.16991788 -0.012656044 -0.059068967 -0.021298055 0.048752286 0.062871255
-0.02752291 0.0951254 -0.12821524 -0.20338045 -0.0014046063 -0.22003582 -0.06250615 -0.03143992
-0.11972192 0.024086164 -0.054678395 -0.18492799 -0.020058895 -0.025402043 -0.009915974 0.2168342
-0.05607553 0.07322139 -0.26367998 -0.19927521 0.05184366 -0.1991217 -0.04554283 0.18433186
-0.12609528 -0.0636374 -0.023860311 0.03863952 -0.010357116 0.20618553 0.014828897 0.025149204
0.07001159 -0.02432013 0.059215564 -0.018528014 0.014572562 0.06781298 -0.12852946 0.04200919
-0.04367175 0.064485624 0.1574228 -0.10431703 0.01415459 -0.03284945 -0.06565286 0.02503137
0.08664163 -0.0060975435 -0.13714002 -0.012632189 0.055319764 0.033174362 0.10264002 -0.042219914
-0.1030078 0.045295116 0.006403137 -0.037456572 0.07348448 -0.03323618 -0.062113315 -0.09287395
-0.00614331 -0.18817565 -0.03641596 -0.0464724 -0.1024851 0.053778995 0.07777743 -0.05969299
0.09320867 -0.11942312 0.03227393 -0.020532582 -0.112123944 -0.09041802 -0.049400873 0.019337807
0.0040046177 -0.024264945 -0.028453998 0.07993708 -0.094740525 0.03889821 0.098255575 0.058895674
-0.0101289945 -0.07252277 -0.09045142 -0.13817154 0.11934154 -0.01024818 0.0740278 -0.08280018
-0.013542517 0.0808533 -0.0074284994 -0.012225615 -0.04742117 0.1067166 -0.13852285 -0.106806114
-0.061604194 0.010224864 0.019756557 -0.03628669 0.103924446 -0.117978364 -0.09101321 0.09912861
-0.13604306 -0.15856469 0.009716698 -0.012690387 -0.12155734 -0.015526299 -0.0018219935 0.051346224
0.4413607 -0.039702367 -0.032106988 0.14214277 0.061291847 0.074986346 0.09477172 -0.04771504
-0.20834164 -0.003783613 -0.07724719 -0.13552813 -0.05862805 0.0065108426 -0.11054756 0.014208331
-0.23708868 -0.16218312 0.022357661 0.001870325 0.0028548646 -0.058409348 -0.095059305 0.039670657
-0.07718413 0.15356055 0.13660344 -0.011239311 -0.10588372 0.07668992 -0.008216361 -0.013804791
0.04768973 0.011917132 -0.00507907 0.06862865 0.0011108872 -0.16427554 -0.05470309 -0.04803795
-0.07032572 -0.114107296 -0.0670798 -0.02819134 -0.017366908 -0.11583174 0.042734507 0.09149678
-0.003901096 -0.08114574 -0.11670634 -0.027229639 -0.015048484 -0.03442943 -0.111815974 0.021705996
-0.061139625 0.06969923 0.029117675 0.04074507 0.057193525 0.032588825 0.13902564 0.110328905
0.026393466 0.10686456 0.058250424 -0.05114492 0.19007815 -0.040673573 -0.046575937 0.011489006
0.14844413 -0.07042532 -0.09807973 0.123877704 -0.011697161 -0.15021448 -0.06307639 -0.1255819
00000000: 5d55 47bd 229a debc cdb9 c63d 9867 70bd
00000010: a196 5b3b 74f7 293d 02cf 6fbe 42b0 c23c
00000020: 0908 d03d 8c9f 513d 8e14 14bc ec55 10be
00000030: d2d4 263c 2649 1dbe 51fa 81be c2e0 be3d
00000040: 1fb1 eabd 3b87 8dbe 9ff8 e0bc 72ac dc3c
00000050: b26c 873c 9794 293d 43fb 453b 63de c8bc
00000060: 3f4e 3d3d 2868 173d 75b5 373c ee75 013e
00000070: 05f1 a9bd 4309 e53d f7e1 733c 41ad 083e
00000080: baf4 763d e3bf 743e 6b2c 133e 5973 0c3e
00000090: ea2e d7bc 50dc e6bd 0032 24bd 6788 573c
000000a0: daa3 9c3d 8175 99bd 1aaf 8f3d d2a7 2bbd
000000b0: 34e2 fabc 4d6d 193d a6bd 8b3c 03fe 863d
000000c0: 2d53 06be 67f6 80be f4fe 2dbe 4c5b 4fbc
000000d0: 4df2 71bd 4279 aebc 7ab0 473d a5c2 803d
000000e0: ba77 e1bc 1bd1 c23d db4a 03be f742 50be
000000f0: c41a b8ba 1251 61be 3903 80bd 25c7 00bd
00000100: c430 f5bd 5950 c53c 74f6 5fbd c35d 3dbe
00000110: 8d52 a4bc f217 d0bc 9c76 22bc c909 5e3e
00000120: 74af 65bd 19f5 953d 1001 87be cd0e 4cbe
00000130: 055a 543d 8fe6 4bbe 1e8b 3abd 7ec1 3c3e
00000140: 1f1f 01be 5354 82bd b376 c3bc 7944 1e3d
00000150: e5b0 29bc 4d22 533e e7f4 723c b405 ce3c
00000160: 3d62 8f3d 023b c7bc 058c 723d 10c8 97bc
00000170: c1c1 6e3c 88e1 8a3d 3a9d 03be d411 2c3d
00000180: 26e1 32bd 0a11 843d 7133 213e 2ba4 d5bd
00000190: a7e8 673c 258d 06bd 0275 86bd 960e cd3c
000001a0: 2b71 b13d e7cd c7bb 6f6e 0cbe 3ef7 4ebc
000001b0: fa96 623d d7e1 073d ee34 d23d caee 2cbd
000001c0: c1f5 d2bd 5f87 393d 68d1 d13b 106c 19bd
000001d0: 087f 963d a922 08bd 886a 7ebd b334 bebd
000001e0: d24d c9bb 1eb1 40be e728 15bd d859 3ebd
000001f0: b5e3 d1bd 5d47 5c3d c649 9f3d a380 74bd
00000200: 30e4 be3d 1c94 f4bd ab31 043d f233 a8bc
00000210: 3da1 e5bd 152d b9bd 9258 4abd 526a 9e3c
00000220: 2b39 833b 47c7 c6bc 5c18 e9bc 0db6 a33d
00000230: 5207 c2bd bb53 1f3d 383a c93d 973c 713d
00000240: 15f4 25bc d186 94bd 983e b9bd d77c 0dbe
00000250: 5669 f43d fbe7 27bc e39b 973d 2493 a9bd
00000260: 6fe1 5dbc 6a96 a53d c56a f3bb f24d 48bc
00000270: b33c 42bd 3c8e da3d efd8 0dbe 2abd dabd
00000280: ae54 7cbd 3086 273c 81d8 a13c 5aa1 14bd
00000290: 57d6 d43d a49e f1bd 2265 babd f103 cb3d
000002a0: df4e 0bbe c85e 22be c932 1f3c 57eb 4fbc
000002b0: 0ef3 f8bd 0562 7ebc f5cf eeba 6b50 523d
000002c0: 08fa e13e f39e 22bd 9e82 03bd e08d 113e
000002d0: 290d 7b3d 7192 993d ad17 c23d d970 43bd
000002e0: 8357 55be 7ef6 77bb c633 9ebd e3c7 0abe
000002f0: f723 70bd e858 d53b c266 e2bd 0fca 683c
00000300: 60c7 72be 5513 26be 6a27 b73c b125 f53a
00000310: ae18 3b3b a43e 6fbd 74ae c2bd b37d 223d
00000320: b712 9ebd fa3e 1d3e c6e1 0b3e 1625 38bc
00000330: 90d9 d8bd 9b0f 9d3d ea9d 06bc 7d2d 62bc
00000340: 4e56 433d 1340 433c 546e a6bb 2d8d 8c3d
00000350: 309b 913a d937 28be 5910 60bd 71c3 44bd
00000360: ee06 90bd 16b1 e9bd 2261 89bd 86f1 e6bc
00000370: 0c45 8ebc 3139 edbd 610a 2f3d aa62 bb3d
00000380: 88a9 7fbb bd2f a6bd bc03 efbd b110 dfbc
00000390: eb8d 76bc e005 0dbd c6ff e4bd c6d0 b13c
000003a0: 8b6d 7abd 78be 8e3d 3188 ee3c 4de4 263d
000003b0: c243 6a3d dc7b 053d bd5c 0e3e 1ff4 e13d
000003c0: 1c37 d83c cedb da3d ff97 6e3d 567d 51bd
000003d0: d9a3 423e 5599 26bd 69c6 3ebd 623c 3c3c
000003e0: bd01 183e 263b 90bd 07de c8bd 98b3 fd3d
000003f0: 73a5 3fbc d3d1 19be 322e 81bd 8b98 00be

bn3.weight f4 [64]
0.05472666 0.12080766 0.12499551 0.16267414 0.12757936 0.0707867 0.2542762 0.050139558
0.09516784 0.14232849 0.054917194 0.056964863 0.06810225 0.12617674 0.16859345 0.23676738
0.12466978 0.11041541 0.085715026 0.2564605 0.15721402 0.068395175 0.117503576 0.30560422
0.055606738 0.14899659 0.28812662 0.11585148 0.20157962 0.07188062 0.10311615 0.20594822
0.044001743 0.09411066 0.17541938 0.058734197 0.06463002 0.25720203 0.13777609 0.09185111
0.06828464 0.057012156 0.13537623 0.28044918 0.06711052 0.25041938 0.22600795 0.17877698
0.13146064 0.045583904 0.12933068 0.17138436 0.07547433 0.11118784 0.065942064 0.16188534
0.069555305 0.2577511 0.043893054 0.093575194 0.05823631 0.20243973 0.24725713 0.15426414
00000000: 1029 603d 026a f73d a5fd ff3d 0d94 263e
00000010: 2aa4 023e 9ef8 903d 7d30 823e 235f 4d3d
00000020: 5be7 c23d 8fbe 113e daf0 603d fd53 693d
00000030: 3179 8b3d 7a34 013e c3a3 2c3e 2673 723e
00000040: df52 ff3d 7921 e23d 5c8b af3d ca4e 833e
00000050: b6fc 203e c512 8c3d b7a5 f03d 2878 9c3e
00000060: e4c3 633d 9092 183e 5585 933e 8a43 ed3d
00000070: e36a 4e3e 2636 933d 8f2e d33d 17e4 523e
00000080: 2c3b 343d 17bd c03d 23a1 333e 4593 703d
00000090: be5c 843d fcaf 833e 2d15 0d3e 6f1c bc3d
000000a0: d1d8 8b3d 9485 693d 11a0 0a3e 0997 8f3e
000000b0: 3e71 893d f836 803e a16e 673e 5011 373e
000000c0: 9e9d 063e 30b6 3a3d 436f 043e 627f 2f3e
000000d0: 4992 9a3d 73b6 e33d a20c 873d 45c5 253e
000000e0: 0373 8e3d f4f7 833e 34c9 333d 5aa4 bf3d
000000f0: 3289 6e3d 5c4c 4f3e f930 7d3e 6bf7 1d3e

bn3.bias f4 [64]
0.036185987 0.02671872 -0.09168087 0.04218684 -0.043086395 0.09163593 -0.062136713 0.1382936
0.044743393 -0.07133886 0.16449536 0.19330718 -0.023070129 0.03463677 -0.09845284 -0.18259937
-0.08681689 0.053003993 0.14551833 0.0673217 0.02480902 0.075844675 0.06769448 -0.012824266
0.12681818 -0.44678777 -0.4950583 -0.09486373 -0.08683363 0.065747224 0.035397366 -0.14575717
0.07619548 0.06792599 -0.20977548 0.07720469 0.1096021 0.058286548 0.053478982 0.15396816
0.007050661 0.115329705 -0.05531548 -0.37615812 0.033965603 -0.12293394 -0.02963919 0.0029403481
-0.3579771 0.1305149 -0.1089717 -0.13642973 0.01658037 0.11714963 0.044483583 -0.23890813
0.15647258 -0.049208444 0.088133074 0.07877298 0.12907532 -0.2355682 0.010205548 -0.17058401
00000000: c237 143d 38e1 da3c 2ec3 bbbd 1ccc 2c3d
00000010: 5c7b 30bd 9eab bb3d 1183 7ebd d69c 0d3e
00000020: d944 373d 1c1a 92bd 7971 283e 51f2 453e
00000030: 91fd bcbc 49df 0d3d a4a1 c9bd 54fb 3abe
00000040: 0ecd b1bd b71a 593d c202 153e f6df 893d
00000050: 493c cb3c 7454 9b3d 67a3 8a3d df1c 52bc
00000060: a0dc 013e 5ec1 e4be 4878 fdbe ea47 c2bd
00000070: d5d5 b1bd 7ba6 863d d4fc 103d 5e41 15be
00000080: 600c 9c3d c81c 8b3d 62cf 56be 7e1d 9e3d
00000090: 1177 e03d e0bd 6e3d c70c 5b3d d4a9 1d3e
000000a0: 3b09 e73b fb31 ec3d 7c92 62bd cc97 c0be
000000b0: 841f 0b3d cac4 fbbd e3cd f2bc dbb2 403b
000000c0: c648 b7be b3a5 053e 8e2c dfbd 3cb4 0bbe
000000d0: 8ed3 873c 25ec ef3d 6b34 363d 55a4 74be
000000e0: 593a 203e cb8e 49bd 1d7f b43d ba53 a13d
000000f0: 522c 043e ca38 71be 2c35 273c 93ad 2ebe

bn3.running_mean f4 [64]
-0.1639745 -0.22774737 -0.080320835 -0.17149174 -0.21022613 -0.5476812 0.00934446 0.029461222
-0.2979007 -0.15869746 -0.12623444 -0.15903664 -0.17411336 0.029611377 -0.04317588 -0.0775606
-0.24948192 -0.14353259 0.15345111 0.053583268 0.044463694 -0.009920247 -0.09185253 0.012145528
-0.0029689565 -0.15101665 -0.100858636 -0.33999518 0.16600774 0.530728 0.08476791 -0.091798395
-0.20285115 0.002924444 -0.38742515 -0.3450958 -0.11185385 -0.111682996 0.27133915 0.013146589
-0.19884245 -0.24089046 -0.0728039 -0.07727507 0.008959555 -0.1298367 -0.10783032 -0.1685117
-0.25159964 -0.22755767 0.051285863 -0.11116024 -0.4216351 0.37342462 -0.19413528 -0.37566695
-0.18293022 0.030611902 -0.2321017 -0.31787238 -0.30229262 -0.49054354 -0.05240079 -0.25210243
00000000: eee8 27be 9b36 69be 407f a4bd 889b 2fbe
00000010: 8545 57be d634 0cbf 8219 193c a958 f13c
00000020: 7186 98be 9681 22be 9a43 01be 80da 22be
00000030: c64a 32be 8f93 f23c 31d9 30bd 18d8 9ebd
00000040: 3078 7fbe 35fa 12be 4a22 1d3e 217a 5b3d
00000050: 901f 363d 8888 22bc 2e1d bcbd 09fe 463c
00000060: d392 42bb 1ca4 1abe f98e cebd d913 aebe
00000070: effd 293e cadd 073f cc9a ad3d cc00 bcbd
00000080: 36b8 4fbe 07a8 3f3b 975c c6be 66b0 b0be
00000090: a213 e5bd 0eba e4bd f7ec 8a3e ca64 573c
000000a0: 5b9d 4bbe fdab 76be 361a 95bd 6442 9ebd
000000b0: 19cb 123c e9f3 04be 25d6 dcbd 558e 2cbe
000000c0: abd1 80be e104 69be 2011 523d fba7 e3bd
000000d0: 8ee0 d7be 8331 bf3e 66cb 46be 6b57 c0be
000000e0: 0f52 3bbe d0c5 fa3c 11ac 6dbe 2bc0 a2be
000000f0: 19c6 9abe 8628 fbbe 36a2 56bd 9213 81be

bn3.running_var f4 [64]
0.02085135 0.07591134 0.032715373 0.3278857 0.060388856 0.032369714 0.2712191 0.023863066
0.04453057 0.17204072 0.017680464 0.023626458 0.031097174 0.14419603 0.26293367 0.09504083
0.1105181 0.07173652 0.03662053 0.44502905 0.09566382 0.027041184 0.045648366 0.2314776
0.026588218 0.005931776 0.019859748 0.05219871 0.36358878 0.05674832 0.048765425 0.26815012
0.021939326 0.042278077 0.035709247 0.02123609 0.032720163 0.18764088 0.081550345 0.035206158
0.020067766 0.016199762 0.03994197 0.041827533 0.03836723 0.31607905 0.3011578 0.21373752
0.15790413 0.01008553 0.074447304 0.11852251 0.029577637 0.24818291 0.025001917 0.044358008
0.025522582 0.38775215 0.010752809 0.049461454 0.016916279 0.0408121 0.40622345 0.017945372
00000000: 73d0 aa3c 6877 9b3d 8e00 063d a2e0 a73e
00000010: 4e5a 773d 1b96 043d 3bdd 8a3e 7a7c c33c
00000020: b065 363d 712b 303e 9fd6 903c 468c c13c
00000030: 80bf fe3c 20a8 133e 3e9f 863e c4a4 c23d
00000040: 5057 e23d 99ea 923d 69ff 153d d9da e33e
00000050: 65eb c33d 7985 dd3c c8f9 3a3d 7708 6d3e
00000060: 89cf d93c 585f c23b e9b0 a23c 51ce 553d
00000070: 4f28 ba3e ed70 683d 41be 473d f94a 893e
00000080: 1aba b33c c72b 2d3d dc43 123d 4ff7 ad3c
00000090: 9405 063d ee24 403e de03 a73d 5534 103d
000000a0: 2865 a43c 5db5 843c 319a 233d 5953 2b3d
000000b0: f526 1d3d 1dd5 a13e 5b31 9a3e 02de 5a3e
000000c0: 9fb1 213e c73d 253c d477 983d eebb f23d
000000d0: cd4c f23c a923 7e3e d2d0 cc3c beb0 353d
000000e0: bc14 d13c 7387 c63e 8d2c 303c 1898 4a3d
000000f0: 0294 8a3c 972a 273d 85fc cf3e 2c02 933c

conv4.weight f4 [64, 64, 3, 3]
0.031617213 -0.08571697 -0.01493097 0.25676143 -0.07009603 0.0051852153 0.00904298 -0.009221981
-0.026381448 0.034445196 -0.017200798 -0.0089034 0.20702124 -0.04673968 -0.026555618 -0.028290216
0.018853132 -0.0248476 0.19235493 -0.035568018 0.00969592 0.10104372 0.041510966 -0.031017017
0.0011905903 0.04628012 0.025311625 0.14709993 -0.008256449 0.009696366 0.0266657 -0.21493615
-0.010637568 0.021558048 0.014531421 0.0025003736 0.11477766 -0.18130305 0.019704053 -0.09870988
-0.09286421 0.027165884 0.020808028 -0.03419355 0.012369819 -0.03404574 -0.09421444 0.00038931076
0.12127751 0.1671649 -0.03757994 0.03924981 0.00922505 -0.00841638 0.04058215 -0.007595965
-0.009159555 -0.06282167 -0.3049813 -0.011245103 0.023434728 -0.00017470171 -0.021042006 0.09663262
0.028848516 0.016342804 -0.1668107 -0.050761938 0.10830752 -0.011330282 0.014200648 -0.010604383
0.14102203 0.059852168 -0.021190595 -0.17817628 -0.12864876 0.01052936 -0.0066329767 0.04108084
0.0011212953 0.064573444 -0.044593945 -0.0060799774 0.09256957 -0.15878725 -0.0072586974 0.029523453
0.051211677 0.025557706 0.11840092 0.09851143 -0.009206605 0.15243714 0.042765696 0.0069396794
-0.039565343 -0.0046375985 -0.008729438 0.028893044 -0.04650412 -0.026237035 0.10640528 -0.0005105178
-0.043354325 0.02993686 -0.00035418206 0.025876714 -0.14643563 0.18457556 0.018702257 0.07975785
-0.04268 -0.037814986 0.038531244 -0.011490991 0.00040380002 -0.062265925 -0.06012681 -0.020559173
-0.058510013 -0.02555503 -0.016714485 0.0033884868 -0.01590128 -0.00889292 -0.14189503 -0.18518957
-0.019020734 -0.15827487 -0.030817017 -0.03183029 0.013915945 0.0058578425 -0.03166403 -0.015027103
0.015979555 0.023437407 0.053792074 0.233412 -0.0025104857 -0.0015991991 0.021383168 -0.000674131
-0.115277186 -0.052255973 -0.012908955 -0.08754765 -0.23182409 -0.07985883 -0.028504116 0.015049015
-0.0003239209 0.06666688 -0.060975075 0.040671173 -0.047354475 -0.055276975 0.011235721 0.0108132865
0.034867685 0.025033936 0.14783594 -0.2005587 0.013606481 -0.12482845 0.03673896 0.0640649
-0.0044850917 0.044806454 0.008455988 -0.07226931 -0.007438081 0.0001253264 -0.1125628 -0.43524998
-0.019214178 -0.054376937 -0.046118975 -0.030731883 -0.022678886 0.060146846 0.0045131035 -0.29994458
-0.14955255 0.10469713 -0.00029147934 -0.00012861282 0.029632235 0.09986097 -0.16047415 0.0047556562
-0.028891554 0.034606125 -0.023739843 0.010068058 0.010255879 0.0130810775 0.048555948 0.14775616
0.03137281 0.1761888 -0.17469652 0.035964023 -0.010947432 -0.011790902 0.011109622 -0.3640876
-0.026139766 0.00084896834 -0.03467684 -0.06879472 -0.014749756 0.019277388 0.023110418 0.0026226514
-0.13329881 0.14859572 -0.0055736518 -0.13360064 -0.15147604 0.036490224 0.038440127 0.029899688
-0.01166049 0.0008139424 -0.010109563 0.0012570884 0.006825907 0.039336 -0.03676526 -0.03941265
0.019658532 -0.009566775 -0.009402616 0.049726103 0.0016403247 0.0043161497 0.07319357 0.014127527
-0.00012020031 -0.010112415 0.0004988982 -0.04838594 -0.03731534 -0.0006031188 0.009180394 -0.03772421
-0.005992714 -0.040969376 -0.013070757 -0.0106662335 -0.1440832 -0.17065215 0.0152076315 -0.2278935
00000000: 0d81 013d 618c afbd 07a1 74bc 3c76 833e
00000010: 828e 8fbd bde8 a93b 0229 143c cb17 17bc
00000020: e81d d8bc 6816 0d3d b0e8 8cbc 91df 11bc
00000030: 60fd 533e 1b72 3fbd 2b8b d9bc e2c0 e7bc
00000040: e271 9a3c 328d cbbc b1f8 443e c5af 11bd
00000050: a3db 1e3c 03f0 ce3d 6707 2a3d 6617 febc
00000060: 950d 9c3a 3990 3d3d 535a cf3c 5da1 163e
00000070: 0f46 07bc 82dd 1e3c 0772 da3c 3918 5cbe
00000080: 3249 2ebc 819a b03c 3215 6e3c 4fdd 233b
00000090: 8d10 eb3d 82a7 39be 656a a13c 6828 cabd
000000a0: 972f bebd fd8a de3c 9975 aa3c 890e 0cbd
000000b0: c8aa 4a3c 8c73 0bbd 80f3 c0bd 681c cc39
000000c0: 5860 f83d 472d 2b3e 6ced 19bd 69c4 203d
000000d0: aa24 173c dbe4 09bc 7839 263d 93e7 f8bb
000000e0: f511 16bc a6a8 80bd 8226 9cbe 613d 38bc
000000f0: 30fa bf3c 2230 37b9 4960 acbc 53e7 c53d
00000100: b953 ec3c 58e1 853c 6dd0 2abe c0eb 4fbd
00000110: 55d0 dd3d a6a2 39bc d6a9 683c 02be 2dbc
00000120: 1468 103e 8c27 753d e697 adbc d873 36be
00000130: 80bc 03be 5683 2c3c 7159 d9bb 6244 283d
00000140: 6df8 923a 153f 843d 24a8 36bd 8c3a c7bb
00000150: 1d95 bd3d 2099 22be 5eda edbb 2bdb f13c
00000160: 56c3 513d 655e d13c 2e7c f23d 5cc0 c93d
00000170: 4dd7 16bc 7b18 1c3e 152b 2f3d 4066 e33b
00000180: 450f 22bd fff6 97bb eb05 0fbc 1bb1 ec3c
00000190: 1b7b 3ebd 0def d6bc 03eb d93d 45d4 05ba
000001a0: 4e94 31bd 253e f53c 83b1 b9b9 67fb d33c
000001b0: 39f3 15be 6001 3d3e 7a35 993c 1558 a33d
000001c0: 39d1 2ebd e3e3 1abd f0d2 1d3d b644 3cbc
000001d0: 1fb5 d339 8e0a 7fbd 8847 76bd b66b a8bc
000001e0: 32a8 6fbd c858 d1bc d1ec 88bc 6011 5e3b
000001f0: 6743 82bc 9cb3 11bc ee4c 11be 56a2 3dbe
00000200: 5fd1 9bbc cf12 22be f873 fcbc 7a60 02bd
00000210: b4ff 633c 25f3 bf3b 24b2 01bd 3d34 76bc
00000220: 8ee7 823c ceff bf3c 1455 5c3d 8e03 6f3e
00000230: f686 24bb 389c d1ba c12b af3c 2ab8 30ba
00000240: 7216 ecbd 5c0a 56bd 1580 53bc 2f4c b3bd
00000250: 4b63 6dbe 078d a3bd 7781 e9bc 2590 763c
00000260: edd3 a9b9 a588 883d 00c1 79bd d196 263d
00000270: c4f6 41bd 1c6a 62bd 0816 383c 362a 313c
00000280: 6bd1 0e3d f813 cd3c 4e62 173e 435f 4dbe
00000290: b8ed 5e3c 0fa6 ffbd 977b 163d 7534 833d
000002a0: adf7 92bb f986 373d fc8a 0a3c ef01 94bd
000002b0: 25bb f3bb 0d6a 0339 5387 e6bd 16d9 debe
000002c0: 0d67 9dbc 5aba 5ebd 40e7 3cbd 6ec1 fbbc
000002d0: 12c9 b9bc 8a5c 763d a8e2 933b 5692 99be
000002e0: 4e24 19be 736b d63d b2d1 98b9 3edc 06b9
000002f0: 4dbf f23c e983 cc3d 5653 24be 56d5 9b3b
00000300: fbad ecbc 27bf 0d3d 0f7a c2bc 7ff4 243c
00000310: 4608 283c 0452 563c 9ae2 463d 644d 173e
00000320: c780 003d d66a 343e a5e3 32be 034f 133d
00000330: dc5c 33bc a12e 41bc 2205 363c b169 babe
00000340: 1023 d6bc 4d8d 5e3a 4d09 0ebd 3fe4 8cbd
00000350: f6a8 71bc 9deb 9d3c 0f52 bd3c cae0 2b3b
00000360: 7c7f 08be 7a29 183e 2ea3 b6bb 9bce 08be
00000370: 891c 1bbe c676 153d 6573 1d3d 31f0 f43c
00000380: a40b 3fbc c05e 553a 95a2 25bc e3c4 a43a
00000390: dcab df3b c91e 213d 2b97 16bd 296f 21bd
000003a0: ee0a a13c f6bd 1cbc 6e0d 1abc 99ad 4b3d
000003b0: 2a00 d73a 7d6e 8d3b 83e6 953d 2577 673c
000003c0: 0d14 fcb8 8bae 25bc 7ec8 023a 5630 46bd
000003d0: f8d7 18bd 9e1a 1eba 5d69 163c b484 1abd
000003e0: 875e c4bb 81cf 27bd ba26 56bc 6dc1 2ebc
000003f0: 8c8a 13be 70bf 2ebe 6e29 793c ea5c 69be

bn4.weight f4 [64]
0.5166798 0.12868333 0.32323492 0.06732823 0.22929369 0.0765892 0.2902056 0.15521926
0.36244458 0.08339521 0.7010369 0.1341776 0.23459272 0.11557121 0.03884708 0.047747403
0.04152127 0.24481185 0.07947727 0.16534337 0.30216208 0.37193558 0.04043848 0.17435429
0.13886248 0.114710405 0.1746746 0.15581143 0.14027327 0.08414699 0.03408194 0.046227317
0.12530334 0.33956984 0.20986074 0.050600316 0.103934094 0.14563951 0.06558504 0.116054825
0.3212596 0.44538227 0.061709095 0.081916384 0.07812935 0.1721954 0.034665417 0.24174173
0.4746215 0.13390644 0.14910221 0.12063304 0.40218574 0.08300465 0.12554346 0.2480799
0.18015628 0.124038965 0.08505946 0.03366593 0.30607656 0.053317733 0.06010989 0.047174565
00000000: 2145 043f 90c5 033e 0c7f a53e 62e3 893d
00000010: f7cb 6a3e ccda 9c3d d495 943e ccf1 1e3e
00000020: 5692 b93e 1ccb aa3d 2777 333f da65 093e
00000030: 1339 703e 99b0 ec3d 1e1e 1f3d c892 433d
00000040: 3512 2a3d f5af 7a3e fbc4 a23d c64f 293e
00000050: fdb4 9a3e 576e be3e d2a2 253d ee89 323e
00000060: f731 0e3e 4aed ea3d e6dd 323e 088d 1f3e
00000070: cca3 0f3e 4255 ac3d 8199 0b3d db58 3d3d
00000080: 854f 003e 19dc ad3e bce5 563e 4742 4f3d
00000090: 66db d43d 8622 153e 7351 863d 27ae ed3d
000000a0: 237c a43e 2509 e43e adc2 7c3d c7c3 a73d
000000b0: 4802 a03d fe53 303e 53fd 0d3d 258b 773e
000000c0: 9701 f33e c51e 093e 40ae 183e 750e f73d
000000d0: 4aeb cd3e 58fe a93d 778e 003e a808 7e3e
000000e0: e37a 383e 2408 fe3d a733 ae3d 49e5 093d
000000f0: 11b6 9c3e b263 5a3d ca35 763d 1e3a 413d

bn4.bias f4 [64]
-0.004901507 0.030798707 -0.12489068 -0.029329656 -0.056386173 0.28598276 -0.07262365 -0.0632529
-0.024111494 -0.45879915 -0.11050242 -0.16528912 -0.017193949 0.07640392 0.04385312 0.023181535
-0.0033664308 -0.063161425 -0.074695826 -0.15546058 -0.00056668016 0.0104050515 0.038415633 -0.16160744
-0.061011873 -0.065795474 -0.1438252 -0.03019256 -0.13261984 -0.16347718 0.03947284 0.1017828
-0.027944278 -0.03813372 -0.03454971 0.10360518 -0.07940886 -0.08600453 -0.03606869 -0.08096889
-0.027022941 -0.037269596 0.008348354 -0.022999717 -0.02739997 -0.014480818 0.0793874 -0.050270386
0.043481365 -0.06787892 -0.020547286 0.09915516 -0.0016770614 -0.014889648 -0.0063415286 0.0040020514
-0.030430524 -0.11267607 0.022231247 0.10318545 0.0025581094 0.050994996 0.024317853 -0.0131651545
00000000: d29c a0bb 924d fc3c afc6 ffbd bf44 f0bc
00000010: 30f5 66bd 556c 923e b5bb 94bd bd8a 81bd
00000020: 7885 c5bc b9e7 eabe 184f e2bd 8d41 29be
00000030: 53da 8cbc a979 9c3d 549f 333d 34e7 bd3c
00000040: 569f 5cbb c75a 81bd 20fa 98bd 0f31 1fbe
00000050: 438d 14ba f379 2a3c b659 1d3d 6c7c 25be
00000060: 96e7 79bd c7bf 86bd ea46 13be 6356 f7bc
00000070: 7fcd 07be 9066 27be 46ae 213d 8073 d03d
00000080: 66eb e4bc 1b32 1cbd ff83 0dbd f42e d43d
00000090: 1da1 a2bd 2523 b0bd c3bc 13bd 04d3 a5bd
000000a0: 375f ddbc 01a8 18bd 89c7 083c e769 bcbc
000000b0: e775 e0bc f440 6dbc dc95 a23d 52e8 4dbd
000000c0: 8419 323d 1a04 8bbd c852 a8bc dc11 cb3d
000000d0: d8d0 dbba b6f3 73bc 99cc cfbb a423 833b
000000e0: 6f49 f9bc b6c2 e6bd 4e1e b63c e552 d33d
000000f0: f4a5 273b 21e0 503d 3c36 c73c a9b2 57bc

bn4.running_mean f4 [64]
-0.13411549 -0.25383022 0.027265316 -0.5846811 0.08210852 -0.10837247 0.46947396 0.10593611
0.2668598 -0.12437909 0.23297948 -0.45967758 0.14848395 -0.014922241 -0.12515165 0.06817975
-0.6570848 -0.120689526 0.15723911 0.3768612 0.10082199 0.14177568 0.03262211 -0.11847702
-0.14179944 0.023864744 -0.35397816 0.42195365 0.24298455 -0.07138727 0.073766 -0.12138547
0.05810121 0.13411796 -0.20630762 0.11325211 -0.14997888 -0.12372093 -0.09335695 -0.0023538105
0.0845751 0.12844646 -0.23920159 -0.23893917 -0.20089594 -0.15623835 -0.16607358 -0.8327303
-0.20203963 -0.053420257 0.07334464 0.49191877 -0.12076928 -0.014968668 -0.30118954 -0.13785979
-0.32850513 0.30542132 -0.2143384 -0.012807705 0.034205526 -0.43250266 -0.41671163 0.14823237
00000000: 9255 09be 09f6 81be 835b df3c a9ad 15bf
00000010: 8328 a83d 63f2 ddbd e45e f03e 08f5 d83d
00000020: d9a1 883e 77ba febd 2c92 6e3e dc5a ebbe
00000030: 2d0c 183e 6a7c 74bc c127 00be d3a1 8b3d
00000040: b636 28bf 122c f7bd 4a03 213e f4f3 c03e
00000050: c27b ce3d a52d 113e c39e 053d 14a4 f2bd
00000060: df33 11be ff7f c33c a03c b5be 4f0a d83e
00000070: f1d0 783e 7d33 92bd a112 973d f298 f8bd
00000080: 89fb 6d3d 3856 093e 4e42 53be b9f0 e73d
00000090: 1094 19be 6661 fdbd ee31 bfbd 6342 1abb
000000a0: b635 ad3d 7887 033e 43f1 74be 78ac 74be
000000b0: aab7 4dbe f2fc 1fbe 310f 2abe d02d 55bf
000000c0: 7ae3 4ebe 33cf 5abd b735 963d c7dc fb3e
000000d0: e255 f7bd 253f 75bc 8435 9abe 1e2b 0dbe
000000e0: d331 a8be 2f60 9c3e 877b 5bbe 69d7 51bc
000000f0: 181b 0c3d fd70 ddbe 3a5b d5be 3aca 173e

bn4.running_var f4 [64]
0.042261936 0.13528089 0.10132135 0.0640038 0.09789479 0.032071747 0.05502136 0.060158424
0.05263997 0.10797526 0.10436772 0.028304968 0.039267324 0.11420972 0.010772294 0.051350363
0.057387024 0.06223539 0.016423693 0.1280426 0.04294875 0.09272869 0.018590814 0.119483866
0.2344287 0.047368743 0.087903105 0.10029114 0.053624567 0.009764988 0.014420943 0.022855882
0.15339567 0.06592932 0.058709837 0.015752507 0.06430198 0.1316213 0.023700701 0.11621254
0.054841753 0.063974634 0.031850003 0.03533574 0.049241845 0.030052021 0.012895926 0.12613784
0.03296095 0.030834023 0.09697913 0.13626838 0.05790988 0.085009396 0.09678605 0.058050558
0.101743445 0.045902677 0.052489802 0.0136468345 0.07168616 0.044125583 0.049768325 0.023321433
00000000: da1a 2d3d 1387 0a3e 9181 cf3d 6d14 833d
00000010: 107d c83d aa5d 033d 145e 613d ae68 763d
00000020: 029d 573d 2222 dd3d bebe d53d d2df e73c
00000030: c6d6 203d c9e6 e93d 477e 303c c254 523d
00000040: a80e 6b3d 89ea 7e3d fb8a 863c 991d 033e
00000050: 07eb 2f3d 8ae8 bd3d c34b 983c f5b3 f43d
00000060: 140e 703e ba05 423d 8b06 b43d 7165 cd3d
00000070: 6fa5 5b3d 54fd 1f3c d245 6c3c 423c bb3c
00000080: c113 1d3e f405 873d ba79 703d 670b 813c
00000090: c2b0 833d bcc7 063e f927 c23c d700 ee3d
000000a0: bfa1 603d 2205 833d 2675 023d 35bc 103d
000000b0: d1b1 493d a82f f63c 6f49 533c 472a 013e
000000c0: 1002 073d a297 fc3c fe9c c63d f089 0b3e
000000d0: e932 6d3d 6819 ae3d c437 c63d 6cc6 6d3d
000000e0: de5e d03d 7204 3c3d 8cff 563d f996 5f3c
000000f0: 32d0 923d 07bd 343d dfd9 4b3d 970c bf3c
